Copula by Ratio Estimation/2d_exp/model_parameters_NNet_ratio_25_runs_4copulas_2Dexperiment_ok/NNet_ratio_run_21_cop_u_2_ok.pt (torch, 45099 bytes, 5 tensors)

fc_in.weight f4 [100, 2]
000000 30 93 71 be b5 ba 1b bf 99 90 15 bf 63 8e a5 3e
       -0.23591304 -0.6083177 -0.58423764 0.32335195
000010 d8 62 4d be 0f c0 bf 3e 31 66 45 3f b3 48 92 be
       -0.20057237 0.37451217 0.77109057 -0.2857109
000020 34 78 64 be a6 28 30 3f f2 a3 26 3f 22 9e 42 3e
       -0.22311479 0.68812025 0.6509391 0.19005635
000030 97 d0 2f bf 4a e7 47 3e 8c e1 12 3f c5 9f 02 be
       -0.6867766 0.19521824 0.5737541 -0.1275626
000040 a7 6d 9c bd 21 d4 cd 3e 75 5d 89 3e f3 3d 23 3e
       -0.07638102 0.40200904 0.26829115 0.159416
000050 5c 61 0e 3e 5c de 23 3f 52 d1 8f be 9f 54 2a be
       0.13904327 0.6401117 -0.28089386 -0.16633843
000060 fe 63 c7 3e da 96 f5 be eb 48 9b be 4d e4 9f 3e
       0.38943475 -0.47966653 -0.3032907 0.31228867
000070 63 57 0a bf 45 dc d3 3e ae 99 c4 3e 1b 8c 1e 3f
       -0.5403959 0.4137899 0.38398498 0.61932534
000080 49 09 e1 3e 53 10 e1 be 21 0f f7 be 48 a9 20 3f
       0.43952397 -0.43957767 -0.4825373 0.627583
000090 6d ee ef 3e 95 41 4b be fa ef 31 3f cf f2 97 be
       0.46861592 -0.19849236 0.695068 -0.29677436
0000a0 2b ad 9e 3e 52 a2 7d be e2 81 14 bf 1c 8a 0c 3e
       0.30991492 -0.24768952 -0.58010685 0.1372456
0000b0 03 56 d1 bd 0a cb 19 3f d3 9f d7 be bf 32 fe be
       -0.102214836 0.6007544 -0.42114124 -0.4964809
0000c0 6e ee 17 bf 5e 9a 01 3f ba e0 d6 3e e5 5f 00 3f
       -0.5934819 0.5062617 0.41968328 0.50146323
0000d0 36 e7 82 be 7a 5d 2d be 72 e2 bb be e9 52 e1 be
       -0.25567025 -0.1693019 -0.36696202 -0.44008568
0000e0 2c 38 cf bc ea e1 20 3f a3 9d 33 be 5e 30 0b bf
       -0.02529534 0.6284472 -0.17540602 -0.5437068
0000f0 4d 7c ca 3d 1f a9 7d 3d 52 e7 2c 3f a4 12 85 be
       0.0988699 0.061928865 0.67540467 -0.25990784
000100 84 96 ae bd cb cb f7 3e d3 95 ed 3d 32 b0 83 3e
       -0.08524802 0.4839767 0.11600842 0.25720364
000110 c8 cc ae 3e 9a 3f 52 3e c6 0c 04 be 7e 58 ac bc
       0.3414061 0.20532075 -0.12895498 -0.02103829
000120 62 7b 74 3e a3 3e 02 3f e2 c6 51 3e 0d 81 9b bc
       0.23875192 0.50876826 0.20486024 -0.018982435
000130 85 13 eb 3d 9d d1 17 bf b7 bf ee 3e e5 5a 10 bf
       0.114783324 -0.5930422 0.46630642 -0.56388694
000140 6a e4 31 be 72 73 fd 3e e4 56 8a 3e ad bd 01 be
       -0.1737229 0.4950214 0.27019417 -0.12670012
000150 f1 74 3b be a0 3a 1c be 4c cf 10 3f 02 4d 00 bf
       -0.18306328 -0.15256739 0.5656631 -0.50117505
000160 47 7d 1c bf e5 a7 88 3d 1f 96 eb be 0e ae fe 3e
       -0.6112866 0.06672648 -0.4601297 0.49742168
000170 44 76 fe be 6f 9f bd 3e 12 57 04 bf ab f7 81 be
       -0.49699605 0.370357 -0.5169536 -0.25384268
000180 2b 0b 28 3f 65 41 fa be d8 57 ba 3e aa 86 a1 be
       0.6564204 -0.48878017 0.36395144 -0.31548053
000190 32 11 33 bf e4 2f 99 3e d3 d8 2e 3f 63 52 fa 3e
       -0.6994811 0.2991935 0.682996 0.4889098
0001a0 91 5d 02 3f aa b9 79 be 1b d3 bb bc 34 97 17 bf
       0.5092402 -0.24387231 -0.022927811 -0.5921509
0001b0 a9 8b f6 3e cc 29 cf be c8 1e 28 bf 8f 58 c1 3e
       0.48153427 -0.40461576 -0.6567197 0.37762877
0001c0 76 38 de 3d 9f 9b 14 3f 44 04 01 bf ec aa aa 3d
       0.10850613 0.5804996 -0.50397134 0.08333382
0001d0 44 95 a6 3e be a3 2b 3f a9 58 20 be aa 35 43 3f
       0.32535756 0.67046726 -0.15658821 0.7625376
0001e0 09 02 e1 3d 8d 59 00 bf 48 a2 d2 3d 79 41 70 be
       0.10986716 -0.50136644 0.10284859 -0.23462476
0001f0 04 05 de be 61 a7 8b 3e 17 4f 11 3f 54 3a 8d 3e
       -0.43363202 0.27276137 0.56761307 0.27583563
000200 35 27 ee bd d1 eb 6f be fa c4 6a 3e dc 7d ff 3d
       -0.11628572 -0.234298 0.22926703 0.12475178
000210 bc 7f 44 3f 2a 79 fa be e5 f9 bf 3e e5 00 75 be
       0.7675741 -0.48920566 0.37495342 -0.23926122
000220 50 88 c4 bd ee f8 fe 3e 5b d6 b8 be 69 e4 09 3f
       -0.09596312 0.49799293 -0.3610104 0.5386415
000230 16 b1 f0 be 8e 33 c6 be f7 1c 7c bd a8 93 99 be
       -0.47010106 -0.38711208 -0.06155106 -0.29995465
000240 c9 dc e5 3e be 4c 12 3e 4f cf 31 bf 92 c3 42 bf
       0.44895008 0.14287087 -0.6945695 -0.76079667
000250 b5 7e d0 3e 2e 71 1e bf 45 5a c2 be a0 3a 0a be
       0.4072167 -0.6189145 -0.37959495 -0.13498926
000260 76 79 bc 3e 91 b8 85 3e e3 40 5f be 33 2e 32 3f
       0.36811417 0.26117375 -0.21802096 0.69601744
000270 c8 bc 2b 3d 42 e0 fe be e1 c5 34 be b2 28 10 bf
       0.041928083 -0.4978047 -0.1765361 -0.56312096
000280 87 fa 20 3f 43 bd 1f bf 55 9e 81 3e 65 f3 73 be
       0.62882274 -0.62398165 0.2531611 -0.23823316
000290 3f 05 24 bf 32 a3 29 3d 2e 25 93 3e 18 e1 12 be
       -0.64070505 0.0414154 0.28739303 -0.14343679
0002a0 13 8a 22 3f 53 45 01 3f 76 d7 c7 3e 6c 4d 88 3e
       0.63491935 0.50496405 0.3903157 0.26621568
0002b0 e6 11 dd 3e bf b4 f2 be 8b c4 b8 3e 7c f7 06 bf
       0.43177718 -0.47403523 0.3608745 -0.5272138
0002c0 89 7e 18 3f 03 f8 2e bf f6 03 d8 bd fb bf 40 3e
       0.5956808 -0.68347186 -0.105476305 0.18823235
0002d0 3a b9 ef 3e e4 a9 31 be f6 84 86 be 31 7e bc 3e
       0.46821004 -0.17349964 -0.26273316 0.36815026
0002e0 f7 8a fa be 86 68 3d be 66 68 0a 3e 38 06 6f bd
       -0.48934147 -0.18496904 0.13516387 -0.05835554
0002f0 91 a2 18 be e3 74 90 bd b2 ae d7 bd b7 5b c5 be
       -0.14905764 -0.07053544 -0.10531367 -0.38546535
000300 67 c8 0b 3f 57 43 50 3e 43 0d 92 be e4 b8 f2 be
       0.54602665 0.20338188 -0.28525743 -0.47406685
000310 43 81 32 3f 55 cb 03 bf 88 3b 93 3e 5d 9f 83 be
       0.6972849 -0.51482135 0.28756356 -0.25707522

fc_in.bias f4 [100]
000000 df dc d5 3e 1b 70 56 be 28 44 4d be 2d 9a f8 3e
       0.41770074 -0.20941202 -0.20045531 0.48555127
000010 22 78 54 3d 2c a7 34 3f ee 94 d3 3e 05 06 00 bf
       0.05187238 0.70567584 0.41324562 -0.50009185
000020 2d 85 3f 3f 65 c9 99 3d 36 a3 a4 3e 27 f9 34 bf
       0.74812585 0.07509116 0.3215577 -0.70692676
000030 e0 46 65 3e c8 d5 66 be e8 33 41 3e 82 c5 21 3f
       0.22390318 -0.22542489 0.18867457 0.63192
000040 3c fa 02 bf 32 26 28 3f 38 f7 34 be 85 2b ec be
       -0.5116308 0.6568328 -0.17672431 -0.46126953
000050 4f ac c4 3e 63 75 53 bf 1c ba 0e 3d 2a 41 2a 3f
       0.3841271 -0.8260099 0.034845456 0.6650568
000060 6a e3 1d 3f ff c0 46 be c6 bd 79 be f0 2f a2 be
       0.6167513 -0.1940956 -0.24388799 -0.31677198
000070 26 52 f1 3e f3 f3 c0 bd ef 4b 13 3f 04 f2 2b 3f
       0.47132987 -0.094215296 0.5753774 0.6716616
000080 25 14 e7 3c 42 ed cd be 24 f0 f0 be c7 95 1c bf
       0.028207848 -0.40220076 -0.47058213 -0.6116604
000090 02 73 46 3e 0b db 1d 3f b8 e7 30 bf 1a fe 82 be
       0.1937981 0.6166236 -0.69103575 -0.2558449
0000a0 ca ad 32 3f 73 61 e0 be bb c3 19 3f f4 09 e7 be
       0.6979643 -0.43824348 0.60064286 -0.4512478
0000b0 07 6a fa 3e 0c b0 c6 be d2 e3 01 3f 57 14 cc 3e
       0.48909017 -0.38806188 0.5073825 0.39859268
0000c0 13 cc 2b bf 4a 1c 43 3e 12 c1 1a bf 16 c0 05 3e
       -0.6710827 0.1905376 -0.6045085 0.13061556
0000d0 cd 51 52 bf e7 81 4f bf 0a a4 dc be d2 49 30 bf
       -0.8215607 -0.8105759 -0.43093902 -0.6886264
0000e0 45 e9 27 3f a0 a2 68 be e7 ab f7 bd a4 ef 54 be
       0.65590316 -0.22718287 -0.12093335 -0.2079454
0000f0 e3 95 c5 be e2 d5 8c 3e 94 6d 11 bf 35 c3 5e 3e
       -0.38590917 0.2750693 -0.5680783 0.21754153
000100 26 de 31 bf aa 25 b4 3e e2 3e d1 3d 54 ef 4a 3d
       -0.69479597 0.35184985 0.10217072 0.049544647
000110 14 93 14 3f 58 78 1d 3f d7 91 ee 3d ef cd 2a 3f
       0.58036923 0.61511755 0.116489105 0.6672048
000120 2f eb e3 be 1f bb 1f 3f 94 08 8f bd 48 e7 59 bd
       -0.44515368 0.623949 -0.06984058 -0.053199083
000130 3e 27 07 bf 9a fd 2d bf 3a 97 1d 3f bb 1e 02 bf
       -0.52794254 -0.6796509 0.6155888 -0.5082814
000140 6c 18 cf be 4a d6 43 bf 41 01 43 be 67 c1 b9 3d
       -0.4044832 -0.76498854 -0.19043447 0.09070092
000150 c1 82 1d be bd 6e 02 3e 8b 6c 3a 3d af 7b 4e bf
       -0.1538191 0.12737556 0.04551367 -0.80657476
000160 7e dd 94 3e e8 be 88 bd e1 dc 12 3e 60 86 b4 bd
       0.29075235 -0.066770375 0.14342071 -0.088146925
000170 02 7c 04 be e2 1e 04 3f 72 bd f5 3e 5b c4 f0 3e
       -0.1293793 0.51609623 0.47996098 0.47024807
000180 2e 2a 71 3e 87 2a c3 3e 03 3b 81 3d 17 25 d2 bd
       0.23551247 0.38118383 0.06310084 -0.102609806

fc_hidden.weight f4 [100, 100]
000000 0b 7d dc 3d fb f9 1e 3d f7 74 87 3d 73 99 e1 3c
       0.107660376 0.03881262 0.06614106 0.02753899
000010 f1 d2 3e bd f6 9c ce bc 3c f6 28 bd b3 40 1f be
       -0.04658789 -0.02522133 -0.041250452 -0.15552025
000020 17 fa 3d 3d 0d a3 21 3d 7d ff 92 3d 0c b0 54 3e
       0.046381082 0.039462138 0.07177637 0.20770282
000030 ca ca 28 3e 5f 54 99 3d 38 53 3a 3d 66 4a d6 3d
       0.16483608 0.07486796 0.04548952 0.10463409
000040 6f 0d a6 3e c5 a2 97 3d 44 05 bf bd d4 06 4c 3e
       0.32432124 0.07404093 -0.09327176 0.1992448
000050 55 e3 fd bb 11 94 a3 3c e0 19 f3 3c d8 1a a4 3a
       -0.0077480474 0.019968065 0.029675424 0.0012520207
000060 b1 74 33 bd 5e 02 3c 3e b6 e8 00 3d b2 b7 db bd
       -0.043812457 0.18360278 0.03147193 -0.107283965
000070 72 cc ca 3c f8 1a d4 bd 88 fb 09 3e ff b7 a5 3c
       0.02475569 -0.103567064 0.13474858 0.020229338
000080 3d d1 e4 bc f5 3c a9 3d 54 d9 ba 3c 75 4a 99 bc
       -0.027931804 0.0826358 0.022808708 -0.018712262
000090 3c a6 02 3c 37 47 d4 3a f1 44 1a be 9f 33 5a bd
       0.007974204 0.001619554 -0.15065362 -0.053271886
0000a0 78 70 64 3d 00 6d 94 be 9a 4f d8 bd 88 11 94 bd
       0.05577132 -0.2898941 -0.10562058 -0.07229906
0000b0 87 66 b1 3c 12 f9 01 3e 3a 71 34 3d 36 b5 30 3d
       0.021655334 0.12692669 0.044053294 0.043141566
0000c0 cf 21 90 bd fa 5b 22 3e 86 88 fd bd 42 4c 07 3d
       -0.070376985 0.15855399 -0.123795554 0.03303171
0000d0 06 df 19 bf d7 b1 cb 3d 46 e1 ce 3d 6f c4 08 bd
       -0.6010593 0.0994603 0.10101561 -0.03339046
0000e0 6f 84 e3 bd 62 5e d2 bc 7b 14 17 3e a0 39 79 bd
       -0.11109244 -0.02567977 0.14753906 -0.06084597
0000f0 33 97 23 3e 79 5a 0b be c0 2e 89 3e f1 ea 05 3d
       0.15975647 -0.13608731 0.2679348 0.03269476
000100 7f 3e 9e 3c 89 39 80 3c bb 59 11 3d 50 42 17 3e
       0.01931691 0.015652435 0.035485964 0.1477139
000110 b9 44 2e bd d0 2f 76 3d a6 77 f5 3c d8 ac 1c be
       -0.042546008 0.06010419 0.02996428 -0.1530031
000120 b0 d8 80 be da e8 ce bd 00 42 07 3e 0b 9d e0 bd
       -0.2516532 -0.10103007 0.13208771 -0.109674536
000130 cf 61 13 be 70 a6 dd 3d 18 74 0d 3d ff 99 4a 3d
       -0.1439278 0.10822761 0.034534544 0.04946327
000140 ca e5 16 3e 85 18 e7 3d c2 5a eb 39 d3 d4 2a bb
       0.14736095 0.112839736 0.00044890313 -0.0026066795
000150 75 46 8d bd 1d 98 52 3c a7 eb f4 3d ab 29 9b be
       -0.06898204 0.012853649 0.119590096 -0.30305228
000160 f3 7c 49 3d a3 4d e6 3d 2c 88 0c 3e c8 76 bf bd
       0.049191426 0.11245277 0.1372382 -0.093488276
000170 46 87 5d bd e5 22 4a 3d 13 e4 65 3d 4b b2 be bd
       -0.054084085 0.049349684 0.05612571 -0.093113504
000180 78 7d 53 bc 90 8a 90 bd f9 1c 8d bc ad 36 c7 3d
       -0.012908332 -0.07057679 -0.01722573 0.097272255
000190 77 13 c5 bd 41 1f 05 3d 9b 22 3b bd a5 10 cf bc
       -0.09622853 0.03250051 -0.0456873 -0.025276491
0001a0 1d ca 9d 3d 43 d5 38 bc 62 89 18 3e c8 a3 a5 bc
       0.07704566 -0.011281314 0.14896157 -0.020219699
0001b0 c5 9f 29 3d 6c c6 71 3d 1c 19 42 3d 4f 67 47 be
       0.041412134 0.05902712 0.047387227 -0.19473003
0001c0 20 b4 fb bc 44 c8 34 bb 3f 34 db 3c e7 0a 4e 3d
       -0.030725539 -0.0027585188 0.026758311 0.050303366
0001d0 73 62 0c bd ba 88 90 bd 14 04 d4 3c 1f f4 97 bd
       -0.034273576 -0.070573285 0.02588085 -0.07419609
0001e0 01 ae 26 bd 11 68 16 be 4e d0 59 3c d4 03 32 bd
       -0.040693287 -0.14688136 0.013294293 -0.043460682
0001f0 bb db c2 bc 5c 19 58 bd f5 79 96 bd 54 80 7d 3d
       -0.023786416 -0.05275856 -0.0734748 0.06188996
000200 13 e4 96 3d 21 f2 d9 3d 8d 85 88 bd c6 43 5c 3d
       0.073677205 0.106418855 -0.06666098 0.05377557
000210 76 f2 00 be 48 13 f4 3c 78 cb 17 bd 98 e1 e6 3d
       -0.12592492 0.02979435 -0.037059277 0.11273497
000220 2a d9 b6 bd 3e 93 46 3c 72 7d 15 3e e1 80 03 3b
       -0.089281395 0.012120066 0.14598635 0.0020065831
000230 22 66 bb bd 52 99 1e 3d ff 2b c6 3d 42 60 9d 3b
       -0.0915034 0.038720436 0.0967636 0.0048027346
000240 8b a0 98 bc 5c fe 1d 3a 8f 1c d9 3d cc 6d f5 bc
       -0.01863124 0.0006026977 0.1060115 -0.029959582
000250 b8 6b e0 3b f8 3a 63 3c 3b b3 fd 3d 07 ba d2 bc
       0.0068487786 0.01386904 0.12387701 -0.02572347
000260 41 c0 3b 3e db 36 26 bc 8d fd 91 3b 76 d6 be bc
       0.18335058 -0.0101449145 0.0044552744 -0.023295622
000270 e5 09 70 3d 33 b4 96 3d 52 dc d9 ba 0d 20 f1 3d
       0.058603186 0.07358589 -0.0016621447 0.11773691
000280 88 7b e1 bd 7f 03 87 3d df 37 97 bd c0 c6 1d bd
       -0.1100989 0.06592464 -0.073837034 -0.03851962
000290 2b 91 19 be ca c3 e0 3d 2f a6 21 3d c8 82 a4 bd
       -0.14996783 0.10974844 0.039465126 -0.08032757
0002a0 a2 a1 05 3c 9d 1d 96 3d 01 a0 aa 3c 72 d8 b3 3c
       0.008156212 0.07329867 0.020828249 0.021953795
0002b0 8a 5c db 3c 8a e6 94 bd 9f d7 33 bc 14 0d 90 ba
       0.026777525 -0.07270534 -0.010976701 -0.0010990226
0002c0 d7 2f 98 bd f7 ac ef bd 93 0e af 3d 73 f3 6c bc
       -0.07431 -0.11702912 0.08547702 -0.01446234
0002d0 d0 64 58 3d f7 17 33 3d d7 a0 6e bd d8 57 ff 3d
       0.052830517 0.043724027 -0.058258858 0.12467927
0002e0 08 3e 85 3d d2 38 c6 bd b6 fb 23 3c 9c 1d ea 3d
       0.06505972 -0.09678806 0.010008743 0.11431429
0002f0 7d d9 a6 bd bc 40 2a 3d 80 b2 89 3d 83 e8 cc 3d
       -0.08146951 0.04156564 0.06723499 0.100052856
000300 35 3d 3c 3d 74 0e 8d 3c f8 6b 1d bd b7 83 bd 3c
       0.04595681 0.017218806 -0.038433045 0.023134096
000310 cc 85 82 bc 34 e9 7e 3d 24 74 8c 3d e6 13 b3 3d
       -0.01593294 0.06223412 0.068580896 0.0874403
000320 4c ef a9 bd 12 c9 3b 3c e5 c2 d4 3d 76 66 dc 3b
       -0.082975954 0.011461513 0.10388736 0.0067260815
000330 50 98 f0 bd 86 48 0e 3d d7 df 84 3d a8 ca 30 3d
       -0.11747801 0.034737132 0.064880066 0.043162018
000340 18 9c 28 3d 8f 68 b3 3d 2e eb 6a 3a 43 97 2c 3e
       0.041164488 0.08760177 0.0008961436 0.16854577
000350 70 b7 09 bd 7a cb f9 3c be 64 2f bc 6a a1 56 bd
       -0.033622205 0.030492533 -0.010705171 -0.05240003
000360 42 66 96 bd 99 76 ab 3d 7c 60 f0 3c 19 d0 84 3c
       -0.07343723 0.0837223 0.029342882 0.01621251
000370 67 24 a6 bd 80 45 0a 3d 57 b8 cb ba 17 fe 61 bb
       -0.08112412 0.033757687 -0.0015542608 -0.0034483725
000380 da fa 3f bd 26 c6 d5 3d 2c ca ca 3b 91 c0 63 3c
       -0.04687009 0.104381844 0.0061886515 0.013900892
000390 7e 21 f8 bb 60 85 4a 3c d7 31 b5 3a 92 80 18 bd
       -0.007572352 0.012360901 0.0013824058 -0.03723199
0003a0 9f d6 3c bc 52 59 c8 ba 3d 99 79 bd fc 82 74 3c
       -0.011525779 -0.0015285409 -0.060937155 0.014923807
0003b0 11 22 8e 3d e0 f5 3b bd 72 a7 37 3d 30 5a 6d bd
       0.069400914 -0.04588878 0.044837423 -0.057947338
0003c0 a1 c1 47 3d 31 87 20 bd 86 a2 c3 bd 99 d9 b4 3b
       0.048768643 -0.03919143 -0.09552483 0.0055191037
0003d0 62 c5 01 3e ce 35 44 3d f3 9b 95 bd 40 ed ae 3d
       0.12672952 0.047902875 -0.073051356 0.085413456
0003e0 8e e9 3f bd 3b ec 4e 3c f6 bf aa bb 26 4c 1f 3d
       -0.046853594 0.012629564 -0.005210872 0.03889098
0003f0 62 47 15 be 1e c0 d6 3d 6b b6 86 bd c7 10 ad bd
       -0.14578012 0.10485862 -0.06577762 -0.08450466

fc_hidden.bias f4 [100]
000000 47 99 cf bd a1 90 67 3c 33 5a 2e 3d 96 bf af 3d
       -0.10136657 0.014133603 0.04256649 0.08581464
000010 72 4e a4 bd ff 96 3c bd fa d9 4e 3d 45 7f 85 bd
       -0.08022775 -0.04604244 0.050500847 -0.06518415
000020 2d 64 a9 bd f8 e7 a6 3d 6b 34 73 be 2d 3b 82 3c
       -0.0827106 0.08149713 -0.23750465 0.015897358
000030 d6 61 80 bd e9 2b 99 bd 71 9c fd bc 13 9e 13 3d
       -0.06268661 -0.07479078 -0.030958386 0.036039423
000040 c9 05 f2 bd 5c e2 63 bd 31 69 c1 bc 37 03 25 bd
       -0.1181751 -0.055635795 -0.02360973 -0.04028627
000050 2a 68 be 3b 47 47 3e 3d 1c 8b 6f 3d 9b d4 2f 3d
       0.005810757 0.046454694 0.058482274 0.042927366
000060 42 05 8e 3d 1e 75 76 bd 26 82 99 3d 1a dd 2f 3d
       0.069345966 -0.060170285 0.07495527 0.04293547
000070 83 38 a7 3c e7 3d 98 3d 66 f6 f4 3c 8b f4 71 bb
       0.02041269 0.07433682 0.029902648 -0.003691944
000080 00 3d fb bb 8e e2 d7 bd 06 16 b8 bc 33 f8 43 3c
       -0.007667184 -0.10541259 -0.02247144 0.011961031
000090 14 d6 df bd 15 af 9a 3d 53 00 9d bd 83 fd 0c bd
       -0.10929504 0.075529255 -0.076660775 -0.034421455
0000a0 7d 5b 8d 3d ab 7b eb 3d 79 db 76 bd ff 4e 0c 3e
       0.06902216 0.11498197 -0.0602679 0.1370201
0000b0 df af b9 bd d7 43 a6 3c fc a4 95 bc f9 87 3c 3d
       -0.09066748 0.02029602 -0.018267147 0.04602811
0000c0 9e 62 4c 3c 95 54 cf 3d 02 23 8a 3d ed a1 2d 3d
       0.012474684 0.101235546 0.067449585 0.042390753
0000d0 3e 84 aa bd 3e dc eb bc 4b 41 c7 3d c1 ca 30 3b
       -0.083260044 -0.028791543 0.097292505 0.002697632
0000e0 01 19 eb 3c d9 b1 97 bd b9 f6 57 bd d6 7e d6 3d
       0.028698446 -0.074069686 -0.052725527 0.10473411
0000f0 66 82 e0 bc dd af 42 3d 9c b2 3a 3d 81 37 ee 3c
       -0.027405929 0.047530998 0.04558049 0.0290792
000100 cd e3 f0 bd f4 50 41 3d 1d bd d7 bd ca 71 59 bd
       -0.117621996 0.047196344 -0.10534117 -0.053087033
000110 1f de 84 bd 1e b1 48 bd dd 84 9f bd 31 0b c1 bd
       -0.06487679 -0.048997037 -0.077890135 -0.09425963
000120 61 12 27 bd 09 74 ee 3d 1d b3 be bd a3 be 0e bd
       -0.040789012 0.11643226 -0.09311507 -0.034849774
000130 4f b7 07 bc ba c7 ae 3c 4b 93 57 bc 88 cf 6e 3d
       -0.00828345 0.021335471 -0.013157676 0.058303386
000140 70 f1 25 3d 64 f2 96 bd 33 5a 90 bd 75 1b 27 bd
       0.040513456 -0.07370451 -0.07048454 -0.04079767
000150 da 89 55 bd 36 c4 3b 3c 66 e7 77 3c c8 0b 1b bd
       -0.05213342 0.011460355 0.015130853 -0.037853032
000160 0e 4b b2 ba 80 6c cc 3c 9d bc 11 3c 73 b1 de 3d
       -0.001360269 0.02495408 0.008895067 0.108736895
000170 ae 17 aa 3d ef 31 af 3d 1e 5b 85 3c 70 78 90 bc
       0.08305298 0.08554446 0.0162788 -0.017635554
000180 b8 7f bb 3d 65 d9 b9 bb e7 66 31 3c a6 ff 2f bd
       0.0915522 -0.0056716674 0.0108277565 -0.042968415

fc_out.weight f4 [1, 100]
000000 a4 9d 9a 3d ae c7 c9 bd 0e 92 f3 3d 15 b2 e6 3d
       0.07549599 -0.09852539 0.11893092 0.11264435
000010 8f e4 90 bd b9 e0 bb 3d 13 fc 03 be 97 62 1d 3d
       -0.07074844 0.09173722 -0.12889127 0.0384241
000020 63 36 86 3d b8 2f 70 bd e4 c4 3d 3e 33 bc ff 3c
       0.06553342 -0.05863926 0.18532139 0.03121767
000030 0a 94 a1 3d a1 4b 8a bd c4 98 b7 bd 4c a0 f9 3d
       0.07889564 -0.06752706 -0.089646846 0.12188777
000040 c4 5c f8 bd d6 70 05 3e 25 fd 14 be 5f e9 83 3d
       -0.12127069 0.13031325 -0.14549692 0.064409964
000050 64 96 07 3d 8e c2 d1 3d fe d7 2a bc 5e ec 58 bd
       0.033102408 0.102421865 -0.010427473 -0.052959792
000060 f1 24 f0 3d 1f d4 a6 3d 7b 48 b1 3d 27 26 cb bc
       0.11725796 0.08145928 0.08656403 -0.024798466
000070 a5 af ff bd d0 9b d7 bd 82 56 9c 3d 69 44 66 bd
       -0.124846734 -0.10527766 0.076336876 -0.056217585
000080 5f 5c f9 3c 06 6b 1a 3e 29 5f 1b be 73 83 ab bd
       0.030439554 0.15079889 -0.1517302 -0.08374681
000090 f4 cd dd bd 3b 77 d5 3d 3a 2b 77 bd 59 4a db bd
       -0.10830298 0.10423132 -0.06034396 -0.1070754
0000a0 8e 77 b2 3d 08 01 3f be e0 b1 e5 bc 64 f6 07 3c
       0.087142095 -0.18652737 -0.028038919 0.00829849
0000b0 11 f1 df 3d 26 eb 99 bd 90 9c c6 bd 0d 4a 3f bd
       0.10934652 -0.07515554 -0.09697831 -0.04670148
0000c0 4b b6 e2 bd b5 87 b1 3d f1 f4 fa bd 21 7b a3 bd
       -0.11069926 0.08668462 -0.1225375 -0.07982469
0000d0 67 0f 46 bd f9 d3 91 3d f5 1b 16 be 76 49 6e bd
       -0.048354533 0.07120509 -0.14659102 -0.058175527
0000e0 54 5d b1 bd 46 32 d7 3d 40 2a 1a 3e 2a a4 a9 3c
       -0.08660379 0.10507636 0.1505518 0.020708162
0000f0 90 a9 11 3e 23 4f 39 be 23 79 1d 3e 19 6b 85 bd
       0.14224839 -0.18096595 0.15378241 -0.06514568
000100 7e d5 87 3d 72 b3 15 be c1 50 b5 3c 6a 6a 4e 3d
       0.06632517 -0.14619234 0.022133233 0.050394453
000110 41 de 1e be d4 33 e6 bd 7b 90 72 3c f1 2b ac 3c
       -0.1551447 -0.11240354 0.014804955 0.021017047
000120 87 54 19 be 07 4c 9c bd f1 6b b2 bd 87 c8 d1 bd
       -0.14973651 -0.076316886 -0.087119944 -0.10243326
000130 aa a2 bb 3c 74 9c fd 3d bc ee cf 3d 97 d9 0c 3e
       0.022904713 0.12383357 0.10152957 0.13754879
000140 11 53 f3 3d 61 b3 ea 3d 35 63 c7 3d c2 88 08 be
       0.11881078 0.11459995 0.09735719 -0.13333419
000150 78 93 51 bc 2b 25 3b bd 41 02 2f 3c 1f 1c 91 bd
       -0.012791507 -0.045689743 0.01068169 -0.07085442
000160 a5 f3 56 bc c1 a1 e6 bd 42 43 de bc 47 c0 69 bd
       -0.013119613 -0.11261321 -0.02713168 -0.057068136
000170 e0 db 00 3c 8a e2 05 3e d6 5d 06 3e 32 8a b7 3d
       0.007864922 0.13074699 0.13121733 0.089619055
000180 72 01 6a bd 03 69 67 3d 2e bb b1 bd 4f 62 07 be
       -0.057130285 0.05649663 -0.0867828 -0.13221096
