Copula by Ratio Estimation/2d_exp/model_parameters_NNet_ratio_25_runs_4copulas_2Dexperiment_ok/NNet_ratio_run_12_cop_u_3.pt (torch, 45066 bytes, 5 tensors)

fc_in.weight f4 [100, 2]
000000 1a e1 f7 be 32 40 04 3f 44 d3 1c 3f 09 e7 33 3f
       -0.48413926 0.51660454 0.61259866 0.70274407
000010 cb e5 48 be 22 90 1d 3f 8e 58 fb be a9 73 5b be
       -0.19618909 0.61548054 -0.49091 -0.2143084
000020 60 ca 03 3f 22 5f e8 3e 5e 6e bf 3d 43 f0 a5 3e
       0.51480675 0.4538508 0.09347223 0.32409868
000030 67 85 31 3e d5 d6 47 3e 7c 74 dc bd a9 42 bf be
       0.17336045 0.19515546 -0.10764405 -0.37355545
000040 9e e5 bc 3e f8 18 c8 3e 03 01 88 3e 4b e3 1e 3f
       0.36893934 0.3908155 0.26563272 0.6206557
000050 62 a0 06 3f a0 33 34 bf d8 38 41 3f 86 80 48 3e
       0.52588475 -0.70391273 0.7547736 0.19580278
000060 83 51 16 bf 7d 60 2c 3c 7f be 28 3f 8f da 83 3e
       -0.58718127 0.0105210515 0.65915674 0.25752684
000070 c4 60 92 be b1 48 25 bf e1 f2 97 be ba f8 ab 3e
       -0.2858945 -0.64564043 -0.2967749 0.335882
000080 39 ff 2c 3f 9a 60 90 3e cb b3 41 be 1e 53 52 3e
       0.6757694 0.281987 -0.18916242 0.20539519
000090 8e 3c 85 3d 5e 86 04 bf 08 a4 26 3f ee 61 96 bd
       0.065056905 -0.5176753 0.6509404 -0.07342897
0000a0 5d 4b 0f bf 74 41 19 be 7c a1 0a 3e b9 bb 9d be
       -0.5597437 -0.14966375 0.13538164 -0.30807284
0000b0 ec da f0 be 94 c0 0c 3f d9 5c 3d bf bd cc fa 3c
       -0.47042024 0.5498135 -0.739698 0.030615205
0000c0 2a 66 20 bf 9e d2 36 ba f9 29 99 3e bc 3c eb be
       -0.6265589 -0.00069741334 0.29914835 -0.45944774
0000d0 b0 27 30 3d 86 54 af be 0f 74 ef be 56 56 31 3f
       0.0430066 -0.34244174 -0.46768233 0.69272363
0000e0 34 de d2 3d a9 52 09 3f 19 5e aa 3e ca c4 34 3f
       0.10296288 0.53641754 0.33274916 0.70612776
0000f0 27 cf 8d bc 77 d0 14 bf fd 19 9e 3e 87 ac 50 bd
       -0.017310692 -0.5813059 0.30879202 -0.050945785
000100 ac 48 16 bf 0d a9 b0 be 49 19 3c bf b5 13 0c 3f
       -0.5870464 -0.34503976 -0.7347608 0.5471757
000110 3a 21 31 be c9 96 62 be d5 b3 f5 3e 4f 7b 61 be
       -0.17297831 -0.22127832 0.47988763 -0.22019695
000120 f0 1e f2 be 7a 8e f6 3c 85 d2 d6 3e 28 b9 3e 3f
       -0.47289228 0.030097235 0.4195749 0.74501276
000130 53 01 42 3d 04 f8 07 3e 54 cc 0d be a4 e6 a9 3e
       0.047364544 0.13278204 -0.13847476 0.33183777
000140 6e 70 73 3d ce 48 2b 3f 02 ad f0 be 9c 51 17 3f
       0.059433393 0.66907966 -0.47006994 0.591089
000150 0c 4e 96 be 29 82 e0 be 83 cc 39 3e 21 91 2f bf
       -0.2935642 -0.43849304 0.18144421 -0.68580824
000160 87 5c ea be a9 1d c6 3e 3b 64 dd bd de 41 1b bf
       -0.45773718 0.38694504 -0.10810133 -0.6064738
000170 7e 05 73 be 4f cc 14 3f 66 63 90 3e e1 e8 9c 3e
       -0.23732564 0.5812425 0.28200835 0.30646423
000180 e5 6b 26 3d 1e 5c ad be b6 d3 25 be 31 ed 91 be
       0.04063024 -0.33859342 -0.16194043 -0.28501275
000190 15 27 35 3f 61 1d e6 3e c3 17 ab 3e 20 f2 e4 be
       0.7076276 0.4494429 0.33416566 -0.44715977
0001a0 c7 34 ff be 65 c6 2d 3f b9 d8 0b 3f dd 59 2d 3e
       -0.49844953 0.6788085 0.5462757 0.16928811
0001b0 48 f3 09 3f 99 c4 f4 3d 30 50 d0 be 36 48 d6 3d
       0.5388684 0.119515605 -0.40686178 0.10462992
0001c0 a0 fa 17 bf 0c 17 10 bd 12 61 22 3f b3 71 d4 be
       -0.593668 -0.03517823 0.6342937 -0.41492996
0001d0 96 48 43 3e 2d a0 3c 3f 24 56 db 3e 24 73 a8 be
       0.19070658 0.7368191 0.42839158 -0.32900345
0001e0 81 de 2c bf 90 78 fb 3d e6 cd 92 bd 3e b3 65 3e
       -0.67527014 0.12278855 -0.07168178 0.22431657
0001f0 36 b0 00 3e fd d0 0c 3f 97 9c ef be 6b 14 16 bf
       0.12567219 0.5500639 -0.46799156 -0.58624905
000200 dc 1f 27 bf 3b 66 ef 3e ea af 2a 3f 83 fb 1d 3e
       -0.6528299 0.46757683 0.66674674 0.15427975
000210 78 69 50 3f 7d 79 b1 3e 74 b8 8b be 17 29 c6 3e
       0.8141093 0.34663 -0.27289164 0.38703224
000220 7d 40 3e 3f 02 ad bd 3e 1c 9b f5 3e 7e 78 41 3b
       0.7431715 0.37046057 0.47969902 0.0029521282
000230 e7 57 95 be 74 23 f6 3e 61 1a 13 3f 3a 11 65 3e
       -0.29168627 0.48073924 0.57462126 0.22369853
000240 af dd 08 3f 27 26 29 3f 8d 80 dc be 69 d6 36 3e
       0.5346326 0.6607384 -0.43066826 0.17855228
000250 cc 73 37 3f 89 ae 0f bf 71 5d 73 3e 86 74 e6 be
       0.71661067 -0.56125695 0.23766114 -0.45010775
000260 d2 04 1b bf 52 38 d3 be 89 e4 24 3f e2 59 b7 be
       -0.6055423 -0.41253906 0.64411217 -0.35810763
000270 6b 68 40 be f1 0f d1 be 0c 8c 1d 3f d6 b7 e4 be
       -0.18789832 -0.40832475 0.6154182 -0.44671506
000280 07 1e 16 be 4e 64 11 3e b4 80 4c 3e 43 eb 0e bf
       -0.14659892 0.1419842 0.19970971 -0.5582773
000290 56 95 3b be e0 cf 42 3f de 0c b9 be a2 09 30 3f
       -0.18318686 0.7609844 -0.3614263 0.687647
0002a0 af 2c 8c 3e ad 79 4b bd 4a e0 97 3e 77 f4 1e 3f
       0.2737784 -0.049676586 0.29663306 0.62091774
0002b0 0b 75 44 bd 31 c2 c3 3e 0f fe 4a 3e 6f f9 3b 3f
       -0.047963183 0.38234094 0.19823478 0.7342748
0002c0 94 ea e7 3e 46 c7 b0 3d 23 96 fa bd 86 60 e7 be
       0.45296156 0.086317584 -0.122356676 -0.4519083
0002d0 26 e5 fd 3e 74 5f 32 3e b4 90 20 3f 1d f6 cb be
       0.4958889 0.17419225 0.627208 -0.39836207
0002e0 f4 73 91 3d 0c 00 14 be a6 27 5f 3e 0b 97 1d 3f
       0.071021944 -0.14453143 0.21792468 0.615586
0002f0 3a b7 b1 3b c2 ea 05 bf 00 f9 2b bf 0f 4e 96 be
       0.0054234536 -0.52311337 -0.6717682 -0.2935643
000300 64 6e 47 be 9b 53 40 3f 1b 60 ba be 31 fe 69 be
       -0.19475704 0.7512757 -0.36401448 -0.22850873
000310 b1 94 98 be 6e fc f3 3d 45 d4 ed be 9b 4e c9 bd
       -0.29800943 0.119133815 -0.4645101 -0.09829446

fc_in.bias f4 [100]
000000 2d 5f d6 be de 8d 16 3f c4 a4 c6 3d 67 1b af be
       -0.41869488 0.5881022 0.09699395 -0.34200594
000010 40 69 fe 3e d2 f9 12 bf 17 9e ac 3e 67 4a 29 3f
       0.49689674 -0.57412446 0.33714363 0.66129154
000020 ce fa 4c be 06 b2 74 3e b0 b8 12 bf a0 c5 34 bf
       -0.2001755 0.23896036 -0.5731306 -0.7061405
000030 8b fc 8a bd 21 69 11 bd b9 d7 7e be d0 db 6f 3c
       -0.0678645 -0.03550065 -0.24886979 0.01463981
000040 ae 70 08 3c 38 c6 fe be a1 b8 3c 3e 48 bb c5 be
       0.008327646 -0.49760604 0.18429805 -0.38619447
000050 ca 05 33 3f 35 ab 23 3f d8 39 a9 be ec 5a 2f bf
       0.6993071 0.63933116 -0.33051944 -0.6849811
000060 cf 44 2c 3f 1f d9 ff 3e 97 72 fc 3d f3 6f 41 bf
       0.67292494 0.49970338 0.12326544 -0.75561446
000070 e0 fe bf be da 3d 22 bf 35 aa f1 3c 25 d4 09 3e
       -0.37499142 -0.6337563 0.029500106 0.13459833
000080 23 cb 96 3c ea 48 79 be 71 0f 31 bf 07 21 15 bf
       0.01840741 -0.24344221 -0.69164187 -0.5825352
000090 35 ab 79 be 5e a0 75 3c a8 7d 02 3f 92 ba 0d bf
       -0.24381717 0.014991848 0.50972986 -0.5536281
0000a0 90 05 6f 3e 4e 57 ff be 9e 2e b9 3d 05 b6 a4 be
       0.23341966 -0.49871296 0.09042095 -0.3217012
0000b0 71 c6 f0 be 8a b0 db 3d fe 61 62 be 65 5e b5 bd
       -0.470264 0.107270315 -0.22107694 -0.08855895
0000c0 38 b5 89 be 38 a9 48 bf bf 80 a8 3e be a2 17 3f
       -0.2689607 -0.7838321 0.32910725 0.592327
0000d0 d3 b9 bf 3e fd 14 29 be 3f cb ff be 91 48 c3 3e
       0.3744646 -0.16511913 -0.49959752 0.381413
0000e0 de 67 37 3e bc 13 9f 3e 2d c5 e0 3e bf c7 c2 be
       0.17910716 0.31069744 0.43900433 -0.3804302
0000f0 0f 45 27 3f 2f 5a 10 3d f5 4c d8 be 90 1f a9 3e
       0.6533975 0.035242256 -0.42246214 0.33031893
000100 08 ef 11 3f c1 23 99 be bb 06 31 bf 86 b1 20 3f
       0.5700536 -0.2991009 -0.69150895 0.6277088
000110 6a c2 0f 3f 61 ee 2e bf 3f a8 f3 3e c0 a0 af be
       0.5615603 -0.6833249 0.475893 -0.3430233
000120 a1 b9 0a 3f 18 f0 2a bf 05 f3 cc 3e 2b df e5 3e
       0.541895 -0.66772604 0.4002916 0.44896826
000130 64 e2 0c 3f b5 f3 fb be ea 86 8f 3d 4d b8 5d 3e
       0.55032945 -0.4920937 0.07008155 0.21652336
000140 cf 34 35 3f 81 72 7b bd 90 63 b0 be 3c 34 3a 3e
       0.70783705 -0.061388496 -0.3445096 0.18183988
000150 7b 73 1c 3f fc 3d 0a 3f 0e 44 ac 3e a2 ac 18 bf
       0.6111371 0.5400083 0.33645672 -0.59638417
000160 fa fd 15 3f cf df d8 be 90 5a a4 3d 12 73 af bc
       0.5859066 -0.42358252 0.08025086 -0.021417174
000170 d9 75 05 bf d9 29 7a 3e 49 10 84 3d af 62 34 bf
       -0.52132946 0.24430026 0.06448419 -0.7046308
000180 4d ba ae be e4 92 8b be 82 3c 58 be 33 06 3d 3e
       -0.3412651 -0.27260506 -0.21116832 0.18459396

fc_hidden.weight f4 [100, 100]
000000 21 a1 3e 3d 5d 14 be ba 83 7b 94 39 d3 cc 69 bd
       0.046540383 -0.0014501918 0.00028320783 -0.0570801
000010 2e 4d d5 bc e4 76 22 3d 99 78 43 3b 28 9a 96 3d
       -0.026037779 0.039664164 0.002982652 0.07353622
000020 e0 dc 0a bc af 84 83 bd 19 70 bf bd 0e f4 12 3e
       -0.008475512 -0.06421792 -0.09347553 0.14350912
000030 dd 1a db bd 14 84 4d bd ad 93 6b 3d 61 bc 94 bd
       -0.10698483 -0.050174788 0.05751388 -0.07262493
000040 88 83 80 bd 37 b7 44 be 60 e5 37 3d 45 7b d4 bd
       -0.062750876 -0.19210516 0.044896483 -0.10375074
000050 b4 c0 00 be d1 64 06 be f1 d2 2a 3d 2f 26 4f 3d
       -0.1257351 -0.13124396 0.041705076 0.050573524
000060 db 8f a7 bd 6c 77 72 3d 94 22 4b bd e5 6b 73 3d
       -0.08181735 0.05919592 -0.049593523 0.059429068
000070 7c 64 a8 bc cf ba c1 3d 77 29 b3 bd 79 5d 5e bd
       -0.020555727 0.09459459 -0.08748143 -0.05428836
000080 a9 89 ba bc aa b2 41 bd 9b 8e a1 bd ee 09 94 bd
       -0.02277072 -0.047289528 -0.07888528 -0.072284564
000090 12 1b ab bd 24 2c f7 3d e3 0a d8 bd cf 33 2e 3d
       -0.083547726 0.12068966 -0.105489515 0.042529877
0000a0 44 4b ba 3d f9 2b 8d 3c 09 8e 87 3c 49 a2 ee ba
       0.09096387 0.017232882 0.01654722 -0.0018206324
0000b0 83 d3 22 3d 2d 94 a0 bd a5 e5 01 be d7 ca f8 3d
       0.039752495 -0.07840762 -0.12685259 0.12148064
0000c0 e0 9e cc 3d 85 9e 11 3d 37 1f 55 3d 31 be 03 be
       0.099912405 0.035551567 0.052031722 -0.12865521
0000d0 c5 10 8b 3d 67 20 99 3b b8 2f 0b 3e 21 d1 10 3d
       0.06790308 0.004673052 0.13592422 0.03535569
0000e0 1c 71 9a 3b e4 a8 2a 3d 5c 76 8f bd 2c 38 f4 bd
       0.0047131907 0.041664973 -0.07004997 -0.119247764
0000f0 bb 22 ee 3c a6 4c 7c 3d ce f8 a1 3d 4b 05 a1 3d
       0.029069295 0.061596535 0.07908784 0.07862338
000100 8b d7 40 bd 00 e6 9f 3d c6 50 81 3d 7b 0c 1d bd
       -0.047080558 0.07807541 0.063142344 -0.03834198
000110 f6 08 91 3b e1 6d bd bd 8b 08 5f 3d 1d 80 02 3e
       0.004426117 -0.09249473 0.054451507 0.12744184
000120 32 fd 01 3d 3b f1 0f 3d ac 1f 35 3c dc 17 bd bd
       0.031735606 0.035142165 0.011054914 -0.092330664
000130 0a cb 79 3d 3d 94 88 3d 45 8a 12 bd cc be 9f bb
       0.06098465 0.06668899 -0.035776395 -0.0048750397
000140 ae 8f 8b bd 92 5c 09 bc 8a 02 dd bc 22 0b 41 bd
       -0.06814514 -0.008383887 -0.02697875 -0.047129758
000150 c6 9e 20 bd 0f 25 c6 bd 4f e3 96 bc ae 1f 16 3e
       -0.03921392 -0.09675037 -0.018418936 0.14660522
000160 87 a3 99 3d 80 68 dc 3d 6c 57 4b 3d c5 07 8f 3c
       0.075018935 0.10762119 0.04964392 0.01745976
000170 db 7b fb bd c1 6e ba 3d 8d 66 5b 3d 7a 9c 92 3d
       -0.12279483 0.09103156 0.053564597 0.07158752
000180 a7 ca 51 3d 28 a9 28 bc 24 4b d2 bd 20 5e 26 bd
       0.051218655 -0.010294236 -0.10268238 -0.04061711
000190 d7 9a 7f 3d 14 71 0d 3e 61 54 31 3e 01 98 d4 3c
       0.062403526 0.13812667 0.17317344 0.025951387
0001a0 85 5a eb 3d a0 e9 e6 bd ba ff 89 bd 4b c9 10 be
       0.114918746 -0.11275029 -0.06738229 -0.14139287
0001b0 71 c5 0f 3d bb eb 0b 3e 77 05 6d bd 94 5c 66 be
       0.035100404 0.13664143 -0.05786654 -0.22496253
0001c0 fd d4 8f bd f1 c5 d6 bc 31 f3 85 bd 82 db ae 3d
       -0.07023046 -0.026217433 -0.06540526 0.085379615
0001d0 cf 1f 84 3d dc 78 2f 3e 08 ed a5 3c c0 6c 83 bd
       0.064513795 0.17135948 0.020254627 -0.06417227
0001e0 ed 9c e1 bc 76 1f dc bc bd b4 c3 3d 0e b6 a9 3d
       -0.027540648 -0.02687047 0.095559575 0.08286677
0001f0 74 9b cc bd db 2a cc bd 15 da 05 3c 96 e9 2b 3e
       -0.09990588 -0.099691115 0.008169671 0.16788325
000200 24 30 a3 bd 73 80 5c bd 34 59 a8 bd 56 b9 6a be
       -0.079681665 -0.053833436 -0.08220139 -0.22922263
000210 37 9c 41 be c2 d1 5a bc ef 74 31 3d 8b b9 a4 3b
       -0.18907247 -0.013355674 0.043324407 0.0050270013
000220 4c 45 cb bd 14 9b fa 3d b4 e2 f4 bd 9d 06 fe 3d
       -0.09925327 0.1223661 -0.11957303 0.12403605
000230 dc 67 ff 3d 21 c6 27 3e 30 e2 4c bd a4 23 36 bd
       0.124709815 0.16384174 -0.050020397 -0.044467583
000240 bd 78 03 3e 45 38 38 bc 93 36 46 3e 3a db 01 be
       0.12839027 -0.011243884 0.19356756 -0.12681285
000250 ad 28 fb 3d 90 2f 93 3d 81 34 3f bd e9 6e a9 bb
       0.12263618 0.07186806 -0.04668093 -0.005170692
000260 d2 3b ff 3d d2 d8 5b be 6b c7 38 be ce a3 ff 3c
       0.12462582 -0.21469429 -0.18044822 0.031206038
000270 37 20 31 bd 19 e5 1d bd f8 23 02 3d 8f 45 8d 3d
       -0.043243613 -0.038548563 0.031772584 0.06898033
000280 b1 a5 26 bd 6e ee 9c 3d d7 33 64 bd 30 96 0b be
       -0.04068536 0.07662664 -0.0557135 -0.1363151
000290 d4 3b 2b 3d 1d 2c ca bd c2 c2 92 3e 2d 7c 11 3d
       0.041805103 -0.09871695 0.28664213 0.035518814
0002a0 f4 5c eb bc 5b 44 cf bd d0 b3 a5 3d e2 e1 64 3c
       -0.028730847 -0.1012046 0.08090937 0.01396987
0002b0 89 d5 a8 bb 21 f1 09 3e 78 67 ea bd 36 f6 14 3c
       -0.0051524085 0.1347089 -0.11445516 0.009091904
0002c0 81 8a 58 bc 18 3d c1 bd 2a 4d b0 ba 38 bb 56 bd
       -0.013216616 -0.09435481 -0.0013450731 -0.05242464
0002d0 b7 36 2d 3b f2 d1 4f 3d 4b fc ed 3d 89 8c a2 3d
       0.0026430318 0.05073733 0.11620387 0.07936961
0002e0 6f e5 c9 bc 20 70 34 3d 4e f0 6a 3b aa a7 2d bd
       -0.024645535 0.044052243 0.00358488 -0.042396225
0002f0 ee 8a 2c 3d 58 b9 82 bc e5 22 83 bd 29 3a 35 be
       0.04212468 -0.01595752 -0.0640314 -0.17697968
000300 86 13 9c 3c 2e 6e b1 3d 4b 70 c0 bd 34 e7 2d 3e
       0.019052278 0.08663593 -0.09396418 0.16982728
000310 aa fc 81 3c cc 35 fe 3d d2 44 c9 3c 83 47 98 3d
       0.01586755 0.12412605 0.024568949 0.07435515
000320 77 fd 5c 3d 56 51 0c 3d f3 e4 fe 3c 10 49 35 3d
       0.05395266 0.034257255 0.03111503 0.04425913
000330 15 18 7d bd 2d 10 ef 3d 32 1a 3b 3e 01 a7 41 3d
       -0.061790545 0.11673007 0.18271711 0.047278408
000340 45 69 ce 3d 11 35 f3 bc 89 36 57 3d 7b ea 21 3e
       0.10078672 -0.02968839 0.052542243 0.15812103
000350 ce 4f 9a 3d 64 e8 0b 3b 7c d1 1a be ae 06 22 be
       0.07534753 0.0021348232 -0.15118974 -0.1582286
000360 41 3a 3f 3c 7e 73 7b be dc 5e 79 be 86 ee 77 3d
       0.011671604 -0.24555776 -0.24352592 0.060530208
000370 b9 04 18 bd bc e3 c9 bd 60 e5 a6 3d ad a4 bc bd
       -0.03711388 -0.0985789 0.081492186 -0.09211097
000380 23 ce fa 3d ab e6 ab bc 6a e4 3c be cc e1 50 be
       0.12246349 -0.020984014 -0.18446508 -0.20398635
000390 54 40 a0 3d 2b 92 02 3e 72 5c 3e be d7 64 1b 3e
       0.078247696 0.12751071 -0.18589953 0.15175186
0003a0 f3 2b 50 bc 9f 87 f4 3d d3 41 d6 bd e1 a1 cb 3c
       -0.012705791 0.1193993 -0.10461774 0.024857463
0003b0 47 70 80 bc 75 8a 71 3c b6 8f 6e bc ab a6 fb bd
       -0.015678538 0.014742483 -0.014560631 -0.12287649
0003c0 e5 82 d6 bd 9a 51 71 bd 02 64 bb bd c7 b0 96 be
       -0.10474185 -0.058915712 -0.09149934 -0.29431745
0003d0 2e 85 1e 3d c6 91 3d be 10 2e 79 bd 27 59 68 bd
       0.03870123 -0.1851264 -0.060834944 -0.056725647
0003e0 fe 8a 97 3d 42 c8 f9 bd 55 37 f0 3b b2 97 32 3d
       0.073995575 -0.12196399 0.007330815 0.0436017
0003f0 94 c4 2e 3e ab f5 6b 3e a4 d9 0d 3e 9e 3c 2f 3d
       0.17067176 0.23042934 0.13852555 0.04278242

fc_hidden.bias f4 [100]
000000 a3 e2 dd bd 56 a2 18 be 33 af 28 bd a9 75 df 3b
       -0.10834243 -0.14905676 -0.041182708 0.006819446
000010 88 07 a7 bd 70 40 d5 3c b7 66 0b be 23 e1 e6 bd
       -0.08155733 0.026031703 -0.13613401 -0.1127341
000020 69 d4 e5 bc e8 bb 18 3a 84 64 be 3d 6d 4d cc bc
       -0.028055387 0.000582634 0.092965156 -0.024939263
000030 74 db 32 3e d4 1d 64 bd b6 b9 fa bc 55 ce aa 3d
       0.17466527 -0.05569251 -0.030606132 0.08340136
000040 c5 09 8f bb 3c d3 38 bd 2f bc cf 3d c6 9e 5b bc
       -0.0043651783 -0.045123324 0.10143315 -0.013404554
000050 33 20 b5 bd 16 2f c1 3c c6 52 7a 3c 78 1a 53 bc
       -0.08844032 0.023582023 0.015278524 -0.012884729
000060 e1 0d 5d 3d de b6 eb 3c 99 d9 ce bd 2f e3 38 3d
       0.053968314 0.028773721 -0.10100097 0.045138534
000070 56 44 e3 bd 2b 75 f9 bd 6b 74 52 3d da 63 d2 bc
       -0.110970184 -0.12180551 0.051380556 -0.025682379
000080 c6 64 da 3d b2 ee 68 3c 70 a2 02 3d f7 06 76 bd
       0.10663752 0.014217066 0.031893194 -0.060065236
000090 1d 0d 75 bd 1d 28 8a bd f0 fd ba 3d 52 cd 50 3d
       -0.05982696 -0.06745932 0.09130466 0.05097706
0000a0 93 79 12 3d bb 0d 70 3d e0 d2 c2 bd 0d 16 0c bd
       0.035760473 0.058606844 -0.095128775 -0.034200717
0000b0 79 46 8e bd eb 6b 0b bc 44 78 c5 bd 96 db 25 bd
       -0.06947035 -0.008509616 -0.096420795 -0.040492617
0000c0 ad d5 82 3c 05 2d 08 bb 08 eb 24 bd 8c e3 62 3d
       0.01597103 -0.0020778787 -0.040263206 0.055392787
0000d0 09 af 93 bd ee f8 06 be 1a 97 a9 3c 9d aa 57 bd
       -0.0721112 -0.13180897 0.020701934 -0.052652944
0000e0 0b 64 8d bd 5e 8d 91 bd 78 c2 2f bd 17 6b 8b bd
       -0.06903847 -0.07107042 -0.04291007 -0.06807535
0000f0 8c ed a2 3d 9e 20 a4 3c f5 a8 20 bd 8b f8 e2 3d
       0.07955465 0.020035084 -0.03922363 0.11082562
000100 b0 42 82 3d 2e 53 38 bd fd 55 ba bd e4 5b 9d bc
       0.06360376 -0.0450012 -0.09098432 -0.019208856
000110 61 8f 90 3d 37 76 b5 3d 9f 8b 8c bd ed 02 d5 bd
       0.07058597 0.08860438 -0.06862568 -0.10400949
000120 09 c3 9e bd 36 2b 7e bc 85 09 02 bd d1 b4 95 ba
       -0.07752044 -0.015513232 -0.03174736 -0.0011421685
000130 fb f7 31 bd f9 9f cf 3d 70 71 f3 bc 80 b3 e2 3d
       -0.043449383 0.10137934 -0.029717177 0.11069393
000140 95 db cc bd 9c d4 ac 3d 52 e0 96 3a 69 93 4a 3a
       -0.100028194 0.084389895 0.0011510944 0.00077276543
000150 38 23 07 bd 64 db 8d bd 65 af 88 bd 09 66 29 bd
       -0.03299257 -0.06926611 -0.06674079 -0.041357074
000160 d2 ff 93 bb 0a 80 c2 bc 8c fb d2 3d bb fb b4 3d
       -0.00451658 -0.023742694 0.10301885 0.08837076
000170 80 28 d6 bb cf 15 25 3e 50 96 d4 3c 6f 73 6e 3d
       -0.0065355897 0.161216 0.02595058 0.058215555
000180 67 49 a6 bd 71 73 3e 3c e1 10 01 bb c8 f2 ff 3c
       -0.08119469 0.011624203 -0.0019693899 0.031243697

fc_out.weight f4 [1, 100]
000000 c3 53 f0 bd 20 53 ce 3c 29 b8 a3 bd 42 2b 09 be
       -0.11734726 0.025186121 -0.0799411 -0.13395408
000010 4a 88 b9 bd 14 23 56 be f3 36 b9 bc 9c ac d3 bd
       -0.09059198 -0.20911819 -0.02260921 -0.10335657
000020 2d 2e 10 be da 4f c6 3d 57 6c 1b be 1e 0f a6 3c
       -0.14080115 0.09683199 -0.15178047 0.02027088
000030 f4 3a ac bd 2d 65 dc 3d ee 44 2c 3e 69 a5 b4 3d
       -0.08409682 0.10761485 0.1682317 0.08820612
000040 26 79 c3 3d cf eb 00 3e 62 35 1c 3d 72 9c e7 bd
       0.095445916 0.12589954 0.038136847 -0.113091365
000050 a0 8f 92 3d d0 70 b4 3d b0 17 04 be dd 07 6b 3d
       0.071563005 0.0881058 -0.12899661 0.057380546
000060 cf 49 d7 3c b6 47 ae bd 4f a3 bb 3b aa 66 ff 3d
       0.026280312 -0.085097715 0.005726255 0.124707535
000070 7f f3 f3 bd e2 fc e8 3c 35 56 13 be 70 ce f3 bd
       -0.119116776 0.028440896 -0.14388354 -0.11904609
000080 31 dd af bd 64 e7 04 be 0d 96 73 3d bd 0e 18 3e
       -0.08587111 -0.12978894 0.05946927 0.14849372
000090 65 e6 a8 bc c3 73 1d 3d c3 5a 06 be 1a 9e bc bd
       -0.020617673 0.038440477 -0.1312056 -0.09209843
0000a0 07 c5 cd 3d 7e 4f 8e 3d 2c 4c 31 bd 99 97 ec bd
       0.100473456 0.06948756 -0.043285534 -0.115523525
0000b0 44 19 f7 3d f7 43 04 3e db 8c 5d be ac 37 99 bd
       0.12065366 0.12916552 -0.21635763 -0.07481322
0000c0 4c e6 2e be 25 eb e7 bc f2 f9 82 3d 0e 14 e9 bd
       -0.17080039 -0.028310368 0.063953295 -0.11380778
0000d0 ab 18 96 3d f9 10 e5 bd 92 1c f0 bc 6d a3 ff 3d
       0.07328924 -0.11184878 -0.029310498 0.12482343
0000e0 9f 18 b4 bd a7 c5 cc bd 47 c9 2b bd 99 5a a1 bc
       -0.087937586 -0.09998637 -0.04194 -0.01969652
0000f0 c2 37 9b 3c 14 a7 05 be 8d d7 2a 3e 66 ea 88 3d
       0.018947486 -0.13052016 0.16683789 0.06685333
000100 8a c9 15 bd 60 2d 83 3d 03 19 a5 3c 59 a9 92 bd
       -0.036569156 0.06405139 0.020153528 -0.07161207
000110 12 4b e8 3d ca a1 02 3e 33 77 3e 3c 49 b3 19 be
       0.113424435 0.1275703 0.011625099 -0.15009798
000120 b2 e3 70 bd 42 a6 cf 3b a2 ea 58 bd 53 52 72 bd
       -0.058810897 0.006336958 -0.05295814 -0.05916054
000130 66 84 09 bd 34 15 41 be 99 76 72 bd 7e 9d 8d 3d
       -0.03357353 -0.18855745 -0.059195135 0.06914805
000140 6b 95 93 bd 9d 7e 04 be 94 cc f7 3d 5b c9 b9 bd
       -0.072062336 -0.12938924 0.12099567 -0.09071609
000150 c4 95 16 3d 38 95 c0 3d 4b 20 f1 3d 49 3b 16 3a
       0.03676392 0.09403461 0.117737375 0.000573088
000160 7f 5e c0 3d 52 72 29 be 18 25 af bd 43 2e a9 bd
       0.09393024 -0.16547516 -0.08551997 -0.08260777
000170 be 63 b4 3d d4 12 b7 bd ec 72 2f be 65 7c f0 bd
       0.08808087 -0.08939138 -0.17133683 -0.117424764
000180 d4 97 a8 ba 8f c2 5d be e2 23 8d 3d f1 38 e0 bd
       -0.0012862631 -0.2165625 0.0689161 -0.10948361
