Copula by Ratio Estimation/2d_exp/model_parameters_NNet_ratio_25_runs_4copulas_2Dexperiment_ok/NNet_ratio_run_13_cop_u_2.pt (torch, 45066 bytes, 5 tensors)

fc_in.weight f4 [100, 2]
000000 1b fc f3 bc 8b 34 78 3e 18 45 bd 3e 75 b1 b3 3d
       -0.0297833 0.24238794 0.36966777 0.087740816
000010 5b b5 17 3f cc 7c 91 3e 2e 6e b7 3e b7 f0 d0 3d
       0.592611 0.28415525 0.35826248 0.10202163
000020 7b fb e3 3e d9 ce 88 3e 91 c9 08 bf 1e 9e 1a bf
       0.44527802 0.26720312 -0.53432566 -0.6039752
000030 3a d8 cc 3e 85 5e c1 3d 6b 75 18 bf 70 a3 11 bf
       0.40008718 0.09441856 -0.59554166 -0.5689001
000040 71 7a d1 3e f4 17 6b 3e b8 a6 e6 bd 13 0e 00 bf
       0.40913728 0.22958356 -0.11262268 -0.50021476
000050 85 e2 3b be 92 35 e0 be 26 1c b8 3e 5d e9 3b 3f
       -0.18348129 -0.4379087 0.35958976 0.7340296
000060 81 a0 78 3e da 40 94 3e 09 d3 32 be be 89 d5 be
       0.24279977 0.28955728 -0.17463316 -0.4170665
000070 d9 78 c0 3e b8 53 88 be 55 28 7c bd 8c d4 dd 3e
       0.375922 -0.26626372 -0.0615619 0.43326223
000080 88 0a 48 bf 13 03 79 3d f3 8c e1 3e 9a 5c b5 3e
       -0.7814107 0.060793947 0.44052848 0.35422212
000090 cb 64 98 bd ba a8 18 3d 6a e9 a9 3e 1d 19 0a 3d
       -0.074411 0.037270285 0.33185893 0.033715356
0000a0 ed 06 16 3e b0 70 2b bf d7 b0 1f bf 30 27 3b 3f
       0.1465108 -0.6696882 -0.6237921 0.7310667
0000b0 96 ab 31 bf 95 89 27 bf b6 f7 b4 3e ef 54 eb be
       -0.69402444 -0.6544431 0.35345238 -0.45963237
0000c0 e9 f5 b7 be be 77 bf 3e ad 2e 02 3f b5 83 01 3f
       -0.35929802 0.37396044 0.5085247 0.50591594
0000d0 e2 67 ac be 2a e8 c8 3e 07 c0 22 3e f0 6d 23 be
       -0.33673006 0.39239627 0.15893565 -0.15959907
0000e0 ec 7f 05 be 7e 12 30 bf f3 b6 bf be 11 12 28 3f
       -0.1303708 -0.68778217 -0.37444267 0.6565257
0000f0 a3 c4 34 3e ef 31 9c 3e 76 30 f6 be 9d 20 cc be
       0.17653136 0.30506846 -0.48083848 -0.39868632
000100 d7 d3 0e 3f 1a d8 4f bd 7d bf bf 3e 06 38 07 3f
       0.5579199 -0.0507432 0.3745078 0.5281986
000110 06 82 8b be e5 6f 09 bf 73 84 0b 3f fe 6a 40 3f
       -0.27247638 -0.5368636 0.54498976 0.7516326
000120 89 95 19 3f c4 54 18 bf e2 3a 03 3e 17 e0 2f 3f
       0.599938 -0.5950434 0.12815431 0.6870131
000130 ff c0 1b 3d 49 3c 01 3f bf 04 9d 3e f8 5e 37 bf
       0.038025852 0.5048261 0.30667683 -0.71629286
000140 ee 47 18 be 81 b1 8a 3e 60 4e 01 bf b2 a1 5d 3e
       -0.14871189 0.2708855 -0.50510216 0.21643713
000150 fe 99 ee be 0e 5e fc 3e 53 cb b4 be ab 79 c8 be
       -0.46601862 0.49290508 -0.35311374 -0.39155325
000160 5a 9b dd be 57 5b f9 be 1e b3 37 bf 12 78 e9 bd
       -0.43282586 -0.487025 -0.71757686 -0.11399855
000170 ac c1 b4 3e c3 46 19 bf 56 af e7 3e 1d 97 f3 3e
       0.3530401 -0.598736 0.45250958 0.47576228
000180 89 89 dc 3d 89 3c 2e bf 23 c1 1c 3f 0d ed 05 be
       0.1076842 -0.6806112 0.61232203 -0.13078709
000190 89 2e ea 3e 86 db f8 be c3 04 0b 3f 3e 0b d0 3c
       0.45738629 -0.48604983 0.5430414 0.025395986
0001a0 59 b9 17 bf 24 2e 31 3f 96 06 dc be 72 f0 76 be
       -0.59267193 0.6921103 -0.42973775 -0.2411516
0001b0 ce 07 37 be 38 cb 13 3e 4a 56 2e bf e1 17 46 bd
       -0.17874071 0.1443299 -0.68100417 -0.048362616
0001c0 37 30 c5 be 44 02 40 bf 86 df a8 3e 91 4d 19 bf
       -0.38513348 -0.7500346 0.32983035 -0.5988398
0001d0 bd e0 45 3e 76 36 17 bf 31 52 10 3f 97 51 24 bf
       0.19324012 -0.59067476 0.56375414 -0.64186996
0001e0 2b 8a 18 3f f2 04 3b 3f d9 f6 fb 3e d5 23 db bd
       0.5958583 0.7305442 0.49211767 -0.10700194
0001f0 53 c7 13 bf 0b fb 5c 3d 7a 59 9f be 3a e3 bd be
       -0.5772602 0.05395035 -0.31122953 -0.37087423
000200 4a fe 09 be 54 5a 80 be 55 41 b6 3e 25 4e 20 bf
       -0.1347591 -0.25068915 0.3559672 -0.6261924
000210 4f 42 a7 bd dd 0e 1e 3f 3f 34 ee 3e 48 0e 6b be
       -0.08166944 0.6174143 0.46524236 -0.22954667
000220 38 fc b9 3e 91 37 85 bd 12 bb 21 bf 2e 19 e0 be
       0.3632524 -0.06504739 -0.6317607 -0.4376921
000230 ee 3a 93 bd 05 81 1c be ef 96 c1 3d 62 99 03 3f
       -0.07188974 -0.15283592 0.094526164 0.5140592
000240 67 f7 11 bf 05 c7 b7 bd a6 ab 94 3e 37 90 e9 3e
       -0.5701813 -0.08973507 0.29037207 0.4561784
000250 62 9d 36 3f 10 97 77 3e 3b f8 b9 3e 59 e0 d3 be
       0.713339 0.2417872 0.36322197 -0.413821
000260 f4 3f 9b be 95 a8 61 be a4 23 d8 3e 17 61 5e 3e
       -0.3032223 -0.22036965 0.42214692 0.21716724
000270 1f d8 1b 3f d7 88 04 bf 01 73 07 bd b9 f6 02 bf
       0.6087665 -0.517713 -0.03306866 -0.5115772
000280 f8 e8 c8 3e 76 db aa be ec d7 23 3e 8f f2 0c bf
       0.3924024 -0.3337056 0.16000336 -0.55057615
000290 2d a0 22 3e 96 6e 09 3e 14 53 a4 3e c3 67 31 be
       0.15881415 0.13421091 0.32094634 -0.17324738
0002a0 6a 99 86 be 81 b0 80 be 1c af 19 bf a1 7b 3d 3e
       -0.2628892 -0.25134662 -0.6003282 0.18504192
0002b0 c9 8b 2c 3f 6f 03 db 3d 68 20 37 bf 1b f9 e1 39
       0.67400795 0.10694014 -0.71533823 0.00043100942
0002c0 80 5d 1b 3f ab 61 05 bf 69 dd 12 bf c5 4b cb 3e
       0.60689545 -0.52102154 -0.57369095 0.39706245
0002d0 cc 51 f2 be d6 22 27 3f 94 dc 30 3f ae 68 78 3d
       -0.4732803 0.6528753 0.69086576 0.060646705
0002e0 5d 57 2a 3d e2 81 9c bb c5 cd 0b 3e 9b 32 3e 3c
       0.041587222 -0.0047762254 0.13652714 0.011608745
0002f0 d6 38 0b bf e1 0f 20 3f 5f b1 92 be 40 69 b3 bd
       -0.543836 0.6252423 -0.28650948 -0.08760309
000300 2b 91 83 3d 5d 81 13 3f 37 07 2f 3f 36 11 e9 3e
       0.06424173 0.5761927 0.68370384 0.45520943
000310 c8 3e 5b 3d 34 ce f1 3e d1 1b c3 3e ce d9 b6 be
       0.05352667 0.47227633 0.3810716 -0.35713047

fc_in.bias f4 [100]
000000 77 b1 1c 3f a6 07 bc be dc 4b 96 be b5 98 35 3f
       0.6120829 -0.36724585 -0.2935475 0.7093614
000010 ca a6 0d 3f 40 3c 44 3e 53 f7 cb be bc 54 20 bf
       0.55332625 0.19163609 -0.3983713 -0.62629294
000020 a5 90 0c 3e 23 4b 24 3f 0e da 2b bf 6e a3 95 3e
       0.13727053 0.6417715 -0.671296 0.2922625
000030 d8 cc 2c bf a7 60 78 bd 03 4d b2 be 13 8a 9f be
       -0.67500067 -0.06063905 -0.3482438 -0.3116003
000040 81 76 25 bf 66 3b 26 bf 1f fb ba 3e c4 19 90 3e
       -0.6463395 -0.64934385 0.36519715 0.28144658
000050 52 cb 38 3f 71 92 00 3f ee 86 01 3f 9e 66 4c be
       0.7218524 0.5022345 0.5059651 -0.1996102
000060 bc 6e 02 3f 57 77 61 3c 10 c4 fb be 85 94 92 3c
       0.5095022 0.013761363 -0.4917302 0.017893085
000070 53 bd 31 bf 40 07 bd be 40 02 7d be d2 bb 91 3e
       -0.6942951 -0.36919594 -0.2470789 0.28463608
000080 47 1f 6f be ea c4 ef 3e 03 aa 63 bf ce 2c 0e 3f
       -0.23351775 0.4682992 -0.8893129 0.55537117
000090 7e 49 49 be d7 f5 30 3f 64 95 31 3f fd e5 3d 3c
       -0.19656941 0.6912512 0.69368577 0.011590478
0000a0 ff b3 ad 3e 48 14 15 3f bb 09 e8 be 4d 8b 30 3f
       0.3392639 0.5823407 -0.45319924 0.68962556
0000b0 69 53 1e 3e 95 11 e0 bd 96 5b 7b be bf 38 20 be
       0.15461506 -0.109408535 -0.24546656 -0.15646647
0000c0 d8 9c 84 3e ae 0f 46 bf ed 0c 2b 3f b0 65 f6 bd
       0.25900912 -0.77367675 0.668166 -0.12031114
0000d0 21 f6 6e bc 1a 4c 05 bf 40 55 f1 3e 9c c9 2b 3f
       -0.014585049 -0.52069247 0.47135353 0.67104506
0000e0 ae 97 0a bd ce 17 4d be 58 b9 09 bf 0a f6 1b 3e
       -0.03383606 -0.20028612 -0.5379844 0.15230575
0000f0 6f ca 08 bf 45 22 1f bf ff a5 d4 be d3 30 0e 3f
       -0.5343389 -0.62161666 -0.41532895 0.5554325
000100 8c 2d 41 bf cb ba 3a 3f cf e1 03 3f 82 fe 19 bf
       -0.75460124 0.72941273 0.5151643 -0.60153973
000110 c7 27 ef be 02 01 c7 be f0 ff e5 be 97 af 16 bf
       -0.46710035 -0.38867956 -0.44921827 -0.5886168
000120 f3 a4 b1 3e 4b c7 e1 bd 89 8f f3 be 4d 7c 49 bd
       0.3469616 -0.1102434 -0.47570446 -0.049190808
000130 25 e5 01 bd 4e ed 02 bf 13 ba 10 3f 4e 98 1f bd
       -0.03171267 -0.5114335 0.56533927 -0.03896361
000140 9f e4 36 bf 7d 07 1e bf 57 9d 74 be 6f 77 d1 be
       -0.714426 -0.61730176 -0.23888145 -0.40911433
000150 6e ac 9d 3e 09 0e e7 3d 6d f7 e2 3d 50 5b e5 3c
       0.30795616 0.11281974 0.11082349 0.027997643
000160 8f 39 48 be 4e 51 42 3d 0d c0 1d be cb 4d 84 be
       -0.19553207 0.04744082 -0.15405293 -0.258406
000170 c8 36 22 3f 9d ab d8 3e 60 39 e3 3c da fe 39 bf
       0.6336484 0.4231843 0.02773732 -0.726545
000180 06 f0 31 bf e8 7d 14 be 7a b0 00 3e c6 fa 83 3e
       -0.6950687 -0.14501154 0.1256732 0.25777262

fc_hidden.weight f4 [100, 100]
000000 c5 26 36 3d 45 44 6c bd 03 27 c5 3c ab ca 7a 3d
       0.044470567 -0.057682294 0.024066454 0.061228435
000010 3c b7 fd bc 30 c9 ab bd 71 8a c1 3c 06 03 51 3c
       -0.030971162 -0.08387983 0.023625584 0.0127570685
000020 bf 03 a9 bc 33 e0 62 3d 82 f8 d4 3b f4 d3 8e bc
       -0.02063167 0.055389594 0.006499351 -0.017435052
000030 b2 ef 7b bd 2b 7c 40 bd 28 93 11 bd 00 e3 47 bd
       -0.06150789 -0.046993416 -0.03554073 -0.04880047
000040 80 f1 11 bd a2 b4 3c 3d 9f 30 9e 3c bd d9 89 3c
       -0.035630703 0.046070702 0.019310294 0.016827459
000050 0c 7d 0b 3e d5 4a e7 3c c1 f7 86 3d 8a 06 87 3d
       0.1362192 0.028233925 0.06590224 0.06593044
000060 a9 5a 9b 3d e0 77 0b 3d a7 21 0a bd 21 e6 cd 3d
       0.075856514 0.03404987 -0.0337235 0.10053659
000070 71 2f 2d bd 5d 68 bb bd d5 34 d8 3d b6 b5 b9 3d
       -0.04228157 -0.09150765 0.10556952 0.09067862
000080 cb 2b 67 3d f4 2e 14 bc 9f 10 15 bd b5 55 6a bc
       0.05643825 -0.009044398 -0.036392804 -0.014302661
000090 fc 85 6d bc bd c3 95 3c 29 a6 36 bc 25 7f 96 3d
       -0.014497276 0.018281812 -0.011148014 0.0734847
0000a0 d2 7c 34 bd 19 e7 c0 3d 2f 73 ed 3c 5d b2 a3 3d
       -0.04406435 0.094190784 0.028985588 0.079930045
0000b0 e0 5f 01 3d 4e d5 10 3c d3 ab 47 3d 90 92 06 bd
       0.031585574 0.008839918 0.04874785 -0.032854617
0000c0 a6 3d b3 3d 83 ab b9 3d f1 6a 5a bd 00 37 95 bd
       0.08751993 0.090659164 -0.053324644 -0.07285881
0000d0 1f ee bf 3d 30 72 93 bd 83 b3 62 3d 5a 2f 48 3d
       0.0937159 -0.07199514 0.055346977 0.048873283
0000e0 7f 07 d1 bd 8a 9b 47 3d 79 93 46 3d d7 ad 89 bd
       -0.10206508 0.048732318 0.048480485 -0.067226104
0000f0 66 53 c3 3d 46 e9 4c 3d 95 5e 90 3d fd 50 89 3d
       0.09537391 0.050027154 0.0704929 0.067049004
000100 56 78 03 be 8a 60 9d 3d 35 c4 4b bd 88 cb 0e 3e
       -0.12838873 0.07684429 -0.049747664 0.13944829
000110 00 e0 40 3d 46 09 99 3c c8 bf 09 bd 24 ed 03 3e
       0.047088623 0.01868118 -0.033630162 0.1288343
000120 93 4c 19 bd c9 8c 80 bb 6d 6d b7 bd b9 2d d0 bc
       -0.037426542 -0.003923033 -0.08956418 -0.025412427
000130 de ef 2b bd b6 ff 8d 3d 26 04 a9 3d e7 ec d0 bc
       -0.041976802 0.069335386 0.082527444 -0.025503589
000140 00 44 85 3e 29 36 c8 3c ac fa 80 3d 73 30 0b 3e
       0.26028442 0.024439888 0.06297812 0.135927
000150 d9 9d a8 bc 07 5b b3 ba 32 f6 d7 bc 6a e1 c2 3d
       -0.02058308 -0.0013683744 -0.026362512 0.095156506
000160 fe 74 b8 3c 92 72 9e bd 00 0b 40 3c 7a fa eb 3b
       0.022516724 -0.07736696 0.011721373 0.00720149
000170 fb 97 56 3d e1 50 53 bc 18 e5 3f bc bb 6a 39 3d
       0.052391034 -0.012897701 -0.011712335 0.0452678
000180 3a 2d 1e 3d f5 dc dc 3d 11 c1 a0 3d 1d 7e 30 3c
       0.03861735 0.10784332 0.078493245 0.010772255
000190 e0 6f 21 bd 07 d8 d3 3d 8d bd ee bd b6 1a 74 3d
       -0.039413333 0.10343938 -0.11657248 0.059595786
0001a0 cc 5e e2 bc b6 13 8e 3e a3 43 07 3e 27 9e 14 bc
       -0.027633093 0.27749413 0.13209395 -0.00907091
0001b0 6c 22 03 3d de 52 cd 3c 16 74 1c be 5f 30 6b 3d
       0.03201525 0.025063928 -0.15278658 0.057419177
0001c0 67 cc 9d bc 59 f1 21 3e d0 66 3a be a8 0d 42 bd
       -0.019262506 0.15814723 -0.18203282 -0.047376305
0001d0 f8 0c 91 3e bc 2b 45 3d ba 16 22 3d d0 09 13 3d
       0.28330207 0.04813741 0.039572455 0.03589803
0001e0 42 bc d5 bd 6d 67 33 3c 86 0b de bd ee a0 24 be
       -0.10436298 0.010949952 -0.10842042 -0.16077015
0001f0 b6 01 c2 bd de d4 98 3d 13 db 5f be c8 e8 f3 3a
       -0.094729826 0.07462476 -0.21860914 0.0018608803
000200 cc cf ab 3c eb c9 f7 3c 22 11 c6 3c f2 58 56 be
       0.020973109 0.03024765 0.024178091 -0.20932367
000210 da db 96 bd fd be c9 3c de c5 b5 bd 37 2c bf 3b
       -0.07366152 0.024627203 -0.08875631 0.0058341282
000220 f9 7f cf bd db f5 c4 3d 85 e5 aa 3d ca a3 c8 be
       -0.10131831 0.09617206 0.083445586 -0.3918746
000230 60 e8 2a bc 9f fc 54 3d a8 93 9b be 98 de 09 3e
       -0.010431379 0.05199873 -0.3038609 0.13463819
000240 ca 97 a9 3e 3d db 1e bf 79 b7 f3 bd 7d 12 14 bd
       0.33123618 -0.6205328 -0.11900229 -0.036150444
000250 f7 b0 65 be d4 72 6e 3e 97 c8 e5 bc 0c c7 61 3d
       -0.22430788 0.23285991 -0.02804975 0.055121467
000260 4f 9c 85 3c a9 ae 09 3e 65 66 f3 3d d7 6a b9 bc
       0.016309885 0.13445534 0.118847646 -0.022633953
000270 ac 09 2b bf 1b f7 3e be ae f1 a6 39 c1 47 3e 3c
       -0.66811633 -0.18648951 0.00031842053 0.011613787
000280 f7 b5 87 3d bb be 65 3e 05 0a 85 3c e2 7c 6f 3e
       0.06626504 0.22436039 0.01624013 0.23387483
000290 44 5b 91 3e 3a 2f 07 bd c4 51 07 bd cd 1a 52 bd
       0.28389943 -0.033004023 -0.033036962 -0.05129509
0002a0 25 1e 2d 3e c4 d1 0e b9 b3 90 c8 bc a5 b9 b8 bd
       0.1690603 -0.00013620319 -0.02448306 -0.09019784
0002b0 73 1e ce 3d 0a 25 c1 bc 09 76 02 3d f6 6c 35 bc
       0.100644015 -0.023577232 0.03185085 -0.011073342
0002c0 a1 8d 18 bd 29 ee 1d 3e 2f da 16 be 54 f8 c2 bd
       -0.037244443 0.15422882 -0.14731668 -0.09520021
0002d0 97 41 f0 bd 58 21 af bd 0f 7f 38 3d 7c c9 90 bd
       -0.1173126 -0.08551282 0.045043048 -0.0706968
0002e0 6d cd a5 bc 57 16 dd be 6a f2 96 bb aa 1e 64 be
       -0.020239556 -0.43181106 -0.0046065347 -0.22277322
0002f0 a3 f3 30 be 43 5f 61 be a4 73 48 bc c0 e5 98 3d
       -0.1728044 -0.22008996 -0.012234602 0.07465696
000300 e8 ed 54 3c 1e 4e 8b 3c 8e 97 26 bd 9f 2d c0 be
       0.012996174 0.017005023 -0.040671878 -0.37534806
000310 04 62 d6 bd 5e b0 a1 3b 5f 37 47 3d af 1d c5 3b
       -0.10467914 0.0049343547 0.04863679 0.0060155015
000320 5e 91 d8 3d bf ce 60 bd 17 b1 3a 3e d9 e1 3a 3d
       0.105746016 -0.05488467 0.18231617 0.04562554
000330 04 55 bf 3c 98 88 c3 bd 76 e2 8a 3d 12 85 e2 bd
       0.023355968 -0.095475376 0.06781475 -0.110605374
000340 64 25 f1 bd 9d 54 4c 3a 12 a2 c0 3c c3 31 50 3d
       -0.1177471 0.0007794591 0.023514781 0.050828706
000350 eb bc 9b 3c e5 16 08 3c 12 9f fa 3d cd 83 e6 3d
       0.019010982 0.00830624 0.122373715 0.11255608
000360 17 e8 a7 3d 7f fe 12 3e 22 ac 23 bd 07 70 db bd
       0.081985645 0.14354895 -0.03995908 -0.10714727
000370 8c e4 81 3c de aa 67 3d 96 34 0b 3e 7c c1 b7 be
       0.01585605 0.056559436 0.13594279 -0.35889804
000380 94 d6 5a bd 88 f8 00 3e 29 08 70 be f7 84 5f 3c
       -0.053427294 0.12594807 -0.23440613 0.013642541
000390 67 0f 87 bd 00 79 52 be 99 4b 94 3c 63 c7 2e 3e
       -0.06594735 -0.2055397 0.018102454 0.17068247
0003a0 5f d4 e0 bd b4 8b 6e bd 5f 52 bb bc 69 26 a4 3d
       -0.109780066 -0.0582387 -0.022866426 0.08015139
0003b0 91 fd d7 bd 94 9f 2b bd 1d 87 03 3d cd 9d c0 be
       -0.10546411 -0.041900232 0.032111276 -0.37620392
0003c0 aa cf d9 3a 60 6c 13 3d 22 0c 2b be 72 87 38 3d
       0.0016617675 0.035992026 -0.16703847 0.045051046
0003d0 1d 8b 8d bd 40 fb ed bc fe 14 74 be 3a f4 45 3c
       -0.069112994 -0.02905047 -0.23836133 0.012082154
0003e0 a4 cc 7f 3b 92 b9 ba bd a1 da f6 bd f0 b0 83 3c
       0.0039031887 -0.09117426 -0.12053419 0.016075581
0003f0 3e f8 f6 bc ca fd 97 be 54 61 8e 3d 7e 50 9d 3d
       -0.030147668 -0.29685813 0.069521576 0.07681368

fc_hidden.bias f4 [100]
000000 df 04 c0 3d 7f d5 cb 3d a1 64 22 bd 2d d2 90 bd
       0.09375929 0.099528305 -0.03964675 -0.07071338
000010 1e dd 7c bb fe 83 dc 3d 22 6b 75 3c bc ef ac bd
       -0.0038583945 0.10767363 0.014979156 -0.08444163
000020 fa f7 9f bc 87 e9 a3 3d db 1a b0 3d 79 1a c2 bd
       -0.019527424 0.08003526 0.08598872 -0.094777055
000030 06 d4 c5 3d 9d 7a ef 3d cf 2f f2 bb 80 4d 11 3d
       0.09659581 0.116933085 -0.007390953 0.0354743
000040 fb 98 97 3d bd 71 8b bd 8f 10 97 3d e0 e8 72 bd
       0.074022256 -0.06808803 0.07376205 -0.05930412
000050 27 93 9e 3d b8 d7 3a 3d cd d5 a1 bd 5d 67 90 3d
       0.07742911 0.04561588 -0.079021074 0.07050965
000060 fc d8 6a 3d 5c 07 eb 3c 2a 2e a4 bc 4e 94 da 3d
       0.05733584 0.028690033 -0.020041544 0.10672818
000070 de 30 26 3d 8a 38 4b bd 09 0d 62 3d ec f5 2a bb
       0.040573947 -0.049614467 0.055188213 -0.0026086522
000080 b1 12 c5 bd 1d 76 31 3c fa 7b 10 3d 39 f3 99 3c
       -0.09622706 0.010831383 0.035274483 0.018792735
000090 8a 1d bc 3c 68 76 23 3d ab 0c b6 bd 75 db b0 3c
       0.022963304 0.039907843 -0.08889135 0.02158902
0000a0 d7 25 8c bd 85 4b 2e be c5 ca 05 bd f0 b5 70 3d
       -0.06843155 -0.17020996 -0.03266408 0.05876726
0000b0 74 18 ac bc d7 6c 2b bd a0 cb 65 3c 74 89 a2 3d
       -0.021007754 -0.041851845 0.014025599 0.07936373
0000c0 6d 99 98 bd 12 13 54 3d f4 56 84 bd 3e 35 42 3d
       -0.07451139 0.051776 -0.064618975 0.047414057
0000d0 52 d6 6b bd e5 dd b3 3d 2d 6d 44 bd 92 a3 8a 3d
       -0.05757744 0.087825574 -0.04795568 0.0676948
0000e0 f5 6d 4f bd 55 a2 f6 bc d1 bf e4 3c 44 5d f1 3d
       -0.050641973 -0.030106703 0.027923496 0.11785367
0000f0 5b 7e 16 bd f2 14 1d bd 7a 6e bd 3d ea 0f f4 3d
       -0.036741596 -0.038350053 0.09249587 0.11917098
000100 b8 bd aa 3c c0 3f 8b bd 1c ea 22 3d 5d f2 6d 3d
       0.020842418 -0.06799269 0.039774045 0.058092464
000110 c6 ff c8 3c 70 b0 69 3d 96 ed 76 bc 5c 70 b7 3d
       0.024536025 0.05705303 -0.015071293 0.08956978
000120 be 2d 38 bd cb f3 80 bb 01 4d b9 3c 0f 9c fc bc
       -0.0449655 -0.0039353124 0.022619726 -0.030836133
000130 5f 84 b5 3c e0 71 cb bd 31 b7 0d 3d 3e 4a 44 3d
       0.022157846 -0.09933829 0.034598533 0.047922365
000140 e6 14 aa bd 43 38 d1 3d 67 af c8 3d 03 57 c5 bd
       -0.08304767 0.10215809 0.0979908 -0.09635737
000150 7c 06 e2 3d e2 84 93 bb 44 1d 19 3d e7 a7 9a 3c
       0.11036393 -0.004501925 0.037381425 0.01887889
000160 e6 86 69 3c db a8 08 bd 4d ac 53 bd 11 76 62 bd
       0.014253354 -0.033364158 -0.05167799 -0.05528838
000170 af fc a1 3d e8 a9 bc bc 86 42 1f 3d c2 7c 9e bd
       0.07909524 -0.023030236 0.0388818 -0.077386394
000180 33 92 84 3d 98 fd b0 3d 52 73 49 3d dd ca 86 3d
       0.06473198 0.08642119 0.049182244 0.06581662

fc_out.weight f4 [1, 100]
000000 f0 a2 78 bd cf f9 11 3e 8f 6c de bd da 56 36 bc
       -0.060702264 0.1425545 -0.1086055 -0.011129105
000010 21 cd 32 3d f9 6b 80 3d f9 f0 a1 3d ea 36 0e 3c
       0.043652657 0.06270594 0.0790729 0.008680085
000020 dd c7 70 3d cb 3c 91 3d bb eb c7 bd bd 9e bd b9
       0.058784354 0.070916735 -0.09761759 -0.00036167158
000030 a8 e8 07 3e 33 ed a4 3d d7 ac cf 3c a1 ef 02 bd
       0.13272345 0.08053055 0.025350971 -0.03196681
000040 cd b5 29 3e 17 62 47 3d e0 5f 07 3d 2a 18 ad 3d
       0.16573258 0.04867753 0.033050418 0.084518746
000050 ab c9 03 be ee 21 c7 3d 49 3e b2 3c 3c e1 0a bd
       -0.12869899 0.097232684 0.021758216 -0.033906206
000060 fc d1 9b bd 73 ca 0e be b4 8c 14 3e f4 3a ed bd
       -0.07608411 -0.13944416 0.14506799 -0.1158351
000070 5e 0c 7c bd a9 fd d1 bd d5 02 1d be 7a 3f dc bd
       -0.06153523 -0.1025346 -0.15333112 -0.10754295
000080 27 d5 85 bd cc cf 08 3e 15 95 01 be 16 c8 be 3d
       -0.06534796 0.13360518 -0.12654527 0.09315507
000090 e1 5f f1 bd 78 52 20 bd 51 ea 88 3d cb ce 8b bd
       -0.117858656 -0.03914115 0.06685317 -0.06826552
0000a0 45 78 c0 3d db bb 17 be 20 9f e1 bd 2d 9c cb 3d
       0.093979396 -0.14817755 -0.11016679 0.099418975
0000b0 cd fb d5 3d 3b 6a 76 3d 4b 96 aa bc 67 5c 4f 3d
       0.10448418 0.060159903 -0.020823618 0.05062523
0000c0 9b 38 aa bd 87 1c ef bd 63 3c 91 3d ab de 52 3d
       -0.08311578 -0.11675363 0.07091596 0.051481884
0000d0 e7 60 87 bd f2 29 ea 3d 8a 46 fd 3d 53 de 83 3c
       -0.066102795 0.11433782 0.1236697 0.016097223
0000e0 e5 89 db 3d 8b 8a b8 3d 6c 14 2e be fe 3c e8 3d
       0.10719661 0.090108 -0.16999978 0.11339758
0000f0 e5 e8 ac bd cf 5e ce bd 3d 0b 02 be 70 c3 d1 bd
       -0.084428586 -0.10076677 -0.126996 -0.10242355
000100 53 e1 62 3e 3d 7d 97 bd 88 a3 0a be ec 84 32 ba
       0.22156267 -0.07396934 -0.13538945 -0.0006809968
000110 3c c9 25 3e b6 cf e0 bd 53 fa b2 bd 8f 53 37 be
       0.16190046 -0.10977118 -0.08739152 -0.17902969
000120 50 89 bf 3d 07 65 9f 3d da 0d f1 3d bb 11 1a be
       0.09352362 0.07782941 0.1177022 -0.15045826
000130 ff 9d cf 3d 41 55 cf 3d 80 9c fc bd 06 66 19 be
       0.10137557 0.10123683 -0.123345375 -0.14980325
000140 8a 80 e6 bc 82 04 ad bd 77 d1 cd 3d 7c 2c 78 3c
       -0.028137464 -0.084481254 0.10049718 0.015147325
000150 9f 6b 6f bd e5 91 e0 bd 0e 59 21 3d 26 ad e0 3d
       -0.058452245 -0.10965327 0.03939157 0.109705254
000160 76 ad de 3d d3 17 64 3d cf 1c 13 bc 69 8e a5 3d
       0.10872929 0.055686783 -0.0089790365 0.08083803
000170 d3 7c 05 bd 93 32 25 3c 38 83 67 bd 80 d1 eb bd
       -0.032589745 0.010082859 -0.056521624 -0.11514568
000180 14 57 96 3d 77 b2 c1 bd 93 cd 80 bc e8 1b 8c bc
       0.073408276 -0.094578676 -0.015723025 -0.01710315
