Copula by Ratio Estimation/2d_exp/model_parameters_NNet_ratio_25_runs_4copulas_2Dexperiment_ok/NNet_ratio_run_12_cop_u_2.pt (torch, 45066 bytes, 5 tensors)

fc_in.weight f4 [100, 2]
000000 1a 12 bc 3d 41 8f b6 be f8 40 c2 be 54 90 a5 be
       0.0918314 -0.3565617 -0.37940192 -0.32336676
000010 3a fa 15 3f cd 3b 81 be 3d ce 8b 3e 93 52 3c 3d
       0.5858494 -0.25240937 0.27305785 0.045977186
000020 9f d5 b5 be 57 29 bf be 48 9d 12 bf 8a 52 38 3f
       -0.35514542 -0.37336227 -0.5727124 0.72000945
000030 69 c1 a8 bd d7 98 a7 3e ac 0b f7 3e 78 c6 a4 be
       -0.08240015 0.32733795 0.48251092 -0.3218267
000040 9b cd 1b bd b1 24 fb be f6 83 65 3e d1 a9 f8 be
       -0.038037878 -0.4905143 0.2241362 -0.4856706
000050 95 17 af 3e b2 fe 58 be a4 36 a9 3e c7 66 9c 3e
       0.3419768 -0.21190909 0.330495 0.30547163
000060 44 c1 97 be dc 71 2a 3f 22 ab b8 3e 29 35 dd 3e
       -0.29639637 0.66579986 0.36068064 0.4320462
000070 7c 3e 1a 3f f9 93 34 bd 60 9c 35 3e f1 d4 33 3f
       0.60251594 -0.04408643 0.17735434 0.702468
000080 7e 2b 3f be 83 45 fa be 12 69 a5 3e 21 bf 04 3f
       -0.18668935 -0.48881158 0.32306725 0.5185414
000090 9c 90 ae be 6f f8 cd 3e 8a 38 cc be 84 da ba 3e
       -0.34094703 0.40228602 -0.39886886 0.3649484
0000a0 66 8a 97 be a3 e0 ea be 1e 0d bb bd b9 93 91 3e
       -0.29597777 -0.4587451 -0.09133361 0.28433016
0000b0 f3 5b 64 3e 0b f7 28 bf af 20 96 3e 67 b4 b2 3e
       0.22300701 -0.6600196 0.2932181 0.3490326
0000c0 76 38 c6 3d 02 a1 1a bf ce 11 15 3f c3 ee 31 bd
       0.09678738 -0.6040193 0.5823029 -0.04344059
0000d0 73 5e 15 3e cd 96 b9 3e 83 b9 15 bf 5c 7f ff be
       0.14586811 0.36247864 -0.58486193 -0.49901855
0000e0 ee e5 1a 3e 52 85 2a 3f f2 0f 96 3e c8 60 0c bf
       0.15126774 0.6660968 0.2930904 -0.54835176
0000f0 4b 91 05 bf 46 75 b1 be 89 48 42 bf cb ed 60 be
       -0.52174824 -0.34659785 -0.7589193 -0.21965711
000100 17 49 13 3f 93 3b 3c 3c b2 50 0e be 5c 7f 0d 3f
       0.575334 0.011488813 -0.1389797 0.5527246
000110 fa e5 17 bf 3b 90 0d 3f 6d 43 2c bf e3 13 06 3f
       -0.5933529 0.55298203 -0.67290384 0.52374095
000120 e4 e6 a4 be 65 7d e6 be 2b db fd be a2 ba 9b bd
       -0.32207406 -0.45017543 -0.49581274 -0.07603957
000130 a7 1e 5b 3e 7f ec 15 bf 0b ed cc be 99 fa 25 3f
       0.21398412 -0.5856399 -0.400246 0.64835507
000140 d1 af a3 3e 9d c4 eb be 1d a4 99 3e 32 84 ff 3e
       0.31970075 -0.46048442 0.3000802 0.49905545
000150 f6 6e d7 3e fb d0 3e be 1a 7d 18 3f 05 d8 64 be
       0.42076844 -0.18634407 0.5956589 -0.2234803
000160 90 66 c0 3e 13 78 d9 3d fa 9b 1d bf a7 21 12 be
       0.3757825 0.106186055 -0.61566126 -0.1427065
000170 58 78 ce 3e f9 49 b6 be 33 c5 29 bf 5d 76 0a bf
       0.4032619 -0.35603312 -0.6631653 -0.5408686
000180 15 62 ce 3d d0 0d 81 be 73 78 66 be c5 f8 94 3e
       0.100773014 -0.2520585 -0.22506885 0.29096046
000190 be 54 04 3e 9b d6 14 3e ce 03 73 be 1d d8 1a bf
       0.12922952 0.1453499 -0.2373192 -0.6048601
0001a0 80 b4 2b bf bd eb 67 3c f0 d0 53 be 62 52 2b 3f
       -0.67072296 0.0141553255 -0.20685172 0.6692258
0001b0 d0 2e e8 3e b2 e8 a7 be 5e 66 8a 3e d4 c1 c4 3e
       0.45348215 -0.3279472 0.27031225 0.3842913
0001c0 f7 97 9a 3e b4 0c 92 3e 77 93 5e be 6c 11 01 3f
       0.30194065 0.28525317 -0.21735941 0.5041721
0001d0 58 54 f9 3e 62 20 1b 3e 4b 40 34 3f 1b df 95 3e
       0.48697162 0.15149072 0.70410603 0.29271778
0001e0 ad 40 04 be 89 77 6d be 6f 12 02 3f 27 4d 1d be
       -0.12915297 -0.2319013 0.5080938 -0.15361463
0001f0 e1 0c 89 3e fb 0a 5e 3e c6 4d f7 be b6 8f 2a be
       0.26767638 0.21683876 -0.48301524 -0.16656384
000200 81 b6 75 be d3 07 2c be fd 44 21 bf fe 51 2d bf
       -0.23995401 -0.1679986 -0.6299589 -0.67703235
000210 40 2d 23 3f b8 ca 75 bc 6e 6f bf be 40 3f 42 bf
       0.6374092 -0.015001945 -0.37389702 -0.7587776
000220 cd aa cb bd 1c 4e 35 bf f3 ed 9e be 0d f4 3c bf
       -0.09944687 -0.7082231 -0.31040916 -0.7380989
000230 5d 90 32 bf c3 8d 15 3f 7e cb 3b 3f 0e fc 26 3f
       -0.6975153 0.58419436 0.7335738 0.65228355
000240 84 97 c9 3e 5f 47 db 3d ed e7 8c 3e b2 45 87 3e
       0.3937341 0.10706972 0.27520695 0.2642036
000250 de 8c fe 3d ac 71 31 bf 57 61 11 3f 60 a6 94 3e
       0.12429212 -0.69314075 0.56789154 0.29033184
000260 4a c1 09 3f 1d 9d cb 3e af 11 00 3f ed c6 11 bf
       0.5381056 0.39768305 0.50026983 -0.5694416
000270 06 40 f2 be 34 11 21 3f ce 39 49 bd 2d e4 cf be
       -0.4731447 0.62916875 -0.049127392 -0.40603772
000280 5e e5 ca 3e 27 64 f1 3e 4c 9e de 3c 42 d3 14 bf
       0.39628118 0.47146723 0.027175091 -0.58134854
000290 ea c5 e8 bd 2e d0 0c 3c 88 91 c1 3e aa f0 ab be
       -0.11365874 0.008594556 0.37806344 -0.3358205
0002a0 69 3b c2 3d f6 e4 d6 be fd 7e 33 3f 9c c0 a5 be
       0.09483988 -0.41971558 0.70115644 -0.32373512
0002b0 54 d0 90 be 86 a7 af 3e bb c4 a3 3e e7 f3 ac 3e
       -0.28283942 0.34307498 0.3198603 0.33779833
0002c0 ee f3 f4 bc 1b 00 26 3f 86 6a 77 bc e0 36 1d 3f
       -0.029901471 0.6484391 -0.015101081 0.6141186
0002d0 0f a8 2b 3f 03 61 18 3f ca 9a bc 3e c9 08 78 be
       0.6705331 0.5952303 0.36836845 -0.24222101
0002e0 72 d8 e6 3e 87 b2 b0 3d 36 77 77 3e 5c 74 a9 be
       0.4508701 0.086278014 0.24166569 -0.33096588
0002f0 de 1a ab 3d df 61 35 bf 4e 95 0b 3f 5c 71 14 3f
       0.08354734 -0.70852464 0.54524696 0.5798547
000300 00 e6 7e 3e 73 3e 11 3f 62 9e 47 be e8 4c fb be
       0.24892426 0.56735915 -0.19494012 -0.49082112
000310 d6 e7 69 be e0 55 9b be eb ec b9 bc f4 fa e5 3e
       -0.22842345 -0.30338955 -0.02269598 0.44918025

fc_in.bias f4 [100]
000000 1f 3b 81 3e 34 d6 93 3e 1a c8 93 3e 38 a2 f0 3b
       0.25240418 0.28874362 0.28863603 0.0073435567
000010 4a e1 88 3e a8 ae 18 3f a1 1e 3e be a9 2c f8 be
       0.26734382 0.59641504 -0.18566372 -0.48471573
000020 56 fa 0a 3f af e9 28 bf 49 db c3 be 74 bc 6a be
       0.5428823 -0.6598157 -0.3825324 -0.22923452
000030 97 40 08 bf dd c1 07 3f 1e ca f8 3d 1b 33 0a bf
       -0.53223556 0.53030187 0.12147926 -0.5398423
000040 de da 1e 3f ca 3d fe 3e 13 46 ec bd 08 b4 31 3f
       0.62052715 0.49656516 -0.11536803 0.6941533
000050 32 12 a0 be 72 03 f2 3e 93 53 01 be e1 ab d0 be
       -0.31263882 0.47268254 -0.12629537 -0.40756133
000060 c0 e4 36 bf 8e 38 ee 3d 5f d2 e3 3d e7 66 f8 3e
       -0.71442795 0.11631881 0.111241095 0.48516008
000070 25 e4 21 bf 63 af c9 bd 66 d0 1d bf 47 8c 06 bf
       -0.63238746 -0.098479055 -0.61646116 -0.52557796
000080 f9 94 10 bf 35 be 00 3f 8e f9 d6 3e ac ec d5 be
       -0.56477314 0.5029023 0.4198727 -0.4178213
000090 98 32 3d bf d0 2d 06 3e 0b ed e6 bd 3b 36 15 bf
       -0.73905325 0.13103414 -0.11275681 -0.58285874
0000a0 bf d2 e3 3e 81 eb 1e 3f df 54 b7 3e 1e 68 72 be
       0.44496724 0.620781 0.3580694 -0.2367253
0000b0 a9 ff f9 bd e2 fd 36 bf 49 08 35 be bc b1 7b 3e
       -0.122069664 -0.71481144 -0.17678942 0.24579519
0000c0 ae b9 f0 3e 89 8e 2e 3f 20 41 04 3f b0 68 40 bf
       0.47016662 0.6818624 0.5166187 -0.7515974
0000d0 0b bb 28 3f 8f 7e 83 be 9c 9a 21 bf 59 e8 21 3f
       0.65910405 -0.25682494 -0.6312654 0.6324516
0000e0 0b f4 1e 3f f1 7e 34 3f e5 74 95 3d 26 15 f6 3d
       0.6209113 0.705062 0.072976865 0.120157525
0000f0 09 c4 3b 3e 51 76 3b bf b3 b0 16 bf 05 4d 11 bf
       0.183365 -0.7322741 -0.5886337 -0.5675815
000100 2d f0 48 3c 57 c9 0b bf 01 ef d4 3e 61 f4 ae 3e
       0.012264294 -0.54604095 0.41588596 0.3417082
000110 3e 70 b5 3e 75 31 99 3d 26 c9 af 3e 68 9c 81 be
       0.35437196 0.07480136 0.34333152 -0.2531464
000120 30 73 03 be e7 97 88 3e d0 94 1e 3f 21 91 01 bf
       -0.1283691 0.26678392 0.6194582 -0.50612074
000130 cb 6b a6 be b4 a2 2a 3f 97 e3 c5 bd bd d5 fa bd
       -0.32504115 0.66654515 -0.0966255 -0.122477986
000140 5f f9 0c bf c9 08 1f 3f c7 be 28 3e 25 e4 24 be
       -0.5506801 0.6212278 0.16479026 -0.16102655
000150 64 c1 33 3d 8f 0b ba be f5 07 28 3e 33 d3 38 bf
       0.043885604 -0.36336944 0.16409285 -0.72197264
000160 76 42 31 bf 50 df 7b be 4c fb 4b bc 6c 85 19 3f
       -0.69242036 -0.24596906 -0.012450051 0.5996921
000170 49 45 9a 3e 3f bc 14 3f 73 2b d4 be 06 21 2a bf
       0.30130985 0.5809974 -0.414394 -0.6645664
000180 36 17 3f 3f 54 14 1a be 99 a9 15 3f ea dc 56 3d
       0.7464479 -0.15046817 0.5846191 0.052456774

fc_hidden.weight f4 [100, 100]
000000 40 07 b3 bc 8d 44 78 3c ef 8b 89 bd a7 a2 84 bd
       -0.021854043 0.0151530625 -0.06716143 -0.06476336
000010 57 9a 9a bd f0 2d 88 bd 4d 0f 2d 3c 9a 8c 01 3b
       -0.07548969 -0.06649387 0.01056273 0.0019767643
000020 a2 a6 8a 3d 5d c6 01 3d 8a 72 c6 bd e7 02 55 3d
       0.06770064 0.031683315 -0.09689815 0.05200472
000030 a8 2c 8d bd 3d a0 08 bd 2d ee bc bc 5a 73 92 bd
       -0.06893283 -0.03335594 -0.02306279 -0.07150908
000040 93 8d 0c bd 67 c2 19 bd 08 bd c4 bd d0 16 01 3d
       -0.034314703 -0.037538912 -0.09606367 0.031515896
000050 13 20 b8 bc 95 78 b9 3d e5 93 b7 3d b8 30 90 3d
       -0.022476232 0.09056202 0.089637555 0.07040542
000060 67 52 a0 3c 57 78 b1 3d 3d 8b 39 bd ab ce 9b bd
       0.019570542 0.08665531 -0.045298804 -0.07607778
000070 37 6e 3e bd 27 f7 b4 bd 58 b7 c6 bd 60 85 72 3d
       -0.046491828 -0.08836203 -0.09702939 0.059209228
000080 ba ce e0 3c 60 ec 55 bd 0a 2b 71 bd 25 9a 9d bd
       0.027442325 -0.052227378 -0.058878936 -0.07695416
000090 7d 27 6c bd 90 96 31 bd c3 49 a4 bd 07 fc 8c 3d
       -0.057654846 -0.04335648 -0.080218814 0.06884008
0000a0 7a 37 8f bc 78 82 bc 3d da cb a2 bc 6a 56 4e bd
       -0.017482508 0.092045724 -0.019872595 -0.05037538
0000b0 80 36 e4 bb 1d 73 75 bd fd 5b b9 3d 73 73 84 3d
       -0.0069645047 -0.059924234 0.090507485 0.06467333
0000c0 c3 a2 24 3d 33 54 44 bd a7 93 06 3c 73 6e 24 3c
       0.040194284 -0.04793186 0.008213914 0.010036099
0000d0 a3 78 87 3d b0 41 8b bd 70 48 3e bd 7d 3e 24 3d
       0.066148065 -0.06799638 -0.0464558 0.040098656
0000e0 a7 f4 f0 3c 68 44 c0 3d 07 94 a2 bc 27 3c cb 3c
       0.029413534 0.093880475 -0.019845976 0.024808956
0000f0 aa 07 2d bd 00 c0 f4 b9 73 52 9f 3c 7a eb c8 bc
       -0.042243637 -0.00046682358 0.019448495 -0.024526346
000100 f0 0c 87 bd 6f 62 a7 bd d3 59 b9 3c 33 18 ec bc
       -0.065942645 -0.081730716 0.02262584 -0.028820133
000110 ef d3 b1 bd 8a a2 b9 bd 6a 32 ac bd 37 62 84 bd
       -0.08683001 -0.09064205 -0.08408053 -0.064640455
000120 8d d3 09 bc b7 92 44 bd da 8c 1e 3c d3 00 1a bd
       -0.008412254 -0.04799148 0.009677136 -0.037598442
000130 9a 49 88 bc 1a 93 7c bc 8d eb b4 3d ed dc 6c 3d
       -0.016636658 -0.015415931 0.0883399 0.05782788
000140 83 da 94 3d 00 07 61 bd ff 1b 83 3d 47 bc 2a 3d
       0.0726824 -0.054938316 0.06401824 0.04168346
000150 40 b3 77 bc 6f 8c c3 3d 33 e1 9f 3a 10 e1 69 bd
       -0.01511842 0.0954827 0.0012197852 -0.057099402
000160 8b 58 a9 bd 23 af 19 bd 10 f3 57 bd 30 b4 25 bd
       -0.08268841 -0.03752054 -0.052722037 -0.040455043
000170 0d 47 7b 3c 2d 5c 1d bd 8d 49 7d bd d0 e4 19 3d
       0.015336764 -0.038417984 -0.06183772 0.03757173
000180 5d d6 ca bd da e3 f2 3c e7 bb c1 3c e7 79 5b 3c
       -0.09904168 0.029649664 0.02364917 0.013395763
000190 d2 ad 4a be 62 4f 86 3d 30 93 60 be 76 1d 1a be
       -0.1979287 0.0655811 -0.21931148 -0.15050301
0001a0 18 43 d3 bc 43 92 1c 3e 12 5d f7 3c f3 53 a8 3d
       -0.025788829 0.1529017 0.030195747 0.08219137
0001b0 d4 e5 b2 bc 63 47 4a bc 3e ec 52 3d 88 dd cf 3c
       -0.021838106 -0.0123461215 0.05149483 0.025374189
0001c0 fa 40 1e bd 3a b7 8d bd 52 4f 90 be 57 40 0f be
       -0.038636185 -0.06919713 -0.28185517 -0.13989387
0001d0 57 7f a4 bd 94 4b a2 bd 86 e2 ec 3d e3 13 91 3d
       -0.08032101 -0.07924572 0.115666434 0.07083871
0001e0 00 6e d9 3c b8 63 ff 3c b4 d2 1b bc 74 71 b1 bd
       0.02654171 0.03117548 -0.009510685 -0.086642176
0001f0 8b 66 5b 3d d9 13 06 be 99 8b 41 3e 5a b6 21 bd
       0.05356459 -0.13093509 0.18900909 -0.039480545
000200 c4 3a 70 bb 83 74 a4 bd e3 5b a6 be 43 c7 82 bc
       -0.003665612 -0.08030035 -0.3249198 -0.015964156
000210 37 cd 7c be 49 d1 cb 3d 50 7c 0f 3e d3 00 2f be
       -0.24687658 0.09952027 0.14012265 -0.17090158
000220 c8 56 92 bd db 65 74 3d 16 03 b0 3c a7 92 34 be
       -0.071454585 0.05966745 0.021485846 -0.17634068
000230 23 3e 2c be 7c 4f 75 3d 09 34 eb 3b 6b 84 c6 be
       -0.16820578 0.059890255 0.007177834 -0.38772902
000240 2b cf c4 3c 65 09 8b be 21 4b 69 3c 3f b2 6c 3d
       0.024024567 -0.27155605 0.0142391035 0.057787176
000250 15 b6 0d 3d a5 bb d5 3d 04 1b 39 3c 46 a2 06 bd
       0.034597475 0.10436181 0.011297945 -0.0328696
000260 1f 82 8b bd 8d 96 89 bd ca 27 d5 bc 11 ec d3 3d
       -0.06811928 -0.067181684 -0.02601995 0.103477605
000270 73 5c 49 3c 5d 4f ce 3d 80 39 f4 3c 51 66 49 3d
       0.012290108 0.10073731 0.029812574 0.049169842
000280 d2 f3 a1 bd 2a 27 b6 bc 0c 5f 2b 3c b2 35 f8 be
       -0.07907833 -0.022235472 0.010459673 -0.48478466
000290 3d 85 6e 3d 68 a4 05 3d 90 70 52 bd 7d 66 da 3c
       0.058232535 0.032627493 -0.05137688 0.026660198
0002a0 88 bf 92 b9 29 a7 41 be 28 2f f5 3d 49 37 be 3d
       -0.00027989992 -0.18911423 0.11971885 0.092878886
0002b0 e0 f8 cd 3d be a7 c5 bd 84 bf b0 bd 31 82 12 be
       0.10057235 -0.09651135 -0.08630279 -0.14307477
0002c0 c6 a7 3f bd 60 e5 1f bc fe 36 0f 3d 52 a9 90 3c
       -0.04679086 -0.009759277 0.034964554 0.017658863
0002d0 50 57 c9 bd 20 c2 bf bd 07 17 c3 3c 2f 0e 01 3e
       -0.09831107 -0.09363198 0.023814691 0.12603067
0002e0 49 f6 92 be 0e fb ac bd 94 42 df 3d ff 6f 56 be
       -0.28703526 -0.084463224 0.10901371 -0.2094116
0002f0 8e 1a 01 be 9e dd e8 3d 73 83 95 3d ee 03 a1 39
       -0.12607786 0.11370395 0.073004626 0.0003071124
000300 60 49 7b bd e4 f1 b0 bd 15 0c ad 3d 21 d9 aa bd
       -0.061349273 -0.08639887 0.0844957 -0.08342195
000310 d2 ab 8b 3d 2d 11 a4 3d 0b c3 92 bd b5 05 a3 bc
       0.068198815 0.080110885 -0.07166108 -0.019900182
000320 9e 64 19 bd e9 47 b4 3c 4f a4 8b 3d df 67 42 bd
       -0.03744947 0.022006946 0.06818449 -0.04746234
000330 a2 2f fc bd e7 b7 b1 3d 23 19 9c bd ec a2 df 3d
       -0.12313773 0.08677655 -0.07621982 0.10919747
000340 7d d6 4b 3d 4d 90 8c 3d a6 42 3e bd 44 c4 32 bd
       0.0497651 0.06863461 -0.04645028 -0.043644205
000350 5a 81 b0 3d fb 0b 9a bd 7d 30 0c 3e 75 2c ee bd
       0.08618422 -0.07521816 0.13690372 -0.11629573
000360 60 ba f1 bd 8f 86 91 3d ea 68 e3 3d e1 0f 8e bd
       -0.11803126 0.07105743 0.11103995 -0.069366224
000370 47 41 a8 bd 25 a3 b5 3b 85 7e af 3d 68 fd ae 3d
       -0.08215576 0.00554313 0.085690536 0.08544427
000380 9d b5 21 3e 63 23 64 3d be 9c 40 3d af 51 3e bc
       0.15791936 0.05569781 0.04702448 -0.011616155
000390 44 db e4 3c 5c 6b 4d 3d 85 eb 14 3d 8c 31 52 bc
       0.027936585 0.050151214 0.03635742 -0.012829196
0003a0 7f 19 6f bd 71 92 ab 3d dd a6 94 bd 2c c8 76 3c
       -0.058373924 0.08377541 -0.07258389 0.015062373
0003b0 93 3f 27 be 3b 5f 1d bd f5 44 a8 3c 36 1c 06 bd
       -0.16332845 -0.038420897 0.020540694 -0.032741748
0003c0 22 96 cd 3c 12 88 3a 3d 8a a9 7c bc 02 65 f2 3d
       0.025096003 0.045539923 -0.015421281 0.11835672
0003d0 0b da dc bd 39 17 29 3e d5 65 94 bb 30 34 96 3d
       -0.10783776 0.16512765 -0.004528741 0.07334173
0003e0 da 86 fa bb 7d 92 3f bd 5a b5 a4 bd b9 f2 01 be
       -0.00764547 -0.04677056 -0.080424026 -0.12690248
0003f0 53 5e a4 bd 19 7b 69 3d 0f 5c 06 bd 03 76 ac bb
       -0.080258034 0.05700216 -0.032802638 -0.0052630915

fc_hidden.bias f4 [100]
000000 53 1c eb bc aa dc f0 bc 18 c4 1d 3d cf c6 a3 3d
       -0.02870003 -0.029402096 0.038517088 0.07996904
000010 cd 7a f2 3d b5 29 91 3c fd 15 17 bd 30 48 35 3d
       0.11839829 0.017720083 -0.036886204 0.044258296
000020 f9 18 df 3d 93 1f bd bd 7f dd 89 3d fa ba 20 3d
       0.10893435 -0.09234538 0.067317 0.039240815
000030 5c 33 ac bd 3d 57 23 3d 77 8c c4 3d 2f 8b cb bd
       -0.084082335 0.03987812 0.09597104 -0.099386565
000040 9b 98 c8 3d 98 ce 17 3d 2d a4 ad 3c 13 c8 0f 3d
       0.09794732 0.037062258 0.02119645 0.035102915
000050 26 d2 d7 3d cd 48 5b bd d3 84 b6 bd 12 2c 4e 3d
       0.105381295 -0.053536225 -0.08912053 0.050334997
000060 52 2c df 3c 28 85 c9 3d 40 52 10 3d 68 0a 0b bc
       0.027242813 0.09839851 0.03523469 -0.008486368
000070 3f 07 7a bc cc 48 17 b9 93 fb 19 3d 6f b6 3a 3c
       -0.015260517 -0.00014427601 0.037593435 0.011396035
000080 ec 9f 0c 3d 2b b1 12 be fb b5 c8 3c 41 2e 73 bb
       0.0343322 -0.14325397 0.024500838 -0.0037106427
000090 4d 82 6b bd 9a 87 70 3d 24 5d 83 3d 3b ee 34 3d
       -0.05749731 0.05872307 0.064142495 0.044172507
0000a0 df dd 16 3d 6e e3 ab 3d a8 03 ae 3d d0 2c 2a 3c
       0.036832687 0.08392988 0.08496791 0.010386661
0000b0 74 1d 9d bc bb 6c 43 3d 84 c0 a3 3d bb 7b bc 3d
       -0.019179083 0.047711115 0.07995704 0.09203287
0000c0 cc 9a 1c bd d2 9a e9 3d 17 05 e8 3b 85 7f 75 bd
       -0.038233563 0.11406483 0.007080685 -0.059936065
0000d0 a6 64 be 3c 10 09 0f bd 85 1a 98 bc ad 5f 75 bd
       0.023241352 -0.034920752 -0.018567333 -0.059905697
0000e0 69 1b 48 3d f3 8a 87 bc 75 4d d0 3c 53 80 c8 3d
       0.048854265 -0.016545748 0.02542756 0.09790101
0000f0 88 48 a4 bd f7 60 e0 3c bc db 00 3d 8a d6 74 3d
       -0.08021647 0.027389986 0.031459555 0.059774913
000100 08 01 bf 3d 72 6b 66 bd d3 b8 0a 3d 28 5a 81 3d
       0.093263686 -0.05625481 0.03386767 0.06316024
000110 1e 31 ad 3d 9b f5 b2 bd a1 ff 26 3d 40 63 40 bd
       0.08456634 -0.08738252 0.04077113 -0.046969652
000120 98 64 fe 3c c2 cf 10 bd 4f ef 61 3d 16 f5 9c 3d
       0.031053826 -0.035354383 0.055159863 0.07663934
000130 00 1d 8d 3d 87 99 6f 3d 66 8c 5a bd 91 28 8d bb
       0.06890297 0.058496024 -0.05335655 -0.0043078144
000140 3c 61 61 3d 57 57 21 bc f2 0d 7b bd 14 b8 1b 3d
       0.05502437 -0.009847484 -0.061292596 0.038017347
000150 fc 76 79 bd 76 b6 90 3d 2f 13 c9 bd 9f fa cf 3d
       -0.060904488 0.07066052 -0.09818112 0.10155224
000160 f9 91 54 3b c3 9e cf bd 46 4e f9 3a c9 70 9f bd
       0.003243564 -0.10137703 0.001902052 -0.07785184
000170 62 62 b2 bd e5 af b0 bd bb c1 06 3d 25 1a 96 bc
       -0.08710171 -0.08627299 0.0328996 -0.018323014
000180 3d d1 e1 3c da 0b 0f bd 3f 47 39 3d 34 7f 99 bd
       0.027565593 -0.034923412 0.04523396 -0.07494965

fc_out.weight f4 [1, 100]
000000 07 9d e6 3c 7d ec 5e 3d 66 47 03 be b7 29 e3 bd
       0.028151048 0.05442475 -0.12820205 -0.11091941
000010 3d 2f 8e bb 58 75 45 3d 16 26 07 3e 95 0d 12 3d
       -0.0043391273 0.04820761 0.13198122 0.035657484
000020 4d 4c fd bc 64 9b 06 bd 22 4a af bd 4d cc 8c bb
       -0.030920172 -0.032863036 -0.085590616 -0.0042968155
000030 d8 13 04 bb ed 70 a2 bd d0 3e a9 3d a2 df c8 3d
       -0.002015343 -0.07931695 0.08263934 0.098082796
000040 d6 30 9f 3d 07 92 f4 bd 7c 97 89 bd e4 88 87 bd
       0.077729866 -0.11941915 -0.067183465 -0.06617907
000050 53 45 ea 3c b0 2c 1d 3d 4b 79 c1 bb c5 92 e6 bd
       0.02859751 0.038372695 -0.005904352 -0.11258463
000060 f0 ce ef ba 42 74 91 bc 60 69 f1 3d e1 ef 9c 3d
       -0.0018295925 -0.017755631 0.11787677 0.07662941
000070 40 79 04 3e 08 de 05 be eb 98 06 3e 32 a2 fa 3d
       0.12936878 -0.1307298 0.13144271 0.122379676
000080 9b 7f 52 3d e4 67 7b bd 01 e7 ad 3c 02 d2 70 3d
       0.051391225 -0.061378375 0.021228315 0.05879403
000090 a6 ec 6a 3d 5b b8 00 3e 30 3a a4 bd e3 7b bf 3d
       0.05735459 0.12570326 -0.08018911 0.093498014
0000a0 9f 1c d0 3d 29 0a aa 3d 9e e4 ea bd a8 e9 16 bd
       0.10161709 0.08302719 -0.114693865 -0.036843926
0000b0 b3 a7 f0 3d db 5b 89 3c 40 48 85 bd 9f c2 ed bd
       0.11750736 0.016767433 -0.06507921 -0.11609387
0000c0 8a 6a e9 bd 59 76 fe bd bb 45 d4 3d bf 5f 4c 3e
       -0.11397274 -0.12424917 0.103648625 0.19958399
0000d0 05 77 f3 bd 86 c7 b1 bd a8 d0 0b be 15 0f ab 3d
       -0.118879355 -0.08680634 -0.13653815 0.08352486
0000e0 f9 62 12 3d 58 5a e4 bd 22 40 06 3e 19 85 52 3d
       0.03573892 -0.11150044 0.13110402 0.051396463
0000f0 b1 a8 eb bd 8a 49 96 bd 45 21 e1 3d b2 bb 6b 3e
       -0.11506785 -0.07338245 0.10992674 0.23020819
000100 5d 2a 08 3d 9c 58 f8 bd 33 4a 05 3e fb 09 87 3d
       0.033243526 -0.12126276 0.13016586 0.065937005
000110 ed 14 d9 bb 9c 46 7a bd a6 58 c6 bd 22 65 a1 bc
       -0.006624809 -0.061102495 -0.09684877 -0.019701544
000120 56 05 cc 3d 50 df 0c be 2a fd db bd 54 8c 4e bd
       0.09961955 -0.13757062 -0.107416466 -0.050426796
000130 87 38 82 3d ce ab c3 bd cf 53 3d bc 27 3f 0b be
       0.06358438 -0.095542535 -0.011555626 -0.1359831
000140 0b ae 09 bc 35 30 e0 bd 89 21 b5 3e a5 c8 90 bd
       -0.0084033115 -0.10946695 0.35377148 -0.0706952
000150 0e 08 91 bd 44 e2 c7 3d e6 8a bb 3d 75 1f ef 3d
       -0.070816144 0.097599536 0.09157352 0.11675922
000160 0c 0d c8 bd 4b af 54 3d 25 88 ff 3d 6f a9 67 bc
       -0.097681135 0.051924985 0.124771394 -0.014139517
000170 e2 08 45 bd a7 2f eb 3d 7f 0b cc bd 7e 8d ac 3d
       -0.048104174 0.11483698 -0.0996313 0.08425425
000180 22 ba d2 bb 7a 9f 28 3d e7 c7 3b 3d 93 42 87 3d
       -0.00643088 0.041167714 0.04584494 0.06604495
