Copula by Ratio Estimation/2d_exp/model_parameters_NNet_ratio_25_runs_4copulas_2Dexperiment_ok/NNet_ratio_run_21_cop_u_1_ok.pt (torch, 45099 bytes, 5 tensors)

fc_in.weight f4 [100, 2]
0.39433157 -0.5621546 0.42017898 0.25734425 0.6348544 0.6663462 0.5485628 -0.6184665
-0.68049675 0.5226234 -0.63420755 0.14088252 0.43874377 -0.7320448 -0.50979984 -0.1392017
0.070373856 0.16471806 -0.61622244 -0.12857045 0.37220222 -0.03867589 0.54841137 0.14555223
-0.5591655 -0.4343437 0.39339674 -0.36982736 -0.04061157 0.49666762 -0.44724667 0.331342
-0.5307064 0.6152282 0.45304522 0.3857047 0.056040216 0.053561375 -0.58660305 0.1809295
0.6786703 -0.5250714 -0.46376514 0.28681612 -0.536712 -0.7359976 0.17722285 0.28037378
0.07721281 -0.54110426 -0.017203772 0.46161428 0.48872587 -0.2185122 0.59515953 -0.41111755
0.48491135 -0.1391793 -0.28342158 -0.004306587 -0.5607354 0.58327854 -0.18027933 0.55453295
-0.19881634 0.6798482 -0.56860185 -0.23418011 -0.2808445 -0.74268526 -0.43688133 0.3153082
-0.28380275 0.16417542 0.3537704 -0.73857015 -0.23677604 -0.3510121 0.6763887 -0.050470103
0.73144954 0.62121236 0.704002 0.5890279 -0.5551383 -0.47156858 -0.29408798 0.017477954
0.46374774 -0.015474266 -0.075523555 -0.60230535 0.3517563 0.22209206 -0.46478373 0.037414566
0.660136 0.33276552 0.32684457 0.4741692 -0.7729124 0.27124292 0.5512879 -0.65196437
0.69440925 0.40457594 -0.15899114 -0.7320838 0.05000268 0.26394778 -0.49305904 0.27482325
0.07685044 0.15275525 0.6321314 -0.27030557 0.51585454 0.3283083 0.20320652 0.10427205
0.63043636 -0.25946698 0.37511122 -0.09851659 0.1030275 0.48477885 0.38665178 0.40941897
-0.7040593 -0.60492206 0.49835432 -0.085988216 -0.6074182 -0.7443231 -0.21448106 -0.20782377
0.6804676 0.09057008 0.4918441 0.28535634 -0.6331853 -0.65608364 -0.5875642 0.66309726
-0.30251455 -0.408381 -0.21487692 0.3035864 0.58708435 0.6205247 -0.7424791 -0.10066352
-0.2756449 -0.3566463 0.7403866 0.0102550555 0.50448275 0.26850656 0.36864734 -0.42195183
-0.16220924 0.036987104 0.56507534 0.45017585 -0.13355364 0.34374046 0.30283174 0.036746144
0.01774149 -0.1868805 0.029596658 -0.6481737 -0.004045572 0.34933195 -0.6048734 -0.11814817
-0.46386275 -0.18578334 0.56902635 0.08580083 -0.6455885 0.5588149 -0.7356934 -0.5299576
0.28058094 0.4868581 0.109863445 0.085786484 -0.17352428 -0.6824804 -0.57109225 0.56271636
-0.26084027 -0.1050313 -0.21369354 0.0526245 -0.68329686 -0.2602843 0.5565974 -0.2909521
00000000: d4e5 c93e 5de9 0fbf b321 d73e a0c2 833e
00000010: d185 223f aa95 2a3f 9d6e 0c3f d253 1ebf
00000020: 0935 2ebf a6ca 053f 6d5b 22bf 8243 103e
00000030: 06a3 e03e 4a67 3bbf 3e82 02bf e48a 0ebe
00000040: 2b20 903d daab 283e c1c0 1dbf f9a7 03be
00000050: 4a91 be3e 9c6a 1ebd b064 0c3f a50b 153e
00000060: 7825 0fbf 4c62 debe 4c6b c93e 035a bdbe
00000070: 5158 26bd 384b fe3e 84fd e4be a9a5 a93e
00000080: 60dc 07bf 987f 1d3f 8bf5 e73e 167b c53e
00000090: 6d8a 653d 2c63 5b3d 9e2b 16bf 9545 393e
000000a0: 56bd 2d3f 146b 06bf a072 edbe 90d9 923e
000000b0: f565 09bf 576a 3cbf e879 353e 278d 8f3e
000000c0: c021 9e3d cf85 0abf edee 8cbc b558 ec3e
000000d0: 473a fa3e aac1 5fbe 605c 183f 007e d2be
000000e0: 4d46 f83e 0585 0ebe a21c 91be 451e 8dbb
000000f0: 5b8c 0fbf be51 153f 259b 38be dff5 0d3f
00000100: 8396 4bbe 880a 2e3f e48f 11bf e9cc 6fbe
00000110: daca 8fbe 9f20 3ebf e9ae dfbe 1470 a13e
00000120: 984e 91be 9a1d 283e 6521 b53e ef12 3dbf
00000130: 6b75 72be dcb7 b3be cf27 2d3f bdb9 4ebd
00000140: 4740 3b3f c607 1f3f 7a39 343f 88ca 163f
00000150: 8b1d 0ebf 7071 f1be b392 96be ed2d 8f3c
00000160: 5870 ed3e c787 7dbc 18ac 9abd af30 1abf
00000170: 6719 b43e 1a6c 633e 22f8 edbe 0440 193d
00000180: acfe 283f 3e60 aa3e 2c58 a73e 4ec6 f23e
00000190: 96dd 45bf 5ae0 8a3e 3421 0d3f 23e7 26bf
000001a0: cec4 313f 9424 cf3e 93ce 22be d869 3bbf
000001b0: 9ccf 4c3d 2a24 873e 3c72 fcbe a2b5 8c3e
000001c0: c363 9d3d df6b 1c3e 5dd3 213f 7e65 8abe
000001d0: 0b0f 043f 0718 a83e 5f15 503e 968c d53d
000001e0: 4764 213f dbd8 84be 940e c03e 11c3 c9bd
000001f0: 1500 d33d ef34 f83e 39f7 c53e 5d9f d13e
00000200: 3b3d 34bf 2cdc 1abf 4c28 ff3e 971a b0bd
00000210: c27f 1bbf f58b 3ebf eca0 5bbe c1cf 54be
00000220: 2033 2e3f ce7c b93d fdd2 fb3e 3a1a 923e
00000230: 6f18 22bf 19f5 27bf 9b6a 16bf bec0 293f
00000240: 30e3 9abe 5017 d1be b208 5cbe ad6f 9b3e
00000250: 294b 163f b5da 1e3f 1c13 3ebf ad28 cebd
00000260: 5421 8dbe 589a b6be fa89 3d3f d204 283c
00000270: c825 013f b179 893e 58bf bc3e 120a d8be
00000280: 2e1a 26be ca7f 173d c7a8 103f 737d e63e
00000290: 49c2 08be c0fe af3e c30c 9b3e 2083 163d
000002a0: 9a56 913c 9a5d 3fbe b174 f23c b6ee 25bf
000002b0: b890 84bb a3db b23e fcd8 1abf abf7 f1bd
000002c0: 6b7f edbe fd3d 3ebe b6ab 113f 58b8 af3d
000002d0: 4a45 25bf 7e0e 0f3f 6756 3cbf 4dab 07bf
000002e0: 4ea8 8f3e 7745 f93e 1600 e13d d3b0 af3d
000002f0: 59b0 31be 09b7 2ebf 1a33 12bf 2e0e 103f
00000300: db8c 85be a61a d7bd 7bd2 5abe ca8c 573d
00000310: 8bec 2ebf fc43 85be 2b7d 0e3f acf7 94be

fc_in.bias f4 [100]
-0.51733774 -0.30680886 0.09344643 -0.28103596 0.14176373 -0.5800246 0.10540292 0.16253938
-0.17055641 -0.047424104 -0.5739248 0.6132182 0.36940023 -0.5076402 0.6175685 0.516415
-0.6550042 0.6056696 0.67451704 0.21120209 -0.3568886 0.34032372 0.4400547 0.7050946
0.52569 -0.022655271 0.7552545 0.47136912 0.015505489 -0.25634983 -0.35506502 0.4140799
-0.45385703 -0.5136027 -0.5027295 -0.32519385 0.11822647 0.50206804 0.633489 -0.3075556
-0.48343292 0.6532011 -0.74283355 0.3182617 -0.2551492 -0.4882515 -0.2419909 0.31392157
0.46248263 0.73361135 0.29307625 -0.49192655 -0.13850223 -0.37793067 -0.36098126 -0.13084155
-0.5241096 -0.45352682 0.36580694 0.14265497 -0.032406013 0.35392678 -0.12174583 0.5586179
-0.6478689 -0.3984252 -0.59325385 0.26710856 -0.24006157 0.054970466 -0.6910098 0.71535414
0.2105047 0.39934096 0.32933798 -0.53100806 0.4230098 -0.47817504 -0.054164294 -0.1401042
0.48610544 0.33051082 0.2952527 -0.76996106 0.080754206 0.64614445 -0.06335718 -0.29296172
-0.4907295 0.07855625 -0.32520357 -0.1150929 0.3346435 -0.6516183 -0.36526254 0.20759252
0.0870172 0.37556034 -0.66299546 -0.15704073
00000000: 3f70 04bf 0d16 9dbe d860 bf3d f2e3 8fbe
00000010: 832a 113e 7e7c 14bf 7cdd d73d b970 263e
00000020: 57a6 2ebe c73f 42bd bcec 12bf defb 1c3f
00000030: 0722 bd3e b5f4 01bf f818 1e3f c633 043f
00000040: 5bae 27bf 2a0d 1b3f 26ad 2c3f 5c45 583e
00000050: 1aba b6be e93e ae3e da4e e13e 1481 343f
00000060: 9f93 063f 8c97 b9bc 5c58 413f 4b57 f13e
00000070: bc0a 7e3c 4940 83be 15cb b5be 4802 d43e
00000080: f35f e8be 777b 03bf e1b2 00bf cf7f a6be
00000090: b820 f23d 8887 003f 562c 223f ed77 9dbe
000000a0: 8584 f7be 3038 273f 572a 3ebf 33f3 a23e
000000b0: eaa2 82be 1afc f9be 76cc 77be 54ba a03e
000000c0: 86ca ec3e f4cd 3b3f 170e 963e ccdd fbbe
000000d0: 87d3 0dbe 2180 c1be 89d2 b8be 54fb 05be
000000e0: 0c2c 06bf ab34 e8be 0c4b bb3e 2514 123e
000000f0: 2bbc 04bd e435 b53e e155 f9bd 9501 0f3f
00000100: bcda 25bf 63fe cbbe 7cdf 17bf 74c2 883e
00000110: b3d2 75be b628 613d 05e6 30bf 7321 373f
00000120: 8b8e 573e 6b76 cc3e fd9e a83e 25f0 07bf
00000130: be94 d83e 5cd3 f4be 61db 5dbd 7a77 0fbe
00000140: d0e2 f83e b738 a93e 5d2b 973e 2b1c 45bf
00000150: 7662 a53d b969 253f 69c1 81bd 14ff 95be
00000160: e640 fbbe 19e2 a03d 1581 a6be d4b5 ebbd
00000170: 6556 ab3e 75d0 26bf b103 bbbe 2293 543e
00000180: 1336 b23d 7249 c03e 12ba 29bf 49cf 20be

fc_hidden.weight f4 [100, 100]
0.017680937 -0.032778803 0.009359578 -0.106377766 0.07415574 -0.11552737 -0.08328914 0.03351469
0.09317294 -0.033691123 -0.08477598 -0.063449435 -0.012329671 0.011054403 -0.080899976 -0.032360245
0.025718983 0.014018576 0.04785222 0.05063158 -0.020972507 -0.09089107 -0.012993581 0.073094174
-0.02822485 -0.040765647 0.07931891 0.054445133 0.018000595 -0.056555275 0.031934123 0.050418515
0.07586298 -0.08142076 0.005828738 -0.006942152 -0.029976893 0.07750644 0.007225898 0.032144412
-0.118628435 -0.057324234 -0.0273663 -0.07436538 0.037199255 -0.00079372304 -0.027407778 -0.002008588
0.08750305 -0.030797472 -0.07183969 0.06711378 -0.056326393 0.035872683 -0.06952206 0.018922158
0.08922245 0.0053795218 0.11186111 0.026063614 0.018516967 -0.07014883 -0.050426636 0.09432526
0.013971696 -0.19130033 0.022056652 0.03083128 -0.085019074 0.007017954 -0.03734025 0.04171672
0.015200312 -0.08951532 0.04595506 0.07485336 0.05682002 -0.066382505 0.024738025 0.0023337384
-0.06828514 0.09875173 0.051143736 -0.07339081 -0.022150338 -0.108587064 0.016141968 0.01205213
0.039796393 0.021592095 -0.09222473 -0.09069152 -0.05914637 0.077806585 -0.08717728 0.030310936
-0.030163184 -0.053795774 -0.004811296 -0.10902185 -0.038619317 0.05274796 0.009442146 0.042895112
0.038983557 0.15589207 -0.015319988 0.023404056 -0.19096838 0.012385434 0.052258458 -0.024636824
-0.0016399042 0.12529357 -0.033226814 0.045862276 0.07474871 0.07295419 -0.016772317 0.04532102
-0.049595267 0.0331692 -0.0651429 0.040426698 -0.019327212 0.050425757 -0.051789526 0.004938454
-0.08552645 0.054196104 0.029561965 -0.06484315 -0.006191511 0.057797126 -0.1221864 0.13498196
-0.070938274 -0.07221508 -0.058249038 0.025722353 -0.03367427 -0.11067965 -0.03025224 0.05615208
0.111334756 -0.082960784 -0.102839895 0.03726621 -0.11617826 0.034695975 0.08690121 0.062212147
-0.11860113 -0.08424894 0.28665125 0.02180706 -0.09169437 0.077481925 0.01852232 -0.07775418
-0.049923707 0.072092935 0.0030637386 -0.07379168 -0.09213 -0.019622443 0.026465936 0.073846854
-0.007823041 0.03727042 0.005575634 -0.0367946 0.05228547 0.058806382 -0.037420444 0.078468814
-0.079323426 0.07425083 -0.11235209 0.018465096 0.1022996 0.060145114 -0.03292236 -0.03103938
0.04834667 0.025795685 -0.04474718 0.086174235 0.099057086 0.06506457 -0.041869327 0.0059312093
-0.05850693 0.04073057 -0.041705094 0.09553785 -0.02444558 0.005715848 0.06798354 0.11148599
0.043491475 -0.08642209 0.06348494 -0.002652298 -0.013900086 -0.2720182 0.0298262 -0.01895432
-0.003463009 -0.018895864 0.1640534 -0.041741624 0.007986366 0.088823915 0.08884868 -0.08607275
0.04148938 -0.08679359 -0.07879206 -0.10493457 0.12092841 -0.098245084 -0.02936556 -0.033096693
0.10837361 0.011497767 -0.012503439 0.03434119 0.057238594 0.13278657 -0.020796368 -0.12815557
-0.17609893 0.07579027 -0.001886842 -0.11822852 -0.0048679058 0.12938341 0.12252343 -0.01862071
-0.073179394 -0.08351648 -0.05585016 -0.0071316417 0.104382165 0.12038194 0.01567826 -0.0491689
-0.0027547625 -0.07727537 -0.07447833 -0.061116833 -0.0018857549 0.053741943 -0.08322768 -0.16537681
00000000: 9dd7 903c 1143 06bd ea58 193c 96dc d9bd
00000010: f7de 973d 9d99 ecbd 7f93 aabd b346 093d
00000020: 74d1 be3d b4ff 09bd 079f adbd c7f1 81bd
00000030: 6302 4abc 871d 353c e3ae a5bd 2d8c 04bd
00000040: 9eb0 d23c 2bae 653c b000 443d 0f63 4f3d
00000050: 89ce abbc 1925 babd 07e3 54bc 66b2 953d
00000060: cd37 e7bc e1f9 26bd f471 a23d dc01 5f3d
00000070: fc75 933c 81a6 67bd 5bcd 023d a583 4e3d
00000080: 0d5e 9b3d edbf a6bd 00ff be3b fe7a e3bb
00000090: 1a92 f5bc b2bb 9e3d 3ac7 ec3b dca9 033d
000000a0: 77f3 f2bd d1cc 6abd 4a2f e0bc e04c 98bd
000000b0: 3f5e 183d da11 50ba 4786 e0bc 84a2 03bb
000000c0: cd34 b33d fb4a fcbc b020 93bd f372 893d
000000d0: 81b6 66bd 3cef 123d 9561 8ebd a402 9b3c
000000e0: 43ba b63d b346 b03b 7017 e53d 5c83 d53c
000000f0: e5b0 973c 31aa 8fbd 298c 4ebd 9a2d c13d
00000100: 8ae9 643c 3ce4 43be 27b0 b43c e191 fc3c
00000110: 7b1e aebd ddf6 e53b 17f2 18bd 27df 2a3d
00000120: bb0a 793c cf53 b7bd 5f3b 3c3d b84c 993d
00000130: 1cbc 683d 8df3 87bd 66a7 ca3c a2f1 183b
00000140: 14d9 8bbd 593e ca3d 187c 513d ec4d 96bd
00000150: a074 b5bc e562 debd 293c 843c 4c76 453c
00000160: 8b01 233d e8e1 b03c 52e0 bcbd 7abc b9bd
00000170: 7743 72bd 0f59 9f3d 008a b2bd a44e f83c
00000180: c818 f7bc f558 5cbd 13a8 9dbb d946 dfbd
00000190: 4a2f 1ebd 3f0e 583d 3bb3 1a3c c9b2 2f3d
000001a0: 39ad 1f3d 2ca2 1f3e b000 7bbc ddb9 bf3c
000001b0: 378d 43be 46ec 4a3c f70c 563d 2ad3 c9bc
000001c0: 0ef2 d6ba f54c 003e d718 08bd 15da 3b3d
000001d0: da15 993d 0269 953d 1966 89bc 89a2 393d
000001e0: 6824 4bbd 6ddc 073d a469 85bd 7796 253d
000001f0: 1a54 9ebc 3d8b 4e3d 4121 54bd c1d2 a13b
00000200: 7e28 afbd bcfc 5d3d ef2b f23c 7ccc 84bd
00000210: 29e2 cabb aebc 6c3d dd3c fabd b638 0a3e
00000220: 1648 91bd 80e5 93bd 8b96 6ebd afb7 d23c
00000230: 08ee 09bd 03ac e2bd 8cd3 f7bc b9ff 653d
00000240: 7a03 e43d 58e7 a9bd b99d d2bd 74a4 183d
00000250: deee edbd 5e1d 0e3d 43f9 b13d 2ad2 7e3d
00000260: 26e5 f2bd b58a acbd f4c3 923e b8a4 b23c
00000270: 42ca bbbd d8ae 9e3d 1fbc 973c 953d 9fbd
00000280: cd7c 4cbd 76a5 933d 01c9 483b 1820 97bd
00000290: a7ae bcbd 3fbf a0bc 17cf d83c 053d 973d
000002a0: 362c 00bc dea8 183d cfb3 b63b efb5 16bd
000002b0: 4a29 563d f6de 703d 2e46 19bd 42b4 a03d
000002c0: 5274 a2bd d210 983d da18 e6bd 1d44 973c
000002d0: 7482 d13d b95a 763d 99d9 06bd 4c46 febc
000002e0: 2807 463d 7951 d33c d248 37bd 1e7c b03d
000002f0: 71de ca3d 9340 853d 2c7f 2bbd 975a c23b
00000300: f6a4 6fbd 19d5 263d f6d2 2abd 59a9 c33d
00000310: 1942 c8bc 024c bb3b f43a 8b3d c452 e43d
00000320: 1e24 323d 11fe b0bd 6404 823d 2dd2 2dbb
00000330: 30bd 63bc f845 8bbe 1356 f43c 1746 9bbc
00000340: a6f3 62bb 80cb 9abc 9dfd 273e 44f9 2abd
00000350: 3fd9 023c 50e9 b53d 4cf6 b53d e946 b0bd
00000360: c5f0 293d d6c0 b1bd bb5d a1bd f0e7 d6bd
00000370: 50a9 f73d b834 c9bd 0b90 f0bc 6690 07bd
00000380: fcf2 dd3d 2161 3c3c 39db 4cbc 59a9 0c3d
00000390: 0473 6a3d 34f9 073e 255d aabc 373b 03be
000003a0: 4753 34be ee37 9b3d e94f f7ba cb21 f2bd
000003b0: f482 9fbb 167d 043e 90ed fa3d 768a 98bc
000003c0: 14df 95bd b00a abbd 23c3 64bd 8cb0 e9bb
000003d0: 51c6 d53d ce8a f63d b26f 803c 5465 49bd
000003e0: 3f89 34bb 8d42 9ebd 1888 98bd a555 7abd
000003f0: 6f2b f7ba 8320 5c3d 4673 aabd 8a58 29be

fc_hidden.bias f4 [100]
-0.05061855 0.07852335 -0.052484125 0.058101602 0.04234252 -0.05204017 -0.061744213 -0.020739324
0.069614895 -0.016718898 0.0031992062 0.018649483 -0.032800846 0.056129415 -0.052992024 -0.028344018
0.019939829 -0.03020081 0.06432831 0.03932456 -0.005217014 0.0069501493 0.08475119 0.055767573
-0.033832703 -0.0063860877 0.04006386 -0.07359979 -0.025370166 -0.06314248 0.05632832 0.024148978
-0.05328092 -0.039613783 -0.015820673 0.07212039 -0.054289363 0.044221934 0.004556926 -0.010480597
-0.014048088 0.0716842 0.0022281583 -0.0114961285 -0.03489578 0.111710526 -0.048044607 -0.030712008
-0.0282205 -0.019034112 -0.00951022 0.108255655 -0.010345669 -0.040687352 -0.05111743 -0.03336712
-0.08759682 0.08150184 -0.08610942 0.0818941 -0.07798586 -0.09912785 0.022692615 -0.055859737
0.09402535 0.028523322 -0.12131888 0.050757904 0.037477326 0.049460556 -0.01273662 -0.07704103
-0.06183861 0.10706026 -0.022801992 0.0014794462 0.080879785 0.06319097 -0.05480359 0.0638964
-0.001503648 -0.051134303 0.08299563 -0.22688739 0.037123032 -0.052558042 0.040013053 0.04616725
0.018170536 0.07001617 0.05909889 0.025412505 0.08091574 0.037012428 -0.05356554 -0.042776216
0.12076815 0.067690425 0.086945735 0.09055016
00000000: 6655 4fbd dad0 a03d 98f9 56bd f2fb 6d3d
00000010: 5a6f 2d3d 1328 55bd 80e7 7cbd 84e5 a9bc
00000020: 4192 8e3d 12f6 88bc c6a9 513b cdc6 983c
00000030: 2e5a 06bd f5e7 653d 2a0e 59bd b731 e8bc
00000040: da58 a33c b067 f7bc 90be 833d ca12 213d
00000050: 7cf3 aabb 14be e33b 0892 ad3d 8a6c 643d
00000060: 2994 0abd 6342 d1bb 011a 243d 7dbb 96bd
00000070: 18d5 cfbc d850 81bd 86b8 663d 14d4 c53c
00000080: 183d 5abd 1042 22bd 5b9a 81bc dbb3 933d
00000090: 865e 5ebd 0f22 353d 4452 953b cfb6 2bbc
000000a0: f429 66bc 2acf 923d 4b06 123b 425a 3cbc
000000b0: e1ee 0ebd 7dc8 e43d 6cca 44bd c097 fbbc
000000c0: ae2e e7bc 6ded 9bbc c1d0 1bbc 24b5 dd3d
000000d0: e280 29bc c8a7 26bd 8360 51bd f6ab 08bd
000000e0: f665 b3bd 70ea a63d 235a b0bd 18b8 a73d
000000f0: 0db7 9fbd 8b03 cbbd dde5 b93c 2ecd 64bd
00000100: 5d90 c03d bea9 e93c 0876 f8bd 85e7 4f3d
00000110: d381 193d 2797 4a3d 42ad 50bc b0c7 9dbd
00000120: 7b4a 7dbd 6942 db3d 3ecb babc fae9 c13a
00000130: 4da4 a53d 446a 813d bb79 60bd 1edc 823d
00000140: 0e16 c5ba 3472 51bd 9df9 a93d 2b55 68be
00000150: 520e 183d 1a47 57bd bae4 233d df19 3d3d
00000160: 60da 943c a364 8f3d ad11 723d e32d d03c
00000170: 27b7 a53d 589a 173d 8a67 5bbd 1d36 2fbd
00000180: 4b55 f73d 47a1 8a3d 9b10 b23d 5d72 b93d

fc_out.weight f4 [1, 100]
0.019068146 -0.105147935 -0.11784326 -0.006644952 -0.086348355 0.0293698 0.076787956 0.079933785
0.19232164 0.050046995 -0.25646636 -0.079558164 0.042286634 -0.035146885 -0.12392726 0.06647035
0.11437476 0.00380789 0.050172657 -0.04419104 0.06705973 0.020271728 -0.062449634 0.09410904
0.08996362 0.053209227 -0.04784031 -0.00031695087 -0.00069017906 -0.102458015 -0.12123509 0.07472582
0.11404232 -0.13608713 -0.11166138 -0.1443912 -0.13696538 -0.023793787 0.04013362 -0.10340724
0.12230567 -0.09142183 0.090736315 0.14398362 -0.09117366 -0.15186456 0.08661907 0.078295074
0.10247894 -0.042051982 0.12232201 -0.14328153 -0.07520716 0.042093568 -0.20266944 -0.059547205
-0.05629846 0.07758227 0.019819379 0.0587443 -0.06975542 0.039459147 0.12946473 0.094864465
-0.13278973 0.17225736 -0.10890134 0.042864583 -0.08185524 -0.114951394 0.09374084 0.022043087
0.05251467 0.021405596 0.042923182 0.022423835 0.08855002 -0.15023167 0.12689449 -0.10116031
0.007665522 -0.058315262 0.06277117 -0.22412334 0.06604731 0.044565197 0.10172722 0.12891299
0.038797982 0.09000701 -0.04257642 0.023235839 -0.0571967 0.0008997788 0.044665944 -0.09703792
-0.00927089 -0.1786981 -0.09705855 0.017201927
00000000: cd34 9c3c cd57 d7bd cf57 f1bd e6bd d9bb
00000010: 68d7 b0bd ef98 f03c 0143 9d3d 53b4 a33d
00000020: f7ef 443e 14fe 4c3d 8f4f 83be 64ef a2bd
00000030: c034 2d3d 2ef6 0fbd 93cd fdbd 9b21 883d
00000040: 503d ea3d cb8d 793b d881 4d3d aa01 35bd
00000050: 9d56 893d e510 a63c 30cb 7fbd 3ebc c03d
00000060: d93e b83d ebf1 593d 33f4 43bd 6d2c a6b9
00000070: 22ed 34ba 82d5 d1bd 1a4a f8bd da09 993d
00000080: 058f e93d 6d5a 0bbe b9ae e4bd 49db 13be
00000090: a740 0cbe 30eb c2bc 2763 243d 2dc7 d3bd
000000a0: 657b fa3d 5e3b bbbd f6d3 b93d 7170 133e
000000b0: 41b9 babd 6282 1bbe 5765 b13d 2b59 a03d
000000c0: 7ae0 d13d b33e 2cbd f683 fa3d 65b8 12be
000000d0: 3606 9abd 4e6a 2c3d 9488 4fbe c5e7 73bd
000000e0: 3799 66bd 74e3 9e3d 405c a23c dd9d 703d
000000f0: eedb 8ebd ea9f 213d 6792 043e 4d48 c23d
00000100: 08fa 07be 3c64 303e aa07 dfbd c692 2f3d
00000110: b8a3 a7bd a36b ebbd 33fb bf3d b493 b43c
00000120: 9f19 573d ca5a af3c 38d0 2f3d 31b2 b73c
00000130: b659 b53d 55d6 19be a1f0 013e 232d cfbd
00000140: 0f2f fb3b fcdb 6ebd 2c8e 803d 9780 65be
00000150: d043 873d ff89 363d 5c56 d03d c401 043e
00000160: a2ea 1e3d 9855 b83d 9d64 2ebd 1659 be3c
00000170: 1647 6abd 22df 6b3a a3f3 363d d1bb c6bd
00000180: eee4 17bc a2fc 36be a2c6 c6bd 0eeb 8c3c
