Copula by Ratio Estimation/2d_exp/model_parameters_NNet_ratio_25_runs_4copulas_2Dexperiment_ok/NNet_ratio_run_8_cop_u_2_ok.pt (torch, 45088 bytes, 5 tensors)

fc_in.weight f4 [100, 2]
000000 d6 2f 90 3e e0 a3 43 3c 73 a9 b4 bd fd 94 44 3e
       0.28161496 0.011940926 -0.088213824 0.1919746
000010 1d 72 e7 3e 80 cd 15 bd 4b 25 9b 3e 36 5f 97 3c
       0.4520425 -0.036572933 0.3030189 0.018478017
000020 9d 9d 2c 3e 89 13 ec be 7f f0 88 3e f8 54 2b 3f
       0.16857 -0.46108654 0.26745984 0.6692653
000030 09 92 e9 bd a5 34 24 be 98 87 1c 3e fd ee f9 3e
       -0.11404807 -0.16035707 0.152861 0.48815146
000040 25 b5 c0 bd 61 fb c9 bd 08 5b e2 be 9a 8d 21 bf
       -0.094095506 -0.098624 -0.44210076 -0.6310669
000050 c1 df 24 3f a5 70 d8 3e b3 0f 9b 3e 64 b7 c1 be
       0.6440392 0.4227344 0.30285415 -0.37835228
000060 8e 9c 10 3e 84 01 cf be b3 3a 00 3f 6e 47 f1 be
       0.14122221 -0.40430844 0.5008957 -0.4712481
000070 68 87 80 be fe 2c 91 bd e3 92 50 bf 07 83 4c 3b
       -0.25103307 -0.0708866 -0.8147413 0.0031206028
000080 e9 c1 cc 3e f3 5f 15 3e 77 0d 11 3f 72 0c d5 be
       0.39991692 0.14587383 0.5666117 -0.41611058
000090 14 17 03 3f 79 1a 33 3f e1 ee a6 be 6e c5 37 3e
       0.5120709 0.6996227 -0.32604125 0.17946407
0000a0 d5 99 15 bf 08 fd 2d 3f 00 36 8d bd 57 e2 ec be
       -0.58437854 0.6796422 -0.06895065 -0.46266434
0000b0 51 cf 91 be 1a 64 57 3e db 29 bd bc 1c 1e 04 3e
       -0.28478482 0.2103428 -0.023091247 0.12902111
0000c0 53 34 23 bf ca 3e d8 3e 68 8b b0 be c1 b1 92 be
       -0.63751715 0.42235404 -0.3448136 -0.2865124
0000d0 c8 b0 97 3c 3e 1c 2b be 75 11 19 3f ac eb 8b 3e
       0.018516913 -0.16709992 0.5979226 0.2732824
0000e0 d2 12 56 3e 10 c1 15 3f 3b 0f ef 3e 23 cd 19 bf
       0.20905617 0.58497715 0.46691307 -0.6007864
0000f0 9c 83 ba 3e 4f 36 6a 3e 9d 13 fb 3e 77 41 09 bf
       0.36428535 0.2287228 0.490384 -0.53615516
000100 4b 61 39 be 51 2e 73 3d dc 53 f9 3e 09 13 b6 3e
       -0.1810352 0.059370343 0.48696792 0.35561398
000110 ee d5 9f be a9 df b2 3e d4 6b 37 3e ce 98 ee bd
       -0.31217903 0.34936264 0.17912227 -0.11650239
000120 d8 ab c5 3d 58 08 fd 3e 0e 6b 19 3f df 9e ba 3e
       0.09651917 0.49420428 0.5992898 0.36449334
000130 37 8f 9f be 90 b3 1b 3f 14 c0 0c 3e ac 13 d8 be
       -0.31163952 0.60820866 0.13745147 -0.42202508
000140 da 5e f9 3c 1f 67 18 3f 9d 7e cc 3d 33 eb e1 3e
       0.030440737 0.5953235 0.09985087 0.44124755
000150 d0 dc 1d bf b1 c9 e1 be 50 68 17 be 45 2b 09 bf
       -0.6166506 -0.4409919 -0.14785886 -0.5358165
000160 c3 86 bf 3d f3 eb 3b 3f 0e cf 0d bf 98 0f ea 3e
       0.09351876 0.73406905 -0.55394065 0.45715022
000170 1b 79 24 bd f8 3b 44 bf e4 db 84 be a5 55 c7 be
       -0.040154558 -0.76654005 -0.25949013 -0.3893253
000180 3f d6 9d 3e 39 09 26 be 71 28 b4 3e 40 32 1b 3e
       0.3082752 -0.16214456 0.35187104 0.15155888
000190 60 c4 90 be 05 5f 14 3f b8 55 4f bf ca 11 32 bf
       -0.28274822 0.5795749 -0.8099017 -0.69558394
0001a0 a1 09 32 3f ff c1 21 bf a4 ea d4 3e 7c 6a 12 3f
       0.6954594 -0.6318664 0.41585267 0.5719373
0001b0 36 dc 23 bf a0 4e 0e 3d 52 58 e7 3e a1 c0 9d 3d
       -0.6400789 0.03474295 0.4518457 0.07702757
0001c0 62 c8 2d 3f e3 c3 8a 3e 07 47 e3 3e 31 36 14 3f
       0.67883885 0.27102575 0.44390127 0.5789519
0001d0 37 c0 db 3e 92 ab 28 3e 10 80 f3 3e 65 49 c4 3e
       0.42920086 0.16471699 0.4755864 0.38337246
0001e0 eb cc b3 be f8 08 8d 3e c1 e1 82 be db fe 65 3d
       -0.35117278 0.27545905 -0.25562862 0.056151252
0001f0 bc 23 9a 3e 63 92 ff be a5 00 c1 3c ac 52 32 3f
       0.30105388 -0.49916372 0.023559878 0.696574
000200 48 6a ce be cf c0 2d bf a6 97 55 3e 54 13 1e 3f
       -0.4031546 -0.6787233 0.2085863 0.6174824
000210 82 fb 9e 3e e0 a1 2a 3f cd 65 f3 3e e0 d5 24 bf
       0.3105126 0.6665325 0.47538605 -0.6438885
000220 00 5b 14 3f 03 8a 6e bd 6a 9b 2c 3f 70 cb 0a 3f
       0.57951355 -0.058237087 0.67424643 0.5421667
000230 2d f5 1f bf 64 4b 8d be 8c 3d ee be 40 9f 99 3d
       -0.62483484 -0.2759658 -0.46531332 0.07501078
000240 3c 14 91 3e e1 8d e1 be 2b 22 11 3f ca 16 f9 be
       0.2833575 -0.44053558 0.5669276 -0.486502
000250 6f da 5d be d1 7d 5a be 65 ec f9 bd de 0c 04 3f
       -0.21665357 -0.21337058 -0.12203292 0.51582134
000260 79 1c 14 be 32 e4 f8 be cf e6 0c 3f d8 28 3f 3f
       -0.14463986 -0.486116 0.55039686 0.746717
000270 f4 65 b6 3e e6 0d e9 be 25 a4 1e 3f 1c 99 0b 3f
       0.3562466 -0.45518416 0.61969215 0.545305
000280 c7 53 22 bf 60 59 91 3e ca f4 06 bf d9 31 bc 3e
       -0.63409084 0.283885 -0.5271727 0.3675678
000290 92 2f 77 3e 64 00 02 be c4 6b 49 bd d7 68 04 3f
       0.2413924 -0.12695462 -0.04917504 0.5172247
0002a0 8b 4d d5 3d 77 0f 2d bf d6 1a 4e 3d e7 f2 07 be
       0.10415181 -0.6760172 0.05031856 -0.13276254
0002b0 c7 cb 28 3f 7f c0 b6 be cd 10 eb be 63 73 f9 be
       0.6593594 -0.35693738 -0.45911255 -0.48720846
0002c0 82 5a 92 be 5a de 19 3e 93 ae c1 3e 6e 8c 79 3e
       -0.28584677 0.15026227 0.37828502 0.24369976
0002d0 2d 6d 18 bf 71 fb c0 3e 7e 3b 88 be e5 a9 eb be
       -0.5954159 0.37691835 -0.2660789 -0.46028057
0002e0 c6 df 17 bf 68 e8 34 bf 33 ba 13 3f be ce a4 be
       -0.59325826 -0.70667124 0.5770599 -0.32188982
0002f0 85 63 c0 3e 07 34 01 bf 87 97 b5 3e 95 d4 ee 3e
       0.37575927 -0.5047001 0.3546717 0.46646562
000300 03 0f a0 3e 87 f1 8f be 5c 7d bd be cd f4 cb 3b
       0.31261453 -0.28113958 -0.37009704 0.006224251
000310 58 ae 8a bc d4 de 7b be b1 1c 1c bf d3 4b 27 3f
       -0.016928837 -0.24596721 -0.6098128 0.65350074

fc_in.bias f4 [100]
000000 eb 34 ad 3e 3f b0 8f 3e 05 ea e8 3e 47 03 be 3e
       0.33829436 0.28064153 0.45491043 0.37111875
000010 d4 b9 b9 be 97 27 86 3e 26 80 52 3e 11 df 21 3f
       -0.36274588 0.2620208 0.20556697 0.63231
000020 eb bc 37 3f 42 f9 a1 be 47 ad 3b 3e 18 33 16 3f
       0.7177264 -0.3163548 0.18327819 0.5867171
000030 c1 42 10 be c3 87 99 be 59 a2 2b 3f d5 f7 24 3f
       -0.14087965 -0.2998639 0.670446 0.6444066
000040 0e a6 b0 3e e4 f0 91 be e5 5d 06 3f 53 84 e6 3e
       0.3450169 -0.28504097 0.5248702 0.4502283
000050 c4 ff 2c 3f d8 83 ee 3e b2 a5 4b 3e 6e 2b 19 bf
       0.6757777 0.46584964 0.19887426 -0.59831893
000060 7d df 82 3e 3a 28 2c bf b2 38 35 3f 26 c7 0e 3f
       0.25561133 -0.6724888 0.70789635 0.55772626
000070 89 87 3a 3e 4e 17 f0 be af 12 0e bf 91 26 24 3e
       0.18215765 -0.4689278 -0.5549726 0.16030337
000080 33 ea d8 be a8 4a 16 bf 01 fd 81 3e 50 c2 16 3f
       -0.4236618 -0.58707666 0.2538834 0.5889025
000090 95 20 a2 be a0 51 e1 3d 39 ac 1e 3f 47 28 d3 3b
       -0.31665483 0.11001897 0.6198154 0.0064440104
0000a0 75 b6 1f be 5f a2 27 3f 8c 17 20 3f 05 45 0a bf
       -0.15596946 0.65482134 0.6253593 -0.54011565
0000b0 36 ee 0a bf 2c b6 23 bf d8 5c 7d 3e 08 9e 12 bd
       -0.5426973 -0.6394985 0.24742448 -0.03579524
0000c0 40 33 9c be 77 1d 36 3f cd be 77 3e 29 82 43 3f
       -0.3050785 0.7113871 0.24193878 0.76370484
0000d0 45 40 93 3d 3f bd 25 3d 57 67 85 be 3a 31 0c be
       0.07189993 0.040463682 -0.26055405 -0.13690653
0000e0 f8 4b 14 bf a5 00 40 bf e6 99 c5 3e 01 fc c1 bc
       -0.5792842 -0.75000983 0.38593978 -0.023679735
0000f0 b0 35 07 bf a2 0d 33 3f 71 63 6d be c3 7c 21 3e
       -0.52816296 0.6994268 -0.23182465 0.15770249
000100 84 a2 31 bd 74 d5 41 3e c8 67 28 bf 65 9f 20 3f
       -0.043367878 0.18929082 -0.6578336 0.62743217
000110 29 27 2f bf ba fe 0b bd cb 3f 1e 3e 75 36 11 3f
       -0.6841913 -0.034178473 0.15454023 0.5672372
000120 01 33 eb 3e 53 87 c1 be 02 b3 a4 be 9e 1d 82 3e
       0.4593735 -0.37798557 -0.32167822 0.2541322
000130 16 f8 2e 3f 5b 26 12 bf 82 66 09 3d e2 8a 2f be
       0.683473 -0.57089776 0.033545025 -0.17142823
000140 67 dc cd be 9a e6 18 bf 30 ff 74 be 07 86 b5 be
       -0.40207216 -0.5972687 -0.23925471 -0.35453817
000150 fd 59 fb 3d c2 61 1d 3f 64 25 2a bf 22 ae 73 bc
       0.12273023 0.6147729 -0.66463304 -0.0148730595
000160 4d e3 90 3e 47 a0 16 bf 25 ac 6d 3e e3 7a e1 3e
       0.28298417 -0.58838314 0.23210199 0.44039068
000170 63 1f a2 be 72 3d 80 3e f9 69 f9 3e f3 cf 28 3f
       -0.3166457 0.2504688 0.48713663 0.65942305
000180 bf e0 cc be 3b e1 e7 be db d5 2d bf 46 8c 2e be
       -0.40015218 -0.45289025 -0.6790444 -0.17045698

fc_hidden.weight f4 [100, 100]
000000 a5 63 f7 3d c8 e1 43 3d 86 12 2d bd 2b 61 a6 3d
       0.120795526 0.047822744 -0.042253993 0.08124002
000010 4e 85 01 be 25 1a 53 bd 39 0b f6 bd d7 d9 bb bc
       -0.12648508 -0.051538605 -0.12013859 -0.022931023
000020 86 9d 45 bd 86 72 f5 3c 51 5f c1 3d 4b 60 94 bd
       -0.04824593 0.029961836 0.09442008 -0.07244929
000030 a8 cf 0f be fa 14 3a bb 15 49 54 3d 73 25 18 3e
       -0.14044058 -0.002839385 0.05182751 0.14858036
000040 79 13 a0 3d be 0d d1 3c af 0b 9a bc 29 d4 b9 bb
       0.07816214 0.025519248 -0.0188044 -0.0056710434
000050 b3 5d df bd ac ab cc 3d fa e5 06 be 3b 5f 30 3e
       -0.109065436 0.09993681 -0.13173667 0.17223828
000060 d7 1b 9b bd 46 70 10 3c 11 fc 83 bc dc d7 ea 3d
       -0.075736694 0.008815831 -0.016111406 0.11466953
000070 d1 d6 2e 3d 23 ea d5 3c 9b 43 4d 3d d3 c8 d3 bc
       0.042685334 0.026112622 0.0501133 -0.025852596
000080 12 db 9c bd f7 11 a0 3c 18 35 ed bc 94 75 7b 3d
       -0.07658972 0.019539816 -0.028955981 0.061391428
000090 54 b7 5c bd 94 1d d8 bc f6 eb 7b 3c 76 c9 55 3d
       -0.053885773 -0.026381291 0.015376082 0.05219408
0000a0 38 57 ad 3c 0f 78 d8 ba bc 25 4b be 93 2d b2 bd
       0.021159753 -0.0016515272 -0.19838613 -0.08700099
0000b0 73 f2 d6 bd 33 9e 80 bb ad 9d 5b 3c 26 5c 0a be
       -0.10495462 -0.003925109 0.013404292 -0.13511714
0000c0 23 e9 40 be 8a 70 b5 3d 9b ae f3 bd 45 81 20 be
       -0.18838935 0.08859356 -0.11898538 -0.15674312
0000d0 96 db ac 3b ae 77 54 bd 2a 67 90 bd 3e 37 33 bc
       0.0052752 -0.051871948 -0.07050927 -0.010938464
0000e0 f3 cd 5e 3d 7b b6 2e bd 47 15 44 3d 7a 5d b1 3d
       0.054395627 -0.042654496 0.047871854 0.08660407
0000f0 97 61 8d 3c 61 0c 8a bd 14 28 10 3c 9d 75 18 3d
       0.017258449 -0.06740642 0.008798618 0.03722154
000100 0b d3 09 be ae 56 7a 3d 8f 29 0d bd 79 87 4d 3d
       -0.13459413 0.06111782 -0.03446346 0.050178025
000110 43 47 21 be 1b c8 62 3d d3 a5 c4 3d 02 56 14 bb
       -0.1574984 0.055366617 0.09601941 -0.0022634272
000120 9c 6e d0 bc 7c 38 2e 3d 06 15 c4 bd e2 56 da 3d
       -0.025443368 0.042534336 -0.095743224 0.10661103
000130 ba d2 82 bd 5f c9 74 bd 65 f1 2e bd c8 52 da bc
       -0.06387849 -0.059762355 -0.04271068 -0.026650801
000140 6d c5 4d 3c 4e 32 a0 bc 94 3d 1b bd d6 df fe 3c
       0.012559277 -0.019555237 -0.037900522 0.031112593
000150 8d 04 c4 bd 30 18 04 3e f5 71 09 3c 5e 6a 07 be
       -0.095711805 0.12899852 0.008388986 -0.1322417
000160 5a 32 e9 bd 87 61 67 3d 4d 80 ae bb 7b 4e 4e bc
       -0.11386557 0.056489494 -0.0053253532 -0.012591953
000170 c5 c8 9f 3d 77 45 c1 3d a2 56 b9 3d b4 b6 82 3d
       0.078019656 0.094370775 0.09049727 0.06382504
000180 8b 52 cc bb e2 1c 09 3d 76 36 8c bd c6 43 b4 3d
       -0.006235426 0.03347481 -0.06846325 0.08801989
000190 bf d9 e5 bd 06 4e a3 3d 61 f3 34 bd 69 47 a7 bd
       -0.112231724 0.07973866 -0.044177417 -0.08167917
0001a0 5f b7 e3 bd a0 b5 2b be dd 7a 8d 3c af a7 3b bd
       -0.1111896 -0.16768503 0.0172705 -0.045814212
0001b0 e9 76 32 3d d7 2b 1f bd c5 ee ee be 79 5b 04 3d
       0.043570433 -0.03886017 -0.46666542 0.032313798
0001c0 db 27 48 bd f2 0a 23 3d a1 0c aa 3d 64 ce 9d bc
       -0.048866134 0.03980536 0.0830319 -0.019263454
0001d0 3a 4d e0 3d 83 f4 07 be 79 c6 bb bd 2b 29 f4 bd
       0.1095223 -0.13276868 -0.09168715 -0.11921915
0001e0 c6 7c df bd 72 0d 16 3c 3c f8 06 be 3a fb bf bc
       -0.109124705 0.009158479 -0.13180631 -0.023435224
0001f0 7d cb 3c be fc c1 df 3d 79 1a c2 bb 94 87 7f bd
       -0.18437 0.109256715 -0.005923566 -0.062385157
000200 e8 77 22 3d 3f f5 c3 3d e9 6d 7a bc 32 08 93 bd
       0.039665133 0.09568261 -0.015284994 -0.071792975
000210 da 75 50 3d e9 1a db 3c 0a 9f 89 3d 78 1c 8d 37
       0.050893642 0.02674623 0.067197874 1.6821767e-05
000220 12 30 59 3d d5 bc 99 be c1 eb 36 3d d3 c4 f8 bc
       0.05302436 -0.3002688 0.044658426 -0.03036729
000230 55 d6 0e 3d 7a b2 88 3d f1 6f 34 3d 6c 2b 3b bd
       0.03487237 0.06674667 0.04405207 -0.045695707
000240 c5 cf 5b bd dc 29 3a 3d 32 db a2 3d 29 49 3d 3d
       -0.05366494 0.045450076 0.079519644 0.04621235
000250 e5 7a c2 3c 5c 6c 7a 3d f7 2c ac bd 64 29 c5 bd
       0.023740241 0.061138496 -0.08407014 -0.09627035
000260 cf 27 4d 3c 86 fa ec bd 42 59 78 bd 75 81 51 3d
       0.012521698 -0.11571221 -0.060631998 0.05114885
000270 63 8e eb bd 9a 60 9f bd 06 fa 46 bd 4a fd 71 3d
       -0.115017675 -0.07782097 -0.048578285 0.059079446
000280 e5 a6 a3 3d 85 f6 6f 3d 6b 31 89 3d 16 db 82 be
       0.07990817 0.05858471 0.06698879 -0.25557774
000290 e4 fa 8d 3d 0b 0a 2b 3e de 50 b0 3d 8a d7 e6 3c
       0.06932619 0.1670305 0.08609174 0.028178949
0002a0 4f 96 2b bd a2 a9 d5 3d 48 3d 37 3c 85 a6 25 bd
       -0.041891392 0.104327455 0.011184044 -0.04044201
0002b0 ab 14 a4 3d c7 52 b6 3d 33 7d 44 3c 28 d6 0e be
       0.080117546 0.08902507 0.01199274 -0.13948882
0002c0 1c b8 25 bd de 6a 02 be 9c 36 c9 3c 2f 9e c4 bd
       -0.040458784 -0.12736079 0.024562173 -0.096004836
0002d0 76 a4 be bc 36 51 2c 3e cd fe 6f be 46 9d b8 bc
       -0.02327178 0.16827855 -0.23437043 -0.022535931
0002e0 a3 9a c8 3d 96 3c 9e bd 3a 83 8b 3b 8a 12 7e 3c
       0.097951196 -0.077263996 0.004257587 0.01550735
0002f0 f8 89 9b bd a0 7f 22 3c a4 63 7b bd af 85 8d 3d
       -0.07594675 0.0099181235 -0.06137432 0.06910264
000300 c5 84 dd bc 40 fd 48 3d 7e f6 71 bd ff 36 39 3e
       -0.027040849 0.049069643 -0.059072964 0.18087386
000310 59 c7 91 3d 26 b0 16 be 45 ca a7 bc 51 87 e3 bc
       0.07118101 -0.14715633 -0.020482192 -0.027774485
000320 ff cc 9d 3c 7e 86 b2 bd c1 87 c2 bd 78 3c d8 bd
       0.019262789 -0.087170586 -0.09498549 -0.105584085
000330 95 f7 ab bb 03 6a 0d bd 1f cc 7c bc 1d 7b b3 bd
       -0.00524802 -0.03452493 -0.015429526 -0.08763716
000340 ef 08 cc 3b 4f 31 3c bb 33 a3 08 39 57 33 96 3d
       0.006226651 -0.0028715914 0.00013030767 0.07334011
000350 66 1e 8c 3d 90 4b 76 3d 9d 37 01 bd 17 2d 9e 3d
       0.068417355 0.060130656 -0.031547178 0.07723444
000360 f3 b0 ae 3c 1d dc 27 bd 91 aa b4 3c 74 2d f7 bc
       0.02132461 -0.0409814 0.022053989 -0.03017304
000370 49 2b 9b bc cf c0 89 bd a4 29 81 3d 80 67 f3 3b
       -0.018941538 -0.067262284 0.063067704 0.0074281096
000380 49 a0 09 bc eb 8a 1c bd be f2 a3 3d 6d b4 1e bd
       -0.008400031 -0.03821842 0.08005284 -0.038746286
000390 66 08 88 3d e8 9f 8e bd a0 e5 9b bd 67 76 72 bc
       0.06642227 -0.069640934 -0.07612157 -0.014798737
0003a0 17 49 24 3d ef 56 72 bd 20 62 8b bd 5e e0 ee bd
       0.040108766 -0.059164938 -0.06805825 -0.116638884
0003b0 40 0d 58 3d 91 85 02 bd 60 50 cc bd b9 e2 4d 3d
       0.05274701 -0.03186566 -0.09976268 0.050265048
0003c0 73 80 ac bd 4e 68 31 bc 04 4e 95 3d b6 8c d8 3c
       -0.08422937 -0.010828091 0.07290271 0.026434284
0003d0 e0 43 a3 bc db 9a ca bc 05 71 35 bd b7 06 cf 3c
       -0.019929826 -0.024732044 -0.044297237 0.025271757
0003e0 58 f0 c3 3d 04 9e da bd 3a 95 dd bd 4e c8 b3 3d
       0.09567326 -0.1067467 -0.10819478 0.087784395
0003f0 27 75 b4 bd 37 cb c2 3d 7a 21 88 bd 11 45 d2 bd
       -0.088114075 0.095114164 -0.0664701 -0.102670796

fc_hidden.bias f4 [100]
000000 16 3e be b9 fb 98 b1 3d 3f 1e d5 bd 7b 8c db 3d
       -0.00036285882 0.08671757 -0.104061596 0.10720154
000010 f7 b3 89 3d 93 14 a7 3d 27 84 dd bc cc 11 96 bd
       0.06723779 0.08158221 -0.027040554 -0.07327613
000020 1b 49 cb bb 44 b5 3a 3c d6 c2 f9 3c 4b 75 f6 3d
       -0.006203783 0.011395756 0.030488413 0.120340906
000030 d7 f6 83 3b ca b7 a1 3d 05 05 31 bc 6f 80 ae bb
       0.0040272283 0.07896383 -0.010804419 -0.005325369
000040 71 30 8d 3d a0 3c a9 3d 2b 5c 9a 3d 35 92 91 bd
       0.06894005 0.082635164 0.07537111 -0.07107965
000050 0c b9 99 3c db 3c 1e 3d d6 76 d5 3d 85 76 1d be
       0.018764995 0.038632255 0.10423057 -0.15377243
000060 c4 8b 76 bb 72 9e 56 bd 93 48 85 3c ee 28 03 3e
       -0.0037619928 -0.0523972 0.016269958 0.12808582
000070 3c fc 35 3c 18 3c 32 bd a9 6e b5 bd 32 15 50 3d
       0.011107501 -0.04351434 -0.088589974 0.050801463
000080 f8 ec af bd 03 bd 9d 3c 88 55 b9 3d 4d 39 89 bc
       -0.0859012 0.019255167 0.09049517 -0.016750956
000090 57 e0 7e 3d 0b 64 36 bd 57 8d 91 ba 7f c8 81 3d
       0.062225666 -0.044529002 -0.0011104745 0.0633707
0000a0 e7 aa b1 3c 0e 46 3a 3d e3 40 9b bd b3 72 e6 3c
       0.021687938 0.045476966 -0.075807355 0.028130865
0000b0 52 eb 33 3d d3 6a 8f 3c e6 29 c4 bd 65 f4 bd 3d
       0.04392559 0.017506992 -0.09578304 0.0927513
0000c0 74 2a 1e 3d 5b 8a a5 3d cf 26 52 3d b8 db 81 3b
       0.038614705 0.0808303 0.051306542 0.00396296
0000d0 be 7c 76 bd f2 f9 90 bd d4 26 17 3d 83 aa 83 bd
       -0.060177557 -0.07078923 0.036902264 -0.06429007
0000e0 f7 72 97 3c ab 75 a5 bd 4f 31 20 3d f5 ae a7 3d
       0.018487437 -0.08079084 0.039109524 0.08187667
0000f0 56 17 0d 3d 4d 3b aa 3d 72 3d 54 bc 22 4f 23 3d
       0.034446083 0.08312092 -0.012954103 0.03987039
000100 58 70 81 3d 72 ce 2f bd b1 19 35 3d 81 a2 5e bc
       0.06320256 -0.04292149 0.044213954 -0.013588549
000110 07 e0 2f bd 47 b3 c3 bd a2 38 13 3c 29 67 98 bc
       -0.04293826 -0.09555679 0.00898567 -0.018603878
000120 bb 88 e3 bc e9 bb 8c bd dd 2b a1 3c 98 bf 85 3c
       -0.02777516 -0.068717785 0.019674236 0.01632671
000130 e9 bd c4 bc 61 2c 89 3c a2 d7 6e 39 f7 ac 52 bc
       -0.024016337 0.016744794 0.00022777778 -0.012858621
000140 e4 18 3c bd 92 d7 43 bd a3 fb 94 bc 84 1e d1 3c
       -0.045922175 -0.047813006 -0.018186396 0.025527246
000150 0b b1 ff 3c a9 d7 c9 3d eb 56 0f bd 13 1e 91 bb
       0.03121235 0.09855587 -0.034995 -0.004428634
000160 27 bf 02 3e 63 39 8b 3d 64 0c 82 bd 48 2c af 3d
       0.12768231 0.06798055 -0.063500196 0.08553368
000170 53 e3 f0 bc 4d 99 e8 3d d3 06 06 bd 29 0f 52 bd
       -0.029405272 0.11357365 -0.03272135 -0.05128399
000180 40 6b 7b 3d 05 2f 0b bc 52 18 b1 3d 36 5b 86 3d
       0.06138158 -0.008495097 0.08647217 0.06560366

fc_out.weight f4 [1, 100]
000000 b9 24 1f 3e 5b b9 3f be b2 20 79 bc 28 00 a4 3d
       0.15541352 -0.18723051 -0.015205549 0.08007842
000010 3a f0 4d bd f3 b1 1f be 82 85 8a bd 70 55 d5 bc
       -0.050277926 -0.15595226 -0.06763746 -0.026041716
000020 bd af 29 bd f6 c3 cb 3d a9 46 cc 3d 1d 08 c0 3d
       -0.041427363 0.09949486 0.09974415 0.093765475
000030 d2 e5 9d 3c c9 83 a9 3d c3 8b 9a 3c 59 51 97 3d
       0.019274626 0.08277089 0.018865472 0.07388563
000040 e3 3b d6 3d 2c cd 03 3e 46 a2 9d 3d 08 39 0f 3e
       0.10460641 0.12871236 0.07696967 0.139866
000050 90 a8 2a bd 24 02 31 bd 4f e0 8e bd 10 69 58 3e
       -0.04166466 -0.043214932 -0.06976377 0.21133828
000060 83 01 40 3d 6a 57 0d 3e f1 fd 97 3d 73 b0 5c 3d
       0.04687644 0.13802877 0.07421482 0.053879213
000070 16 a9 c6 3c a4 3a 28 3d 73 2e 66 3d 6d 64 99 bd
       0.024250548 0.04107155 0.05619664 -0.07489858
000080 33 66 7f bd 11 3b 61 3e ca ea 35 bd d7 6b f1 3d
       -0.062353324 0.21995188 -0.044413365 0.11788147
000090 43 51 ba 3c 08 3b 1c 3d fb aa 26 3d 55 5f fa bd
       0.022743827 0.038142234 0.040690403 -0.122252144
0000a0 e7 5e 22 3e a2 48 17 be 79 0a ab bd 0b 6b 80 3d
       0.15856515 -0.14773801 -0.08351607 0.06270417
0000b0 73 c7 1c be 8f 6a de bd 7c 9b 48 bd 74 75 c5 bd
       -0.15310459 -0.10860168 -0.048976406 -0.09641543
0000c0 e4 95 14 be 82 35 38 bd 7b 60 9e bd ba 00 d9 3d
       -0.14510304 -0.044972904 -0.07733246 0.10595842
0000d0 eb fd 47 3d 1e 3f 3d bd 6a 23 0d 3e b5 2a ec 3d
       0.04882614 -0.04620277 0.1378304 0.11531583
0000e0 64 ed 32 3e d2 b5 a0 3d c5 54 14 3e 08 63 97 bd
       0.1747337 0.078471795 0.14485462 -0.073919356
0000f0 d2 f6 ce 3d 40 5b c2 3c 2a cc 60 bd 89 f7 cf 3d
       0.10105671 0.023725152 -0.054882206 0.101546355
000100 55 0d a8 3c ab 67 e7 bd fd ad c6 3d 92 90 12 be
       0.02051417 -0.1129907 0.097011544 -0.14312962
000110 6e 1b c9 bd ef 9e e7 bd 51 49 19 3e 21 f0 e7 bd
       -0.09819685 -0.11309611 0.14969374 -0.11325098
000120 a1 f7 d3 bd 85 8c 16 be f4 01 ae bd 7a fe 37 3c
       -0.10349966 -0.14702041 -0.08496466 0.0112301055
000130 2c db d4 bd 1c 60 6d bd b7 02 e2 bd e5 c5 ba 3d
       -0.10393366 -0.057952985 -0.11035674 0.09119777
000140 8b 50 c1 bd 39 dd 9e bd 66 67 b3 3d 61 d5 3a 3e
       -0.094391905 -0.077570386 0.08759956 0.1824546
000150 f9 66 d9 3d e6 87 00 3e 0e 2d a6 bc c0 74 3a 3c
       0.106153436 0.12551841 -0.020285156 0.011380374
000160 89 dc 76 bd a4 7b 0f be 7e 18 b6 3d 3b 9a 02 3e
       -0.060268912 -0.14012009 0.0889139 0.12754147
000170 38 b7 0b 3e 0a 92 92 3d 25 99 f5 bd cb 12 a0 bd
       0.13644111 0.07156761 -0.119921006 -0.078160845
000180 e2 b2 be bd b4 f4 90 3d c9 10 a4 bd 8b a3 98 bd
       -0.09311463 0.070779234 -0.08011014 -0.07453068
