Copula by Ratio Estimation/2d_exp/model_parameters_NNet_ratio_25_runs_4copulas_2Dexperiment_ok/NNet_ratio_run_1_cop_u_3_ok.pt (torch, 45088 bytes, 5 tensors)

fc_in.weight f4 [100, 2]
0	0x3f0480f9	0.51759297
1	0xbf129423	-0.5725729
2	0x3e495606	0.19661722
3	0xbdf59e04	-0.1199303
4	0x3ee961dc	0.45582473
5	0xbee49951	-0.4464822
6	0xbed15b9f	-0.40890214
7	0x3f1170c3	0.56812686
8	0xbf31df03	-0.69480914
9	0xbe5221cd	-0.20520706
10	0x3f39df5f	0.7260646
11	0xbd42b1f3	-0.047532987
12	0x3e9d9dc5	0.3078443
13	0xbda8a5ed	-0.08234773
14	0x3f26b4a1	0.6511937
15	0x3f310004	0.6914065
16	0x3ebe61d7	0.3718402
17	0xbe2ff602	-0.17183688
18	0xbe9a8b54	-0.30184424
19	0xbedf7828	-0.4364636
20	0xbf2444ca	-0.64167464
21	0x3f205bdc	0.62640166
22	0xbf238974	-0.6388161
23	0x3ef9d896	0.48798054
24	0x3f26eb0e	0.65202415
25	0x3e09c803	0.13455205
26	0xbf0f8e76	-0.56076753
27	0xbf080277	-0.5312876
28	0x3e562219	0.20911445
29	0x3e2352bb	0.15949528
30	0xbe1100e9	-0.14160503
31	0xbe8c1575	-0.2736012
32	0xbf123986	-0.57119024
33	0x3e1b269a	0.15151444
34	0x3f14c5b4	0.5811417
35	0x3e8c8bcd	0.2745041
36	0x3efe55e6	0.4967491
37	0x3ee64acc	0.4497894
38	0x3f1595e7	0.5843186
39	0x3f25d76d	0.6478184
40	0x3f2d6375	0.67729884
41	0x3ec051a4	0.37562287
42	0xbd9dbc49	-0.07701928
43	0x3efac729	0.48980072
44	0xbe9a68af	-0.30157992
45	0x3c341533	0.010991382
46	0xbef0f6f5	-0.47063413
47	0x3f2daac2	0.6783868
48	0x3f095564	0.5364592
49	0xbe124c4e	-0.1428692
50	0x3ee6e468	0.45096135
51	0x3eac8a0c	0.3369907
52	0xbf21ef26	-0.63255537
53	0xbf19b7ac	-0.60045886
54	0x3f0495ab	0.51790875
55	0x3f036241	0.513218
56	0x3f2e5a64	0.68106675
57	0x3e7de5a8	0.24794638
58	0x3f461fb6	0.7739214
59	0xbe6c867a	-0.23098174
60	0x3d66e2c8	0.05636862
61	0x3ed6b95b	0.4193829
62	0xbe3f2e24	-0.18669945
63	0x3ecd441e	0.40091032
64	0x3efd98ba	0.49530584
65	0xbc91a6e4	-0.017779775
66	0x3e38ab61	0.18034126
67	0x3f046fd3	0.5173313
68	0x3e307548	0.17232239
69	0x3f23325a	0.63748705
70	0x3f433ba5	0.76262885
71	0xbe0d1fb8	-0.13781631
72	0x3f0ee7de	0.5582255
73	0xbebcde9d	-0.3688859
74	0x3e80c400	0.25149536
75	0x3f2f4cb0	0.6847639
76	0xbf575b1f	-0.84123415
77	0x3e63eca9	0.22258247
78	0xbe9b6cb3	-0.30356368
79	0x3f0afa98	0.54288626
80	0xbedb7809	-0.42865017
81	0xbf0470fc	-0.517349
82	0x3f30f812	0.69128525
83	0xbea84363	-0.32863912
84	0x3eec3fb1	0.46142343
85	0x3e8193ff	0.25308225
86	0x3f05a106	0.5219883
87	0xbe0e4f8d	-0.13897534
88	0x3f04c15a	0.5185753
89	0x3ebb1812	0.36541802
90	0x3db4cfd8	0.088287055
91	0xbea90652	-0.33012635
92	0xbf1cb67c	-0.6121595
93	0x3f0e8ed5	0.55686694
94	0x3f11a619	0.5689407
95	0x3dc6105a	0.096710876
96	0xbdfee847	-0.12446647
97	0xbde79850	-0.11308348
98	0xbec64b43	-0.38729295
99	0xbec79f05	-0.3898851
100	0xbec5a1e2	-0.3860007
101	0xbd8b5d28	-0.068048775
102	0x3deea9a5	0.11653451
103	0x3e8587a6	0.26080054
104	0xbf5200b9	-0.8203235
105	0x3e5e2586	0.21694002
106	0xbeb8e23c	-0.36110103
107	0x3f1d89a8	0.6153817
108	0x3cbc9441	0.023019912
109	0x3f276842	0.6539346
110	0xbee6380e	-0.4496464
111	0xbf0ec363	-0.55766886
112	0x3f0bf45c	0.5466974
113	0x3e9b5c51	0.3034387
114	0xbef51d86	-0.47874087
115	0xbf0f3f3a	-0.5595585
116	0xbeff4c47	-0.49862882
117	0x3efda846	0.49542445
118	0x3f6c1085	0.92212707
119	0x3d9b0f42	0.075712696
120	0xbe642768	-0.22280657
121	0x3ec2a5bb	0.38017067
122	0xbe6282da	-0.22120228
123	0x3deb727c	0.114964455
124	0x3eafe672	0.34355503
125	0xbf260c83	-0.6486284
126	0xbd96e31d	-0.07367537
127	0xbf1cf56c	-0.61311984
128	0x3f16d1ff	0.5891418
129	0xbe20a34a	-0.1568729
130	0x3f26a5f7	0.6509699
131	0x3cf73c8e	0.030180242
132	0xbe16aee9	-0.1471516
133	0xbeaac235	-0.33351293
134	0x3f1a3b57	0.60246795
135	0x3d973b3d	0.07384346
136	0x3ea11867	0.3146393
137	0xbeae5e90	-0.3405652
138	0x3dd56528	0.10419685
139	0x3e39bad1	0.18137671
140	0xbd8aa66d	-0.067700244
141	0xbf0e6685	-0.5562518
142	0x3e04476e	0.12917873
143	0x3ef6fbd4	0.48239005
144	0xbf2033bb	-0.62578934
145	0xbe236a2a	-0.15958467
146	0xbd62c3f5	-0.05536266
147	0xbebc23df	-0.36746117
148	0xbf0f9292	-0.56083024
149	0xbec9a9a9	-0.39387253
150	0x3ea5d924	0.32392228
151	0x3e9f981a	0.31170732
152	0xbe2ac061	-0.16674949
153	0x3f00d120	0.503191
154	0x3c355ab9	0.011068993
155	0xbf29f9f2	-0.6639701
156	0x3ee198ed	0.44061986
157	0xbf1078fc	-0.5643461
158	0xbf02b765	-0.5106109
159	0x3e0a9610	0.13533807
160	0x3f2ebcbd	0.6825674
161	0xbe6c2dcb	-0.23064344
162	0xbe3f1489	-0.18660177
163	0xbd079173	-0.033097696
164	0x3e49341d	0.19648786
165	0x3f50d248	0.81570864
166	0xbee10305	-0.43947616
167	0x3ecc7d4a	0.39939338
168	0xbe6313a5	-0.22175463
169	0x3f3ee8a7	0.7457375
170	0x3e2573af	0.16157411
171	0x3f0284df	0.50983995
172	0x3e8b1a8f	0.271687
173	0x3e618fdd	0.22027536
174	0xbf2918d4	-0.6605351
175	0x3f19e6ab	0.60117596
176	0x3e57e60e	0.21083853
177	0xbf0d5761	-0.55211455
178	0x3e93da80	0.2887764
179	0xbef574c4	-0.47940648
180	0x3f20d112	0.62819016
181	0xbd98c48d	-0.07459364
182	0x3e540bd5	0.20707639
183	0xbec48da6	-0.3838932
184	0xbef245ed	-0.47318974
185	0x3ee282e8	0.442405
186	0xbe5f2809	-0.21792616
187	0xbe4ac1c7	-0.19800483
188	0xbe95b865	-0.29242244
189	0x3ea1bc0d	0.31588784
190	0xbf4c248a	-0.79743254
191	0x3e39da15	0.18149598
192	0x3edac3e3	0.42727575
193	0x3f085500	0.532547
194	0x3cb041a8	0.021515682
195	0xbf345558	-0.70442724
196	0xbeac45b9	-0.33646944
197	0x3f35ec7c	0.7106397
198	0x3f028c7d	0.5099562
199	0x3e2d0722	0.16897252

fc_in.bias f4 [100]
0	0xbf3029aa	-0.68813574
1	0xbe84b30d	-0.25917855
2	0x3f39dfe1	0.7260724
3	0x3f13cc5f	0.5773372
4	0xbef09d7b	-0.46995148
5	0xbdff7823	-0.12474086
6	0xbe42c525	-0.19020517
7	0x3e90543f	0.28189275
8	0xbf12b8df	-0.5731334
9	0xbe7abbbf	-0.24485682
10	0xbf21f1f3	-0.6325981
11	0x3d552290	0.052034914
12	0xbd2a5924	-0.041588917
13	0x3e66531a	0.22492638
14	0xbe35d554	-0.1775716
15	0xbf27c848	-0.6553998
16	0x3eb49de1	0.35276702
17	0x3f22dc8f	0.63617796
18	0xbaf80f6e	-0.0018925497
19	0xbf2bf55f	-0.6717128
20	0xbf341ebd	-0.703594
21	0xbd8ec6cb	-0.069715105
22	0x3d202c36	0.039104663
23	0xbc2d1a26	-0.010565316
24	0x3e93cc5b	0.28866848
25	0x3ebf3c15	0.37350526
26	0x3e8261f9	0.25465372
27	0x3f31cb36	0.694507
28	0xbe7fd8b9	-0.24985017
29	0x3f234811	0.6378184
30	0x3eca55eb	0.39518675
31	0x3ec56f66	0.38561553
32	0x3ea9ad79	0.33140162
33	0x3db02ef7	0.08602708
34	0xbf0e167c	-0.5550306
35	0xbe96abd7	-0.29427978
36	0x3e3d2a2b	0.18473117
37	0xbedf1727	-0.4357235
38	0x3f04a5c9	0.5181547
39	0xbead2a33	-0.33821258
40	0xbec0d7ac	-0.37664545
41	0x3d7b9d7e	0.061429493
42	0x3e8ae106	0.27124804
43	0x3e8fc44f	0.2807946
44	0x3ede8175	0.43458143
45	0xbdaa3291	-0.08310426
46	0x3eb5ea91	0.35530522
47	0xbf2c0507	-0.6719517
48	0x3e96e041	0.29467967
49	0x3edc14e9	0.42984703
50	0x3e93f730	0.28899527
51	0x3e3c67f4	0.1839903
52	0x3f015f04	0.5053561
53	0x3ef4631a	0.47731858
54	0xbf0566a6	-0.52109754
55	0xbebb8a4f	-0.3662896
56	0xbf119408	-0.568665
57	0x3f242fbe	0.6413535
58	0xbf1c8fef	-0.61157125
59	0x3e93c5a8	0.28861737
60	0x3f22b869	0.6356264
61	0xbe50984c	-0.20370597
62	0xbe18ba24	-0.14914757
63	0xbebcb74d	-0.36858597
64	0x3ea28825	0.31744495
65	0x3cf6e1ae	0.03013691
66	0xbefaa965	-0.48957363
67	0xbf03d77a	-0.51500666
68	0x3ec0732a	0.37587863
69	0x3f329d30	0.697711
70	0x3f47e1bb	0.7807881
71	0xbe1dc98c	-0.15408915
72	0xbf38142c	-0.7190578
73	0x3f218cbc	0.6310537
74	0xbe25b13a	-0.16180888
75	0xbdff54eb	-0.12467369
76	0xbf31f663	-0.6951658
77	0x3c8b24c8	0.016985312
78	0x3d9e7b38	0.07738346
79	0xbe8bbc39	-0.2729204
80	0xbd22435e	-0.039615028
81	0x3f2a5148	0.66530275
82	0x3f249579	0.6429058
83	0x3e828add	0.2549657
84	0xbf21251c	-0.6294725
85	0xbefc0cc7	-0.49228498
86	0x3f049f5b	0.5180566
87	0x3ec439c7	0.3832533
88	0xbebbe674	-0.3669926
89	0x3f298ccb	0.6623046
90	0xbe424c7d	-0.1897449
91	0xbee02c69	-0.43783882
92	0xbe645037	-0.22296225
93	0x3f043489	0.5164266
94	0x3d3dc986	0.046334766
95	0xbea906fe	-0.33013147
96	0x3eb01262	0.34389025
97	0x3e83ce76	0.25743455
98	0xbeaf7439	-0.34268358
99	0x3dd127ac	0.10212645

fc_hidden.weight f4 [100, 100]
0	0x3de031cd	0.10946999
1	0x3e4b83a6	0.19874439
2	0x3e2d251f	0.16908692
3	0x3d8bf452	0.0683371
4	0x3e1c21f4	0.15247327
5	0x3e0c653b	0.13710491
6	0x3de1ce45	0.11025671
7	0xbdd050d3	-0.10171666
8	0x3e2b170c	0.1670801
9	0xbd802f5e	-0.062590346
10	0xbcac4082	-0.021026853
11	0x3dde73a8	0.108619034
12	0xbcd272d4	-0.02568952
13	0xbe30510f	-0.17218421
14	0xbdf93aa1	-0.12169386
15	0x3d471053	0.048599552
16	0x3ded6698	0.11591834
17	0x3d66b84c	0.056328103
18	0x3d51dd56	0.051236473
19	0x3c43c800	0.011949539
20	0x3cd1c171	0.025604935
21	0xbdc7015b	-0.097170554
22	0x3cb06795	0.021533767
23	0x3d2fc80c	0.04291539
24	0x3cd53589	0.026026504
25	0xbe1ac915	-0.15115769
26	0xbddf92cd	-0.10916672
27	0x3d05b986	0.032647632
28	0x3dc35fcf	0.095397584
29	0xbd3c095e	-0.04590737
30	0xbd4608fd	-0.048348416
31	0x3d738901	0.05945683
32	0x3dc0a23a	0.09405942
33	0xbd658dc8	-0.056043416
34	0xbe3cefca	-0.18450847
35	0xbc1c417e	-0.009537099
36	0x3dcc6cc7	0.09981685
37	0xbd885150	-0.06656134
38	0x3d971bfd	0.07378385
39	0x3dc3240f	0.09528362
40	0xbdd3787a	-0.103257135
41	0x3e0aaf37	0.13543402
42	0xbdc92ffe	-0.09823607
43	0x3da1de2c	0.07903704
44	0xbd7e447f	-0.06207704
45	0xbc3b81a2	-0.011444481
46	0x3d471751	0.04860622
47	0x3d45851f	0.048222657
48	0xbd0000b4	-0.03125067
49	0xbc4068df	-0.011743753
50	0xbd8a0fa4	-0.067412645
51	0xbc812576	-0.015764933
52	0x3bdacc61	0.006677196
53	0xbdc636bc	-0.096784085
54	0xbbadd003	-0.005304338
55	0xbe01c48c	-0.12672633
56	0xbdaf8c8c	-0.08571729
57	0xbd6a9c51	-0.05727798
58	0x3caf7351	0.021417292
59	0x3d289c8f	0.04116493
60	0xbc59f30f	-0.013302579
61	0x3e172ee2	0.14763978
62	0x3d16cfcf	0.036819275
63	0xbca0f62a	-0.01964863
64	0x3df33a74	0.118763834
65	0x3e286284	0.1644383
66	0xbd20046e	-0.039066724
67	0x3d5fe8df	0.054665443
68	0x3e41b3ee	0.18916294
69	0x3d8a9044	0.06765798
70	0xbd0305a1	-0.03198779
71	0xbcf01f3b	-0.029311767
72	0x3dd9c6d5	0.10633627
73	0x3cf4d45e	0.02988642
74	0xbcd13127	-0.025536133
75	0xbe24b5ee	-0.16085026
76	0x3e290311	0.16505076
77	0xbd1fbb08	-0.038996726
78	0x3aff2244	0.0019465168
79	0x3df163dd	0.117866255
80	0x3e47f7dd	0.19528146
81	0xbdfeeffb	-0.124481164
82	0xbd6bb5a9	-0.05754629
83	0x3dabd1f1	0.083896525
84	0x3d829c92	0.0637752
85	0xbddbd4ff	-0.10733985
86	0xbddd4a25	-0.108051576
87	0x3df23d9e	0.11828159
88	0x3e26fa1b	0.16306345
89	0xbdcd553b	-0.10026022
90	0x3df25720	0.11833024
91	0x3d16f8eb	0.03685848
92	0x3e313126	0.17303905
93	0xbe1402d2	-0.14454201
94	0x3e19ac39	0.15007104
95	0xbc3c16da	-0.011480058
96	0x3d59798a	0.053094424
97	0x3dd3d0b6	0.10342543
98	0x3e113fdf	0.14184521
99	0xbdb4e7b8	-0.08833259
100	0x3e442cb2	0.19157675
101	0x3e8bcfbf	0.27306935
102	0xbd89d7d7	-0.06730621
103	0xbd1251eb	-0.035722654
104	0x3da1fef5	0.07909957
105	0x3e201b98	0.15635526
106	0x3dfe49fc	0.12416455
107	0xbdcc04aa	-0.09961827
108	0x3d8b0222	0.06787516
109	0xbde9a1a0	-0.11407781
110	0x3e159a33	0.14609604
111	0x3c82258b	0.015887043
112	0xbb4b87eb	-0.0031056355
113	0xbc808fd7	-0.015693588
114	0x3ccebdea	0.025237042
115	0xbc3f4510	-0.011674181
116	0x3da7ac71	0.081871875
117	0xbe0623af	-0.1309955
118	0x3d0b7ca2	0.034054406
119	0xbd7b918c	-0.0614181
120	0xbd270344	-0.0407746
121	0xbc005e26	-0.007834947
122	0x3d0578de	0.03258597
123	0x3e396335	0.1810425
124	0xbcded60c	-0.027201675
125	0xbd959563	-0.07303884
126	0xbc0ccdc1	-0.008593977
127	0xbd9db6c9	-0.07700879
128	0x3dbc6d42	0.09200527
129	0xbce06f31	-0.02739677
130	0xbd8c1186	-0.0683928
131	0x3deb532c	0.11490473
132	0xbe00a883	-0.12564282
133	0xbdab0e0d	-0.08352289
134	0xbddff389	-0.109351225
135	0x3e0dc334	0.13843995
136	0xbd34447a	-0.044010617
137	0xbd6cafe7	-0.05778494
138	0x3d8a8f3a	0.067655995
139	0x3e2cd787	0.16879092
140	0xbd088188	-0.033326656
141	0xbb94fd5f	-0.0045468058
142	0xbdd99c08	-0.10625464
143	0x3d4cfbd2	0.050044842
144	0xbd88ecfb	-0.066858254
145	0xbcbc961d	-0.023020798
146	0x3daa393d	0.083116986
147	0x3e530594	0.20607597
148	0xbdf6f0de	-0.120576605
149	0xbd8b1ae0	-0.067922354
150	0xbce50e27	-0.02796085
151	0x3dd17394	0.10227123
152	0x3d44cc4c	0.048046395
153	0x3ba9cbc6	0.0051817624
154	0x3d086e91	0.03330857
155	0x3ca55031	0.02017984
156	0xbd9e4da6	-0.07729654
157	0x3bdd6673	0.0067565977
158	0x3d2e4a20	0.04255116
159	0xbc1cf523	-0.0095799295
160	0x3d9b5136	0.07583849
161	0xbb726d51	-0.0036991427
162	0x3df431c8	0.119235575
163	0x3d7b930a	0.061419524
164	0x3c9ef1bc	0.019402377
165	0x3e239c0c	0.15977496
166	0xbdacfe24	-0.08446911
167	0x3e08e6d9	0.13369311
168	0x3d209797	0.039207067
169	0xbdb4f014	-0.08834854
170	0x3cbdb276	0.023156386
171	0xbd09791c	-0.033562765
172	0x3d9b705a	0.07589789
173	0x3d0c19d4	0.03420432
174	0xbbcfb14a	-0.006338273
175	0xbe2d3fd4	-0.1691888
176	0x3d873b6f	0.06603133
177	0x3db8e5ba	0.09028192
178	0x3e0a1c25	0.13487299
179	0x3df2b760	0.11851382
180	0xbbfd9cfc	-0.0077396613
181	0xbd4a7d15	-0.049435694
182	0x3d997797	0.07493513
183	0x3e06e9b4	0.13175088
184	0x3e0385db	0.1284403
185	0xbae2d561	-0.0017306024
186	0xbe35e271	-0.17762162
187	0x3d169096	0.03675898
188	0x3db22e69	0.08700258
189	0xbdbc3f12	-0.09191717
190	0x3e48de5f	0.19616078
191	0x3da98fef	0.08279406
192	0x3ccc7861	0.024959745
193	0xbc09fce2	-0.008422108
194	0x3cf7f49e	0.03026801
195	0x3db738f8	0.08946413
196	0xbc8802b1	-0.016602846
197	0x3c8b1848	0.016979352
198	0x3d4c2ba6	0.049846314
199	0xbe78b869	-0.24289097
200	0x3c5e4b06	0.013567692
201	0x3e0cd339	0.1375245
202	0x3c79a654	0.01523741
203	0x3dbe8cbb	0.09304186
204	0x3e0d3c83	0.13792615
205	0xbcb444e6	-0.02200551
206	0xbdc83a66	-0.097767636
207	0xbdc71cd7	-0.09722298
208	0x3da6739d	0.0812752
209	0xbd65361f	-0.055959817
210	0x3dc7295b	0.09724685
211	0x3dcc927d	0.09988878
212	0xbea9a311	-0.33132222
213	0xbdba6afa	-0.091024354
214	0xbe60daea	-0.21958509
215	0x3d25094c	0.04029207
216	0x3e06c13e	0.13159654
217	0x3c9c37fc	0.019069664
218	0xbe265712	-0.16244152
219	0x3c7c9f84	0.015418891
220	0xbc2806ae	-0.010255499
221	0x3ddd3403	0.10800936
222	0xbb8d1c4b	-0.0043063513
223	0x3ca14e77	0.019690735
224	0xbe9537ee	-0.29144233
225	0xbd83a31b	-0.06427594
226	0xbd229624	-0.039693967
227	0x3beae01a	0.0071678283
228	0xbe9524c7	-0.2912962
229	0xbe3110e9	-0.17291607
230	0xbde60c88	-0.11232859
231	0x3cef731c	0.029229693
232	0xbe6b028b	-0.22950189
233	0xbb1846b9	-0.0023235513
234	0x3b5506e5	0.003250533
235	0xbd9bafe7	-0.0760191
236	0xbd9f1519	-0.07767696
237	0xbd7c26a1	-0.061560277
238	0x3c151160	0.009098381
239	0x3e3d509c	0.18487781
240	0xbe15102e	-0.14556953
241	0xbdf16d7f	-0.11788463
242	0x3a41935b	0.00073843234
243	0xbd89aef2	-0.06722821
244	0xbd94ad1d	-0.07259581
245	0xbe847918	-0.25873637
246	0x3db7a0d6	0.08966224
247	0x3dd8eb4e	0.10591756
248	0xbdaa59ce	-0.0831791
249	0xba95ebff	-0.001143813
250	0x3ce8df78	0.02842687
251	0xbc8a4300	-0.016877651
252	0x3d6a255a	0.057164527
253	0x3c4dbe8d	0.012557638
254	0x3d62222a	0.055208363
255	0xbe293a85	-0.1652623

fc_hidden.bias f4 [100]
0	0xbde4db0e	-0.11174594
1	0x3cb32687	0.021868957
2	0xbdf4f48a	-0.119607046
3	0x3c34327a	0.010998363
4	0x3d4ef047	0.050522115
5	0xbcf1b63b	-0.02950584
6	0xbd9cf211	-0.07663358
7	0x3da7ec14	0.08199325
8	0x3d6f5e6d	0.05843966
9	0x3cdba7fb	0.026813498
10	0x3cef25b1	0.029192777
11	0x3de0483d	0.10951278
12	0x3ca19b80	0.019727468
13	0x3ca06bad	0.019582594
14	0xbdcc8a95	-0.0998737
15	0xbd1e866d	-0.038702417
16	0xbc8c2ae0	-0.017110288
17	0x3be0e76a	0.006863524
18	0x3dd26c23	0.10274532
19	0xbde2639c	-0.11054155
20	0xbd87ef58	-0.06637448
21	0x3c1132e3	0.00886223
22	0x3cfeccc4	0.0311035
23	0x3d016a7f	0.031595703
24	0xbbb97614	-0.005659828
25	0xbe114e43	-0.1419001
26	0x3dafd9db	0.085864745
27	0x3ca26c07	0.019826902
28	0xbca59f67	-0.02021761
29	0x3d62aea5	0.055342335
30	0x3d536122	0.051606305
31	0xbce253f1	-0.027627917
32	0xbc11c8f0	-0.008898005
33	0xbca94eb4	-0.020667411
34	0xbda52ae3	-0.080648206
35	0x3ceda9e0	0.029011667
36	0xbce90edd	-0.02844947
37	0xbd9463e4	-0.07245615
38	0xbcc68885	-0.02423502
39	0xbd081f93	-0.033233237
40	0xbdc43ca0	-0.09581876
41	0xbcd8d796	-0.026469987
42	0x3d1e1007	0.038589504
43	0x3c9a1eb0	0.018813461
44	0xbdc3a2c5	-0.0955253
45	0x3d201b5d	0.039088596
46	0x3da23e3a	0.07922025
47	0xbd11293a	-0.035439707
48	0xbb897fce	-0.0041961437
49	0x3d801e8f	0.062558286
50	0x3d3049a7	0.04303899
51	0xbdd276a0	-0.10276532
52	0x3ca8bc05	0.020597467
53	0xbd49b6be	-0.049246542
54	0x3da057e2	0.07829262
55	0x3cc86ef7	0.024466975
56	0xbd635065	-0.055496592
57	0xbdc62744	-0.09675458
58	0x3dd2caf9	0.1029262
59	0xbca12230	-0.019669622
60	0x3d7052e2	0.058672793
61	0x3d15422d	0.036440063
62	0x3d60d46a	0.054890074
63	0x3da8a0dd	0.08233807
64	0xbade1733	-0.001694417
65	0xbd6d042f	-0.057865318
66	0xbdbc579c	-0.09196398
67	0x3c4c4bfb	0.012469287
68	0x3d1822bf	0.03714251
69	0xbe06ac07	-0.1315156
70	0x3dd81632	0.105511084
71	0xbd9e3040	-0.07724047
72	0x3b764843	0.0037579692
73	0xbcdee15a	-0.027207065
74	0xbdd1df1e	-0.10247634
75	0xbd7ef482	-0.0622449
76	0x3bf9a5f6	0.007618661
77	0xb9f1806c	-0.00046062784
78	0xbde2ffc9	-0.110839434
79	0x3cbcca50	0.023045689
80	0xbdb71ea9	-0.08941395
81	0x3da1b179	0.07895178
82	0x3d5cbf14	0.053893164
83	0xbdbe451c	-0.09290525
84	0xbc9cdc7c	-0.019148104
85	0xbdb154ce	-0.08658753
86	0xbd5fd336	-0.054644786
87	0xbc89be34	-0.016814329
88	0x3cce913b	0.025215736
89	0x3c37e065	0.011222933
90	0x3da79dfc	0.0818443
91	0x3cdfda03	0.027325636
92	0x3b25e260	0.0025311932
93	0xbd61a4c3	-0.05508877
94	0xbdd7b1d3	-0.10531964
95	0xbd1c80c2	-0.03820873
96	0xbd8d1b19	-0.06889934
97	0x3ce94b64	0.028478332
98	0x3cf237c6	0.02956761
99	0x3db7b343	0.08969738

fc_out.weight f4 [1, 100]
0	0xbe4f198e	-0.20224592
1	0xbe60107b	-0.21881287
2	0xbe2f71ea	-0.17133299
3	0x3e12fdf9	0.14354695
4	0x3c7b3c95	0.015334268
5	0xbdf305de	-0.118663535
6	0xbe1a6726	-0.1507841
7	0x3d91c22f	0.07117116
8	0xbe579cdb	-0.2105593
9	0x3e17da24	0.14829308
10	0x3c31a64c	0.010842871
11	0xbda6a41a	-0.08136769
12	0xbdd4d2dd	-0.103917815
13	0x3dd19be6	0.102348134
14	0xbe0e4e0c	-0.1389696
15	0x3e275c0b	0.16343705
16	0xbc02605a	-0.007957542
17	0xbdb65715	-0.08903328
18	0xbe240570	-0.16017699
19	0xbda0e3ab	-0.07855924
20	0x3e030d13	0.12797956
21	0x3db589b1	0.08864153
22	0xbdf2aaa5	-0.11848954
23	0x3e25f661	0.16207267
24	0xbd81130c	-0.06302461
25	0xbc8aac5d	-0.016927892
26	0xbe0a3eb1	-0.13500477
27	0xbe110583	-0.14162259
28	0xbdcbecf6	-0.09957306
29	0xbe19481e	-0.14968917
30	0xbd896511	-0.0670873
31	0xbdf59a1b	-0.11992284
32	0x3e089ff5	0.13342269
33	0x3e03ac87	0.12858783
34	0x3e30e7e9	0.17275967
35	0x3e152a7d	0.14566989
36	0x3ddf7814	0.10911575
37	0xbdf6056f	-0.12012755
38	0x3de2975e	0.11064027
39	0xbdcc40bb	-0.09973284
40	0x3d1783de	0.036990993
41	0x3e10dfba	0.14147845
42	0xbdfc9084	-0.12332252
43	0xbe2affd6	-0.16699156
44	0x3d8b7c32	0.06810798
45	0x3d65e138	0.05612299
46	0xbe0c44ab	-0.1369807
47	0xbe338745	-0.1753207
48	0x3dbf4829	0.09339935
49	0xbe28e495	-0.16493447
50	0x3e0bd140	0.13654041
51	0xbe4b8a5b	-0.19876997
52	0xbe154b33	-0.14579467
53	0x3bd0ef03	0.0063761487
54	0xbe1be651	-0.15224577
55	0x3dfca62f	0.123363845
56	0x3e13fd5d	0.14452119
57	0xbcc84052	-0.024444733
58	0x3e2ccda0	0.16875315
59	0x3d2fcdb8	0.042920798
60	0xbe198681	-0.14992715
61	0xbe26c1a0	-0.162848
62	0xbda29dfd	-0.0794029
63	0x3e21aea1	0.15789272
64	0xbd46ce25	-0.04853644
65	0xbe1813ee	-0.14851353
66	0x3e2d9935	0.16952975
67	0xbe03ee2a	-0.12883821
68	0x3ddb7507	0.107156806
69	0xbde6dae6	-0.1127222
70	0xbdc02220	-0.09381509
71	0xbe225f3d	-0.15856643
72	0xbddccc29	-0.10781128
73	0xbdedd096	-0.1161205
74	0x3e2ff98d	0.1718504
75	0x3e565caa	0.20933786
76	0xbd8a196d	-0.06743131
77	0xbe273d02	-0.16331866
78	0xbe04dec7	-0.12975608
79	0xbdc52d7b	-0.09627815
80	0x3dd8f532	0.10593642
81	0xbe2aa1bb	-0.16663258
82	0x3df959e6	0.1217535
83	0xbdd313eb	-0.103065334
84	0x3daecca6	0.08535127
85	0x3e38ff99	0.18066253
86	0x3dd714fe	0.10502051
87	0xbd84465a	-0.06458731
88	0x3db42fc8	0.08798176
89	0xbd17a598	-0.037023157
90	0xbe0bd0c4	-0.13653857
91	0x3de64da8	0.112452805
92	0x3e0dfb77	0.13865457
93	0x3d89111d	0.06692717
94	0xbdd68f2a	-0.10476525
95	0xbdb945e5	-0.090465344
96	0x3e26bcc6	0.16282949
97	0x3e255b44	0.16148096
98	0x3df09266	0.11746673
99	0x3c551466	0.013005352
