Copula by Ratio Estimation/2d_exp/model_parameters_NNet_ratio_25_runs_4copulas_2Dexperiment_ok/NNet_ratio_run_23_cop_u_1_ok.pt (torch, 45099 bytes, 5 tensors)

fc_in.weight f4 [100, 2]
0	0x3ec64571	0.38724855
1	0xbe93774f	-0.28801963
2	0x3e9bf09e	0.30457014
3	0xbee0484c	-0.43805158
4	0x3e8d4138	0.2758882
5	0xbd44b2a4	-0.048021927
6	0xbe9b0098	-0.3027389
7	0xbe87b8aa	-0.26508075
8	0x3d1e39ed	0.03862946
9	0x3ef62db8	0.48081756
10	0x3f034825	0.5128196
11	0xbe9c8fb1	-0.30578378
12	0xbe4bb738	-0.19894111
13	0x3ec71dc7	0.38889906
14	0x3eb8ae04	0.36070263
15	0xbf0ca97d	-0.5494612
16	0xbdd16ab8	-0.10225433
17	0x3eda570b	0.42644534
18	0x3eba8765	0.36431423
19	0x3ef5d7e0	0.48016262
20	0xbf010e38	-0.5041232
21	0x3ea798e7	0.32733843
22	0xbeb988f7	-0.36237308
23	0xbd2a77fd	-0.041618336
24	0xbf05c260	-0.5224972
25	0x3e794ebe	0.24346444
26	0x3f019362	0.50615513
27	0xbee65f3b	-0.4499453
28	0xbf2c2018	-0.6723647
29	0x3c5cf976	0.0134872105
30	0xbf2c5fb6	-0.67333543
31	0xbf3ab596	-0.7293333
32	0xbf152019	-0.582521
33	0xbdcfba7f	-0.10142993
34	0x3ebf0ab6	0.3731286
35	0xbe911355	-0.28335062
36	0x3e6d21d7	0.2315744
37	0xbedd835f	-0.4326429
38	0x3ee64348	0.44973207
39	0x3dff2968	0.124590695
40	0x3f0a2677	0.5396494
41	0xbd0c6482	-0.03427554
42	0xbe4c85e3	-0.19972949
43	0x3e859830	0.26092672
44	0xbedf66a4	-0.43632996
45	0xbf41f4d2	-0.7576419
46	0x3d7f5129	0.06233326
47	0xbf035809	-0.51306206
48	0x3d675662	0.056478865
49	0xbd427ab5	-0.047480304
50	0x3f2c2769	0.67247635
51	0xbe6dec8b	-0.23234765
52	0x3e810dd0	0.2520585
53	0xbea77f43	-0.3271428
54	0x3ecb6fb8	0.39733672
55	0xbea0b992	-0.3139158
56	0x3e118544	0.14210993
57	0xbf35492f	-0.70814794
58	0x3e87f724	0.2655574
59	0xbf1e42a6	-0.6182045
60	0xbf09b582	-0.53792584
61	0xbd4831ab	-0.048875492
62	0x3f35ddfd	0.7104185
63	0xbf26d1fc	-0.6516416
64	0xbf202517	-0.62556595
65	0x3f1fb943	0.6239206
66	0x3e626164	0.22107464
67	0xbeac0435	-0.3359696
68	0xbf0de0fc	-0.55421424
69	0xbe258327	-0.16163312
70	0xbecc5d4b	-0.39914927
71	0xbb42b497	-0.002970969
72	0xbd1dd11e	-0.038529508
73	0xbf2f6b79	-0.68523365
74	0xbf38ffe2	-0.72265446
75	0x3e805110	0.25061846
76	0x3e18f1c3	0.14935975
77	0x3e15f339	0.14643563
78	0xbdcabe60	-0.098995924
79	0x3d0cadb6	0.03434535
80	0x3ee23dd4	0.44187796
81	0xbefbfffc	-0.49218738
82	0xbec79ffa	-0.3898924
83	0xbe1fe411	-0.15614344
84	0xbea73772	-0.3265949
85	0x3efc8772	0.49322087
86	0xbf1f3a95	-0.62198764
87	0xbeda08a8	-0.4258473
88	0xbf2c34c8	-0.6726804
89	0xbe39bb7b	-0.18137924
90	0x3ee9aaf0	0.45638227
91	0xbf17a658	-0.59238195
92	0xbe892068	-0.26782537
93	0xbe3d36e7	-0.18477975
94	0xbeab18b5	-0.33417287
95	0xbe9fe60c	-0.312302
96	0xbe3b6e26	-0.18303737
97	0xbf1f3ea1	-0.6220494
98	0x3f2587b9	0.6466022
99	0x3f279d59	0.6547447
100	0xbef02cd3	-0.46909198
101	0x3efb975b	0.49138913
102	0x3ea11a22	0.3146525
103	0xbdb11a0d	-0.08647547
104	0xbe83f583	-0.25773248
105	0xbf486484	-0.78278375
106	0x3db9e34f	0.09076559
107	0xbe0d366a	-0.13790289
108	0xbf1f0095	-0.62110263
109	0x3ed1163a	0.4083727
110	0xbec0727a	-0.3758734
111	0xbf14024f	-0.5781602
112	0x3e9f079b	0.3106049
113	0x3f0007a3	0.5001165
114	0xbf1cc419	-0.6123672
115	0x3d816ec6	0.063199565
116	0x3d5a36ab	0.05327479
117	0xbf2f2e75	-0.6843026
118	0xbf429557	-0.76009125
119	0xbe7b8410	-0.24562097
120	0xbf01ba1c	-0.50674605
121	0xbf0a4c1e	-0.54022396
122	0xbf0967b0	-0.5367384
123	0xbed73045	-0.42029014
124	0x3ee20070	0.4414096
125	0xbe721b09	-0.23643126
126	0x3ee26432	0.44217068
127	0xbf03e0dd	-0.5151499
128	0xbec4b51d	-0.38419428
129	0x3f215964	0.63027024
130	0x3ec02e71	0.37535432
131	0xbeca4e93	-0.39513072
132	0xbe6e920a	-0.23297897
133	0x3eaa4e17	0.33262703
134	0xbe948c8d	-0.29013482
135	0x3f03c308	0.5146947
136	0x3e6c35cf	0.23067401
137	0x3f2b10df	0.6682262
138	0xbec2d955	-0.38056436
139	0xbe67d39e	-0.2263932
140	0x3e0cb8c2	0.13742355
141	0x3ec188b4	0.3779961
142	0x3f498295	0.7871488
143	0xbe353ef4	-0.17699796
144	0x3efbcd10	0.49179888
145	0xbe8b7915	-0.27240816
146	0x3e5e7665	0.21724851
147	0x3dbda08e	0.09259139
148	0x3f4f0379	0.80864674
149	0xbe8d62f7	-0.27614567
150	0x3e3d48a3	0.1848474
151	0x3ebbc142	0.36670882
152	0x3ecd7213	0.40126094
153	0x3e8642fb	0.26222977
154	0x3ef4d349	0.47817448
155	0x3f1f329f	0.62186617
156	0x3f0b2868	0.5435853
157	0xbf0c3831	-0.5477324
158	0x3eb4f520	0.35343266
159	0x3eb9f3db	0.3631886
160	0x3e938157	0.28809616
161	0xbefe1bcf	-0.4963059
162	0x3eb6c8af	0.35699984
163	0xbe22b9b0	-0.15891147
164	0x3f0c90fb	0.5490872
165	0x3dc59ef6	0.0964946
166	0x3e0c39ab	0.13693874
167	0x3e848ae0	0.25887203
168	0xbf17efd2	-0.5935031
169	0xbde41ffa	-0.111389115
170	0x3c57cb12	0.013170974
171	0xbd4f7a97	-0.05065402
172	0xbf310205	-0.69143707
173	0xbf069cd1	-0.5258303
174	0xbece63d7	-0.40310547
175	0x3e97792f	0.29584643
176	0x3ebb20c6	0.36548442
177	0xbe4e2a06	-0.20133218
178	0x3ea6eb5e	0.32601446
179	0x3efada10	0.48994493
180	0x3d9b7855	0.07591311
181	0x3ee217aa	0.4415868
182	0x3eb0b87a	0.34515744
183	0xbeb8f3ee	-0.36123604
184	0xbf06de47	-0.5268292
185	0x3f313b31	0.69230944
186	0xbf35cd13	-0.71016043
187	0xbbfd0dc1	-0.007722587
188	0x3ec2ea25	0.38069263
189	0xbe96951c	-0.29410636
190	0xbe915ccf	-0.2839112
191	0x3e075b36	0.13218388
192	0x3f2b3f0d	0.6689308
193	0x3f02d9e5	0.5111373
194	0x3e13ae55	0.14421971
195	0x3ec427aa	0.3831151
196	0x3ed6f1ef	0.41981456
197	0x3ecc5268	0.3990662
198	0x3ece4933	0.40290222
199	0xbf0323ad	-0.5122631

fc_in.bias f4 [100]
0	0x3e98a74c	0.29815137
1	0x3eede6cf	0.46465155
2	0x3f31ecd4	0.69501996
3	0xbe74faf1	-0.23923852
4	0x3f05128e	0.5198144
5	0x3e7ca6e4	0.24673039
6	0xbed7cbff	-0.42147824
7	0xbf239ce3	-0.63911265
8	0xbeb74f9a	-0.3580292
9	0xbea4f202	-0.32215887
10	0xbd3680af	-0.044556316
11	0x3e8fabe1	0.2806082
12	0xbf1e421a	-0.6181961
13	0xbebac1df	-0.36476037
14	0xbee9743d	-0.45596495
15	0x3f1bb318	0.6082015
16	0x3e443e2c	0.19164342
17	0x3d1913bf	0.037372347
18	0xbf1888dd	-0.59583837
19	0x3f118f36	0.5685915
20	0x3f129268	0.5725465
21	0x3e810ce4	0.25205147
22	0x3e914854	0.28375494
23	0x3ec0835e	0.37600225
24	0x3f04e31e	0.51909053
25	0x3f2c2d1f	0.6725635
26	0xbea07bb6	-0.31344384
27	0x3f238cb8	0.63886595
28	0xbf153b24	-0.58293366
29	0x3e99de39	0.30052355
30	0xbebc8dd1	-0.36826947
31	0x3e01e127	0.12683545
32	0xbe9a8431	-0.3017898
33	0x3ec3eda2	0.38267237
34	0x3eada8e5	0.3391792
35	0x3f34335c	0.7039087
36	0xbca6d76f	-0.020366399
37	0x3e6b3274	0.22968465
38	0x3e881708	0.2658007
39	0x3e947f02	0.2900315
40	0x3e1e5e56	0.15465674
41	0x3ed9b2c6	0.42519206
42	0xbf0f9685	-0.5608905
43	0x3ef88dd7	0.48545715
44	0xbda53137	-0.080660276
45	0xbf1142f7	-0.56742805
46	0xbd6f13c8	-0.058368474
47	0x3d02bf34	0.031920627
48	0xbeb4d9c6	-0.35322398
49	0xbe3fc14a	-0.18726078
50	0x3dbd40c5	0.092408694
51	0xbf191663	-0.59799784
52	0xbdcda6f0	-0.100416064
53	0x3e20846b	0.15675513
54	0xbf0a3c3c	-0.5399816
55	0xbed3396e	-0.41254753
56	0x3ed7d9db	0.42158398
57	0xbf2194a6	-0.63117445
58	0xbed4d072	-0.4156528
59	0x3ef5d9d2	0.48017746
60	0xbe403015	-0.18768342
61	0x3ed5103f	0.41613957
62	0xbe2b595c	-0.16733307
63	0x3e167ae3	0.14695315
64	0x3e4224cc	0.1895935
65	0xbafa6ecc	-0.0019106506
66	0x3d35915a	0.04432807
67	0x3f2c2a94	0.6725247
68	0x3f2ff23e	0.6872901
69	0xbf231300	-0.63700867
70	0x3e30e8c8	0.17276299
71	0x3de55f83	0.11199858
72	0x3f07f4b1	0.53107744
73	0x3f137cc6	0.57612264
74	0xbe754128	-0.23950636
75	0x3e9fdfbd	0.31225386
76	0x3f3287b7	0.69738334
77	0x3e28d852	0.1648877
78	0xbe0a8c8b	-0.13530175
79	0xbe1080f6	-0.14111695
80	0x3f0b2694	0.5435574
81	0xbef137a3	-0.4711276
82	0xbef1cae4	-0.47225106
83	0xbf35fd41	-0.7108956
84	0x3f025237	0.509067
85	0xbf308990	-0.68959904
86	0x3ebc8086	0.36816806
87	0xbea54323	-0.32277784
88	0x3ecd2e6b	0.40074477
89	0xbf18d0d4	-0.59693646
90	0x3f32330a	0.6960913
91	0xbd86826d	-0.065678455
92	0xbf2e66a8	-0.6812539
93	0xbeae7c80	-0.3407936
94	0xbf52e2a0	-0.8237705
95	0xbeabe979	-0.33576563
96	0x3ef60da9	0.48057297
97	0xbf48798a	-0.78310454
98	0x3e8a4873	0.270084
99	0xbef335c5	-0.4750196

fc_hidden.weight f4 [100, 100]
0	0x3b9ca444	0.004780324
1	0xbd16d8c8	-0.036827832
2	0xbd9682dd	-0.07349179
3	0x3d54c4d1	0.05194551
4	0xbd448847	-0.047981527
5	0x3e112d51	0.14177443
6	0x3ce4808e	0.02789333
7	0x3d847b1b	0.06468793
8	0xbdafd6d1	-0.08585895
9	0x3c295385	0.010334854
10	0xbdab32aa	-0.08359273
11	0xbd4d28ac	-0.050087616
12	0xba00173c	-0.00048862747
13	0x3d5b4f9a	0.05354271
14	0xbcfec800	-0.031101227
15	0xbb84d46e	-0.004053644
16	0xbd4e13e8	-0.050311953
17	0x3d22c425	0.03973784
18	0x3da6c456	0.08142917
19	0x3c8b9401	0.017038347
20	0x3d5093b6	0.050922118
21	0xbcc78196	-0.024353784
22	0xbcb546f0	-0.022128552
23	0x3d22c6e1	0.039740447
24	0x3da1bd25	0.078974046
25	0x3d6c06ea	0.05762378
26	0x3db7f1a7	0.089816384
27	0xbd920606	-0.07130055
28	0x3d0109ed	0.031503607
29	0xbdbd4834	-0.09242287
30	0xbc846e88	-0.016165987
31	0x3bd449a1	0.006478504
32	0x3c7f34c8	0.015576549
33	0x3d417183	0.047227394
34	0xbd595e64	-0.053068534
35	0xbcf3f33f	-0.029779075
36	0x3bb36860	0.005475089
37	0x3d650767	0.055915263
38	0x3ca6500d	0.020301843
39	0x3ca1b023	0.019737309
40	0xbd8cd8a0	-0.068772554
41	0x3dc48518	0.09595698
42	0x3e39cb3d	0.18143936
43	0x3d37b6d1	0.04485208
44	0xbe2d083b	-0.16897671
45	0x3d2a214e	0.041535668
46	0xbc2a7af0	-0.010405287
47	0xbd64caf2	-0.055857606
48	0xbde0b854	-0.10972658
49	0x3d815812	0.06315626
50	0xbd7a7cec	-0.06115429
51	0xba8f51cb	-0.001093441
52	0x3d6d8674	0.057989553
53	0x3d0a2473	0.033726167
54	0x3dc5f647	0.09666114
55	0xbd97b5d8	-0.07407731
56	0xbd892fcd	-0.066985704
57	0xbd90079e	-0.07032703
58	0x3d0ed99e	0.034875505
59	0x3d9f16bd	0.07768009
60	0xbd8c572d	-0.06852565
61	0xbdb2799d	-0.08714602
62	0x3d9911ed	0.07474122
63	0x3b6e29da	0.0036340863
64	0x3d7c65a9	0.06162039
65	0x3d820592	0.06348719
66	0x3c4eb532	0.0126164425
67	0xbd4dbafb	-0.050227147
68	0x3d8aeba1	0.06783224
69	0x3e05851c	0.13039058
70	0x3d7be78f	0.06150013
71	0x3d2593e3	0.04042424
72	0xbd0dd2c8	-0.034624845
73	0xbc75f3b5	-0.015011718
74	0x3d677e06	0.05651667
75	0x3c2249b4	0.0099052675
76	0xbccbb02c	-0.024864279
77	0x3d8920a4	0.06695679
78	0xbdbef5ab	-0.09324201
79	0x3d8b6954	0.06807199
80	0xbc34b94f	-0.011030509
81	0xbdf24ea7	-0.11831408
82	0xbd651ee0	-0.055937648
83	0x3bb1b263	0.0054228767
84	0xbbfafa2b	-0.007659217
85	0xbce65904	-0.028118618
86	0xbce440a1	-0.027862849
87	0x3dfe2e67	0.12411194
88	0x3cf78cf4	0.030218579
89	0x3e0e01dc	0.13867897
90	0x3dd8f20b	0.10593041
91	0xbd8bf4f4	-0.068338305
92	0xbd05cc3f	-0.032665487
93	0xbd65ef71	-0.056136552
94	0x3e0a641e	0.13514754
95	0x3ca8a8df	0.020588337
96	0xbcfef2f6	-0.031121712
97	0xbe11bddb	-0.1423258
98	0x3dd54b9d	0.10414813
99	0xbd9a0461	-0.075203665
100	0x3d421acb	0.047388833
101	0x3dae1f0b	0.08502015
102	0x3cc2eada	0.023793627
103	0x3c363eac	0.011123341
104	0xbd90fcb9	-0.07079453
105	0xbd3c6df8	-0.046003312
106	0x3db3d0a0	0.087800264
107	0x3d2d36fd	0.04228877
108	0x3ddac17f	0.10681438
109	0xbc8eaf2e	-0.017417517
110	0xbc727f20	-0.014800817
111	0x3d864f94	0.06558147
112	0xbdaf7ff4	-0.08569327
113	0x3d8c75f0	0.06858432
114	0xbc9ab072	-0.018882964
115	0xbcef1ec9	-0.029189484
116	0x3d8151f9	0.06314463
117	0x3dc43630	0.09580648
118	0x3cbafc92	0.022825513
119	0x3d090054	0.03344758
120	0x3d0fa8ae	0.035072975
121	0x3ceb7875	0.028743962
122	0xbc0adf8f	-0.008476152
123	0x3b0518c8	0.002030896
124	0xbde3269b	-0.11091348
125	0x3d50f267	0.051012423
126	0xbd1c41ac	-0.038148567
127	0xbca415b5	-0.020029882
128	0x3d045599	0.032308195
129	0x3defbaad	0.117055275
130	0x3cca7495	0.024713794
131	0xbd2126dd	-0.039343704
132	0x3cce652c	0.025194727
133	0xbdb47e1a	-0.088131145
134	0x3d287af6	0.04113289
135	0x3a857f29	0.0010184991
136	0xbc7e7726	-0.015531337
137	0xbd45b01f	-0.048263665
138	0x3da7b871	0.08189476
139	0xbd030c40	-0.031994104
140	0x3d4dc2e7	0.0502347
141	0xbdc5a1f1	-0.096500285
142	0xbe6f09e9	-0.23343624
143	0x3da634f1	0.081155665
144	0xbdadaced	-0.084802486
145	0x3e030835	0.127961
146	0xbccc4d87	-0.024939312
147	0xbdd4fe69	-0.104000874
148	0x3e05cf91	0.13067462
149	0xbc3e5249	-0.011616298
150	0xbdc54ed9	-0.096341796
151	0xbe0bb6e2	-0.13643983
152	0xbd8ec148	-0.06970459
153	0x3dacc27c	0.084355325
154	0xbe063007	-0.13104258
155	0xbd933ca4	-0.07189301
156	0xbd4deeaf	-0.050276455
157	0x3d037055	0.03208955
158	0x3d95b223	0.073093675
159	0xbda1dc6e	-0.07903372
160	0x3c5e1ba0	0.013556391
161	0xbccebd05	-0.025236616
162	0x3d532184	0.051545635
163	0x3c451012	0.012027757
164	0x3d892646	0.06696753
165	0xbca6a0fe	-0.020340439
166	0xbe07733c	-0.13227552
167	0xbdf74ffe	-0.12075804
168	0x3d75b484	0.059986606
169	0x3d0b426f	0.033998903
170	0x3d02a761	0.031897906
171	0x3c324e33	0.010882902
172	0xbc147f1f	-0.009063511
173	0xbbc2d3b3	-0.0059456467
174	0xbd414da1	-0.047193173
175	0x3d892fd8	0.066985786
176	0x3c02c9b5	0.007982661
177	0x3db007f2	0.085952654
178	0x3dea91a1	0.11453558
179	0xbcb02ad4	-0.021504797
180	0x3dd3d5e5	0.103435315
181	0xbe022be1	-0.12712051
182	0x3de6f3df	0.112769835
183	0x3cca038d	0.024659896
184	0xbc0ae440	-0.008477271
185	0xbd8b6764	-0.068068296
186	0x3da53d27	0.080683045
187	0xbe059c86	-0.1304799
188	0x3d5205ae	0.051274948
189	0x3b419ff5	0.0029544805
190	0xbe0b225a	-0.13587323
191	0x3dbd4d6c	0.09243283
192	0xbe17df70	-0.14831328
193	0x3d137538	0.03600046
194	0xbcbf648f	-0.02336338
195	0xbd8b125c	-0.06790611
196	0x3dc356a6	0.09538011
197	0x3cb85dcb	0.022505661
198	0x3d921a10	0.07133877
199	0x3d13b25a	0.03605876
200	0xbd959b72	-0.073050395
201	0xbdf6e64f	-0.12055647
202	0xbd32e7d9	-0.04367814
203	0x3c43eca0	0.011958271
204	0x3ce7512f	0.028236954
205	0xbdff5861	-0.12468029
206	0x3d2fc58b	0.042913
207	0xbda26847	-0.079300456
208	0xbd15fddf	-0.036619063
209	0xbd200e8e	-0.03907638
210	0x3dac0c04	0.08400729
211	0xbc080b36	-0.008303454
212	0x3e30e4bb	0.17274754
213	0xbd7b09c4	-0.06128861
214	0x3c0df642	0.0086646695
215	0x3dbf4de4	0.09341028
216	0xbd762be4	-0.06010045
217	0x3d362dea	0.04447738
218	0x3d8ed881	0.069748886
219	0x3d040b07	0.03223708
220	0xbd887568	-0.066630185
221	0x3cb5abec	0.022176705
222	0xbd9ed839	-0.07756085
223	0x3d7fc541	0.062443975
224	0xbd2b1141	-0.0417645
225	0xbd830a60	-0.06398463
226	0xbd94ce44	-0.072659045
227	0x3cb19887	0.021679176
228	0x3dc44cf8	0.09584993
229	0xbd0d7f24	-0.03454508
230	0x3da12bfc	0.078697175
231	0x3b850980	0.0040599704
232	0x3d4523a5	0.048129696
233	0xbdf5a37d	-0.119940735
234	0x3da890a2	0.082307115
235	0x3d57415e	0.052552573
236	0xbcb63d9d	-0.022246176
237	0x3d9c61b3	0.07635822
238	0xbdb3e469	-0.087838
239	0xbd5c7445	-0.05382182
240	0xbd306461	-0.04306448
241	0x3c801c08	0.015638366
242	0xbde11360	-0.109900236
243	0xbdb18ee3	-0.086698316
244	0x3dbb9c00	0.09160614
245	0x3de0f9a4	0.10985115
246	0xbdac6c1f	-0.0841906
247	0x3d8b8c73	0.06813898
248	0xbdb860a3	-0.09002807
249	0x3db98f50	0.09060538
250	0x3dc1e39f	0.094672434
251	0x3b60af81	0.0034284296
252	0xbd8090c3	-0.06277611
253	0xbc6116dd	-0.013738361
254	0xb9c1a800	-0.00036936998
255	0xbd463710	-0.048392355

fc_hidden.bias f4 [100]
0	0x3dcac661	0.09901119
1	0xbdcc6444	-0.09980062
2	0x3c88ecd1	0.016714485
3	0x3d93e5e6	0.07221584
4	0xbd7699da	-0.060205318
5	0xbcef84b3	-0.02923808
6	0x3db13490	0.086526036
7	0x3da7ca09	0.08192832
8	0xbdc7fb02	-0.09764673
9	0x3cae4377	0.021272404
10	0xbdaee2fc	-0.085393876
11	0xbd0e5fe9	-0.034759436
12	0xbd9e6bc8	-0.077354014
13	0xbddcec7b	-0.107872926
14	0xbd77ee43	-0.06052996
15	0x3d49c8a2	0.049263604
16	0xbd984ea5	-0.07436875
17	0xbda868bd	-0.08223102
18	0xbd174606	-0.036932014
19	0x3d9e9120	0.07742524
20	0xbdcc14fd	-0.09964941
21	0xbd9135f1	-0.07090367
22	0x3d58db84	0.05294372
23	0xbd8f992c	-0.07011637
24	0x3d8e7c63	0.06957319
25	0x3d5d157c	0.053975567
26	0x3c1a0408	0.009400375
27	0xbd58370e	-0.05278688
28	0x3cf4dacf	0.029889492
29	0xbda07af2	-0.0783595
30	0x3da5a702	0.08088495
31	0x3d8a00bb	0.067384206
32	0x3d877991	0.06614984
33	0x3cce942a	0.025217135
34	0xbacf4b9c	-0.001581538
35	0x3debb8fc	0.11509892
36	0x3c216d6e	0.00985275
37	0xbbe9dd97	-0.0071370113
38	0x3d8024f3	0.062570475
39	0xbcb34853	-0.021885073
40	0xbd0a15a1	-0.033712033
41	0xbd7db09d	-0.06193601
42	0xbd6f12df	-0.058367606
43	0x3d43535f	0.04768693
44	0xbdd2b6ab	-0.102887474
45	0x3dc42d2c	0.09578928
46	0x3e0b6408	0.13612378
47	0xbdccbcca	-0.09996946
48	0x3da47a24	0.08031109
49	0x3d5f5e49	0.054533277
50	0xbdc63d10	-0.096796155
51	0xbdca9cd3	-0.09893193
52	0xbd9cfd48	-0.07665497
53	0x3d788c5b	0.06068073
54	0x3dd60b99	0.10451431
55	0x3d22d644	0.03975512
56	0x3d15df51	0.036589924
57	0x3d2ddaa7	0.04244485
58	0xbd60b890	-0.054863513
59	0xbd97713c	-0.073946446
60	0x3da2840a	0.07935341
61	0xbc14c6ad	-0.009080571
62	0xbd898b56	-0.06716029
63	0x3d886f23	0.06661823
64	0x3d8d888d	0.069108106
65	0x3db9c6c9	0.090711184
66	0xbc2db551	-0.010602311
67	0xbcb94370	-0.022615165
68	0xbbc51653	-0.006014624
69	0xbb537204	-0.0032264004
70	0x3d35c0f8	0.044373482
71	0xbb54511a	-0.0032396973
72	0x3dbd9c40	0.09258318
73	0x3bc70336	0.006073381
74	0xbd376273	-0.044771623
75	0xbd7385f3	-0.059453916
76	0x3d1862e4	0.037203684
77	0xba708348	-0.0009174836
78	0x3d5f9839	0.05458853
79	0x3d65b0e0	0.056076884
80	0xbcfe3c78	-0.031034693
81	0xbdf3ff96	-0.119139835
82	0xbd01dd3e	-0.031705134
83	0x3d933c13	0.071891926
84	0x3d99c932	0.07509078
85	0xbd10b797	-0.035331335
86	0xbd7d61fc	-0.061861023
87	0xbd449748	-0.047995836
88	0x3da40e30	0.080105186
89	0x3d5f4c0c	0.054515883
90	0x3d0e5d1f	0.034756776
91	0x3dcd4cba	0.100244
92	0x3c140951	0.009035424
93	0x3dd74c10	0.10512555
94	0x3dde99c4	0.10869172
95	0xbd76fc26	-0.06029906
96	0x3dbb8ec4	0.0915809
97	0xbd8f330f	-0.069921605
98	0x3d65c6e9	0.0560979
99	0x3be927a9	0.0071153236

fc_out.weight f4 [1, 100]
0	0x3da57db0	0.080806136
1	0xbdc96fda	-0.09835787
2	0xbde42410	-0.11139691
3	0x3e15cb66	0.14628372
4	0xbca06d4c	-0.019583367
5	0x3dfdc2f3	0.12390699
6	0x3d3b6850	0.045753777
7	0x3d3445e7	0.044011977
8	0xbdbda132	-0.09259261
9	0xbdfce69d	-0.123486735
10	0xbe06d758	-0.13168085
11	0x3d30bc05	0.04314806
12	0xbd45cfef	-0.048294004
13	0x3d848a77	0.064717226
14	0xbdb7fb48	-0.08983475
15	0x3c9ea140	0.019364
16	0xbdcf6204	-0.10126117
17	0xbda89ac0	-0.08232641
18	0xbd886ac2	-0.066609874
19	0x3defc07a	0.11706634
20	0xbd6cdb3c	-0.057826266
21	0xbd835876	-0.06413357
22	0xbd28ab7d	-0.04117917
23	0xbdf9dc29	-0.12200195
24	0x3df9674d	0.12177906
25	0x3ded472f	0.11585843
26	0xbdaa8bb4	-0.083274275
27	0xbdc4febc	-0.09618899
28	0xbdeab44e	-0.11460172
29	0x3c38d0a3	0.011280212
30	0xbd04d8f7	-0.032433476
31	0x3cf05488	0.029337183
32	0xbd670814	-0.05640419
33	0x3d42b5c2	0.04753662
34	0x3de0df5b	0.10980102
35	0xbdc6300d	-0.09677134
36	0xbda7d8d0	-0.081956506
37	0xbd98f728	-0.07469016
38	0xbde32657	-0.11091297
39	0x3d15dc5d	0.036587108
40	0x3da6d258	0.08145589
41	0xbd6e174d	-0.05812769
42	0x3e62d355	0.2215093
43	0xbdd7d783	-0.105391525
44	0x3d16e5ee	0.03684037
45	0x3b6a8d36	0.0035789735
46	0x3e21b01b	0.15789835
47	0xbd6fbcc9	-0.05852965
48	0xbdd82da0	-0.10555577
49	0xbd550b30	-0.052012622
50	0xbe0fc311	-0.14039256
51	0x3e024007	0.12719737
52	0x3d9fc2cf	0.07800829
53	0x3e16cbfa	0.14726248
54	0xbd3b3a5e	-0.04570996
55	0xbcba1b7f	-0.02271819
56	0x3df3a42c	0.11896548
57	0xbdc79237	-0.09744685
58	0xbd88aeab	-0.0667394
59	0x3dfe5583	0.12418654
60	0xbde64e74	-0.112454325
61	0xbd83a438	-0.064278066
62	0xbdae6c3b	-0.08516737
63	0xbe0bb51a	-0.13643304
64	0x3dabffde	0.08398412
65	0x3dadfd70	0.08495605
66	0x3cf311f8	0.029671654
67	0xbd5ecba1	-0.054393414
68	0x3b9efff2	0.0048522884
69	0x3de20fcf	0.110381715
70	0x3d9b030c	0.075689405
71	0x3cbe8715	0.023257772
72	0xbdd35d5a	-0.1032054
73	0xbd6f51a1	-0.058427457
74	0x3d501efa	0.05081079
75	0x3c765752	0.015035467
76	0x3d6933d8	0.056934208
77	0xbdd022e8	-0.10162908
78	0xbd447975	-0.047967393
79	0x3d4ba47d	0.049717415
80	0x3cf92515	0.03041319
81	0x3e05b16e	0.13055965
82	0xbdbdd095	-0.092682995
83	0x3d9b807f	0.07592868
84	0x3d89ff87	0.06738191
85	0x3ddd4ce9	0.10805685
86	0x3dbb3eff	0.09142875
87	0xbdc10af1	-0.09425915
88	0xbde68f48	-0.112577975
89	0x3e482eb4	0.19549066
90	0xbcbfa800	-0.023395538
91	0xbe04c7ee	-0.12966892
92	0x3daaf5c9	0.08347661
93	0x3df9301e	0.12167381
94	0x3e1f7edb	0.15575735
95	0xbdf65a65	-0.1202896
96	0xbdd15eb9	-0.10223145
97	0xbe08b03f	-0.13348483
98	0x3de1087b	0.10987946
99	0xbd734726	-0.059394024
