Copula by Ratio Estimation/2d_exp/model_parameters_NNet_ratio_25_runs_4copulas_2Dexperiment_ok/NNet_ratio_run_11_cop_u_2_ok.pt (torch, 45099 bytes, 5 tensors)

fc_in.weight f4 [100, 2]
0	0xbedf7263	-0.43641958
1	0x3e0acc27	0.1355444
2	0x3bb9e11e	0.005672588
3	0x3ecc70a2	0.39929682
4	0x3df824b9	0.12116379
5	0xbe0b3b2c	-0.13596791
6	0x3ee57b57	0.44820663
7	0xbf16dd5f	-0.58931535
8	0x3f0f7bd5	0.5604833
9	0xbe3b6e62	-0.18303826
10	0xbd1deb4a	-0.038554467
11	0xbf0237a9	-0.5086618
12	0x3ee4fd7f	0.44724652
13	0xbec657c1	-0.38738826
14	0xbe827b0a	-0.25484496
15	0xbf389c19	-0.72113186
16	0xbb5d2e6a	-0.0033749589
17	0xbdb38d6e	-0.0876721
18	0x3ec962fa	0.39333326
19	0x3d70d5b6	0.05879756
20	0xbf0f0204	-0.5586245
21	0x3ece87d0	0.40337992
22	0x3e0421b8	0.12903488
23	0x3eea8f6a	0.4581254
24	0xbed61920	-0.41816044
25	0xbea07a28	-0.31343198
26	0xbe600116	-0.21875414
27	0x3ef3913c	0.47571743
28	0xbef0816c	-0.4697374
29	0x3e94f72f	0.29094836
30	0xbf3bb950	-0.7332964
31	0x3d1479d0	0.036248982
32	0xbe2e4f9b	-0.17022555
33	0x3f2f09ef	0.6837453
34	0xbe31e6b1	-0.17373158
35	0xbee91093	-0.45520458
36	0xbe910e79	-0.28331354
37	0xbe04eb1b	-0.1298031
38	0xbf32d797	-0.69860214
39	0x3e61da0d	0.22055836
40	0x3deceed2	0.11568989
41	0xbe7a9bb9	-0.24473466
42	0x3f0c70d5	0.5485967
43	0x3f106bc7	0.56414455
44	0x3f187a88	0.5956197
45	0xbeb66d54	-0.35630286
46	0x3f3f5bb8	0.74749327
47	0x3e914227	0.28370783
48	0x3ed6eef3	0.4197918
49	0x3ef04690	0.46928835
50	0x3ea14ee5	0.31505504
51	0xbef5871a	-0.47954637
52	0x3ef7334a	0.48281318
53	0x3ee9dd54	0.45676672
54	0x3ded6b18	0.11592692
55	0x3f1c98af	0.61170477
56	0x3f33932a	0.7014643
57	0x3e2c3521	0.16817142
58	0x3e5f62c7	0.21815024
59	0x3f0f483f	0.55969614
60	0x3ee4cd05	0.44687667
61	0xbf2a53a4	-0.66533875
62	0xbdd815ca	-0.10551031
63	0xbd386354	-0.0450166
64	0x3f21322b	0.62967175
65	0xbeb95bda	-0.3620289
66	0x3f3f58a1	0.7474461
67	0xbe2c1d2b	-0.16808002
68	0x3d9d10cf	0.076692216
69	0xbf3b262f	-0.7310514
70	0x3f013a32	0.50479424
71	0xbf28dc34	-0.65961003
72	0x3ec8c69c	0.39214027
73	0x3e359119	0.17731132
74	0xbebcfbfa	-0.36910993
75	0xbd891c29	-0.06694824
76	0xbeca665b	-0.39531216
77	0x3ec758a1	0.38934806
78	0x3e7e0928	0.2480818
79	0x3f252b59	0.6451927
80	0x3f2f7177	0.6853251
81	0x3f15e58e	0.585534
82	0x3f070c87	0.5275349
83	0x3f397004	0.7243655
84	0x3da37c3f	0.079826824
85	0xbf0068dd	-0.5016001
86	0x3f006207	0.5014958
87	0xbef0200b	-0.46899447
88	0xbe273847	-0.16330062
89	0xbe97d28f	-0.2965283
90	0xbeedefed	-0.4647211
91	0xbf1d3c80	-0.6142044
92	0x3ba65287	0.005075756
93	0x3f31d17d	0.6946028
94	0xbf15635f	-0.58354753
95	0xbee266f4	-0.44219172
96	0xbdf2cd38	-0.118555486
97	0x3f293a18	0.6610427
98	0xbef4c872	-0.47809178
99	0xbe3f397c	-0.18674272
100	0x3f280f1d	0.6564806
101	0x3e9bc5d1	0.3042436
102	0x3df61eed	0.120176174
103	0x3eacf925	0.33783832
104	0x3eec31a4	0.46131623
105	0x3ea5645e	0.32303137
106	0xbeb2ceb4	-0.34923327
107	0xbe650403	-0.22364812
108	0xbf2061c3	-0.6264917
109	0x3ed2078c	0.41021383
110	0x3d89246a	0.066963986
111	0x3eb987a7	0.36236307
112	0x3ef43466	0.47696227
113	0x3e7e5c41	0.2483988
114	0xbedaf138	-0.4276216
115	0x3eb7ec2a	0.35922366
116	0xbe6c728b	-0.2309057
117	0x3effa697	0.49931785
118	0x3f0ff2e7	0.56230015
119	0xbc9a84c2	-0.018862132
120	0x3f144ea4	0.57932496
121	0xbf108f94	-0.5646908
122	0xbe44980b	-0.19198625
123	0x3ece8fc2	0.40344054
124	0x3f0def03	0.5544283
125	0x3f23112d	0.63698083
126	0xbe24e932	-0.16104582
127	0x3ebe43e2	0.37161165
128	0x3e6c17aa	0.23055902
129	0xbf36934a	-0.71318495
130	0xbdf024c2	-0.11725761
131	0x3e02cb6b	0.1277291
132	0xbe4512e0	-0.19245481
133	0xbe041dd4	-0.12902004
134	0xbe0dd7cb	-0.1385185
135	0x3e50a2bf	0.20374583
136	0x3f112e6d	0.56711465
137	0xbf37a074	-0.7172921
138	0x3e02152b	0.12703387
139	0x3d9c2fa9	0.07626278
140	0xbf2c2afc	-0.6725309
141	0xbde7fe73	-0.11327829
142	0xbf27101e	-0.6525897
143	0xbf02514d	-0.50905305
144	0x3f0800b9	0.531261
145	0x3f2d44e6	0.67683256
146	0x3f06f903	0.5272371
147	0xbe234341	-0.15943624
148	0x3f36feb7	0.71482414
149	0x3cc66181	0.024216415
150	0xbdd5bf5c	-0.104368895
151	0xbf37b1da	-0.71755755
152	0x3ecbc723	0.39800367
153	0x3f1ae048	0.60498476
154	0xbf1b8649	-0.6075178
155	0x3ebfd23f	0.37465093
156	0xbdbeed73	-0.093226336
157	0x3ca5497d	0.020176644
158	0xbea7a7b8	-0.32745147
159	0xbeefa3fb	-0.46804795
160	0x3e8e3710	0.27776384
161	0xbf15cfb5	-0.5852006
162	0xbc7533ba	-0.014965946
163	0xbeaff851	-0.34369138
164	0x3ea13e2d	0.3149275
165	0xbf00650b	-0.5015418
166	0x3f22a759	0.635366
167	0xbd95213b	-0.07281729
168	0x3d97ae5d	0.07406304
169	0x3ecd3ea9	0.40086868
170	0x3cf75e96	0.03019647
171	0xbec08a22	-0.37605387
172	0x3eba5f9c	0.3640107
173	0xbeb7a0cf	-0.35864875
174	0xbf20d461	-0.62824064
175	0xbf114092	-0.5673915
176	0xbee8fdf1	-0.45506242
177	0xbe9165bf	-0.2839794
178	0xbf0b2d78	-0.54366255
179	0x3e956d02	0.2918473
180	0xbf11b9ca	-0.56924117
181	0xbf1d55dd	-0.6145914
182	0x3ed68666	0.41899413
183	0xbe8bae6a	-0.27281505
184	0x3f2db7b2	0.6785842
185	0x3ed9d0aa	0.4254201
186	0x3e966a34	0.29377902
187	0xbe8dc783	-0.27691278
188	0x3f541ba5	0.8285468
189	0x3d223f72	0.039611287
190	0xbf28ce16	-0.6593946
191	0x3dfb282b	0.12263521
192	0x3b9e547a	0.0048318477
193	0x3e41f30a	0.18940368
194	0xbefd666d	-0.49492207
195	0xbef5e685	-0.48027435
196	0xbdc05a16	-0.093921825
197	0x3ede1659	0.43376425
198	0x3e6fcb34	0.2341736
199	0x3d642691	0.055700842

fc_in.bias f4 [100]
0	0x3ed731b7	0.42030117
1	0xbf205b96	-0.6263975
2	0x3f1d34b3	0.6140854
3	0x3f0e98d3	0.5570194
4	0xbeadf5d0	-0.33976603
5	0xbeb42b6f	-0.35189387
6	0xbc536c49	-0.012904235
7	0x3e65ad3c	0.22429365
8	0x3f02f369	0.51152664
9	0xbdb4d9fa	-0.08830638
10	0x3ef53ac0	0.47896385
11	0xbf2b5f54	-0.66942334
12	0xbe6c892e	-0.23099205
13	0xbd98a21f	-0.07452797
14	0xbec71ada	-0.38887674
15	0x3d8a1407	0.06742101
16	0xbf1b637f	-0.60698694
17	0xbee0e1e5	-0.43922344
18	0xbf7641a3	-0.96193904
19	0x3f2b7c8a	0.66986907
20	0x3ead57fd	0.33856192
21	0x3e323c6a	0.17405859
22	0x3f2c9ba8	0.6742501
23	0xbeed4f15	-0.46349397
24	0xbf1083ae	-0.5645093
25	0x3ecb715a	0.39734918
26	0xbf026834	-0.5094025
27	0xbeec5d5a	-0.46164972
28	0xbe96759f	-0.29386613
29	0xbe3a0d6c	-0.18169183
30	0xbedba124	-0.42896378
31	0xbf247315	-0.642381
32	0xbf2ef93c	-0.6834905
33	0xbf0d5ce7	-0.5521988
34	0xbe87311d	-0.26404658
35	0x3e3fd6b9	0.18734254
36	0xbd39a5b6	-0.04532405
37	0x3d134a5d	0.03595959
38	0x3e7e1bc9	0.24815287
39	0x3f11e7ce	0.5699433
40	0x3ed026ce	0.40654606
41	0xbe4c5fcf	-0.19958423
42	0xbf12b95e	-0.573141
43	0xbe5141ec	-0.20435303
44	0xbe51a14e	-0.20471689
45	0x3f100a2b	0.56265515
46	0x3d8fd68a	0.07023342
47	0x3f1cfc0a	0.6132208
48	0x3f067248	0.5251813
49	0xbd8327c0	-0.06404066
50	0x3ef32c08	0.4749453
51	0x3e956f56	0.29186505
52	0xbe72a4c4	-0.23695666
53	0xbee8f385	-0.4549829
54	0x3f221f9b	0.63329476
55	0xbeaf8935	-0.34284368
56	0x3e0f9772	0.14022616
57	0x3e8c6aa8	0.27425122
58	0x3ddaf2aa	0.10690816
59	0x3f307f4a	0.6894423
60	0xbe5bc164	-0.21460491
61	0x3f05e654	0.5230458
62	0xbe7e8f6f	-0.24859403
63	0x3d8f8051	0.07006896
64	0x3c6e915d	0.0145610245
65	0xbdcaec81	-0.09908391
66	0xbf00f2a4	-0.5037024
67	0xbe0e1335	-0.13874514
68	0xbf212901	-0.6295319
69	0xbe741ac4	-0.23838335
70	0x3ea3a338	0.31960464
71	0x3f229a84	0.6351702
72	0xbed7f63a	-0.42180043
73	0x3c7dd49b	0.015492584
74	0xbf28df14	-0.6596539
75	0xbdb7dd27	-0.08977728
76	0xbea2873f	-0.3174381
77	0xbf002f83	-0.500725
78	0x3ea40d39	0.32041338
79	0x3f32e3ff	0.69879144
80	0x3f1e3a9c	0.6180818
81	0x3ef68069	0.48144844
82	0x3ee3b6fc	0.44475543
83	0x3d4a6ad5	0.04941829
84	0xbec20cb4	-0.37900317
85	0x3f41f31f	0.757616
86	0xbde26879	-0.11055083
87	0xbeb4912e	-0.35267013
88	0x3f0445ef	0.5166921
89	0x3df69705	0.120405234
90	0x3ebd65e2	0.36991793
91	0xbed62995	-0.418286
92	0x3df67d76	0.120356485
93	0xbf2f2077	-0.6840891
94	0x3ecca35d	0.39968386
95	0x3e652989	0.22379126
96	0x3f25b758	0.64732885
97	0xbeb75888	-0.3580973
98	0xbecd521f	-0.40101716
99	0xbf36b7f6	-0.7137445

fc_hidden.weight f4 [100, 100]
0	0x3c6c9704	0.014440302
1	0xbdba9603	-0.09110644
2	0x3dca008c	0.098633856
3	0xbd4b9e24	-0.04971136
4	0xbcfbbe18	-0.030730292
5	0xbe00a85e	-0.12564227
6	0x3dcd5987	0.100268416
7	0xbdc5f91f	-0.09666657
8	0xbd7d989b	-0.061913114
9	0x3d6b1bf0	0.05739969
10	0x3db0e130	0.08636701
11	0xbd42d871	-0.047569696
12	0x3d0c6b36	0.03428193
13	0x3d756a86	0.05991604
14	0x3dec71f5	0.11545173
15	0xbd3622d8	-0.044466823
16	0xbdc910df	-0.09817671
17	0xbd05bf8a	-0.03265337
18	0xbd9c3383	-0.076270126
19	0xbb06e5a8	-0.0020583663
20	0xbd1729bd	-0.03690504
21	0x3cb5aa1a	0.022175837
22	0x3db6585a	0.089035705
23	0x3cb4002a	0.021972734
24	0x3da9c323	0.082891725
25	0x3db0c302	0.08630945
26	0xbdcb3160	-0.09921527
27	0x3de15509	0.11002547
28	0x3d639d85	0.055570144
29	0x3c1cc157	0.00956758
30	0x3be12aeb	0.0068715713
31	0xbdbb1e30	-0.09136617
32	0x3d7de824	0.061988965
33	0x3bc198cd	0.005908108
34	0xbd83fadf	-0.06444334
35	0x3dd86100	0.10565376
36	0x3b064162	0.0020485749
37	0xbda92a03	-0.08259966
38	0x3b3839a4	0.0028110528
39	0x3cd0590f	0.025433091
40	0xbbac1541	-0.005251557
41	0x3cda4a05	0.026646623
42	0xbd60f5b4	-0.05492182
43	0x3d9536cb	0.072858416
44	0x3d951ac5	0.072804965
45	0x3d908358	0.07056302
46	0x3dddfd98	0.10839385
47	0x3b01e458	0.0019819941
48	0xbdbff775	-0.093733706
49	0xbdcf4886	-0.101212546
50	0xbcbb89a0	-0.022892773
51	0x3d9f3860	0.077744246
52	0xbd82c906	-0.063859984
53	0x3d653973	0.05596299
54	0x3d9d25d1	0.076732285
55	0x3e1133c0	0.14179897
56	0xbdb96b29	-0.09053642
57	0x3dd7ff7a	0.10546775
58	0x3d0aaa7c	0.033853993
59	0xbd71800d	-0.05896001
60	0x3d936306	0.071966216
61	0x3db6ae1e	0.08919929
62	0x3c80e40e	0.015733745
63	0x3d5729ee	0.05253022
64	0x3ab4e2a8	0.0013800459
65	0x3b7f549f	0.003896035
66	0xbc293d86	-0.01032961
67	0x3e0d9307	0.13825618
68	0x3c98824d	0.01861682
69	0xbb38c4e0	-0.0028193519
70	0x3d7bc860	0.06147039
71	0xbd97b94d	-0.0740839
72	0x3c86c8b7	0.01645313
73	0x3d3cb66e	0.046072416
74	0x3e0f9cf4	0.14024717
75	0x3d8c32a7	0.06845599
76	0x3d55e0ba	0.05221627
77	0xbc4838b6	-0.012220552
78	0xbc4adeb7	-0.012382201
79	0xbda243a5	-0.079230584
80	0x3d1063fa	0.035251595
81	0xbdbd856f	-0.09253966
82	0x3d79a177	0.060945
83	0xbd1bb1c9	-0.038011346
84	0x3c44af08	0.012004621
85	0x3dc6bdaf	0.09704148
86	0x3dcc62d5	0.09979788
87	0xbcd8b75b	-0.026454618
88	0xbca4822a	-0.020081598
89	0x3d853524	0.065042764
90	0x3dc9e2f3	0.0985774
91	0xbce592ad	-0.028024042
92	0x3bdf789b	0.006819797
93	0x3e22192c	0.15829915
94	0xbd6545d9	-0.055974815
95	0x3df2b38f	0.11850654
96	0x3c97a17d	0.01850962
97	0xbbbc7ded	-0.005752316
98	0x3bd3c94e	0.0064632064
99	0x3de4f660	0.11179805
100	0xbdf802c6	-0.12109904
101	0xbd052d88	-0.032514125
102	0x3df20cca	0.118188456
103	0x3dbc1903	0.09184458
104	0x3d482bb9	0.048869822
105	0xbd959697	-0.07304113
106	0x3d9e99c2	0.07744171
107	0x3daccbed	0.08437333
108	0xbd0277f4	-0.031852677
109	0xbd080027	-0.03320327
110	0xbe03f250	-0.12885404
111	0x3ba9fac1	0.005187363
112	0xbda206c2	-0.07911445
113	0xbcd1cd9e	-0.025610741
114	0xbdbf7f71	-0.093504794
115	0x3c5e1c5e	0.013556568
116	0xbd020077	-0.031738725
117	0xbc36cdf0	-0.011157498
118	0x3ae74453	0.0017644264
119	0xbc86ba8d	-0.016446376
120	0x3d13c15c	0.036073074
121	0xbbf5b7ac	-0.007498702
122	0x3c107078	0.008815877
123	0x3b366762	0.0027832617
124	0xbd9a70ec	-0.075410694
125	0x3d969a1b	0.07353612
126	0xbd44ca0b	-0.048044246
127	0xbb0b73a0	-0.0021278635
128	0x3dfcd24c	0.123447984
129	0x3c8e9695	0.017405787
130	0x3d31dccf	0.04342347
131	0xbe20acaa	-0.15690866
132	0x3dc2e7f5	0.095168985
133	0xbd6e754f	-0.058217343
134	0x3dceaea5	0.100919046
135	0xbcec5d75	-0.028853158
136	0x3c8a2266	0.016862106
137	0xbd6dcbd5	-0.058055717
138	0xbe03a087	-0.12854205
139	0xbb029a19	-0.0019928275
140	0x3c951b5d	0.018201524
141	0xbcd4f52f	-0.025995819
142	0xbd22cc13	-0.0397454
143	0xbc55d821	-0.013052017
144	0x3cc04e64	0.02347488
145	0xbc3e7fb0	-0.011627123
146	0xbd9984cc	-0.07496032
147	0x3ce54526	0.027987074
148	0xbdaaf918	-0.08348292
149	0xbd9ae987	-0.07564073
150	0x3c8a92a2	0.016915623
151	0x3d67c566	0.05658474
152	0x3d4ebbcc	0.050472066
153	0xbda2c68c	-0.07948026
154	0xbdf007a9	-0.11720211
155	0x3c888404	0.016664512
156	0xbcf89eaf	-0.030349104
157	0x3d30a94e	0.04313021
158	0x3d1b49fc	0.037912354
159	0x3dcbcdae	0.0995134
160	0x3be60715	0.007019887
161	0x3d57dfda	0.052703716
162	0xbd3314ba	-0.04372094
163	0x3dc7c3fb	0.09754177
164	0xbd9d3e01	-0.07677842
165	0x3e275d97	0.16344295
166	0xbcbd68e6	-0.023121309
167	0x3caca3a0	0.021074116
168	0xbcc8890e	-0.024479415
169	0x3d791dbd	0.060819376
170	0xbda382e7	-0.07983952
171	0x3d0fb53b	0.035084944
172	0xbdedc60f	-0.11610042
173	0xbd94e6eb	-0.072706066
174	0xbd08f9fb	-0.033441525
175	0x3d18017c	0.03711079
176	0xbda06475	-0.07831661
177	0x3dbd3440	0.092384815
178	0x3b770fad	0.0037698552
179	0xbd2a2a9a	-0.041544534
180	0x3d91f47a	0.07126708
181	0x3d62043d	0.055179823
182	0x3e032058	0.12805307
183	0xbcfbdc03	-0.030744558
184	0x3d4a4760	0.049384475
185	0x3cfc2e15	0.030783692
186	0x3d83a6ca	0.06428297
187	0xbd5702ed	-0.052493025
188	0xbcb95eb0	-0.022628158
189	0x3ba86ada	0.005139691
190	0x3b3064b1	0.0026915486
191	0xbd9b9c3e	-0.0759816
192	0x3d24a978	0.04020068
193	0x3ca129b2	0.019673202
194	0x3d075cfb	0.033047657
195	0x3c4a1271	0.012333498
196	0x3c3a11c4	0.011356775
197	0xbc835bb5	-0.01603494
198	0xbd0bd5ce	-0.034139447
199	0xbd90cc52	-0.07070221
200	0x3d12c885	0.03583576
201	0x3d87e8da	0.0663621
202	0x3d3f900a	0.046768226
203	0x3cf49c1c	0.029859595
204	0xbbd09be3	-0.0063662394
205	0xbc22ff50	-0.009948567
206	0x3da2efed	0.079559185
207	0xba4f4df8	-0.00079080416
208	0x3dcaee6f	0.09908759
209	0xbdcb9263	-0.099400304
210	0x3d6996bc	0.057028517
211	0x3a8e4b1f	0.0010856128
212	0x3bd3c3ae	0.006462536
213	0xbd127ffb	-0.035766583
214	0x3d520745	0.051276464
215	0x3e078ccd	0.13237305
216	0xbe0ce2aa	-0.1375834
217	0x3c45b302	0.012066605
218	0xbe0f14cc	-0.13972777
219	0xbdc50977	-0.09620946
220	0xbd85c51e	-0.06531738
221	0xbc8c1998	-0.017102048
222	0x3baf88e2	0.005356894
223	0xbce66836	-0.028125864
224	0x3c806e95	0.01567773
225	0x3cde5ce0	0.027143896
226	0x3d6539ec	0.05596344
227	0x3da92e0d	0.082607366
228	0xbd8e83c2	-0.069587246
229	0x3d2e443e	0.04254555
230	0xbc4eb73e	-0.0126169305
231	0xbcd27a91	-0.02569321
232	0xbc28bc12	-0.010298746
233	0xba7fb63b	-0.00097546325
234	0x3d49d4c0	0.04927516
235	0x3bfa9e7e	0.0076482883
236	0xbd390644	-0.04517199
237	0xbccdc6d9	-0.025119232
238	0xbcfac7ec	-0.030612908
239	0x3d9397ee	0.07206713
240	0x3d598e64	0.05311431
241	0xbd354fbf	-0.044265505
242	0xbda3c6c4	-0.07996896
243	0x3d07c98a	0.033151187
244	0xbd555353	-0.052081417
245	0xbcd69f1b	-0.026198914
246	0x3d36434b	0.04449777
247	0x3d9d1763	0.07670476
248	0xbdcac231	-0.0990032
249	0xbd81f073	-0.0634469
250	0x3dda7e65	0.10668639
251	0x3dbdf2ac	0.092748016
252	0x3d923e41	0.0714078
253	0x3c622824	0.013803516
254	0xbc7ca630	-0.015420482
255	0x3e0fa6e9	0.14028515

fc_hidden.bias f4 [100]
0	0xbda90462	-0.08252789
1	0x3dc1ef02	0.09469415
2	0xbcc8fd8f	-0.024534969
3	0x3de48f79	0.11160178
4	0xbd82edf0	-0.06393039
5	0xbe1c1bc7	-0.15244971
6	0xbd80e901	-0.06294442
7	0xbcbb796f	-0.022885052
8	0xbdc43abd	-0.09581516
9	0xbb3fc300	-0.0029260516
10	0xbd962c15	-0.07332627
11	0x3db50730	0.088392615
12	0x3d50fe8c	0.051024005
13	0x3ddeb887	0.108750395
14	0x3d83145a	0.06400366
15	0xbd29ec5d	-0.04148518
16	0xbdf970d8	-0.12179726
17	0xbd06f716	-0.032950483
18	0x3d9bb7f3	0.07603445
19	0x3c6658e4	0.014059279
20	0xbda06de9	-0.07833464
21	0xbd95c4c5	-0.073129214
22	0xbd76ef10	-0.06028658
23	0xbd3f6613	-0.046728205
24	0xbc80da13	-0.015728986
25	0x3daf589d	0.085618235
26	0xbd996496	-0.07489888
27	0x3d1e9467	0.038715746
28	0x3d77b311	0.060473505
29	0x3dd30148	0.10302979
30	0x3e041374	0.12898046
31	0xbd9ddfde	-0.07708715
32	0x3d926f6d	0.07150159
33	0xbdb3a44c	-0.087715715
34	0xbcfe0fbc	-0.031013362
35	0x3c4830af	0.012218638
36	0xbca34429	-0.019929962
37	0x3d91179d	0.07084582
38	0x3cf63b54	0.030057587
39	0xbd68fd58	-0.056882232
40	0xbd5d8a4a	-0.05408696
41	0x3dabd2ef	0.08389842
42	0x3b844fe8	0.004037846
43	0xbd212d19	-0.03934965
44	0x3cc70ef3	0.02429912
45	0xbd88ba5a	-0.06676169
46	0x3cf2f6ae	0.029658642
47	0xbd4c025a	-0.04980693
48	0xbd8e99ae	-0.06962906
49	0x3b3a2230	0.0028401725
50	0xbd31796c	-0.043328688
51	0xbd012942	-0.031533487
52	0x3c9e5258	0.019326374
53	0xbc6f4869	-0.014604666
54	0xbdd8b300	-0.105810165
55	0x3c37a2bb	0.011208232
56	0xbd8bceff	-0.06826591
57	0x3dd71196	0.10501401
58	0x3df1bec6	0.11803965
59	0x3d0ab7c3	0.033866655
60	0x3ca9f77e	0.020747896
61	0xbdbe046e	-0.09278189
62	0x3b9924b6	0.0046735657
63	0xbc80bcfa	-0.015715111
64	0xbc8ac24e	-0.016938355
65	0xbaf33eec	-0.0018558181
66	0xbdd729bb	-0.10506006
67	0x3d690d43	0.056897413
68	0x3de69a42	0.11259891
69	0x3dd89049	0.10574395
70	0xbda143b3	-0.07874241
71	0x3cf3c975	0.029759148
72	0xbd9673e2	-0.07346322
73	0xbc52c843	-0.012865129
74	0xbcbf1aaf	-0.023328153
75	0xbd4b93aa	-0.04970137
76	0x3b702a07	0.0036646144
77	0x3d82be5b	0.06383964
78	0xbd551ce0	-0.05202949
79	0x3d51c147	0.051209714
80	0xbd2b87e7	-0.041877653
81	0xbbe37189	-0.0069410247
82	0xbda5de5d	-0.08099053
83	0x3bba27fe	0.005681037
84	0x3d53772f	0.051627334
85	0xbdd00736	-0.101576254
86	0x3d7144ca	0.058903493
87	0x3e0d4006	0.13793954
88	0x3d1ef5d9	0.038808677
89	0xbdb3b6ad	-0.08775077
90	0x3d16dfac	0.036834404
91	0x3d63c772	0.055610128
92	0xbced0316	-0.028932136
93	0xbc3425d6	-0.010995349
94	0x3e227d43	0.15868096
95	0x3dea32e1	0.11435486
96	0xbda31af1	-0.07964123
97	0xbd1e132f	-0.038592514
98	0xbd2715d3	-0.040792298
99	0xbc0fead9	-0.008784019

fc_out.weight f4 [1, 100]
0	0xbdc413e0	-0.09574103
1	0xbe02b5e5	-0.127647
2	0xbe0f1877	-0.13974176
3	0xbd9a70d9	-0.07541055
4	0xbe12f29a	-0.14350358
5	0x3e0a937e	0.13532826
6	0xbd58b8a1	-0.05291045
7	0x3e09af62	0.1344581
8	0xbdb5adcc	-0.0887104
9	0xbcfa32fb	-0.030541888
10	0xbd8d43f6	-0.06897728
11	0x3e205a92	0.1565955
12	0x3d9807ca	0.07423361
13	0x3e02e43c	0.12782377
14	0xbd6ff640	-0.05858445
15	0xbe0cd98a	-0.1375486
16	0xbb51e56a	-0.003202761
17	0xbe011b09	-0.1260797
18	0x3e08038e	0.13282606
19	0x3db5c282	0.0887499
20	0x3d244d58	0.040112823
21	0x3d825918	0.063646495
22	0x3c93ba7e	0.018033262
23	0xbd7fad55	-0.06242116
24	0xbe216e54	-0.15764743
25	0x3d53ebd4	0.051738575
26	0xbcd2a6e0	-0.025714338
27	0xbdb069e0	-0.08613944
28	0x3d8dfe9d	0.06933329
29	0x3e024f04	0.12725455
30	0xbd7fbf05	-0.06243803
31	0x3dfde957	0.12398022
32	0xbc2b9735	-0.010473062
33	0xbe1b7657	-0.15181862
34	0x3ceb24f4	0.028704144
35	0xbdae51ae	-0.08511673
36	0xbde7aac0	-0.11311865
37	0x3da6679a	0.08125229
38	0x3d8a7336	0.06760256
39	0xbdebc5d8	-0.11512345
40	0xbdcaf99c	-0.099108905
41	0x3d19e388	0.037570506
42	0xbd889faf	-0.06671082
43	0xba2f622e	-0.000669035
44	0x3dbc1dac	0.09185347
45	0x3c6c16c6	0.0144097265
46	0xbd80680e	-0.06269847
47	0x3deb87c0	0.11500502
48	0x3dcad80d	0.0990449
49	0x3c8e7493	0.017389571
50	0xbdc5d37c	-0.09659478
51	0xbe12e726	-0.14345989
52	0x3d2782ba	0.040896155
53	0x3e0d8e82	0.13823894
54	0xbdcaba23	-0.09898784
55	0xbe4b6189	-0.19861425
56	0x3d98e34b	0.07465228
57	0xbe0dafd5	-0.13836606
58	0x3d0f1d20	0.034939885
59	0x3e20989f	0.1568322
60	0x3aeff4b8	0.0018307185
61	0xbdadfddd	-0.08495686
62	0xbd4e0587	-0.05029824
63	0xbe23e94d	-0.16006966
64	0x3df0ad4a	0.11751802
65	0xbe00628b	-0.12537591
66	0x3e20183a	0.15634242
67	0x3d8eeeb1	0.069791205
68	0xbd8222e0	-0.06354308
69	0xbe08d5e5	-0.13362844
70	0xbd9411e8	-0.07229978
71	0x3ddb2b6e	0.10701643
72	0xbd8365a4	-0.06415871
73	0x3d85fce1	0.065423734
74	0xbde09aea	-0.109670475
75	0xbdfa71ca	-0.12228735
76	0xbd94c5aa	-0.07264264
77	0x3d816033	0.06317177
78	0x3dd80330	0.10547483
79	0x3cdefe68	0.02722092
80	0x3d198e0c	0.037488982
81	0xbde8134a	-0.11331804
82	0x3d44193b	0.047875624
83	0x3e3966de	0.18105647
84	0xbd2e67e7	-0.042579558
85	0x3d88afb0	0.06674135
86	0x3bc78378	0.0060886703
87	0xbc89492e	-0.016758528
88	0xbd9d3207	-0.076755576
89	0xbdc9904e	-0.09841977
90	0x3d82b9e5	0.06383113
91	0x3e2e1e00	0.17003632
92	0xbdbba0f7	-0.09161561
93	0xbe5e6fab	-0.21722285
94	0x3e2cd0de	0.16876552
95	0xbe015722	-0.12630895
96	0xbd3dee34	-0.046369746
97	0x3d9ec722	0.07752825
98	0x3c3178c1	0.010832013
99	0xbda81150	-0.08206427
