Copula by Ratio Estimation/2d_exp/model_parameters_NNet_ratio_25_runs_4copulas_2Dexperiment_ok/NNet_ratio_run_11_cop_u_1.pt (torch, 45066 bytes, 5 tensors)

fc_in.weight f4 [100, 2]
00000000: be48 d9bd 27b8 0b3e 646f a33e 7b7d bcbe
00000010: f0ee e9be 4c80 5b3e 96f8 cbbe 7515 303f
00000020: f16a c6be 1b66 ac3e bb8d aa3e f040 cfbd
00000030: 6847 033f baf0 00be 39fe 0a3f 5d5e f7be
00000040: a200 79be 6e53 873e 2f8a 7e3e 5625 fd3e
00000050: 785f e33e f1ca 8fbe b1ea 223f 40fb 513e
00000060: bfb4 8dbd 39e8 36bf a9f7 a5be c043 c7be
00000070: a505 d6be 2690 9b3e a1db 953e aedc ba3d
00000080: f4a5 203e 2d10 99bd 958c fcbe 31f4 46bd
00000090: 5697 903c b170 093d ddd3 aabe 96fd 4b3d
000000a0: 298b d83e 2dc7 7a3e ce9c d53e 4306 d9bd
000000b0: 8be6 0bbf 672e f83e 36f0 993e c441 f2be
000000c0: 0e5f e5be ca0b 1f3f d32e 3c3f fe94 26bf
000000d0: 35c2 9a3e 147f 79be 4aea 153f a9db d63c
000000e0: 44d0 bfbe f9e7 99be 6ddc e53e b7e3 03bf
000000f0: 8dab 20bf bcb8 da3d 3201 91be 0c39 0dbe
00000100: 6ab0 1c3f 33b6 443f 7c12 8d3e 2aab 64be
00000110: b07d a83c ee38 eabc e6f6 08bf 265c e1be
00000120: 11fa f33e 0e67 27bf d6d7 e5be 4bf2 babe
00000130: c976 38bf 3434 8d3e ad5d 39bf 88e2 82bd
00000140: 2bc8 42bf 6a7e 7fbe b23d c3be 5071 e0be
00000150: 7964 86be 7903 76be 96f8 ef3e 709c e9be
00000160: cf15 ec3e ffc6 363e 86b3 f1be c250 f9be
00000170: 7d1f 153e de3c 20bf c9dd 2d3f 4781 733d
00000180: f121 c3be b9df 3dbf da02 c43e 2e6e 9dbe
00000190: 702c 2e3f f6a4 a3be 7c3d 23bf 38f0 083f
000001a0: 4404 f7be fe57 ac3e a801 1dbf 1d58 1d3e
000001b0: d9b9 24bf 4838 cbbe 5d6d c3bd 19e3 1c3f
000001c0: cd67 683d 0426 43bf f937 4d3e a190 783d
000001d0: dc1d aebe 89af 5dbe 6491 30bf 3f06 10bf
000001e0: 9ce3 edbe 8005 123e b82e 163f 6401 753d
000001f0: a8e2 c63e 0448 17bf cc33 a53e e40d 38bf
00000200: 37c0 c13d 7bdd 9ebe 60bd 1ebe bc10 c6be
00000210: 183d 01bf 3c63 21bf ee91 95bd afc8 f33e
00000220: f5d4 113f 3780 063f cc79 0dbf c724 c3bd
00000230: ac89 de3e 94fb 39bf e482 ad3e f17a 073e
00000240: caec fcbc 0864 ffbe 3d9a ac3d 724e 79be
00000250: 5f93 babe f8c1 d63e 5d78 91be e711 083f
00000260: 8a3d d33e eae9 2cbf 5d6e 8dbe 7d9c 013e
00000270: ac14 eebe e135 82be c924 cebb 5875 89be
00000280: ee96 613e 1884 8dbe 8642 993e b17a 283e
00000290: 0d8f 1dbe 7b1e a4be 06e7 0abe 9730 3dbf
000002a0: ee80 16bd 8133 213f 168a 043f afb9 c5be
000002b0: 560e 123f d804 e53e eeef dcbe 8ae8 23bf
000002c0: d259 b1be 16c7 943e 490e 573e 50c4 0e3d
000002d0: 31b7 99be 7b65 743d 6a0d e13e 574f 2d3f
000002e0: 072c 5cbd c109 13bf f0e9 a63e db6c ab3e
000002f0: 34f9 a03e 2f35 17be ec8b 173f 204a 37bf
00000300: d584 5dbe 306e b53e a7c1 633e 0b04 483f
00000310: f476 1abf 8b41 0a3f 8057 053f 705e 44bf
-0.106095776 0.13644467 0.31920922 -0.36814484 -0.45690107 0.2143566 -0.39838094 0.6878274
-0.38753465 0.3367165 0.33311257 -0.10119808 0.5128083 -0.1259183 0.54294163 -0.4831418
-0.24316648 0.2643084 0.248574 0.49442548 0.44408774 -0.2808452 0.6363936 0.20506
-0.0691924 -0.71448094 -0.32415512 -0.38918877 -0.4180118 0.30383414 0.29269126 0.091241226
0.15688306 -0.074737884 -0.49326006 -0.048572723 0.017650288 0.033554737 -0.33364764 0.049802385
0.4229367 0.24490042 0.41721195 -0.105968975 -0.54648656 0.48472902 0.3006608 -0.473158
-0.44799083 0.62127364 0.7350895 -0.65071094 0.30226293 -0.24364883 0.5856062 0.026227789
-0.37463582 -0.30059794 0.44894734 -0.5151934 -0.62761766 0.106797665 -0.28321224 -0.13791293
0.61206686 0.76840514 0.27553165 -0.22330919 0.020567745 -0.0285916 -0.5350174 -0.44015616
0.47651723 -0.65391624 -0.44891232 -0.3651298 -0.7205625 0.2757889 -0.7240856 -0.06390864
-0.7608668 -0.24950567 -0.38133007 -0.4383645 -0.2624853 -0.24024762 0.46869344 -0.45627165
0.4611039 0.17849348 -0.47207278 -0.48694426 0.14562793 -0.62592876 0.6791654 0.05944946
-0.38111833 -0.741695 0.38283426 -0.30748123 0.68036556 -0.31961793 -0.6376569 0.53491545
-0.48245442 0.33660883 -0.6133065 0.15365644 -0.6434608 -0.39691377 -0.09542344 0.61284024
0.056739617 -0.7622988 0.20040883 0.060684804 -0.34007156 -0.21648993 -0.6897185 -0.5625953
-0.46462715 0.1425991 0.5866504 0.05981578 0.388448 -0.5909426 0.3226608 -0.71896195
0.0946049 -0.3102835 -0.15501928 -0.38684642 -0.50483847 -0.63042045 -0.073032245 0.47614047
0.5696557 0.5253939 -0.5526397 -0.09528499 0.4346441 -0.726495 0.33888924 0.13230492
-0.030874629 -0.49881005 0.08427856 -0.24346331 -0.3644056 0.4194486 -0.28412142 0.53152317
0.41257888 -0.67544425 -0.27623263 0.12657352 -0.46500146 -0.2543173 -0.006291006 -0.2684734
0.22030231 -0.27639842 0.29933566 0.16453053 -0.15386601 -0.32054505 -0.13564691 -0.7390227
-0.03674405 0.62969214 0.517732 -0.38618228 0.57053125 0.44730258 -0.43151802 -0.640267
-0.3463884 0.2905814 0.21001543 0.034855187 -0.30022576 0.05966709 0.43955547 0.6769919
-0.053752925 -0.5743676 0.32600355 0.33481488 0.31440127 -0.14766382 0.5919788 -0.7159748
-0.21632703 0.3543563 0.22241841 0.7813117 -0.6033776 0.5400626 0.5208664 -0.767066

fc_in.bias f4 [100]
00000000: bc8e b13e fdee d1bd b984 10bf 586a 2b3f
00000010: e88a d03e 9017 9d3e c8c0 2a3e 7a58 c5be
00000020: 803e 25bf 7200 8fbe 1163 5abf 23e0 ffbe
00000030: 7faa 86bd d6d5 203f 2312 54be 0b5e 123f
00000040: 373d de3e 7731 843e 9093 7b3e f0e1 6ebe
00000050: b933 d03d 7200 ff3e b1ca e43e b1df ce3c
00000060: ceba 31be 5850 e23d 11f8 e23e 2e66 383d
00000070: 26e6 6ebe fc36 12be c642 e9be 198c 0abf
00000080: 6916 25bf 8cbc 643e 2128 0d3f 26d7 88be
00000090: 955c 15bf c15a 4dbf bb2c f63e 349f 3bbe
000000a0: 4099 1a3f 136f 48bd 21cc bbba d3e6 03be
000000b0: 5e3a 93bc eda0 1dbf d16e fdbe 59c2 153f
000000c0: 2a42 323f 5fd6 0f3f fd4a bc3d 7652 0cbf
000000d0: 6d2f e93e 447f af3e 64fc 2dbf 6009 80be
000000e0: 1d7a de3e b548 0d3e c7ff e23e 2452 ddbe
000000f0: 968a e7be ced2 38be f294 d7bc 4b9d 1cbf
00000100: b0bc 1cbe d8ea 1bbf ff2a 1bbf eac8 df3e
00000110: 9e58 22bf ab2e a4be 7b29 30bf 0c10 41bc
00000120: 1670 3f3f f47f 81be 15f8 2a3f f626 843e
00000130: 123e 173f 6d53 e3bc 2050 e43d 12ae 453d
00000140: bb5b 5d3d 5a58 a6be f8b5 ff3e 0fd8 ce3d
00000150: 80d6 163f 15ba 47bd 5641 b53e a44d 8e3d
00000160: 875e 98be 594f 083f f0a7 bb3e 37b5 213f
00000170: 5358 013f 495f d63e f136 c73e 18aa 0d3f
00000180: 287e a93e 8b7c 063e 7e01 d3be f1f0 223f
0.3467921 -0.102506615 -0.5645252 0.6695914 0.40730977 0.3068204 0.16675103 -0.38544065
-0.6454849 -0.27930027 -0.85307413 -0.4997569 -0.06575488 0.6282629 -0.20710044 0.5717475
0.43406078 0.2581899 0.2456801 -0.23328376 0.10166115 0.49805027 0.4468589 0.025253149
-0.17356417 0.110504806 0.44329885 0.04501932 -0.23329982 -0.14278787 -0.45558757 -0.5412002
-0.6448732 0.2233755 0.55139357 -0.26726645 -0.58344394 -0.80216604 0.48081002 -0.1832245
0.6039009 -0.048934054 -0.0014327803 -0.12881021 -0.017972168 -0.6157368 -0.4949861 0.58499676
0.6963221 0.5618648 0.091939904 -0.54813325 0.45543995 0.34276783 -0.6796324 -0.25007153
0.4345254 0.13797267 0.44335768 -0.4322673 -0.4522292 -0.18049166 -0.02631614 -0.6117751
-0.15306354 -0.6090522 -0.6061248 0.43707973 -0.6341647 -0.32066855 -0.68813294 -0.011783611
0.74780405 -0.25292933 0.66784793 0.25810975 0.59079087 -0.027749741 0.11148095 0.04826171
0.05404256 -0.32489282 0.4994352 0.10099804 0.5892105 -0.048761446 0.3540141 0.069484025
-0.2975962 0.53246075 0.36651564 0.63167137 0.505254 0.41869572 0.38909104 0.5533767
0.33104062 0.13133447 -0.41212076 0.636489

fc_hidden.weight f4 [100, 100]
00000000: 296c b03c 50c9 d43d 4aeb cd3c c36b 773c
00000010: a783 963d 3b01 5dbd 6a35 e2bd fc87 0f3c
00000020: 89ca 263d f38e c4bc 8aee 3b3d a79e 883c
00000030: 2f37 3bbb 435d f93b 6b1c 1abd 75e8 10bd
00000040: 24c9 823d ea1c 87bc e557 25bd 333a 94bd
00000050: d973 98bd 3b2c aebd cd75 843d 9014 c4bc
00000060: 91ed ccbc c4fe c23c d873 a73d 3f17 b2bd
00000070: 5f53 8c3c bfad d53d eaf8 5b3d c3b6 96bd
00000080: 46c4 6a3d a1d0 e83d 095f d4bb 5ac3 d8bc
00000090: 22a0 a63b 1e16 843d 3fa3 5b3c 4078 a53c
000000a0: 18f5 973d 2eb9 cebc 08a0 eebd 7f90 61bd
000000b0: 64c4 853d 521d 0d3c 05fd f93c 551e e13c
000000c0: 109e b23d f7f9 a6bd 593d 3e3d 3349 f83c
000000d0: 4ed2 8f3c 99b9 43bd ad5b ebbd cd4f 523b
000000e0: 449d b23d 20c8 e23c fa1c 4bbd db39 9f3d
000000f0: be20 023e f634 59bd 9468 51bd 9de3 593d
00000100: 59bb 853d 36bc 333d df5a 073d f3cf c4bc
00000110: cc4b 12be 54bc 023d 38ee 66bd c64a 623d
00000120: e8a9 a1bd fccd 93bd 3bca 39bd 3806 263a
00000130: 1cf2 a73b da0d 4fbc 5766 6f3d 5edf a63d
00000140: b77b 193d 64d3 4e3d ac92 843d 0c9f b93c
00000150: 7234 e5bb 9442 aa3a 30a3 853d ce64 9dbc
00000160: 0e48 f13d dd18 0b3b cf88 233d 7e79 dbbd
00000170: fc3a fa3c d184 8f3d 38d4 b83d e757 a63d
00000180: a2c6 113d a332 b4bd c5c8 f63d f3eb ce3c
00000190: a36e 2b3d 7b32 bd3d 192f ee3c cb5a 07bd
000001a0: 5a17 94bc 2545 e0bb fdb5 59bd 73be 1b3e
000001b0: 25f5 03bd 58d1 63bd bd9d 8ebe 7c8e 7d3e
000001c0: 2d5d f83c 16c9 61bc 6162 fabc 9c47 c8bd
000001d0: c99d 66bd 9e8d b53d 4b82 ecbc 14ce 19be
000001e0: 66d4 afbd e461 a2bd 154c ebbc 68b5 2dbc
000001f0: 8aa4 833d 6b7c b1bc 3eb9 ee3d 7438 bebc
00000200: 0cba 823d 20e9 033e 979b efbd 4017 053d
00000210: c4f1 f0bd be58 4cbc dbce 543d c9d9 c03d
00000220: ffde 023e 3da7 cf3c 11c9 0b3e 9a27 043d
00000230: b90c 9fbc bed9 56bd 08f2 c1bd f51c c33b
00000240: b5fd e1bd 9a54 89bd f585 803d a93e 4ebd
00000250: 3416 073e 4cf6 8f3d a6d6 77bd 75b2 bbbd
00000260: 07aa 5c3d 14f1 573d 3b26 02be 1bb3 8bbd
00000270: e5f6 7d3d b4b5 7dbd 3afa c33d b6cb f3ba
00000280: db56 8b3c 11bd 363c 77d0 2a3d e6f9 6f3d
00000290: e202 c9bd ab94 313e 5eef 333d ed4d 8d3c
000002a0: ab06 74be ba9a a93c e536 683d 2b59 453d
000002b0: 8886 8e3c 02a5 4fbd 2790 9b3b 7015 023d
000002c0: 00d2 913d 2a6f 333d 5502 25bd d0f1 3d3d
000002d0: c9e0 d03b 8242 643c 2ade d63d 863f 1ebd
000002e0: 7b11 0b3d 93c8 27bd f06b bebd 00bc 90bc
000002f0: 0da6 f0bd dc70 953d 1db0 20bd 131d 13be
00000300: 8c2c 183e 8d92 8abd 83b3 3f3d e0ff 3d3d
00000310: a0e2 523d 2e05 76be dc83 d4bc 4aa9 7f3d
00000320: b582 dfbd 1a35 00bd 182e 5d3d 1ed3 913c
00000330: 0f93 d6bd fa2c 26bd 4fe2 3dbd 544a 5ebb
00000340: 2329 5d3d a8d0 b83d 9c47 23be c24f 203e
00000350: b7d2 e03d 388e adbd c5a0 c83c 91e9 acbc
00000360: 8e34 59bd f172 d53c e407 94bc 526b a4bd
00000370: d60a 323d 614c a03d 54ec fabd 6567 fdbb
00000380: 6d0c 243e 22cc c6bd 0ee4 4abd dfaa 88ba
00000390: d3ea 64bd f3b4 df3c c3cf 25be c1cc 02bd
000003a0: bb55 e13c e10f 213e 09aa 66bb 0948 583d
000003b0: 7fe6 103d e539 dc3d a3f5 07bc df31 3b3d
000003c0: 9a1e 3b3c ddf1 50bd 3d7f 0fbe c4d1 32bd
000003d0: f0b7 363d b86d d53c fa6d 0d3d c133 9fbd
000003e0: 4f25 c53b f087 823d 5804 a13d 5ad8 943e
000003f0: 465d c6bd 9992 5dbd d287 17be f29b a0bd
0.02153595 0.1038996 0.025136609 0.015101376 0.073493294 -0.05395625 -0.11045344 0.008760449
0.040720496 -0.023993945 0.045881785 0.016677214 -0.0028566828 0.0076099946 -0.037624758 -0.03537794
0.06386021 -0.01649328 -0.040367026 -0.07237663 -0.07443971 -0.0850453 0.06467781 -0.023935586
-0.025015624 0.023803122 0.08176392 -0.0869584 0.017129598 0.1043353 0.05370418 -0.07359078
0.057316087 0.11367918 -0.0064810556 -0.026460338 0.0050850073 0.06449531 0.01340562 0.020198941
0.07419795 -0.025234785 -0.11651617 -0.055069443 0.06531599 0.008612948 0.030516157 0.027480284
0.08721554 -0.08153146 0.046445224 0.030308342 0.017556336 -0.04778442 -0.11492095 0.0032091022
0.08721402 0.027683318 -0.04958818 0.07774707 0.12707803 -0.053029023 -0.051125124 0.053195585
0.06529874 0.043880664 0.033045646 -0.02402494 -0.14286727 0.031917885 -0.056379527 0.05524709
-0.07893735 -0.07217023 -0.045358878 0.0006333324 0.0051252972 -0.01263758 0.05844721 0.08148073
0.0374715 0.050494567 0.06473288 0.022658847 -0.0069947774 0.0012989813 0.06525266 -0.019213106
0.117813215 0.0021224536 0.039925393 -0.10716532 0.030545704 0.070077546 0.090248525 0.08122235
0.03558982 -0.08798721 0.120500125 0.025258994 0.04185356 0.09238144 0.029075192 -0.03304557
-0.018077541 -0.00684418 -0.053152073 0.1520937 -0.03221621 -0.055619568 -0.2785472 0.24761385
0.030317867 -0.013780853 -0.030564489 -0.097792834 -0.05630282 0.08864902 -0.028870722 -0.15020019
-0.08585434 -0.079288274 -0.028722802 -0.010602333 0.06427868 -0.021665772 0.11656426 -0.023220278
0.06383142 0.12881899 -0.11699598 0.032492876 -0.11764863 -0.01247233 0.051955085 0.09416539
0.12780379 0.0253483 0.1365092 0.03226433 -0.019415246 -0.05245375 -0.09469992 0.0059543797
-0.11034719 -0.067055896 0.0627555 -0.050352726 0.13192064 0.07029399 -0.06050744 -0.09164897
0.05387309 0.052720144 -0.12709896 -0.06821271 0.062003035 -0.061940864 0.09569211 -0.0018600139
0.01700919 0.011153475 0.041702714 0.05858793 -0.09815003 0.17341869 0.04392945 0.017249072
-0.23830669 0.020703662 0.056692977 0.04818074 0.017398134 -0.050694473 0.004747409 0.031758726
0.071201324 0.043807186 -0.040285427 0.04637319 0.0063744527 0.013931872 0.10491593 -0.0386348
0.033952218 -0.040962767 -0.09297931 -0.01766777 -0.11750422 0.07296917 -0.039230455 -0.1436656
0.14860743 -0.067662336 0.046802055 0.0463866 0.051485658 -0.24025413 -0.025941782 0.062417306
-0.10913602 -0.03130064 0.053999037 0.017800864 -0.10477268 -0.040570237 -0.046358403 -0.0033918815
0.05399431 0.09024173 -0.15945286 0.15655425 0.10977691 -0.08474392 0.024490723 -0.021107467
-0.053028636 0.026055785 -0.018070169 -0.08028282 0.043467365 0.07827068 -0.12252107 -0.007733273
0.16020365 -0.09706904 -0.049533896 -0.00104269 -0.05588801 0.027307963 -0.16192536 -0.03193355
0.0275067 0.15728714 -0.0035196564 0.052803073 0.03537607 0.1075323 -0.00829831 0.045701858
0.01142087 -0.05101191 -0.14013381 -0.04365708 0.04460901 0.026053295 0.03452871 -0.07773543
0.0060164104 0.06373584 0.07862157 0.29071313 -0.09685759 -0.054094885 -0.14797905 -0.07842244

fc_hidden.bias f4 [100]
00000000: a19b 643d f67c 7c3a f987 d83d 07ad 1dbc
00000010: 72b4 953c 1f29 4bbd 1d0f b83c f6b3 ddbc
00000020: 4cc4 543d 353b 5fbd 0d21 7bbc 2257 9bbd
00000030: 0076 713c d73c a8bc 279e 9abc 3a3e 8fbc
00000040: 89e6 613d 65ac 603d 932d 8c3c f29e a33d
00000050: 9e48 15bd 0d2a 62bc 4ee7 683c 2732 bdbd
00000060: d324 db3d 6e11 593d 4a59 a83d 4897 18bd
00000070: 1dd8 16bd f51b 1fbd 6219 91bb af71 adbd
00000080: 003b 69bd a04b 003d 4b1d 193d 1148 0f3d
00000090: 9e57 df3d 1df0 75bd 6dd2 33bd 4ac7 383d
000000a0: 4072 4d3d 7b72 dfbc a891 e73d 3bb7 bebc
000000b0: 5dd0 6ebd 058d 19bd 2aab 94bd 1fd9 933d
000000c0: 4b00 553d 9e16 f13c b4a9 8fbd dec0 5fbd
000000d0: b75f 5b3d 74cb cd3d 3457 243d 4d51 373d
000000e0: 9569 4f3d b87b 0ebd 4c19 6d3d 8fa9 afbd
000000f0: a70a 39bd b8d5 8a3d a7cf 813d 7fea 7e3d
00000100: d740 a93c 728d f13c aac4 1f3d 9245 e2bc
00000110: c1c9 ed3c 3a9b bc3c 25e1 033a cf9b f53b
00000120: d98a 0abe abd5 a1bd 038c a6bc 59cd b2bd
00000130: 54f7 96bd 50e6 9fbd 501f e2bd fbf3 c8bd
00000140: a271 d2bc e7b7 833d d991 483d 9074 b1bd
00000150: 3a76 d2bb 11eb b9bd 9ae2 563d 0d55 32bc
00000160: 5142 03be 00ea 9a3d 4e56 583d 378b 963d
00000170: ddfd 4fbc a1e7 4dbd d975 a43b 649e 0ebd
00000180: d59b c9bd f87a bd3d adb9 44bd 91ca 533d
0.05581248 0.0009631658 0.1057281 -0.009623772 0.01827452 -0.049599763 0.022468144 -0.027063351
0.051945016 -0.054499824 -0.015327704 -0.07584979 0.014737606 -0.020536823 -0.018874241 -0.017485727
0.055151496 0.05485191 0.017111575 0.07989301 -0.036446206 -0.013803971 0.014215304 -0.092380814
0.10700383 0.052995138 0.082201555 -0.037253648 -0.036827195 -0.03884502 -0.0044280747 -0.08468949
-0.056941032 0.03132212 0.03738145 0.034980837 0.109053835 -0.060043443 -0.04390185 0.04511193
0.050157785 -0.027276268 0.113070786 -0.02328073 -0.05830418 -0.037488002 -0.072592095 0.07219147
0.052002233 0.02942973 -0.0701479 -0.05462729 0.053558078 0.10048571 0.040122226 0.04475527
0.0506378 -0.034785956 0.057885453 -0.085772626 -0.045176174 0.06779045 0.06338435 0.06223535
0.0206608 0.029486392 0.039005913 -0.027621064 0.029026868 0.023023237 0.00050308026 0.0074953805
-0.13529529 -0.07902082 -0.020330435 -0.08730573 -0.07371393 -0.078076005 -0.11041129 -0.098121606
-0.02568895 0.06431561 0.048967216 -0.08664811 -0.006422785 -0.090780385 0.052462198 -0.0108845355
-0.12818266 0.07564163 0.05281668 0.07350772 -0.012694803 -0.050269727 0.0050189313 -0.03481902
-0.09844176 0.0925197 -0.048028637 0.051706854

fc_out.weight f4 [1, 100]
00000000: cabe c5bd f289 babc de3e 1fbe 5ead f0bd
00000010: 56de 75bd 44eb e0bd e9a8 013b c49d dabd
00000020: d156 7abd 81e2 acbd b4fc a93d 2250 2fbe
00000030: 7988 ddbc edc4 0e3d 5e12 09be 35e8 d83c
00000040: 4570 b13c ad2e 1fbd 8f90 abbd 739a 0abe
00000050: da02 37be e7d2 d93d 1a9a 19bd 9d41 263c
00000060: 4a4a d9bd 3ad8 953c e3f1 fb3d 5de6 273d
00000070: a249 48bb 5c8c f8bd 642d f1bd 8da6 923d
00000080: 2a78 debd cda4 3bbe a3fd 2fbe bf94 073d
00000090: 6f02 893d 88c2 15be c30b 6fbd 6388 1d3e
000000a0: 185e 45bd 7ec4 233e 0a44 233e 0e2c f239
000000b0: 4d54 1fbe d47d 8dbd 46e2 a03c cc20 b83c
000000c0: d415 fa3c b32e ac3d f720 cf3c 7d58 c6bd
000000d0: 1c3a 9b3d 1499 44bd 56f9 1b3e e77c 87bd
000000e0: cddb 2a3e a114 273d fb89 b2bd a118 bcbd
000000f0: 55de dfbd f6eb f3bc ad27 c9bd bf16 a03d
00000100: 3641 68bd 9300 0ebe 3a33 e73d 04cb d03d
00000110: 4a3e 563e f20d 353e 5d10 033d 6b77 18be
00000120: 41e7 b5bd 5e7a 9dbd 4d0e cbbd 87fc 453d
00000130: 2796 7b3d 4088 fabd d6f8 64bd 140f 97bd
00000140: 667a 383e 3d6f a5bd c10b 233e 3c0d 253e
00000150: 9fa0 73bd ba35 7bbd ce85 f83d 6f0c e6bd
00000160: 25ff a1bd a41e 9abd aafc 703d b2dd 9b3d
00000170: feb5 573d 164c 8bbd 4d60 6abe 8e15 9b3d
00000180: c508 33be 6e50 8c3d b51d ce3d f41b a03d
-0.09655531 -0.022770856 -0.15551326 -0.11751817 -0.06002649 -0.10982373 0.0019784516 -0.10674623
-0.06111795 -0.0844164 0.083001524 -0.17120412 -0.027042614 0.03485577 -0.13385913 0.026477912
0.02165998 -0.038862873 -0.08377182 -0.1353548 -0.17872182 0.106359296 -0.03750048 0.010147479
-0.10609873 0.018291581 0.123019956 0.040991176 -0.0030561467 -0.121361464 -0.11776236 0.07160673
-0.10862763 -0.18324585 -0.17186598 0.03310084 0.06689917 -0.14624989 -0.058360826 0.15384059
-0.048185438 0.15992925 0.15943924 0.0004619066 -0.15559502 -0.069087654 0.019639146 0.022476576
0.030527987 0.08407345 0.025284274 -0.096848466 0.07579443 -0.04799755 0.15231833 -0.0661562
0.1668541 0.040791158 -0.08717724 -0.09184385 -0.10931078 -0.0297756 -0.09822021 0.078168385
-0.056702815 -0.13867407 0.112890676 0.10194972 0.20922199 0.17681101 0.031998027 -0.14889304
-0.08881999 -0.07689355 -0.09914837 0.048336532 0.061422493 -0.12233019 -0.05590137 -0.07375923
0.18015441 -0.08077858 0.15922453 0.1611833 -0.059479352 -0.061330535 0.12134896 -0.1123284
-0.07909993 -0.075253755 0.05883471 0.076106444 0.052663796 -0.068016216 -0.22888298 0.075724706
-0.17483814 0.06851278 0.1006426 0.07817832
