Copula by Ratio Estimation/2d_exp/model_parameters_NNet_ratio_25_runs_4copulas_2Dexperiment_ok/NNet_ratio_run_15_cop_u_3.pt (torch, 45066 bytes, 5 tensors)

fc_in.weight f4 [100, 2]
0.3687351 -0.2855509 0.5217933 0.54572403 -0.74012434 0.27774778 0.69166124 -0.31872147
-0.49793568 0.6684 0.6629099 0.27222452 0.28765577 0.19212279 -0.2100697 -0.39348784
-0.6448172 0.72239864 -0.36837152 0.2533833 -0.59955585 0.25604486 -0.17931893 -0.62891924
-0.4937524 0.15379715 -0.586428 0.10989151 -0.7584808 -0.30893272 -0.2616045 -0.011292581
0.48712423 0.6739316 0.2643149 0.028917123 -0.66346425 0.5854633 -0.6068594 -0.16485076
-0.43400583 0.5982515 0.28950945 -0.70666564 0.006346184 0.11791733 0.5159817 0.5690995
0.30920997 0.09389949 -0.5586983 0.06309488 -0.0651148 0.65499514 -0.10089144 0.59653497
0.66243136 0.6695429 -0.42032456 -0.05371751 -0.17589356 0.5702691 0.3514909 -0.2974535
0.76981455 0.18849844 -0.7301275 0.75704074 0.22678094 -0.71735036 0.6066573 -0.49688777
0.7162913 0.5758812 0.5949738 -0.5979879 -0.42840242 -0.3075289 -0.71162236 -0.88012886
-0.29160273 -0.5947149 0.5987533 -0.6696465 -0.60596216 0.70193154 0.16601846 -0.74465597
-0.54742676 0.07391941 0.64242715 0.033823658 0.5093373 0.28840184 0.39863232 0.79113287
0.23501961 -0.10918092 0.6914741 -0.44308448 0.15948509 -0.64020014 0.22873056 -0.1340432
0.082154155 0.07027119 -0.046752933 0.8877905 0.5171575 -0.59840393 0.81026506 0.23689105
-0.21218686 -0.608057 0.6102761 0.68511754 0.73822534 0.026030965 0.01899892 0.5075815
-0.510398 -0.19236471 0.2528359 0.21528406 0.24453971 -0.004109369 0.34408787 0.7830546
0.73298854 0.07999555 -0.6442927 -0.10661446 0.22507049 0.655973 -1.019953 -0.02284419
0.5861383 -0.32079622 -0.20270362 0.37259457 0.25770316 -0.28209928 0.29980588 0.42904946
0.45800063 0.5948578 0.1850547 0.5088346 -0.7612522 0.47418505 -0.4942437 0.15048394
-0.28859258 -0.48290282 0.7106529 -0.17046629 -0.78227973 0.2421362 0.4479301 0.27737257
0.1955333 0.39443222 0.20816752 -0.34228623 -0.49073634 -0.55070615 0.31580222 -0.29512122
-0.24387978 0.26762253 -0.62457466 0.50658333 -0.2561251 0.16367474 0.38603723 -0.26528627
0.23192777 0.009897939 -0.018477803 -0.78785115 -0.6696746 0.056421 -0.13518493 0.21769248
0.6929318 -0.061852466 0.715625 -0.25536367 -0.66723627 0.5512611 0.6974842 0.25720632
-0.43711492 -0.18162921 -0.30926841 0.21166728 -0.39974174 0.25147787 0.39624006 -0.009516847
00000000: d9ca bc3e ba33 92be 3f94 053f 92b4 0b3f
00000010: ca78 3dbf f534 8e3e b610 313f 762f a3be
00000020: 6df1 febe 431c 2b3f 77b4 293f 0361 8b3e
00000030: 9e47 933e d6bb 443e 831c 57be 3d77 c9be
00000040: bd12 25bf 1eef 383f 319b bcbe 75bb 813e
00000050: 7e7c 19bf 5018 833e 629f 37be da00 21bf
00000060: 1dcd fcbe 007d 1d3e 2520 16bf cd0e e13d
00000070: cc2b 42bf 6e2c 9ebe 06f1 85be 8504 39bc
00000080: 5968 f93e c886 2c3f 4854 873e 9ae3 ec3c
00000090: cbd8 29bf ece0 153f 235b 1bbf a3ce 28be
000000a0: 0336 debe 0327 193f 953a 943e 0ae8 34bf
000000b0: a6f3 cf3b a47e f13d 6017 043f 81b0 113f
000000c0: c550 9e3e 604e c03d da06 0fbf e337 813d
000000d0: e95a 85bd c3ad 273f 2ca0 cebd 84b6 183f
000000e0: 1a95 293f 2a67 2b3f c834 d7be e406 5cbd
000000f0: 711d 34be 28fd 113f 9ef6 b33e d34b 98be
00000100: 9112 453f bc05 413e a3e9 3abf 6ccd 413f
00000110: 4339 683e 46a4 37bf e54d 1b3f 1368 febe
00000120: de5e 373f f36c 133f 3450 183f bc15 19bf
00000130: 9057 dbbe 6e74 9dbe e22c 36bf 2050 61bf
00000140: f44c 95be 3c3f 18bf e547 193f f46d 2bbf
00000150: 5620 1bbf c9b1 333f be00 2a3e c6a1 3ebf
00000160: 2924 0cbf 0f63 973d 1b76 243f ad8a 0a3d
00000170: ee63 023f 68a9 933e 8919 cc3e af87 4a3f
00000180: fba8 703e 3f9a dfbd 7204 313f f8db e2be
00000190: 0f50 233e 28e4 23bf 5838 6a3e 9f42 09be
000001a0: 7040 a83d 57ea 8f3d 0180 3fbd 3d46 633f
000001b0: 6f64 043f 0031 19bf 886d 4f3f 9193 723e
000001c0: 8347 59be a0a9 1bbf 0e3b 1c3f dd63 2f3f
000001d0: 56fc 3c3f e43e d53c a0a3 9b3c dcf0 013f
000001e0: 71a9 02bf 41fb 44be b573 813e 6d73 5c3e
000001f0: 9e68 7a3e e3a7 86bb 492c b03e 4476 483f
00000200: 23a5 3b3f b5d4 a33d 5ef0 24bf af58 dabd
00000210: e178 663e d9ed 273f d28d 82bf bd23 bbbc
00000220: 290d 163f 673f a4be 8a91 4fbe b7c4 be3e
00000230: abf1 833e 516f 90be 2880 993e 5fac db3e
00000240: 0f7f ea3e 9a48 183f fb7e 3d3e fc42 023f
00000250: 6de1 42bf 62c8 f23e 830d fdbe 7618 1a3e
00000260: 68c2 93be 0a3f f7be 59ed 353f b78e 2ebe
00000270: 7c43 48bf 8df2 773e 1857 e53e c703 8e3e
00000280: e239 483e 05f3 c93e de29 553e 2440 afbe
00000290: cb41 fbbe 14fb 0cbf d4b0 a13e 211a 97be
000002a0: 9fbb 79be d205 893e 20e4 1fbf 72af 013f
000002b0: d422 83be 5a9a 273e aca6 c53e 9ad3 87be
000002c0: 797e 6d3e f72a 223c c35e 97bc 9db0 49bf
000002d0: cb6f 2bbf b519 673d eb6d 0abe c7ea 5e3e
000002e0: fa63 313f 0359 7dbd 3333 373f 07bf 82be
000002f0: ffcf 2abf 731f 0d3f 538e 323f 8cb0 833e
00000300: 87cd dfbe 02fd 39be 6e58 9ebe 4fbf 583e
00000310: f3aa ccbe b5c1 803e fadf ca3e 8dec 1bbc

fc_in.bias f4 [100]
0.013405483 -0.52714235 0.5860614 -0.010022482 0.4854456 -0.17142282 0.47287723 0.6119432
-0.22375695 -0.64302075 0.017770357 0.022619734 0.15974061 0.26002064 -0.22737756 0.38848236
0.30160487 0.005049924 0.41810277 0.5911781 0.08835086 -0.35300958 0.55809885 0.3243448
-0.43562227 0.21044636 0.088983424 -0.15981147 0.031000216 -0.31435025 -0.3850032 -0.25417197
0.6960164 -0.25277328 0.49721867 0.15347967 0.60042864 -0.26318306 -0.7756337 0.081145056
0.4490734 -0.024978943 -0.029705085 -0.22538882 0.665797 0.50650954 0.40197235 0.24956824
-0.075762965 -0.107885465 0.6629028 -0.43563357 -0.67156315 0.4812396 0.067537464 -0.41804248
0.004389666 -0.45034143 0.59878844 -0.64059514 0.15034297 -0.68107784 0.21095264 -0.43178988
0.014142854 0.550026 -0.2576034 0.42218348 0.027212286 0.46914205 -0.0044506686 -0.6313929
0.6577826 0.008941751 -0.16902845 0.055067357 -0.23047014 0.464267 -0.23044114 -0.57597387
0.26067966 -0.82323974 0.35759652 0.03275105 -0.021515572 -0.17085147 0.70697254 0.6737448
0.6717142 -0.018988477 0.520871 -0.0023377405 0.6325607 0.4930275 0.40154976 -0.595211
-0.22631556 -0.010254259 -0.6422461 0.034049284
00000000: aca2 5b3c cdf2 06bf 1f08 163f 5635 24bc
00000010: 538c f83e 7789 2fbe f71c f23e 4fa8 1c3f
00000020: 8b20 65be 029d 24bf 2493 913c 054d b93c
00000030: 0b93 233e 6d21 853e aad5 68be 29e7 c63e
00000040: f46b 9a3e d579 a53b 9111 d63e 7357 173f
00000050: 4cf1 b43d acbd b4be 91df 0e3f 8610 a63e
00000060: e209 dfbe 407f 573e f13c b63d 9ea5 23be
00000070: 2af4 fd3c 84f2 a0be 241f c5be d422 82be
00000080: 212e 323f 806b 81be 7293 fe3e c629 1d3e
00000090: b1b5 193f eebf 86be ee8f 46bf 612f a63d
000000a0: f3ec e53e a4a0 ccbc 1458 f3bc 54cc 66be
000000b0: ac71 2a3f 9caa 013f 52cf cd3e d18e 7f3e
000000c0: 9d29 9bbd 0ef3 dcbd ffb3 293f 5d0b dfbe
000000d0: 90eb 2bbf 0965 f63e 1551 8a3d aa09 d6be
000000e0: 30d7 8f3b 2793 e6be 334a 193f 0bfe 23bf
000000f0: 82f3 193e 1e5b 2ebf f803 583e 9013 ddbe
00000100: 6eb7 673c 81ce 0c3f 98e4 83be 6f28 d83e
00000110: 4dec de3c 6333 f03e ead6 91bb f7a2 21bf
00000120: 7164 283f 6c80 123c cb15 2dbe 4f8e 613d
00000130: 5d00 6cbe 67b4 ed3e c3f8 6bbe 0673 13bf
00000140: ce77 853e d7bf 52bf e416 b73e f725 063d
00000150: 6d41 b0bc b0f3 2ebe 27fc 343f 8a7a 2c3f
00000160: 76f5 2b3f b98d 9bbc cd57 053f c734 19bb
00000170: 7fef 213f 1a6e fc3e ee97 cd3e c05f 18bf
00000180: 44bf 67be 7b01 28bc 3e6a 24bf 4377 0b3d

fc_hidden.weight f4 [100, 100]
0.07831481 -0.12912874 0.051926948 0.059700314 0.075476825 -0.006654561 0.06749764 0.031648673
0.10760261 -0.13373381 0.021999637 -0.017218377 -0.064897485 0.0020478233 -0.054292273 0.06969113
-0.05138818 -0.11772153 0.0062702103 0.02258021 0.09259608 -0.0653401 0.06203289 -0.034402292
0.010308383 0.021073429 -0.10562436 -0.12907393 0.10245763 0.08003417 -0.14685327 -0.027611779
0.08168345 0.049456112 -0.014524945 0.086276114 -0.012547951 -0.016174374 0.026716378 0.060263302
0.07840178 0.027211607 0.13323866 0.005068025 -0.051653706 0.08823797 -0.009828643 0.056418397
-0.048580166 0.030159138 0.09218319 -0.100733325 -0.17452127 -0.070642054 0.06148468 -0.02895381
0.053165633 0.010430273 -0.026924316 0.0006322768 -0.0687095 0.057205867 0.028645813 0.035957504
-0.087854415 -0.009312566 0.007040192 0.06691648 -0.01735696 -0.050853107 0.11352322 0.06827163
0.014757243 -0.014266789 0.050663866 -0.029817397 0.019828063 0.007447206 0.042026035 0.0031287766
0.055256937 -0.078135155 0.029146157 0.15972023 0.0047143106 0.06586335 0.04837006 -0.0126783755
0.09250248 -0.10080802 0.09291027 0.031212702 -0.078085475 0.099231936 -0.04658905 0.018585874
-0.058342744 -0.03115408 -0.16076708 -0.078505546 -0.020830866 0.06582419 0.062142685 0.04160042
0.0198865 0.07367568 0.10115469 -0.007899409 -0.010601834 0.10965935 -0.07128119 -0.09829091
0.085499905 -0.0318667 -0.23868771 -0.05219654 0.0033868426 0.08574971 -0.055918716 -0.030805727
-0.00059407315 0.1458974 0.032345347 0.010109218 -0.10559134 -0.113541625 0.1862098 0.11691233
0.05443931 0.051098753 -0.09437951 0.014644487 -0.032821078 -0.15024503 0.09166983 0.07769442
0.04287035 -0.04466026 -0.04183025 0.005219755 -0.1132439 -0.008583213 -0.09189315 0.17302082
0.055393804 0.054305892 0.037295323 -0.022567948 -0.08393368 -0.03807581 -0.081175044 0.109494716
0.00848367 -0.020145863 -0.106942534 0.079719774 0.02544839 0.06092776 0.13929026 0.01797107
0.018745204 -0.05159606 0.11599672 0.01553868 0.11425012 -0.0030654918 -0.016447973 -0.2053551
-0.05555635 -0.06393554 -0.02787555 -0.118798934 0.09384783 0.098112196 -0.12741095 -0.028789667
0.07653184 0.12026923 -0.16865548 0.013272957 0.03435806 0.15433897 -0.096820615 -0.032859735
-0.08488327 -0.0908727 -0.08640025 -0.0103186425 0.08988645 0.074234426 -0.16929756 0.034846537
-0.006433259 0.09025443 -0.06505593 0.11852467 0.009808532 -0.13762845 0.18446824 0.0588504
0.04382801 0.006155448 0.02706514 -0.052158535 -0.02706852 0.015737476 0.0065523954 -0.07437342
0.06862493 0.078695625 -0.10073525 -0.10221289 0.0040857513 -0.043258436 -0.011794125 0.07940156
0.09064744 0.06652297 -0.06054546 -0.08229405 -0.067033224 0.033020504 0.030007867 -0.062457584
-0.035319872 -0.08015563 0.041795343 0.09472065 -0.01820063 -0.09226789 0.019966012 -0.04955181
-0.011733028 -0.03023908 -0.067970894 -0.06864626 -0.073498294 -0.071619004 -0.030632261 -0.012766277
0.04124221 -0.02271179 -0.01233557 0.057174664 0.06698675 -0.10867296 -0.062313467 0.07058026
-0.01708799 -0.024054872 0.013755228 -0.07731339 0.058840733 0.052130934 -0.0010681874 0.06829895
00000000: 8463 a03d 533a 04be 5ab1 543d 5188 743d
00000010: 9893 9a3d 810e dabb 343c 8a3d 0aa2 013d
00000020: c25e dc3d 84f1 08be 9538 b43c 8e0d 8dbc
00000030: f9e8 84bd c634 063b 9361 5ebd 39ba 8e3d
00000040: 6a7c 52bd fc17 f1bd 5676 cd3b 22fa b83c
00000050: 03a3 bd3d 08d1 85bd 3316 7e3d 6be9 0cbd
00000060: 7ee4 283c 2fa2 ac3c 9651 d8bd f52b 04be
00000070: 4ed5 d13d f4e8 a33d b460 16be 1932 e2bc
00000080: a749 a73d 7e92 4a3d 09fa 6dbc 88b1 b03d
00000090: ec95 4dbc 1f80 84bc 4edc da3c a7d6 763d
000000a0: 1d91 a03d e0ea de3c b76f 083e ad11 a63b
000000b0: d692 53bd 1cb6 b43d 5108 21bc fa16 673d
000000c0: fffb 46bd 4c10 f73c 8aca bc3d 464d cebd
000000d0: b4b5 32be c8ac 90bd 5cd7 7b3d 8a30 edbc
000000e0: 35c4 593d bce3 2a3c 6290 dcbc 61bf 253a
000000f0: 91b7 8cbd b350 6a3d a0aa ea3c 2d48 133d
00000100: 04ed b3bd bc93 18bc 69b1 e63b 820b 893d
00000110: 2f30 8ebc 594b 50bd dd7e e83d ffd1 8b3d
00000120: 5dc8 713c 40bf 69bc ea84 4f3d 9d43 f4bc
00000130: 766e a23c b107 f43b 7e23 2c3d 290c 4d3b
00000140: 1955 623d 5305 a0bd ecc3 ee3c b38d 233e
00000150: 817a 9a3b 5de3 863d af1f 463d f6b8 4fbc
00000160: f171 bd3d 6f74 cebd bd47 be3d c8b1 ff3c
00000170: 47eb 9fbd 1d3a cb3d 29d4 3ebd 6741 983c
00000180: cdf8 6ebd d736 ffbc 20a0 24be 84c7 a0bd
00000190: 7ea5 aabc d5ce 863d 5489 7e3d 3465 2a3d
000001a0: 03e9 a23c 46e3 963d 312a cf3d 866c 01bc
000001b0: 51b3 2dbc 1595 e03d dffb 91bd bf4c c9bd
000001c0: 931a af3d a886 02bd 8d6a 74be 0acc 55bd
000001d0: caf5 5d3b 8b9d af3d 060b 65bd 4b5c fcbc
000001e0: 93bb 1bba 2166 153e 8e7c 043d 22a1 253c
000001f0: 4640 d8bd 8388 e8bd c8ad 3e3e bb6f ef3d
00000200: c1fb 5e3d ed4c 513d 0b4a c1bd 6eef 6f3c
00000210: 656f 06bd d5d9 19be 64bd bb3d 411e 9f3d
00000220: d298 2f3d aded 36bd 3256 2bbd 7b0a ab3b
00000230: 6bec e7bd 9ba0 0cbc 7a32 bcbd 5f2c 313e
00000240: 9de4 623d db6f 5e3d fbc2 183d 6be0 b8bc
00000250: 6ce5 abbd 61f5 1bbd 1a3f a6bd c43e e03d
00000260: 17ff 0a3c f008 a5bc b004 dbbd 1f44 a33d
00000270: 2479 d03c 638f 793d 1ba2 0e3e 1138 933c
00000280: 8b8f 993c 6456 53bd b08f ed3d f395 7e3c
00000290: f8fb e93d 6be6 48bb e6bd 86bc 9b48 52be
000002a0: 0e8f 63bd a3f0 82bd 445b e4bc db4c f3bd
000002b0: 4b33 c03d 0cef c83d 0478 02be 4fd8 ebbc
000002c0: babc 9c3d b74f f63d 06b4 2cbe d176 593c
000002d0: 0abb 0c3d 090b 1e3e e349 c6bd ee97 06bd
000002e0: 48d7 adbd 771b babd 9df2 b0bd 860f 29bc
000002f0: 6316 b83d 3808 983d 575c 2dbe 3ebb 0e3d
00000300: 17ce d2bb 51d7 b83d 0b3c 85bd 10bd f23d
00000310: f7b3 203c 79ee 0cbe 3ee5 3c3e 1e0d 713d
00000320: 0085 333d a4b3 c93b b6b7 dd3c 30a4 55bd
00000330: cdbe ddbc e1eb 803c 7ab5 d63b 1751 98bd
00000340: 3a8b 8c3d 2c2b a13d 484e cebd fe54 d1bd
00000350: c4e1 853b c22f 31bd 253c 41bc 499d a23d
00000360: 5da5 b93d 323d 883d 84fe 77bd c889 a8bd
00000370: b748 89bd 8240 073d 0fd3 f53c 86d3 7fbd
00000380: 92ab 10bd a328 a4bd 9831 2b3d e6fc c13d
00000390: 7d19 95bc f3f6 bcbd c38f a33c d7f6 4abd
000003a0: e33b 40bc f2b7 f7bc 5334 8bbd 6996 8cbd
000003b0: 4686 96bd fcac 92bd 82f0 fabc a629 51bc
000003c0: 97ed 283d 130e babc 211b 4abc fb2f 6a3d
000003d0: 5930 893d ee8f debd 683c 7fbd 628c 903d
000003e0: 1dfc 8bbc b90e c5bc 9c5d 613c 7c56 9ebd
000003f0: fb02 713d 3f87 553d 6c02 8cba 52e0 8b3d

fc_hidden.bias f4 [100]
-0.07979181 -0.005425969 0.013121965 0.039292544 0.09003235 -0.01946283 -0.094315596 -0.058326833
-0.037382662 -0.116520256 -0.008089731 0.042676654 0.060292546 0.003530902 -0.030946841 -0.04435704
-0.08061255 0.07600056 -0.007695495 0.017395545 0.055648964 -0.059771672 -0.01863477 0.04057968
-0.0010772872 0.025678826 -0.011001195 0.011537762 0.0900889 -0.048921507 -0.07045587 0.057319663
-0.0004470563 0.0027693703 0.08341249 -0.07174681 0.054034267 0.031298485 -0.047197167 0.101986215
0.055508364 -0.09024418 -0.05119592 -0.020758674 -0.056564488 0.07657924 -0.09720322 0.0056666783
-0.06575631 -0.028452123 0.059309896 -0.0006670632 0.08583047 0.0024579286 -0.02604917 -0.047910616
-0.008133822 0.045726687 0.023528712 0.028889228 -0.019052567 0.001127856 -0.04964867 0.011125247
-0.008631327 -0.033238422 -0.008666543 0.013706161 -0.036055863 0.09910385 0.06904532 -0.044062793
-0.035583362 -0.049592864 0.006600614 0.06478668 -0.06401457 0.029399686 -0.001587279 0.001166308
-0.036193367 -0.0022751726 0.06632345 0.040929973 0.08381139 0.12660164 0.03662791 0.062875934
-0.027586311 -0.0075262543 -0.013029444 0.06948439 0.059146795 0.046540033 0.026617954 -0.03203648
-0.048877273 -0.0015105605 0.0520563 0.008771656
00000000: e369 a3bd 54cc b1bb 83fd 563c 38f1 203d
00000010: e162 b83d 8370 9fbc 8928 c1bd 1ee8 6ebd
00000020: 901e 19bd 2ca2 eebd cb8a 04bc b7cd 2e3d
00000030: 51f5 763d b566 673b 3b84 fdbc baaf 35bd
00000040: 3118 a5bd 2ea6 9b3d 7e2a fcbb 1a81 8e3c
00000050: 2bf0 633d 24d3 74bd f2a7 98bc e136 263d
00000060: c333 8dba 675c d23c 5b3e 34bc e208 3d3c
00000070: 8780 b83d eb61 48bd 2b4b 90bd 06c8 6a3d
00000080: e262 eab9 537e 353b 2bd4 aa3d feef 92bd
00000090: 0953 5d3d d732 003d d151 41bd 26de d03d
000000a0: bd5c 633d f1d1 b8bd d0b2 51bd 180e aabc
000000b0: 2ab0 67bd 94d5 9c3d 7b12 c7bd 8baf b93b
000000c0: 3fab 86bd 6d14 e9bc efee 723d dbdd 2eba
000000d0: e3c7 af3d 3315 213b 1265 d5bc ec3d 44bd
000000e0: b943 05bc e84b 3b3d 49bf c03c 1aa9 ec3c
000000f0: 2114 9cbc 91d4 933a 675c 4bbd ab46 363c
00000100: 696a 0dbc 0325 08bd 1efe 0dbc ce8f 603c
00000110: 50af 13bd f6f6 ca3d a267 8d3d 307b 34bd
00000120: dcbf 11bd e321 4bbd f749 d83b e1ae 843d
00000130: 121a 83bd 9cd7 f03c 3f0c d0ba cdde 983a
00000140: 7f3f 14bd 101b 15bb 97d4 873d 30a6 273d
00000150: 4ea5 ab3d dca3 013e 2607 163d 19c5 803d
00000160: b0fc e1bc cc9e f6bb 7379 55bc d54d 8e3d
00000170: e943 723d c3a0 3e3d e50d da3c af38 03bd
00000180: 8933 48bd 00fe c5ba fd38 553d feb6 0f3c

fc_out.weight f4 [1, 100]
0.12699091 -0.19074024 -0.039622743 -0.05756239 -0.0586262 0.19372585 0.015695432 0.06648931
-0.12709163 -0.19695759 0.034664232 -0.14787835 -0.18148641 -0.09222136 -0.07100043 0.044215627
-0.03679327 -0.14947566 -0.17210448 0.11082957 0.11666922 0.045531515 0.07189932 0.09122091
0.11412773 0.11632874 0.046736732 -0.18260784 0.07794559 0.16564944 -0.1681272 0.11784073
-0.11563809 0.13621236 0.04384954 0.0875948 -0.07169981 -0.1609229 0.122843005 0.019965576
0.13419259 0.11319351 0.09330873 -0.008081832 -0.20783632 -0.054677572 0.06699253 -0.20324947
0.09619063 0.094209515 -0.059675142 -0.10524615 -0.2433362 0.0021267617 0.09753824 -0.020854643
-0.14288116 0.15591249 0.057986654 -0.18606973 -0.2171835 0.11701683 -0.06950556 -0.21047816
-0.085163824 -0.15848927 -0.17427805 -0.10192993 0.08222382 -0.1536675 -0.10936586 0.13407075
-0.03886283 0.043959234 -0.059944864 -0.037320696 -0.08811268 -0.124190584 0.010536984 -0.02424719
0.12673046 -0.16664283 0.0775357 0.17345732 0.20419651 0.09310114 -0.12700678 -0.1000893
-0.08339258 -0.16373609 0.0092273485 0.11360679 -0.16341035 0.031797614 -0.10836905 0.0133863045
0.11060246 0.170917 -0.07274768 -0.1564583
00000000: e809 023e 6951 43be 754b 22bd 8ac6 6bbd
00000010: 0722 70bd 1260 463e b593 803c 8c2b 883d
00000020: 4f24 02be 40af 49be 15fc 0d3d 6c6d 17be
00000030: 93d7 39be 8dde bcbd ac68 91bd 721b 353d
00000040: 8ab4 16bd 2610 19be 283c 30be 9dfa e23d
00000050: 46f0 ee3d 417f 3a3d f33f 933d 07d2 ba3d
00000060: cdbb e93d c33d ee3d 046f 3f3d 8dfd 3abe
00000070: f0a1 9f3d 02a0 293e 8929 2cbe 7b56 f13d
00000080: aad3 ecbd 417b 0b3e 939b 333d e764 b33d
00000090: 5ad7 92bd f9c8 24be 1d95 fb3d d98e a33c
000000a0: c869 093e 00d2 e73d a618 bf3d a969 04bc
000000b0: 0bd3 54be 97f5 5fbd 6133 893d a120 50be
000000c0: 98ff c43d ebf0 c03d ec6d 74bd 4b8b d7bd
000000d0: 202d 79be 2461 0b3b 21c2 c73d 5bd7 aabc
000000e0: 704f 12be 86a7 1f3e 6a83 6d3d 1089 3ebe
000000f0: 5a65 5ebe 85a6 ef3d ee58 8ebd 9687 57be
00000100: 5f6a aebd 034b 22be f275 32be a4c0 d0bd
00000110: f664 a83d 035b 1dbe 35fb dfbd d849 093e
00000120: a12e 1fbd 990e 343d bf88 75bd 96dd 18bd
00000130: 6c74 b4bd a257 febd 50a3 2c3c 0ba2 c6bc
00000140: a1c5 013e 6ba4 2abe 09cb 9e3d cc9e 313e
00000150: e418 513e cfab be3d 110e 02be 9efb ccbd
00000160: bbc9 aabd 6faa 27be 4e2e 173c adaa e83d
00000170: 0b55 27be 373e 023d 98f0 ddbd 3b52 5b3c
00000180: 8b83 e23d de04 2f3e bcfc 94bd 9b36 20be
