Copula by Ratio Estimation/2d_exp/model_parameters_NNet_ratio_25_runs_4copulas_2Dexperiment_ok/NNet_ratio_run_2_cop_u_2.pt (torch, 45055 bytes, 5 tensors)

fc_in.weight f4 [100, 2]
0.43033785 0.4690801 0.1893967 -0.62334126 0.009301594 -0.4824063 0.42091095 -0.092606336
-0.6220042 -0.20468502 0.63262254 -0.29368687 0.60917234 -0.70892954 -0.10318432 0.32892832
-0.567665 0.3983535 -0.4483615 -0.003682177 -0.3728483 0.07972695 0.23435614 -0.0007078722
0.05088059 -0.23195189 -0.6800824 -0.295425 -0.23647995 0.006132915 0.22742642 -0.49995804
-0.09165707 0.2915039 0.39934614 0.44326323 -0.34594715 -0.42413428 -0.23451757 -0.4509147
0.653315 0.07268249 0.4253047 -0.16140412 0.49672624 -0.26555443 0.31154945 -0.14729153
-0.61921644 -0.28788492 -0.0077873007 -0.1529853 0.24054372 0.5918998 0.272537 0.66335464
-0.35875586 -0.22475491 0.42293456 -0.7000462 0.49187067 -0.6646287 -0.1464833 -0.31956404
0.48500127 -0.62418616 0.6378063 0.13391607 -0.6838492 0.5391776 0.19829252 -0.11155539
0.3596391 0.54493105 -0.5144867 0.55646586 0.5195278 0.50221306 -0.4402041 0.6788484
0.33404195 0.06289296 0.07421151 0.04835964 -0.09121583 0.06569528 -0.6612292 -0.38571906
-0.24262536 0.43140075 -0.55868155 0.7280543 -0.44043297 -0.04383847 0.115308724 0.2604298
0.413951 0.621351 0.24269179 0.24138887 -0.50033295 -0.27871123 0.5514949 -0.6110689
-0.46647936 -0.5671206 -0.2605792 -0.81401676 0.5311621 0.3780201 -0.2703178 0.6061735
0.19806747 0.71032476 -0.67419475 -0.08323497 0.6234368 0.010019272 -0.33263338 -0.086840995
0.06423717 -0.4750524 -0.50518304 0.07117888 0.38135207 0.54878354 0.67024076 -0.52899706
-0.08491919 0.06703249 0.101377785 -0.084891275 0.21171564 0.5173257 -0.29544815 0.34221503
-0.06785923 0.50516593 0.15513667 0.028443722 -0.44512394 0.62443364 -0.19217974 0.14928567
-0.6110394 0.4581885 -0.37907976 -0.20459478 -0.0818375 0.05947281 -0.36302415 0.44258386
-0.06830703 0.29623872 -0.739772 -0.3305008 0.663024 -0.28651077 0.15840629 0.63643885
-0.3153831 -0.31928486 0.32341653 0.47937477 -0.5218797 0.48857018 -0.46147922 0.31561178
-0.52713156 -0.27617902 0.17798327 0.53033787 0.4818122 -0.08664615 -0.4100758 -0.5187701
0.64657456 0.6491914 0.61205727 -0.3116656 -0.6300238 0.43541768 0.44506243 -0.08261661
0.3452382 -0.51850235 -0.56862634 -0.12178674 -0.36296973 0.5776794 -0.05620071 -0.29969224
-0.13797273 0.6831242 -0.7089569 0.17454772 -0.1411128 -0.22324911 -0.31732193 -0.3322804
00000000: 3e55 dc3e 442b f03e 35f1 413e 4b93 1fbf
00000010: b765 183c f5fd f6be a481 d73e 64a8 bdbd
00000020: ab3b 1fbf f398 51be 8df3 213f 205e 96be
00000030: b8f2 1b3f 687c 35bf 4d52 d3bd 4b69 a83e
00000040: 7e52 11bf fdf4 cb3e a38f e5be ae50 71bb
00000050: f9e5 bebe e247 a33d 0efb 6f3e 8090 39ba
00000060: 2a68 503d cc84 6dbe e119 2ebf f241 97be
00000070: cd27 72be 9ff6 c83b 79e2 683e 80fa ffbe
00000080: b4b6 bbbd 0040 953e 1977 cc3e 66f3 e23e
00000090: fc1f b1be 2128 d9be 6025 70be 4bde e6be
000000a0: a73f 273f 8fda 943d 8ac1 d93e 1f47 25be
000000b0: e752 fe3e c0f6 87be 6983 9f3e 97d3 16be
000000c0: f884 1ebf a765 93be 9d2c ffbb 2ea8 1cbe
000000d0: 1851 763e bf86 173f f889 8b3e 9cd1 293f
000000e0: d9ae b7be 2726 66be e18a d83e 3a36 33bf
000000f0: 79d6 fb3e 1b25 2abf b8ff 15be e69d a3be
00000100: 1652 f83e aaca 1fbf 4647 233f 4b21 093e
00000110: be10 2fbf 8b07 0a3f 320d 4b3e 2777 e4bd
00000120: 9e22 b83e 9a80 0b3f 66b5 03bf 8c74 0e3f
00000130: c6ff 043f 0991 003f 6f62 e1be 02c9 2d3f
00000140: 8c07 ab3e 06ce 803d 34fc 973d c214 463d
00000150: 5dcf babd 3f8b 863d 5146 29bf f87c c5be
00000160: c872 78be 8fe0 dc3e c105 0fbf c461 3a3f
00000170: 6e80 e1be f88f 33bd fb26 ec3d 0e57 853e
00000180: 63f1 d33e dc10 1f3f 3284 783e a52e 773e
00000190: d215 00bf 3db3 8ebe c52e 0d3f 036f 1cbf
000001a0: 62d6 eebe d12e 11bf a36a 85be 6763 50bf
000001b0: 3dfa 073f da8b c13e 1867 8abe 302e 1b3f
000001c0: 33d2 4a3e d8d7 353f 0798 2cbf 1977 aabd
000001d0: 8e99 1f3f df27 243c ec4e aabe b1d9 b1bd
000001e0: c78e 833d 113a f3be ad53 01bf 3cc6 913d
000001f0: 9440 c33e 147d 0c3f e694 2b3f 5a6c 07bf
00000200: 1dea adbd 5548 893d 289f cf3d 7adb adbd
00000210: fccb 583e 756f 043f fb44 97be cf36 af3e
00000220: c8f9 8abd 8e52 013f 26dc 1e3e cf02 e93c
00000230: 49e7 e3be e2da 1f3f c4ca 44be 58de 183e
00000240: 146d 1cbf af97 ea3e be16 c2be 4b81 51be
00000250: 6b9a a7bd c399 733d 4dde b9be 5a9a e23e
00000260: 8ee4 8bbd 9aac 973e b361 3dbf 6737 a9be
00000270: f1bb 293f 8ab1 92be 4235 223e a8ed 223f
00000280: e579 a1be 4e79 a3be da96 a53e 9c70 f53e
00000290: e899 05bf df25 fa3e 0147 ecbe de97 a13e
000002a0: 18f2 06bf 5667 8dbe 3f41 363e 39c4 073f
000002b0: 17b0 f63e 8973 b1bd 75f5 d1be 1ece 04bf
000002c0: e985 253f 6831 263f c9af 1c3f a292 9fbe
000002d0: 3d49 21bf 11ef de3e 39df e33e e632 a9bd
000002e0: 10c3 b03e 92bc 04bf 7f91 11bf 546b f9bd
000002f0: 2bd7 b9be cce2 133f b732 66bd 4371 99be
00000300: b948 0dbe 3ae1 2e3f 337e 35bf a3bc 323e
00000310: e07f 10be 6a9b 64be 0578 a2be a820 aabe

fc_in.bias f4 [100]
-0.7365376 0.15811914 0.18400057 0.32451895 -0.35538366 0.54212415 0.64012915 0.4238677
-0.02606547 -0.7434888 0.058780067 0.42712033 -0.6949781 0.6012058 0.4709959 0.59250855
0.3755115 0.37806314 0.41794178 0.7271191 0.19769001 0.35371605 -0.5077165 -0.6349775
0.6866754 -0.59492916 -0.60717785 0.2601276 -0.8586684 0.07358767 0.09461592 -0.13579156
0.2575866 0.27163446 0.58217466 0.11111293 0.3411495 0.059290446 0.027632505 -0.43033108
-0.6577551 -0.08302297 0.36301863 -0.265658 0.45777142 -0.46018267 -0.124459855 0.57501996
0.16848569 -0.6095523 0.45036337 0.16111296 0.20063187 0.4564943 -0.038671505 -0.34005213
0.42265734 0.44893378 0.11449024 0.6932751 -0.27037677 -0.07066112 0.6259346 -0.28829214
0.018449191 -0.5143532 0.0851691 0.010676323 0.28618333 -0.30448732 0.23331437 0.12360058
0.42234927 0.101664245 0.39989492 0.091102 0.67365557 0.049960215 0.38077226 -0.022352248
0.45794883 -0.7611029 0.5803359 -0.26946312 -0.6026502 0.33854455 -0.5824 0.53877467
0.021587448 -0.6269565 0.67829657 -0.63914394 0.29352963 -0.24624775 0.66463846 0.6664327
0.44941798 -0.61855763 0.52412695 0.4649304
00000000: ba8d 3cbf fce9 213e a56a 3c3e 5927 a63e
00000010: d9f4 b5be a6c8 0a3f 81df 233f 3005 d93e
00000020: 4187 d5bc 4855 3ebf 5ec3 703d 84af da3e
00000030: 16ea 31bf a0e8 193f 6026 f13e a4ae 173f
00000040: 0b43 c03e 7e91 c13e 77fc d53e 7a24 3a3f
00000050: 406f 4a3e 451a b53e b5f9 01bf e38d 22bf
00000060: f6c9 2f3f 474d 18bf 0270 1bbf 722f 853e
00000070: b1d1 5bbf 22b5 963d fec5 c13d f10c 0bbe
00000080: 64e2 833e ac13 8b3e 6609 153f 2d8f e33d
00000090: 26ab ae3e 8ada 723d 905d e23c 5b54 dcbe
000000a0: a362 28bf f207 aabd 94dd b93e 5304 88be
000000b0: 0461 ea3e 109d ebbe cfe4 febd 8234 133f
000000c0: 8387 2c3e 9f0b 1cbf 0796 e63e ccfa 243e
000000d0: 7172 4d3e 9fb9 e93e 0366 1ebd 501b aebe
000000e0: 8b66 d83e a6da e53e dc79 ea3d 7a7a 313f
000000f0: d36e 8abe c7b6 90bd 403d 203f 079b 93be
00000100: c222 973c a7ac 03bf 236d ae3d bfeb 2e3c
00000110: 9f86 923e c3e5 9bbe f6e9 6e3e 4d22 fd3d
00000120: 2a3e d83e 5835 d03d 07bf cc3e af93 ba3d
00000130: b174 2c3f 15a3 4c3d 95f4 c23e 101c b7bc
00000140: 4578 ea3e a4d7 42bf e590 143f 12f7 89be
00000150: 4947 1abf b655 ad3e 2b18 15bf 23ed 093f
00000160: 29d8 b03c 3980 20bf d8a4 2d3f f09e 23bf
00000170: 8449 963e 5f28 7cbe bf25 2a3f 559b 2a3f
00000180: 1d1a e63e cb59 1ebf 2f2d 063f 5b0b ee3e

fc_hidden.weight f4 [100, 100]
-0.022135189 -0.07018522 0.05000987 0.010082659 0.052936655 -0.068703696 0.019434279 -0.017847758
0.067967035 -0.0051069735 0.061442923 0.022044715 0.069759026 0.051883105 0.087030254 -0.09535272
-0.035742953 -0.005071655 -0.07863449 0.037433606 0.05066926 0.07331802 0.09957444 0.02718753
-0.0019688976 -0.05098314 -0.036054183 -0.06288617 0.07410758 0.038298137 -0.0577203 -0.05787871
-0.0474904 -0.01364563 -0.027997224 -0.029334333 -0.01822001 -0.019591672 -0.009837017 0.0012777485
0.030840596 0.06692991 -0.021159803 -0.10181467 -0.06567582 -0.04125776 -0.027087776 -0.056849733
0.08376189 -0.0011180042 -0.08518698 -0.08039686 -0.01875239 -0.016848221 -0.08091343 -0.049730968
0.0027787145 -0.11019076 -0.005917256 -0.028542357 0.1023386 -0.09328305 0.05622751 0.06859163
0.015168814 -0.04592699 0.08371219 -0.013671585 -0.018495308 0.08013279 -0.04411703 0.050074458
0.043605004 0.06636488 -0.06301537 0.02605249 -0.0031483264 -0.040587 0.03079912 -0.014059013
-0.020995347 -0.090694964 0.07508064 -0.09657108 -0.04980174 0.046013687 0.01852223 0.07053052
-0.02827519 0.10576667 -0.036742527 0.043208983 0.020144727 0.050325185 -0.11062999 0.039891504
0.03390014 0.025288355 -0.048709217 0.015882574 0.04665337 0.047753584 -0.038651083 0.10605357
0.053388588 -0.042729467 0.09233768 0.085068114 0.015178774 -0.053488877 -0.08388486 0.087711714
0.33272785 -0.052581526 -0.08517567 0.063619755 0.0016325053 -0.06472949 -0.08953657 -0.10298566
0.012128357 0.095315926 0.12523596 0.042750582 -0.018443074 0.072252974 -0.027722588 -0.02838926
-0.09734202 -0.08438381 -0.07739796 -0.057160668 0.0682062 0.12619469 -0.03613103 -0.07009745
-0.0033188367 -0.004090145 0.1184598 -0.14899425 0.053155225 -0.08694643 0.058930576 -0.08281992
-0.01002372 -0.07138897 0.12701291 -0.09129068 0.026959091 -0.13995104 -0.0564051 0.051860504
0.019966708 -0.07732717 0.030444536 -0.11620089 0.01473553 0.061634358 0.11814651 0.04926292
-0.04353149 0.0847928 0.015234036 0.10303768 0.11562225 0.028891455 -0.07580166 -0.11648227
-0.08810687 0.028156199 -0.069758214 0.07056712 -0.03598265 0.031345643 -0.0464924 -0.0046729925
0.06507373 -0.073065415 0.087040305 -0.04835823 -0.08316009 -0.021221595 -0.12890662 -0.09824221
-0.032424215 -0.043136235 0.14006455 -0.0114101125 0.013332419 0.052544378 -0.1375235 0.15036376
0.058712736 0.061524082 -0.028596278 -0.04679368 -0.06454701 -0.008902829 0.016280787 -0.119827
0.009644439 -0.012418822 -0.00875366 0.099730015 -0.2669233 0.116217695 0.01812032 0.0045565967
-0.044979475 -0.019058699 -0.052482277 0.063217536 -0.35170728 -0.08146747 0.067691565 0.008013306
0.09000586 -0.00072098663 0.03598666 -0.088435605 0.068396315 0.087297894 0.039523393 -0.1105557
0.01422356 -0.0003255484 -0.060998224 0.090262026 -0.054977525 0.048675526 0.029884495 0.06441072
0.016199343 0.012887684 -0.025511773 0.040202823 0.026347771 0.030884316 -0.013153178 0.0062923306
0.07654708 -0.062549114 0.07022555 0.052406255 0.107382804 0.0025598726 -0.16791837 0.081599124
-0.017577326 -0.012152307 -0.080352694 0.09143497 0.077901736 -0.039511543 -0.01038929 -0.10695827
00000000: db54 b5bc 45bd 8fbd 26d7 4c3d bd31 253c
00000010: 1bd4 583d 86b4 8cbd a334 9f3c 7635 92bc
00000020: 4d32 8b3d 6658 a7bb 93ab 7b3d 1e97 b43c
00000030: d2dd 8e3d 6183 543d eb3c b23d 4948 c3bd
00000040: 3467 12bd 2030 a6bb 1f0b a1bd fb53 193d
00000050: 928a 4f3d c227 963d afed cb3d 62b8 de3c
00000060: 9f08 01bb b2d3 50bd 8dad 13bd 77ca 80bd
00000070: b7c5 973d 82de 1c3d 1f6c 6cbd 3a12 6dbd
00000080: 4b85 42bd ec91 5fbc 6f5a e5bc 8e4e f0bc
00000090: 2142 95bc b77e a0bc 712b 21bc 207a a73a
000000a0: 6ba5 fc3c 8c12 893d 5357 adbc 3684 d0bd
000000b0: 0b81 86bd e6fd 28bd 2fe7 ddbc 44db 68bd
000000c0: 5b8b ab3d ff89 92ba 8376 aebd 1ca7 a4bd
000000d0: 9d9e 99bc 4805 8abc f1b5 a5bd b3b2 4bbd
000000e0: 181b 363b b1ab e1bd 8be5 c1bb a9d1 e9bc
000000f0: e696 d13d 2f0b bfbd d14e 663d c579 8c3d
00000100: 9e86 783c f11d 3cbd 4c71 ab3d c9fe 5fbc
00000110: 7983 97bc a91c a43d 0fb4 34bd e01a 4d3d
00000120: 299b 323d 4fea 873d 340e 81bd 086c d53c
00000130: 2754 4ebb 8e3e 26bd 704e fc3c c657 66bc
00000140: 6ffe abbc 48be b9bd e1c3 993d 0fc7 c5bd
00000150: e9fc 4bbd d978 3c3d efbb 973c 4e72 903d
00000160: 5fa1 e7bc 329c d83d 557f 16bd e7fb 303d
00000170: 8e06 a53c c821 4e3d fa91 e2bd 4665 233d
00000180: e0da 0a3d 8629 cf3c 5183 47bd 2c1c 823c
00000190: 9b17 3f3d 4399 433d 9950 1ebd 9d32 d93d
000001a0: fead 5a3d 1805 2fbd 8a1b bd3d 3138 ae3d
000001b0: 64b0 783c 2717 5bbd d3cb abbd 33a2 b33d
000001c0: 4e5b aa3e ba5f 57bd 9570 aebd 134b 823d
000001d0: caf9 d53a e590 84bd f35e b7bd 25ea d2bd
000001e0: 04b6 463c ff34 c33d db3d 003e 3c1b 2f3d
000001f0: ee15 97bc 5ef9 933d 7b1a e3bc 9890 e8bc
00000200: 415b c7bd 6bd1 acbd d282 9ebd 4e21 6abd
00000210: b1af 8b3d 2e39 013e 22fe 13bd 408f 8fbd
00000220: d780 59bb a006 86bb 0d9b f23d f391 18be
00000230: 4bb9 593d f810 b2bd 3061 713d 7d9d a9bd
00000240: 873a 24bc 6134 92bd ac0f 023e 9cf6 babd
00000250: 50d9 dc3c 534f 0fbe 0909 67bd ae6b 543d
00000260: 3991 a33c b55d 9ebd d266 f93c bbfa edbd
00000270: 4b6d 713c 4f74 7c3d ccf6 f13d eac7 493d
00000280: 134e 32bd d9a7 ad3d 2e98 793c 6b05 d33d
00000290: 5ccb ec3d c6ad ec3c e73d 9bbd 428e eebd
000002a0: 6071 b4bd d4a7 e63c 65dd 8ebd 7f85 903d
000002b0: 8b62 13bd 4a64 003d d16e 3ebd e71f 99bb
000002c0: 6045 853d 52a3 95bd 3042 b23d 4813 46bd
000002d0: d64f aabd e9d8 adbc 1900 04be 3633 c9bd
000002e0: 41cf 04bd 9faf 30bd 156d 0f3e 7bf1 3abc
000002f0: 3870 5a3c c638 573d f6d2 0cbe f5f8 193e
00000300: c47c 703d ad00 7c3d be42 eabc bbaa 3fbd
00000310: 3931 84bd 2cdd 11bc 495f 853c dc67 f5bd
00000320: b603 1e3c 5178 4bbc 836b 0fbc 403f cc3d
00000330: 2caa 88be 8b03 ee3d 1171 943c 814f 953b
00000340: 663c 38bd fd20 9cbc a8f7 56bd 3278 813d
00000350: fa12 b4be 6bd8 a6bd e0a1 8a3d 3e4a 033c
00000360: fe54 b83d 9800 3dba bf66 133d ba1d b5bd
00000370: 5e13 8c3d 3dc9 b23d 48e3 213d 076b e2bd
00000380: ef09 693c 5eae aab9 46d9 79bd 4cdb b83d
00000390: 1d30 61bd fd5f 473d 54d0 f43c c4e9 833d
000003a0: 7cb4 843c dd26 533c 11fe d0bc b7ab 243d
000003b0: 48d7 d73c 1b01 fd3c 6d80 57bc e52f ce3b
000003c0: b7c4 9c3d c019 80bd 6ad2 8f3d f1a7 563d
000003d0: 84eb db3d 89c3 273b cbf2 2bbe 711d a73d
000003e0: 53fe 8fbc 781a 47bc f48f a4bd 4242 bb3d
000003f0: f28a 9f3d dbd6 21bd d737 2abc f00c dbbd

fc_hidden.bias f4 [100]
-0.0895639 -0.018911012 0.012552186 0.010561138 0.013547414 0.012531645 0.083179325 0.073462345
0.056808405 -0.09051744 -0.030775782 -0.019452617 -0.036916986 0.027477866 -0.064624384 0.10038033
-0.08429799 0.027992498 0.06624667 -0.040395923 0.040618982 -0.08856618 0.021766389 -0.03335632
0.10299754 0.028331375 0.09824042 0.12061475 0.06559022 0.08600222 0.024900632 -0.058568083
0.0065373033 -0.03098643 0.020248571 -0.034236018 -0.0067988494 0.08361139 0.032582767 0.07816647
0.06242992 0.07295382 -0.0008993231 0.022892617 0.048990037 -0.04312334 0.057421844 0.010400573
0.075853825 -0.012058689 -0.0672723 -0.025569532 0.028828971 0.009603055 -0.055738345 -0.02734246
-0.034916606 -0.03341086 0.036971357 -0.061467495 -0.0040031085 0.055564217 0.04804968 0.009780848
0.043443568 0.07534613 0.070581645 -0.08823699 -0.106123835 -0.044868942 0.004689318 0.0959782
0.106399484 0.029281838 0.038378872 -0.06256213 -0.004997682 -0.08123282 0.016674621 -0.04959175
0.025191871 0.012097252 0.0511318 0.0363857 0.095931016 -0.013729125 0.03749875 0.092706054
-0.0051958226 0.01870368 0.0053016935 -0.0827468 -0.08472915 -0.06582616 0.058419418 -0.07950576
-0.102737255 -0.09823909 0.08768545 0.039247483
00000000: 476d b7bd 44eb 9abc afa7 4d3c a008 2d3c
00000010: f9f5 5d3c 8751 4d3c ec59 aa3d 6d73 963d
00000020: eeaf 683d 3561 b9bd 7e1d fcbc 185b 9fbc
00000030: 4436 17bd 4319 e13c ca59 84bd 3494 cd3d
00000040: 6da4 acbd 8650 e53c 56ac 873d 3276 25bd
00000050: 1760 263d 2f62 b5bd 6d4f b23c a3a0 08bd
00000060: 60f0 d23d 3317 e83c 4632 c93d de04 f73d
00000070: 2a54 863d ef21 b03d 69fc cb3c 16e5 6fbd
00000080: e036 d63b 41d7 fdbc 55e0 a53c 113b 0cbd
00000090: e2c8 debb 733c ab3d 8275 053d be15 a03d
000000a0: 84b6 7f3d d068 953d 8dc0 6bba 4c89 bb3c
000000b0: c7a9 483d 19a2 30bd 2b33 6b3d 2a67 2a3c
000000c0: 4059 9b3d cf91 45bc 0fc6 89bd 3277 d1bc
000000d0: bc2a ec3c 2256 1d3c e44d 64bd 4bfd dfbc
000000e0: b704 0fbd d3d9 08bd 476f 173d 57c5 7bbd
000000f0: 822c 83bb 4e97 633d becf 443d da3f 203c
00000100: e2f1 313d 124f 9a3d 1c8d 903d 98b5 b4bd
00000110: 7457 d9bd 7fc8 37bd daa8 993b 3890 c43d
00000120: f9e7 d93d 77e0 ef3c 2a33 1d3d 9320 80bd
00000130: 98c3 a3bb 655d a6bd 3799 883c b820 4bbd
00000140: 2f5f ce3c 8d33 463c 946f 513d 2c09 153d
00000150: 7b77 c43d 20f0 60bc 4a98 193d acdc bd3d
00000160: b841 aabb 7638 993c d4b9 ad3b 2777 a9bd
00000170: 7a86 adbd decf 86bd 3349 6f3d ead3 a2bd
00000180: e967 d2bd 9331 c9bd 6e94 b33d f8c1 203d

fc_out.weight f4 [1, 100]
-0.033769894 -0.013137339 0.10096828 -0.030572398 -0.11102225 0.091202304 -0.07073033 -0.035577122
-0.07326972 0.105151474 -0.048202455 -0.022646686 -0.43419415 0.037084263 0.1552443 0.057156574
-0.12113602 0.098249786 -0.10276663 -0.023690373 0.097457215 0.04855652 -0.033364523 -0.12360869
0.0930261 -0.09094129 0.058276862 0.09417085 -0.01890988 0.06846001 -0.09875113 0.14944954
-0.051488154 -0.050496522 0.10371263 0.051500726 0.11196276 0.07258784 0.09123214 -0.12022673
-0.0010350553 0.073280305 -0.11137819 0.013309166 -0.014852587 0.016390782 -0.14563952 0.050016344
0.09099818 0.124262035 0.040664237 -0.06480289 0.105602674 -0.065975405 -0.056952734 -0.07966638
-0.09228401 0.0077326796 0.077561334 -0.00805726 -0.0927826 -0.06982412 -0.10368018 -0.04268568
-0.122381516 0.13187489 -0.11132096 -0.15249988 0.095046446 0.032023355 -0.059994113 0.06472181
-0.04203008 -0.094105475 -0.061570924 0.1482206 -0.055579036 0.047131382 -0.06590101 -0.09584444
-0.052367818 -0.08181569 0.09742139 -0.021784425 -0.014529137 -0.009426885 -0.1614064 0.07819552
-0.08689099 -0.09023856 0.027049098 -0.04011312 -0.10748736 -0.07070638 0.07766533 -0.026253514
-0.05010482 -0.08585702 -0.115060516 -0.10505916
00000000: 4d52 0abd fe3d 57bc 75c8 ce3d f772 fabc
00000010: a25f e3bd 46c8 ba3d 10db 90bd 51b9 11bd
00000020: 6f0e 96bd a859 d73d f06f 45bd 8b85 b9bc
00000030: b24e debe abe5 173d 5df8 1e3e 031d 6a3d
00000040: 2916 f8bd 2f37 c93d 5077 d2bd 5012 c2bc
00000050: a697 c73d 34e3 463d 3da9 08bd 8e26 fdbd
00000060: 7884 be3d 6d3f babd b8b3 6e3d a6dc c03d
00000070: e5e8 9abc c334 8c3d 083e cabd 4d09 193e
00000080: 3ee5 52bd 71d5 4ebd 4a67 d43d 6df2 523d
00000090: bb4c e53d efa8 943d ebd7 ba3d 6f39 f6bd
000000a0: b1aa 87ba fc13 963d 401a e4bd b00e 5a3c
000000b0: 4458 73bc f645 863c 8722 15be f0dd 4c3d
000000c0: 415d ba3d 187d fe3d 8b8f 263d 61b7 84bd
000000d0: 3746 d83d 1d1e 87bd 4547 69bd 2128 a3bd
000000e0: 66ff bcbd 6b62 fd3b 7ad8 9e3d 9902 04bc
000000f0: ce04 bebd f3ff 8ebd 4656 d4bd 2ed7 2ebd
00000100: 29a3 fabd 360a 073e 3efc e3bd ee28 1cbe
00000110: b6a7 c23d ec2a 033d 63bc 75bd de8c 843d
00000120: bc27 2cbd 5fba c0bd cb31 7cbd 24c7 173e
00000130: d8a6 63bd d60c 413d 1cf7 86bd 174a c4bd
00000140: a37f 56bd fc8e a7bd de84 c73d 4075 b2bc
00000150: 9e0b 6ebc 3973 1abc b847 25be f924 a03d
00000160: e7f3 b1bd ffce b8bd 1296 dd3c a84d 24bd
00000170: 5522 dcbd 82ce 90bd 000f 9f3d 9c11 d7bc
00000180: b63a 4dbd ced5 afbd d9a4 ebbd 4229 d7bd
