Copula by Ratio Estimation/2d_exp/model_parameters_NNet_ratio_25_runs_4copulas_2Dexperiment_ok/NNet_ratio_run_23_cop_u_0_ok.pt (torch, 45099 bytes, 5 tensors)

fc_in.weight f4 [100, 2]
000000 18 1a 23 3f 24 ad ba bd a5 73 02 be d8 40 0c bf
       0.6371169 -0.09115055 -0.12739427 -0.54786444
000010 f4 a0 9b 3e 65 34 7c 3e 76 56 2d bf de 60 85 be
       0.30396235 0.24629362 -0.67710054 -0.26050466
000020 5f e7 1d 3f 40 b4 c8 3d 01 ff 82 be 43 b8 2e be
       0.6168117 0.09800005 -0.25585178 -0.17062478
000030 88 71 c7 3d 93 86 bc 3e e5 4c 0c 3e 26 58 34 bf
       0.09738451 0.36821422 0.13701208 -0.70447004
000040 50 e6 89 3d 31 ee 1d 3f 47 59 9c 3d 34 43 03 3f
       0.06733382 0.61691576 0.07634216 0.5127442
000050 96 a6 b0 3e ae 67 10 be d9 aa 3e be e1 4c 5f bd
       0.34502095 -0.1410205 -0.1861986 -0.054516677
000060 c5 52 bb be 40 2a fe be 6c e3 47 bd fa dc 6f 3d
       -0.36586586 -0.4964161 -0.04880087 0.05856035
000070 9f 4b 25 3f eb 58 c2 be c0 0e 4b be d4 f2 05 bf
       0.64568514 -0.37958464 -0.19829845 -0.5232365
000080 7b 9d 02 bf 78 89 1f 3e f7 fa 23 3e c8 ef e1 be
       -0.51021546 0.15579784 0.16013704 -0.4412825
000090 da ce b4 3e 27 7b 9b be a7 e3 2e bf 86 47 d6 3e
       0.35314065 -0.30367395 -0.6831612 0.41851443
0000a0 8f 3a 0b bf 73 df 24 be 60 c6 d3 be bb b4 95 3d
       -0.5438623 -0.16100864 -0.41362286 0.07309862
0000b0 f7 72 8c be 25 7e 42 3e 70 31 f5 3e 98 a0 61 3e
       -0.2743146 0.18993433 0.4788928 0.22033918
0000c0 56 ee dc 3e 24 95 af bd d7 94 94 be 58 d2 4f be
       0.43150586 -0.08573368 -0.29019806 -0.20295084
0000d0 0a df 83 3b f1 0d 86 be 3d 94 83 be c3 27 d2 3e
       0.004024391 -0.2618251 -0.25699034 0.4104596
0000e0 7c 33 e6 3d fa 09 2c 3f 1d 3d 22 3f 09 00 2d 3f
       0.112402886 0.67202723 0.633745 0.6757818
0000f0 d6 1d 14 bf 36 8c b3 be ef ed 13 3e e9 ad e4 bc
       -0.57858026 -0.3506791 0.14446233 -0.027914958
000100 ea d4 04 bf 3a 04 ba be b6 8c 7a bd 74 56 b9 bd
       -0.5188738 -0.3633135 -0.06116935 -0.09049693
000110 a1 23 db bc bd 86 3a bf 99 fc 1b 3f ad 49 97 be
       -0.026750388 -0.72861844 0.6093231 -0.29548398
000120 27 86 31 bf cc e4 d8 3e f8 ba ae be ea a9 8b bd
       -0.69345325 0.42362058 -0.3412702 -0.06819518
000130 41 40 ff 3d fd 47 1b bf 1f c3 74 3e 6e 77 72 3e
       0.12463427 -0.6065672 0.23902558 0.23678371
000140 58 6e c7 3e 93 f2 fa 3e 03 82 12 3f b2 f3 30 be
       0.38951373 0.49013194 0.5722963 -0.17280462
000150 37 d7 12 be d8 27 3b bf 98 fb 63 be 1a 3d 1b bd
       -0.1433991 -0.7310767 -0.22263944 -0.037900068
000160 4f a7 09 3f 3f 6f be 3e 97 33 c5 be f2 04 24 bf
       0.5377092 0.3719425 -0.38515922 -0.64070046
000170 02 2e e9 bc 76 bc 61 3e 9a 3c 6b 3e 4d 67 13 3e
       -0.028464321 0.22044548 0.22972336 0.14394875
000180 08 bf 12 3f c9 3b a1 3e 82 c1 f4 3d c6 4b 76 3e
       0.5732274 0.31490925 0.11950971 0.24052343
000190 44 c5 1f bf 9f ce fe be 3c 76 01 3f cf 66 d2 3e
       -0.6241038 -0.49767014 0.50571036 0.41094062
0001a0 f6 67 e1 be a4 b2 36 be 8b 4e 90 be 52 ef b6 3e
       -0.44024628 -0.17841583 -0.28184924 0.35729462
0001b0 2f a4 1a 3e 92 4a 9c 3e c3 a0 85 be b0 18 2c be
       0.15101694 0.30525643 -0.26099214 -0.16806293
0001c0 4d 3a 31 bf c4 20 8b 3d ee 3b 9d 3e b0 61 1b bf
       -0.69229585 0.06793359 0.30709785 -0.60695934
0001d0 b5 6b b7 be c8 c8 2f 3f 3e 3a 02 bf a5 6a 92 be
       -0.3582436 0.6866574 -0.5087012 -0.28596988
0001e0 c2 5e f5 be 30 8c fd 3d 7f c9 0d bf 69 5b f6 3e
       -0.47923857 0.12380254 -0.55385584 0.48116615
0001f0 86 72 21 bf d1 1d 31 3d d9 f3 22 bf 31 04 19 bf
       -0.63065374 0.043241326 -0.6365333 -0.5977202
000200 83 cc 1c 3f d9 f0 95 bc e9 a1 23 3f fc d6 2f bf
       0.6124956 -0.018303322 0.6391893 -0.68687415
000210 d4 2b 95 3e 67 e0 fb be 72 39 45 3d e4 ef 2a 3f
       0.29135 -0.49194643 0.048150487 0.66772294
000220 be 3f 93 3d 4d a1 16 3f 88 5b 13 bf f9 3a 07 3f
       0.07189892 0.58839875 -0.5756154 0.5282436
000230 b2 b4 2d 3f bb ba 88 be 78 e0 d8 3e b2 eb 36 bf
       0.67853844 -0.26704964 0.42358756 -0.7145339
000240 2a 1c 83 be b9 86 a1 bd 0c cf 00 3f ab a5 ac 3e
       -0.25607425 -0.078870244 0.5031593 0.33720145
000250 b6 e5 af bd 12 cb fe 3e 29 65 11 3f 01 a8 2c 3f
       -0.08588736 0.49764305 0.56794983 0.67443854
000260 6c b6 e6 3e 82 22 c6 be 4c 24 f8 bd 37 65 2a bf
       0.45061052 -0.38698202 -0.12116298 -0.6656069
000270 3f 3c 77 bc ff a4 2d 3f b5 f4 31 3f 7f e0 9b 3c
       -0.015090047 0.6782989 0.6951402 0.019027947
000280 87 dc 89 3e 92 3f 10 3f 78 c7 02 3f e4 1c 9a be
       0.26926062 0.56347 0.51085615 -0.30100167
000290 25 63 31 3f 7e 94 bb 3e 89 da 86 bd bf 10 25 bf
       0.6929191 0.36636728 -0.06584651 -0.6447868
0002a0 7d 6e 12 3f 05 4f 16 bf 88 4a 04 3f 46 81 15 bf
       0.5719984 -0.58714324 0.51676226 -0.5840038
0002b0 d6 f8 e4 3d f0 99 bb be 88 de c1 3d 2d ca ea be
       0.11180274 -0.36640882 0.094662726 -0.45857373
0002c0 56 5a e3 3e 34 32 18 3e 9b 18 ba 3e e1 0d 0d 3e
       0.44404858 0.14862901 0.36346897 0.13774826
0002d0 f1 c9 0f 3f 21 ad 17 bf 6a fe 25 bf 51 ad 2b bf
       0.56167513 -0.5924855 -0.6484133 -0.67061335
0002e0 c3 40 f7 be 12 d0 f6 be de 34 96 be 54 dd b7 3e
       -0.48291597 -0.4820562 -0.2933721 0.35911047
0002f0 23 28 17 3e e0 7c b3 be 19 6c 33 bf 96 05 07 3e
       0.14761405 -0.3505621 -0.7008682 0.13185725
000300 7e 3d 03 bf 77 2c ec be 95 eb 24 3e 72 af 55 3e
       -0.51265705 -0.46127674 0.16105492 0.20867708
000310 91 55 18 3e 6b c0 37 bf 8e 26 35 be 32 75 80 bd
       0.14876391 -0.7177798 -0.17690489 -0.06272353

fc_in.bias f4 [100]
000000 35 fe 92 3e 89 f5 60 be 18 33 65 3e af 0c 8b 3a
       0.2870957 -0.21968664 0.22382772 0.0010608638
000010 fd 65 bd be 6d 97 ae 3d ba 62 27 bf c1 d7 a6 3e
       -0.36991873 0.08524976 -0.6538502 0.32586482
000020 2c e3 b6 3d 51 20 92 3d d5 df ff ba 8d 19 bf 3d
       0.08930048 0.0713507 -0.0019521663 0.09331045
000030 25 cc d1 3e b1 be c5 3e 06 90 0a 3e 41 04 84 bc
       0.40976062 0.38622048 0.13531503 -0.01611531
000040 d0 d3 a8 be 55 71 d8 be f9 7b 92 3d 3f 5b ae be
       -0.329741 -0.42273965 0.07152552 -0.3405399
000050 9c 01 b3 3e 74 0e a7 be 98 a4 b3 3e b6 53 90 bd
       0.34962165 -0.32628214 0.35086513 -0.070472166
000060 b1 5b b8 be e5 5b b7 be 1a 64 1a 3f 0a bf 00 3f
       -0.36007455 -0.35812297 0.6030899 0.502915
000070 20 b6 01 3f 85 fc 67 bd 58 a0 ed bb 10 89 17 bf
       0.50668526 -0.056637306 -0.0072517805 -0.59193516
000080 ce 27 7b 3e f0 f2 0a 3f 4b 26 48 bc a4 f7 a7 be
       0.24526903 0.54276943 -0.012216161 -0.32806122
000090 01 d1 ff be 93 28 54 bf a2 ff 34 3d 12 ea d4 be
       -0.49964145 -0.8287441 0.044189103 -0.4158483
0000a0 af f2 55 be f0 b9 4d bf c8 60 10 bf 03 ac 0d be
       -0.20893358 -0.80361843 -0.56397676 -0.13835149
0000b0 9e c7 62 3e 40 7c 38 bf 9e f7 d0 3e 0d ac 22 3e
       0.2214646 -0.7206459 0.40813917 0.15885945
0000c0 be ad 2d 3f da 8c 86 bd 50 e0 eb 3e b6 84 16 bf
       0.67843235 -0.06569834 0.46069574 -0.5879625
0000d0 21 a9 e3 be a5 78 3e be 3f 23 1a bf d4 20 01 3f
       -0.44464973 -0.1860071 -0.6021003 0.50440717
0000e0 cb 51 8c 3e cc 7d ac be 81 b1 0d bf 89 d8 a4 3e
       0.27406153 -0.33689725 -0.55348974 0.32196453
0000f0 ee 86 75 3e a1 73 08 3e 21 b8 00 be 1a bc 02 3a
       0.23977253 0.13325359 -0.1257024 0.0004987136
000100 c1 a4 0a be 97 ce 86 3e 16 bb 14 bf fd 81 50 bd
       -0.13539411 0.2632949 -0.5809797 -0.050905216
000110 e4 3a 80 3e 83 16 e8 3d ee 0a a2 3e 1a c4 e6 be
       0.2504493 0.11332419 0.31648964 -0.4507149
000120 54 94 fa 3d 13 04 49 be f8 cb f2 3e fb 53 1f 3f
       0.122353226 -0.1963046 0.4742124 0.6223752
000130 04 78 b8 3d 62 bf 09 3f 9d 4b 60 3e 72 88 f5 3e
       0.09007266 0.5380765 0.21903844 0.47955662
000140 0d 70 04 bf 10 a8 8e 3e 0f 2f 2c 3f 69 ff d6 3e
       -0.51733476 0.27862597 0.67259306 0.41991737
000150 0e ee fa be 9d 54 31 3e 61 eb 1c bf a9 78 04 3f
       -0.49009746 0.17317434 -0.6129666 0.5174661
000160 c5 a9 37 bf e2 ea f7 be 46 23 48 3c 9d e5 90 3e
       -0.7174342 -0.4842139 0.012215441 0.2830018
000170 fb 4c 1e 3f 62 96 28 bf 69 6a c6 3e 62 68 16 3e
       0.6183621 -0.65854466 0.3875306 0.14688256
000180 75 17 f3 bd f3 51 3c 3e 24 fd b9 3e 84 00 8a be
       -0.118697084 0.18390636 0.36325943 -0.26953518

fc_hidden.weight f4 [100, 100]
000000 2e 23 a4 bd 49 28 51 bd 23 b3 28 bd b4 80 d0 bd
       -0.080145225 -0.05106381 -0.041186463 -0.10180798
000010 08 6e 66 bd 37 67 bd 3c 63 29 d1 bd e3 f8 11 3d
       -0.056257278 0.023120506 -0.10212972 0.035637747
000020 70 70 3b bc ef 80 a7 3d 1c b1 de 3b a1 95 ab 3d
       -0.011440381 0.08178889 0.0067960154 0.08378149
000030 c9 8d 1a bc 35 b2 ea 3c d3 e7 a4 3c 8e b2 95 bd
       -0.009433218 0.028649429 0.020130074 -0.07309447
000040 5e 5d 20 bd b2 50 21 3d 70 8a 95 3d 1a bf a1 3d
       -0.039151542 0.039383598 0.073017955 0.07897778
000050 7d 6e a0 bd 6f b5 b6 bd d4 4b 67 3d 25 e5 53 bd
       -0.07833574 -0.089213245 0.0564688 -0.0517322
000060 b3 fd 87 bd de 1b 81 3d a0 98 de bd 99 9a ce bd
       -0.06640186 0.06304143 -0.10868955 -0.10088081
000070 ea 97 21 bc 2c 4e 94 bd 5d ce 67 3d 11 d7 40 bd
       -0.009862879 -0.072414726 0.056593288 -0.047080103
000080 d4 cf 99 bc 6d 86 b8 bd 4f f4 3a 3d 80 e9 f2 3b
       -0.018775858 -0.09010015 0.045643147 0.0074130893
000090 02 d0 8f bd 80 98 77 bd 85 d2 22 3d e0 54 8d 3d
       -0.07022096 -0.06044817 0.03975155 0.06900954
0000a0 bf 7f 70 bd ff 74 48 3c 24 d8 82 bd b7 46 98 bc
       -0.05871558 0.012234925 -0.06388882 -0.018588407
0000b0 bc ca f6 bc cd b7 af bd bc c2 9d 3d e9 d7 ac 3d
       -0.030125968 -0.08579979 0.07703158 0.08439619
0000c0 0b ea 20 bc 85 c9 22 bd 22 1e 9d 3d df 55 85 bd
       -0.009821425 -0.039742965 0.07671763 -0.06510519
0000d0 ac 01 76 3d 64 0f be ba 05 23 59 bd 9b 4e 43 3b
       0.06006019 -0.0014500436 -0.053011913 0.0029801491
0000e0 f9 cc c1 3c 77 d0 ba bb 63 ba f5 bc 87 4a 93 bd
       0.023657309 -0.0057011205 -0.029996103 -0.07191949
0000f0 b1 bd 45 3d 9e 49 e5 3c 6b c1 bb 3c d0 9e bc 3c
       0.048276607 0.027989205 0.022919377 0.023024946
000100 b0 5b 39 bd 0a 38 48 bd d3 38 3d bd 4f e9 1b bb
       -0.045253456 -0.048881568 -0.04619677 -0.0023790186
000110 01 81 a4 bc d5 3f 1d 3d ae 07 06 3d f7 ae 5f 3c
       -0.020081045 0.038390953 0.032722168 0.013652555
000120 5d 9f 73 bd a4 32 2c 3d fe 0c bc 3c f2 73 df bd
       -0.059478153 0.042040482 0.022955414 -0.10910787
000130 22 34 72 bd d8 5e 90 bd b0 81 53 3c 70 56 f3 bc
       -0.05913175 -0.0704934 0.012909338 -0.029704303
000140 d6 3a d1 bd 3c b3 32 bd 12 25 69 3c 76 a8 b8 bd
       -0.102163 -0.043627962 0.01423003 -0.090165064
000150 f3 f6 dc bd 6d 2d d2 bc 48 20 91 3c 15 ca 82 bd
       -0.10789289 -0.025656426 0.017715588 -0.063862
000160 ef 55 b7 3d 39 22 86 3d 5c 29 63 3d 3b 7e 43 bd
       0.089519374 0.06549496 0.055459365 -0.047727805
000170 21 09 86 bd d8 e5 c2 3c d3 1b c3 bd 32 4f a5 bd
       -0.0654471 0.023791239 -0.095267914 -0.08071746
000180 35 c1 89 3d e1 b3 b8 3c 4d ab a1 3c a9 38 06 3d
       0.067263044 0.02254671 0.019735003 0.03276888
000190 0f 10 a7 bc 20 a8 b0 bb 8c f1 c6 bd a2 9f 23 3c
       -0.0203934 -0.005391136 -0.0971404 0.00998679
0001a0 7f 0d 93 3d 35 50 bf bd e7 d2 78 3d 47 6f 2e bd
       0.071803086 -0.0934147 0.060748007 -0.04258659
0001b0 20 e6 c6 b9 61 39 96 38 a4 47 bf 3b bc 45 fe bc
       -0.0003793696 7.163245e-05 0.0058373976 -0.031039111
0001c0 b0 18 82 bd ec 4f 21 3c 67 68 3a bb 55 b3 80 bd
       -0.06352365 0.009845715 -0.0028443576 -0.06284205
0001d0 bb fe 9f 3d bc 1c b8 bc 1a 8d dd bc 29 b4 93 3d
       0.07812258 -0.02247464 -0.027044822 0.07212097
0001e0 1b 2e cf bd 94 50 88 bd d8 1c 6c 3d a3 c6 93 bd
       -0.10116216 -0.06655994 0.057644695 -0.07215621
0001f0 33 36 7d bc 2a 01 2c bd dc f8 b7 3c 21 55 b2 bd
       -0.015454817 -0.041993298 0.022457533 -0.08707643
000200 58 b2 a6 3d f7 36 02 3d 27 b7 25 3b a8 25 be 3d
       0.08139485 0.0317907 0.002528617 0.09284526
000210 f4 34 33 bc 6f d3 4c 3d 4d a2 41 bd e3 4c 35 bd
       -0.010937918 0.050006326 -0.047273923 -0.044262778
000220 5c 7f 12 3d 13 b0 b5 3d 56 5e 3f 3d 20 f5 ce bd
       0.03576599 0.08871474 0.046720825 -0.10105348
000230 e5 b1 e8 3c c4 8e b7 3d c0 f1 09 3c 8c 4c 9b bd
       0.02840514 0.08962777 0.008419454 -0.075829595
000240 f3 8e a7 3d 5f 88 82 3d c8 1d 89 3c 72 96 04 3d
       0.08181562 0.06373667 0.016737834 0.03237004
000250 f2 70 c8 3b 0f 98 a5 3c f8 55 71 bd 45 06 1a bd
       0.0061169798 0.020214109 -0.058919877 -0.037603635
000260 60 09 86 3d 47 05 ce bd b4 81 32 bd f8 7a cd bc
       0.06544757 -0.100596 -0.043580726 -0.02508305
000270 54 5d 4c bc 05 a9 d5 bd eb e6 38 3d e0 49 6e bd
       -0.012473423 -0.104326285 0.045142096 -0.05817592
000280 26 2e f6 bc fa 32 95 bc bd d3 4d bd cf e9 89 bc
       -0.030051302 -0.018212784 -0.050250757 -0.016835121
000290 bd 39 b5 bd 4a 55 04 bd 6d c0 d0 bc 06 80 e7 3c
       -0.08848903 -0.0323079 -0.02548238 0.028259289
0002a0 49 dd 6d bd 56 6e 71 bd 1f c5 9d 3d 2c 02 5f bd
       -0.058072362 -0.058943115 0.077036135 -0.05444543
0002b0 a5 00 69 bd 18 96 51 bd 2c 6f bc 3b 88 62 74 3d
       -0.05688538 -0.05116853 0.0057505574 0.05966428
0002c0 71 6f 01 3d 47 9e a0 bd 8b b2 95 bd 18 56 d0 bd
       0.03160042 -0.07842689 -0.07309445 -0.10172671
0002d0 80 dd 96 bc b4 34 cb bc 11 09 91 bd 0c 4a 41 bd
       -0.018416166 -0.024805404 -0.070818074 -0.047189757
0002e0 07 49 a4 3d 53 32 e3 bc 61 72 ac bd 17 9b 00 bd
       0.08021741 -0.027733957 -0.084202535 -0.031397905
0002f0 88 9d 84 3a 4e c8 01 3d d3 fa 95 3d bd bf 1c 3d
       0.0010117749 0.031685166 0.073232315 0.038268793
000300 ae a5 90 bc 78 de 81 bd ba bc 0d bd 15 2c 8f 3d
       -0.017657127 -0.06341261 -0.03460381 0.0699083
000310 69 11 8e 3d ba dd b4 bc 00 d4 43 bd 7a a8 af 3d
       0.069369145 -0.022078384 -0.0478096 0.08577056
000320 71 a0 85 3d a7 dc 6e 3d 1e 31 b5 3d ef 8e df 3b
       0.065247424 0.0583159 0.08847259 0.006822459
000330 53 43 01 be bc 82 de 3d d9 fe 72 3d 07 a7 7e 3d
       -0.12623338 0.10864779 0.059325073 0.06217101
000340 ce a0 8b bd 1d ff a1 3d d1 8d f8 bc 63 4c d8 3d
       -0.068177804 0.07909987 -0.03034106 0.105614446
000350 aa 80 25 3d 52 bc b9 3d f2 27 1e ba 04 42 b2 3c
       0.040405907 0.090691224 -0.0006033174 0.021759994
000360 82 13 4d bd b6 20 90 bd af b3 a6 3d c3 29 4b bd
       -0.050067432 -0.07037489 0.08139741 -0.049600374
000370 12 a3 bb 3d 04 d6 08 3d 39 1b 90 bc 01 a2 ed bc
       0.091619626 0.033407226 -0.017591106 -0.029007914
000380 b7 e4 49 3d 2a e3 c0 3b 85 8c 36 bc 75 f6 4d 3d
       0.049290385 0.005886455 -0.011141901 0.050283868
000390 6f 13 a1 bd 8c 05 08 be 89 5a 8b bc 42 35 a9 3d
       -0.07865035 -0.13283366 -0.017010944 0.08262111
0003a0 55 5b 6c 3d c0 65 49 bd 52 13 9c bd 30 79 a3 3d
       0.05770429 -0.049169302 -0.076208726 0.07982099
0003b0 25 ff c8 bc 97 b6 a4 3e 60 9c 69 3b ca b5 bf bd
       -0.024535725 0.32170555 0.0035646185 -0.093608454
0003c0 09 3c 65 bd 69 69 9d 3d 0f 5f 8a 3d 33 11 85 bd
       -0.055965457 0.07686121 0.06756412 -0.06497421
0003d0 2b 05 d0 bd 27 50 a1 3d 3b 53 9b 3d bc 1c aa bd
       -0.10157236 0.07876616 0.07584234 -0.08306262
0003e0 9f 06 fd 3c 53 4d 5c bd e2 54 ab 3c 12 de ed bd
       0.030886946 -0.05378468 0.020914499 -0.11614622
0003f0 27 39 34 3c e2 eb 60 bc 01 68 0a 3d b8 a4 43 bd
       0.010999954 -0.013728114 0.033790592 -0.04776451

fc_hidden.bias f4 [100]
000000 ac 35 14 bd 39 f8 d6 bd cc eb 0b 3d fe 84 95 ba
       -0.036183998 -0.104965635 0.03416042 -0.0011407433
000010 a1 9c d9 bd 8b b2 a9 3d f9 a1 42 bc 49 d5 0f 3c
       -0.10625578 0.082860075 -0.011879438 0.0087788785
000020 45 5c 17 3d 0e 8d a2 bd a7 4a 24 bc 3a a4 9a bd
       0.03695323 -0.0793706 -0.010027564 -0.07550855
000030 61 2e 16 3c 55 9a 58 bd 04 96 65 3d 49 41 b1 3d
       0.009166331 -0.052881557 0.05605127 0.0865503
000040 64 7c 01 3e ee 22 cf bc 83 11 07 3d 79 0c 8c bd
       0.12645108 -0.02528521 0.032975685 -0.068383165
000050 1b 51 e1 bd f1 a7 04 bd 24 96 7a 3d 8a 86 c9 3b
       -0.11001798 -0.032386724 0.06117834 0.0061500715
000060 f7 e9 c0 bd 3f 29 83 bc 59 95 43 bd 1c 90 99 3d
       -0.09419625 -0.016010879 -0.04774985 0.0749819
000070 8b 9c 55 3d 85 2e 5c bd fe 4c 9f 3d c7 a3 05 3d
       0.052151244 -0.053755302 0.07778357 0.032626893
000080 99 02 4d 3d c9 c4 08 bd 56 bd 86 3c ed d6 71 3d
       0.050051305 -0.033390794 0.016447704 0.05904286
000090 d4 95 20 bd 02 24 15 bd c6 12 e9 3b 70 c0 ac ba
       -0.039205387 -0.036411293 0.0071128337 -0.001317991
0000a0 71 1c a8 bb c3 be f1 bd d3 85 26 bd f8 61 af 3d
       -0.0051303436 -0.11803963 -0.04065497 0.08563608
0000b0 f7 b3 54 3d b1 4d a6 3d 5b b2 c6 3c f7 93 b8 bd
       0.05192944 0.08120287 0.024254968 -0.09012597
0000c0 72 3f ff bc 39 e8 8d bd 1b d6 57 3d b2 5f 17 3d
       -0.031158183 -0.069290586 0.05269442 0.036956497
0000d0 7a b1 2f 3d 98 45 f4 3d 0d 45 a0 bc 6a 67 cc bd
       0.042893864 0.119273365 -0.019564176 -0.09980662
0000e0 d7 b8 0e bd d4 dd 8e bd c6 bc ae 3d 5e 4f 69 3d
       -0.034844246 -0.06975904 0.085320994 0.056960456
0000f0 d4 91 55 bd c5 67 82 bd ce 91 73 ba d0 00 a7 3d
       -0.052141026 -0.06367449 -0.0009291441 0.08154452
000100 af 7f 76 bd 43 5f af 3c 1d 4f d0 3c 47 f5 6b bd
       -0.060180362 0.021407729 0.02542835 -0.05760696
000110 45 f5 86 3d b3 70 5d bd e2 98 67 3d 5c 6d 43 bd
       0.0658975 -0.054062556 0.056542285 -0.047711715
000120 67 93 64 3c 4e ab 2d bd d2 56 1a 3d 75 3c 75 3d
       0.013951159 -0.042399697 0.037680455 0.05987211
000130 6d 40 00 bd dc 66 ff bb a8 23 92 bd d1 61 0e bd
       -0.03131144 -0.007794244 -0.07135707 -0.034761254
000140 92 f8 e4 bc 7f 4b 8f 3d f4 9b 80 3d 7c 40 03 3d
       -0.027950559 0.069968216 0.06279746 0.03204392
000150 ca aa a3 bd 99 0e 94 3b fb dd a0 bd 0f 2b 99 bd
       -0.0799156 0.0045183417 -0.078548394 -0.07478916
000160 a0 01 d4 3d 17 8b 28 bc 09 0a 68 3d 3e b9 85 3c
       0.103518724 -0.010287068 0.056650195 0.016323682
000170 e1 4d b5 3c f2 36 18 bb 69 30 aa bd 32 8c b4 bc
       0.022131862 -0.002322611 -0.08310015 -0.022039507
000180 89 7e 74 bc 82 2f 40 bd 2f 68 ba bd 61 de e7 bd
       -0.014922746 -0.046920307 -0.09101903 -0.11321712

fc_out.weight f4 [1, 100]
000000 1f 28 2d 3d a6 1a b4 3d 20 e7 62 3d cc 88 9b bd
       0.04227459 0.08794145 0.0553962 -0.07594451
000010 7c d6 e1 3c 64 19 e3 3d 63 c6 ab 3d f3 0a 0f 3e
       0.027568094 0.11088827 0.08387449 0.1396902
000020 dc 21 0d 3d 8b ed a6 3c 0f cb 09 be a5 58 7a bc
       0.03445612 0.020376941 -0.13456367 -0.015279924
000030 37 a6 9e 3d 94 1e 01 be 39 e0 be bd 66 d7 d6 3d
       0.07746547 -0.12609321 -0.09320111 0.10490303
000040 5f c9 63 3c 17 40 05 3e 1f 06 6b bd 18 53 45 bd
       0.013902991 0.1301273 -0.057378884 -0.048174948
000050 fc b3 36 3d d8 12 f4 bd 71 97 be bd 9e 61 cc 3d
       0.04460524 -0.11917657 -0.09306229 0.099795565
000060 17 51 7d 3c 46 1b b5 3d 0a c5 58 bd 06 ae 02 3d
       0.015461228 0.088430926 -0.052922286 0.031904243
000070 48 c3 54 3d 2a dc 98 bd 0f d1 8a bd 0d 72 11 3e
       0.051944047 -0.07463868 -0.06778156 0.14203663
000080 25 e1 8f 3d 7b e6 93 3d 7a 38 df bd 0e 48 17 3e
       0.07025365 0.07221695 -0.10899444 0.1477358
000090 eb 41 1f 3d 7d 52 78 3e c0 11 b6 3d 3a d6 10 be
       0.038881224 0.24250217 0.08890104 -0.14144221
0000a0 5a 01 83 3d 69 23 a3 bd fc 5e d7 3d ef 23 ab 3d
       0.06396742 -0.07965738 0.10516164 0.08356463
0000b0 84 10 c7 bb cd 69 18 3e ed 00 86 bd 51 0f b8 3d
       -0.006074967 0.1488411 -0.06543145 0.089872964
0000c0 f7 a8 a5 3d e9 f6 d5 3d 39 dc 12 bd 4f d4 82 3d
       0.08088868 0.10447485 -0.035854552 0.06388151
0000d0 45 0a 39 bd f5 fa ea bd ef 04 32 3e 41 42 b2 3d
       -0.04517581 -0.114736475 0.17384695 0.08704043
0000e0 79 b5 bb bd 16 7d e9 3d 19 72 19 3d 2b 5e 1e 3b
       -0.091654725 0.114008114 0.037462328 0.0024165015
0000f0 84 d6 01 be b4 b6 00 be 2c db fd bd 27 64 74 bd
       -0.12679487 -0.12569696 -0.12395319 -0.059665825
000100 a6 d5 01 be 51 be ff bd 0d f4 f1 bd 93 0b 56 bd
       -0.12679157 -0.12487472 -0.11814127 -0.05225713
000110 25 16 34 bd 1f 64 97 3c 2f d9 97 bd a1 fd ba bd
       -0.04396643 0.018480359 -0.07414471 -0.09130407
000120 14 3b 50 3c 39 df 87 bd 21 35 2a 3c c9 96 b6 bd
       0.012709398 -0.06634373 0.0103886435 -0.08915479
000130 af 6d 84 3c 20 07 54 3d aa 3f a6 bd d8 56 ce bd
       0.016165582 0.051764607 -0.08117612 -0.10075158
000140 56 aa 10 3e 20 68 ba bd 0a 5a d5 3d 2f e2 8c bd
       0.14127478 -0.091018915 0.10417564 -0.068790786
000150 be 0a 75 bd 39 55 9f bd 4c eb f0 bd 4a 1c 65 3d
       -0.059824698 -0.07779927 -0.11763629 0.05593518
000160 b4 ac 80 3d 0e d1 87 3d c1 4f e6 bd 0c bf 8c bd
       0.062829405 0.06631671 -0.112456806 -0.06872377
000170 08 f0 15 bd d3 85 1e 3e 84 8d e3 bd a7 2f 5c 3c
       -0.036605865 0.15480737 -0.11110976 0.013439096
000180 de e8 7f 3c 22 50 cc 3c db 23 99 3d e9 d3 94 bd
       0.015619485 0.024940554 0.07477542 -0.07266981
