Copula by Ratio Estimation/2d_exp/model_parameters_NNet_ratio_25_runs_4copulas_2Dexperiment_ok/NNet_ratio_run_18_cop_u_2.pt (torch, 45066 bytes, 5 tensors)

fc_in.weight f4 [100, 2]
0	0x3f3243ef	0.6963491
1	0xbdf03d3c	-0.117304295
2	0xbf15c948	-0.58510256
3	0xbe4c0631	-0.19924237
4	0xbdb7fe37	-0.089840345
5	0xbf353985	-0.7079089
6	0xbf0576cd	-0.521344
7	0xbeede725	-0.46465412
8	0x3f359014	0.7092297
9	0xbf19b2dd	-0.6003855
10	0x3da24c65	0.07924727
11	0x3f20017d	0.6250227
12	0xbf26cc7d	-0.65155774
13	0xbeee14ff	-0.46500394
14	0xbf000e65	-0.50021964
15	0xbf0f6ff3	-0.56030196
16	0xbeffd7f4	-0.49969447
17	0x3dc869aa	0.09785779
18	0x3f059822	0.5218526
19	0x3e46b702	0.1940575
20	0x3f3fd2db	0.74931115
21	0x3e262cac	0.16227978
22	0xbede1175	-0.43372694
23	0xbefd3824	-0.49456894
24	0x3ee83fc4	0.4536115
25	0xbdea4b82	-0.11440183
26	0x3de1d00f	0.11026012
27	0xbe58c1b0	-0.21167636
28	0xbe434c0e	-0.19071981
29	0xbf220584	-0.63289666
30	0x3f151db4	0.5824845
31	0xbe818de5	-0.2530357
32	0x3e96d26c	0.29457414
33	0x3e953d38	0.2914827
34	0x3f07f2a0	0.5310459
35	0x3efca7dc	0.49346817
36	0x3f262295	0.6489652
37	0xbea91bee	-0.3302912
38	0x3ed6b68c	0.41936147
39	0xbe01d26b	-0.12677924
40	0x3f0ef06d	0.5583561
41	0x3b932d79	0.0044915047
42	0xbeca0490	-0.39456606
43	0xbdae2749	-0.08503587
44	0xbecda34a	-0.40163642
45	0xbd766ffe	-0.060165398
46	0x3f132d90	0.574914
47	0xbe39d4a9	-0.1814753
48	0x3eab753f	0.3348789
49	0xbdf2cdfa	-0.11855693
50	0x3f42823b	0.75979966
51	0x3e6fe308	0.2342645
52	0xbf299b48	-0.66252565
53	0xbe787969	-0.24265064
54	0x3f2669d7	0.6500525
55	0xbe01becb	-0.12670438
56	0x3c3f1036	0.01166158
57	0xbdf8d8f7	-0.12150758
58	0xbf1f3881	-0.62195593
59	0xbe5b7caa	-0.21434274
60	0xbd98a324	-0.074529916
61	0x3e99e44a	0.30056983
62	0xbf05a737	-0.52208275
63	0x3e97b734	0.2963196
64	0xbf06fe21	-0.5273152
65	0x3f1362f6	0.5757288
66	0xbec43509	-0.38321713
67	0x3ec9ba46	0.39399928
68	0x3f357de0	0.70895195
69	0xbe998ded	-0.29991093
70	0x3e11b620	0.14229631
71	0xbf1e7964	-0.6190398
72	0xbf17f7c6	-0.5936245
73	0x3dada1e8	0.08478147
74	0x3e0d0ba2	0.13773969
75	0x3efd2d50	0.49448633
76	0x3f22cb91	0.6359187
77	0x3f2ad243	0.66727084
78	0x3f39ebf9	0.7262569
79	0x3c9260d5	0.017868439
80	0x3c2bea07	0.010492808
81	0x3f00413f	0.5009956
82	0xbeecb717	-0.46233436
83	0xbe8ff7e4	-0.28118813
84	0xbe422b43	-0.18961816
85	0x3e47f0d8	0.19525468
86	0xbdae93d1	-0.085242875
87	0xbf1ab91b	-0.604387
88	0x3f24503d	0.64184934
89	0xbe13cd51	-0.1443379
90	0xbdf2d5a5	-0.11857156
91	0x3f19167a	0.5979992
92	0x3f1da960	0.6158657
93	0xbe8e5f24	-0.27806962
94	0xbec465c3	-0.38358888
95	0x3de2e236	0.110783026
96	0x3f160917	0.5860762
97	0xbe7caead	-0.24676009
98	0x3f141f6e	0.5786046
99	0x3e95ebc2	0.2928143
100	0x3f123205	0.57107574
101	0x3f24b7b2	0.64342797
102	0xbde6a263	-0.112614416
103	0xbc10379c	-0.008802321
104	0xbc09425d	-0.008377639
105	0x3e72e97f	0.23721884
106	0xbf4c8aae	-0.7989911
107	0x3eb4ca3d	0.35310546
108	0x3e5052f7	0.20344149
109	0xbe227da0	-0.15868235
110	0xbe4cf801	-0.20016481
111	0x3e55ba3c	0.20871824
112	0x3ed8c9c4	0.42341435
113	0x3e218b02	0.15775684
114	0xbdc2d323	-0.095129274
115	0xbe450d3e	-0.19243333
116	0x3eefc17a	0.46827298
117	0x3e2a88cd	0.16653748
118	0xbc40e3e9	-0.011773088
119	0xbeeb5530	-0.4596343
120	0xbf0d3a59	-0.55167156
121	0xbe9a73bb	-0.3016642
122	0x3e881dda	0.26585275
123	0x3f2f0280	0.6836319
124	0xbed41266	-0.41420287
125	0xbf317906	-0.6932529
126	0x3f24beda	0.64353716
127	0xbf395a51	-0.72403437
128	0xbf058e4f	-0.5217027
129	0x3ec1f52b	0.3788236
130	0x3e2eb898	0.17062604
131	0xbea613e2	-0.32437044
132	0x3e120c57	0.1426252
133	0xbf3a0e8d	-0.7267845
134	0x3d764394	0.06012304
135	0xbf2b7235	-0.6697114
136	0x3dbc23f2	0.091865435
137	0x3ead38d9	0.33832434
138	0xbd3fce5f	-0.04682767
139	0x3f142168	0.57863474
140	0xbf0c91fb	-0.5491025
141	0x3ed89e6c	0.42308366
142	0x3f356bf5	0.70867854
143	0x3f2d598f	0.6771478
144	0xbecc0577	-0.3984792
145	0xbe0e5ab2	-0.13901785
146	0xbe56aab4	-0.20963556
147	0xbf33c484	-0.70221734
148	0x3eb7bf5f	0.35888192
149	0x3d99660a	0.074901655
150	0x3f379da7	0.71724933
151	0x3dff1ec9	0.12457044
152	0x3e991921	0.29901984
153	0x3eeec09f	0.46631333
154	0x3e3660f8	0.17810428
155	0xbf1ab51d	-0.60432607
156	0x3cfc5f3c	0.03080713
157	0x3e589af6	0.21152863
158	0x3dfdadfd	0.12386701
159	0xbf01ee65	-0.50754386
160	0xbdffdbc4	-0.12493089
161	0xbec90236	-0.392595
162	0xbf029304	-0.5100558
163	0xbf058095	-0.52149326
164	0xbeaa8714	-0.3330618
165	0xbe77a1f9	-0.24182881
166	0x3f0e0da2	0.5548955
167	0xbec15220	-0.3775797
168	0xbf2e29f1	-0.6803275
169	0xbf020ab2	-0.5079757
170	0xbe387da0	-0.18016672
171	0x3c14c896	0.009081027
172	0x3e6d6025	0.23181207
173	0x3ed9cfe6	0.42541426
174	0x3f48acca	0.78388655
175	0x3f44608c	0.7670982
176	0x3efe176b	0.49627241
177	0x3e95513d	0.29163542
178	0xbf0febeb	-0.5621936
179	0x3b965581	0.0045878296
180	0xbe69b1d5	-0.22821744
181	0xbe696940	-0.22794056
182	0x3ef81d04	0.48459637
183	0x3dd4b870	0.10386741
184	0xbec17245	-0.37782493
185	0xbf084aad	-0.53238946
186	0x3f0fc0a6	0.56153333
187	0xbee6d7d9	-0.45086554
188	0xbf2b600c	-0.6694343
189	0x3f11ee06	0.5700382
190	0xbec452bd	-0.38344374
191	0x3e6c1d97	0.23058163
192	0x3e4df645	0.20113476
193	0x3e96faf0	0.29488325
194	0xbee2bc98	-0.4428451
195	0x3eb0f3df	0.3456106
196	0xbe6bfde8	-0.23046076
197	0xbe816ac1	-0.2527676
198	0xbf0d5543	-0.55208224
199	0x3f1dc920	0.6163502

fc_in.bias f4 [100]
0	0xbe23fcf2	-0.1601446
1	0xbf0c1b00	-0.547287
2	0x3edeea55	0.43538156
3	0x3ee3a99e	0.44465345
4	0x3e1adff1	0.1512449
5	0xbe5d99ed	-0.2164075
6	0x3e177590	0.1479094
7	0x3ea74e20	0.32676792
8	0x3e844ab6	0.2583825
9	0xbf257dab	-0.6464488
10	0x3dead50e	0.11466418
11	0xbf01222f	-0.50442785
12	0xbc6eb190	-0.014568701
13	0xbf03b4c0	-0.5144768
14	0xbf1b1b76	-0.6058878
15	0xbefb8ab8	-0.49129272
16	0x3f02ddca	0.51119673
17	0xbf0ae1cb	-0.5425078
18	0x3f2f285b	0.6842095
19	0xbeba0490	-0.36331606
20	0x3e3c6653	0.18398409
21	0xbf5c2fcd	-0.8601044
22	0xbf33371a	-0.70005953
23	0xbf224286	-0.63382757
24	0xbedcb93a	-0.43110067
25	0xbe80098e	-0.2500729
26	0x3ea2bfa9	0.3178685
27	0xbeab9c58	-0.33517718
28	0xbef72a41	-0.48274425
29	0xbf2e7522	-0.6814748
30	0xbe1ae9c9	-0.15128244
31	0x3f439246	0.7639507
32	0xbf0132cb	-0.5046813
33	0xbe56291a	-0.20914117
34	0x3f122458	0.57086706
35	0xbeadb824	-0.3392955
36	0xbef41e4b	-0.47679362
37	0x3c83f594	0.016108312
38	0xbe39edd4	-0.1815713
39	0x3f1a86dd	0.60362035
40	0x3ec56426	0.3855297
41	0xbf481d31	-0.7816954
42	0x3e9fcba4	0.31210053
43	0xbe071663	-0.13192134
44	0xbf05d85b	-0.5228326
45	0xbeb19f18	-0.3469169
46	0xbd679519	-0.056538675
47	0xbf0a775a	-0.54088366
48	0xbe4c37aa	-0.19943109
49	0xbdb0f191	-0.08639825
50	0xbdcd7d0a	-0.10033615
51	0x3eb75b39	0.35811785
52	0x3e2d02c4	0.16895586
53	0xbdf317b6	-0.11869757
54	0xbd977eb8	-0.073972166
55	0x3eaa8cc3	0.33310518
56	0xbf06314c	-0.5241897
57	0x3e3200aa	0.17383066
58	0x3ee3cf42	0.44494063
59	0xbf36d61d	-0.7142046
60	0xbddfb74e	-0.109236345
61	0xbdd4b061	-0.10385204
62	0x3ea11021	0.31457618
63	0xbe35a19e	-0.17737433
64	0x3eab8280	0.33498
65	0xbf49adcd	-0.78780824
66	0x3ed8aab2	0.4231773
67	0x3f1eea7f	0.6207656
68	0xbf0ea3a3	-0.5571844
69	0x3f128fad	0.5725048
70	0xbd708d4a	-0.058728494
71	0x3da55235	0.0807232
72	0xbebf570b	-0.37371096
73	0x3f1eacb8	0.619823
74	0xbf45f110	-0.7732096
75	0x3ec557a5	0.3854343
76	0x3e84e95c	0.2595929
77	0xbd5303f4	-0.051517442
78	0x3f2375fa	0.6385189
79	0x3e82c502	0.2554093
80	0xbf118d06	-0.5685581
81	0x3dd3fc3e	0.10350846
82	0xbebe3b21	-0.37154487
83	0x3f400dd5	0.75021106
84	0xbe81c323	-0.2534419
85	0xbd38c238	-0.045107096
86	0x3ebbb569	0.36661842
87	0x3db973d9	0.09055299
88	0x3f2876c0	0.658062
89	0x3d86992c	0.06572184
90	0xbcca651f	-0.024706421
91	0x3e8f61b3	0.28004226
92	0x3e1818eb	0.14853255
93	0xbe8c74fe	-0.27433008
94	0xbdb4c5b8	-0.08826774
95	0x3ed0e2c3	0.40798005
96	0xbf39a18b	-0.7251212
97	0x3e24c38b	0.16090219
98	0xbf151a08	-0.58242846
99	0x3e1a0ff4	0.15045148

fc_hidden.weight f4 [100, 100]
0	0x3e02637f	0.12733267
1	0x3e0206e9	0.12697949
2	0xbb6e3a04	-0.0036350498
3	0xbde66c39	-0.112511106
4	0x3dbe9bf7	0.09307092
5	0xbe10960b	-0.14119737
6	0x3d0ca1b2	0.034333892
7	0x3d50a8e4	0.050942317
8	0xbdbca120	-0.0921042
9	0x3d3af0b3	0.045639705
10	0xbd5f3baa	-0.05450026
11	0xbe8b6e25	-0.2723247
12	0x3d4f67bc	0.05063604
13	0x3df81bc5	0.121146716
14	0xbd26000b	-0.040527385
15	0x3d7b064f	0.061285313
16	0x3d454d8b	0.048169654
17	0xbe1d5253	-0.15363435
18	0x3dd30ffc	0.10305783
19	0x3c014589	0.007890114
20	0x3d74994f	0.05971652
21	0xbed97982	-0.42475516
22	0x3e07a380	0.13245964
23	0xbd48ec83	-0.04905368
24	0xbe05824c	-0.13037986
25	0xbc7e3cdb	-0.015517439
26	0x3cfdd248	0.030984059
27	0xbd97f93e	-0.07420586
28	0x3e0cce37	0.1375054
29	0xbda6f8c8	-0.0815292
30	0x3e0d3d93	0.1379302
31	0x3dc49f1e	0.09600662
32	0x3dfc4bc3	0.12319138
33	0x3d5bb3c4	0.053638235
34	0x3d829360	0.06375766
35	0x3c0246da	0.007951463
36	0x3d18b87f	0.037285324
37	0xbc88981c	-0.016674094
38	0xbdee2c29	-0.11629517
39	0x3cf824d3	0.030290997
40	0x3ca67e90	0.020324022
41	0x3d85b802	0.06529237
42	0xbc33320a	-0.010937223
43	0xbdaed8ef	-0.085374705
44	0x3c2aaf0e	0.010417713
45	0x3dba8e05	0.09109119
46	0x3dcdbfff	0.10046386
47	0x3e14f820	0.14547777
48	0x3ddf59a0	0.109057665
49	0xbd902e99	-0.07040138
50	0x3c83d450	0.01609245
51	0xbd6e97fa	-0.058250405
52	0x3d7b0808	0.061286956
53	0xbd8e7142	-0.06955196
54	0x3e2c8267	0.1684662
55	0xbdcca60e	-0.0999261
56	0x3dfd23b4	0.123603255
57	0x3ad64009	0.0016345988
58	0x3aefe568	0.0018302621
59	0xbe4c65c8	-0.19960701
60	0x3c37ee14	0.011226196
61	0xbe0b69d4	-0.13614589
62	0xbd1a1d40	-0.03762555
63	0x3d64a757	0.05582365
64	0xbcffe85f	-0.031238733
65	0x3e19d37e	0.15022084
66	0xbbc71559	-0.006075543
67	0x3d98c549	0.07459504
68	0xbe05294e	-0.13004038
69	0x3dabb8b8	0.08384842
70	0x3b061da7	0.0020464452
71	0x3cd379fa	0.025814999
72	0x3e5c967e	0.21541783
73	0xbcab134f	-0.02088323
74	0xbdd095be	-0.10184811
75	0x3d946ab9	0.07246918
76	0x3d8e3d2d	0.06945262
77	0x3d310b76	0.04322382
78	0xbc1afa70	-0.009459123
79	0x3cf1f4e6	0.029535722
80	0xbd726448	-0.059177667
81	0x3d1bdc59	0.038051937
82	0xbdafcfe7	-0.08584576
83	0xbd260759	-0.04053435
84	0xbdf30e93	-0.11868014
85	0x3d10f6e0	0.03539169
86	0x3dc128f1	0.09431637
87	0x3d381f1a	0.044951536
88	0x3d6168dd	0.055031646
89	0xbd8b331b	-0.06796857
90	0x3e3815a4	0.17977005
91	0xbd1495ba	-0.036275603
92	0x3c27a8a6	0.01023308
93	0xbd1ccc23	-0.038280617
94	0x3cefc8cd	0.029270554
95	0xbd8b5362	-0.068030134
96	0xbd3ed548	-0.04659012
97	0x3d9414cd	0.0723053
98	0xbe436022	-0.1907964
99	0x3d9e85e9	0.07740385
100	0x3d039923	0.032128464
101	0x3e3d589c	0.18490833
102	0x3d045f68	0.03231755
103	0xbe014c87	-0.12626849
104	0xbd4286aa	-0.047491707
105	0xbdee17ab	-0.11625608
106	0x3bf23a94	0.007392237
107	0x3dff2a0b	0.12459191
108	0xbe60f3a7	-0.21967946
109	0x3e1ffbdf	0.15623425
110	0x3d5e05a4	0.054204598
111	0x3e1fa650	0.15590787
112	0x3beb2342	0.007175834
113	0x3e813937	0.25238964
114	0xbd337f7b	-0.043822747
115	0x3e2b489b	0.16726916
116	0x3d08d1ea	0.033403315
117	0x3cdc5bfa	0.026899327
118	0x3d80c190	0.06286919
119	0x3e335bcb	0.17515485
120	0xbc703e91	-0.0146633545
121	0xbcfab7b9	-0.030605184
122	0xbab5efbe	-0.0013880653
123	0x3c999f1d	0.018752629
124	0x3ddb2640	0.10700655
125	0xba793446	-0.00095063855
126	0xbce8fe73	-0.028441643
127	0xbd998c42	-0.07497455
128	0x3de8aebe	0.113614544
129	0xbd8eeb66	-0.069784924
130	0x3d7d61eb	0.06186096
131	0xbd92bdb5	-0.0716509
132	0x3dc4f020	0.09616113
133	0x3df6ecd6	0.120568916
134	0x3d5418c1	0.05178142
135	0xbd7250e0	-0.05915916
136	0xbce1c074	-0.02755759
137	0xbdddb3c2	-0.10825302
138	0x3c611d4f	0.013739898
139	0x3d840a56	0.06447284
140	0xbdb46dc7	-0.08810001
141	0x3e087324	0.13325173
142	0xbd18c336	-0.037295543
143	0xbe49facd	-0.19724579
144	0x3bdf9568	0.0068232305
145	0x3b28164a	0.002564805
146	0x3d475e5d	0.048673976
147	0x3e21c70f	0.15798591
148	0xbdb8fa0f	-0.0903207
149	0x3d0ac133	0.033875655
150	0xbe049cf9	-0.12950505
151	0x3c01ee1a	0.007930303
152	0xbcd223f9	-0.025651919
153	0x3a86983c	0.0010268758
154	0x3cb4e088	0.022079721
155	0xbc6ca9b0	-0.0144447535
156	0x3de078bc	0.10960528
157	0x3d054c45	0.03254344
158	0x3d893a4f	0.067005746
159	0x3f190e4e	0.5978745
160	0xbc764b30	-0.015032575
161	0xbc1f20c7	-0.009712405
162	0xbcf50644	-0.029910214
163	0xbda4c8da	-0.08046122
164	0xbe8176d6	-0.25285977
165	0x3f29ffc8	0.66405916
166	0x3b0a0bc6	0.0021064146
167	0x3d0fabdd	0.03507601
168	0xbe1b9de7	-0.15196954
169	0xbe03d3ac	-0.12873715
170	0xbedcfafa	-0.4316023
171	0xbd615939	-0.05501673
172	0x3cbe4973	0.023228383
173	0xbd87a590	-0.066233754
174	0x3dca117f	0.09866618
175	0x3ddbe54e	0.10737096
176	0xbbdb9eac	-0.006702265
177	0x3d39b86c	0.045341894
178	0xbd627ab0	-0.055292785
179	0xbd6de7b6	-0.058082305
180	0x3df3ab00	0.1189785
181	0xbe444773	-0.1916788
182	0x3d21a53e	0.039464228
183	0x3bd71f80	0.0065650344
184	0xbb28df5b	-0.0025767896
185	0x3df25993	0.11833491
186	0xbbe8d290	-0.007105179
187	0x3db3a9cb	0.0877262
188	0xbd2aab92	-0.04166753
189	0x3b2c02e5	0.0026246842
190	0x3cb5c607	0.022189153
191	0x3b0ddf9c	0.0021648174
192	0xbd479888	-0.04872945
193	0xbdb810ee	-0.08987604
194	0xbd4ec2d2	-0.050478764
195	0x3d3994df	0.04530799
196	0xbdd1e6e8	-0.1024912
197	0x3dec0412	0.11524214
198	0xbce4cead	-0.027930582
199	0xbe79ca43	-0.24393563
200	0xbb07978d	-0.0020689697
201	0x3da5989c	0.080857486
202	0x3d2007f5	0.03907009
203	0x3c7ac7e7	0.0153064495
204	0xbc86aff3	-0.016441321
205	0xbe347c3f	-0.17625521
206	0x3df6d3ce	0.12052117
207	0x3da6cd7a	0.0814466
208	0x3d8a3854	0.06749025
209	0x3d20157d	0.039082993
210	0x3da959fd	0.08269117
211	0x3db4ea23	0.088337205
212	0x3d84f6cc	0.06492385
213	0x3e23201b	0.15930216
214	0x3da454ce	0.08023988
215	0x3d65244e	0.055942826
216	0x3c4818ac	0.0122129135
217	0xbdeb1e4c	-0.11480388
218	0xbd382e21	-0.044965867
219	0x3dcf57b3	0.10124149
220	0x3b870499	0.004120421
221	0xbecb8981	-0.39753345
222	0x3e8e845c	0.27835357
223	0xbc042ff4	-0.008068074
224	0xbd2e95b1	-0.042623226
225	0x3d8bf638	0.06834072
226	0xbd854a5d	-0.06508324
227	0x3cbb83a1	0.022889914
228	0x3e2c65ef	0.1683576
229	0x3c993661	0.018702688
230	0x3df36c86	0.118859336
231	0xbc16f068	-0.009212591
232	0x3dc05f21	0.093931444
233	0x3dbb3cab	0.09142431
234	0x3d19ac24	0.03751768
235	0xbdceb837	-0.1009373
236	0xbcdcf5ac	-0.026972614
237	0x3db2c802	0.08729555
238	0xbc4fa5d2	-0.012673812
239	0xbd9818fc	-0.074266404
240	0xbd48fe0f	-0.049070414
241	0x3db8d8d5	0.090257324
242	0xbd31ccb8	-0.043408126
243	0xbd57381e	-0.052543752
244	0x3e026002	0.12731937
245	0x3df6be5c	0.12048027
246	0x3d9434be	0.07236622
247	0x3ddde79f	0.10835194
248	0x3d6c1a2a	0.05764214
249	0xbd24b871	-0.04021496
250	0xbd81ff8c	-0.0634757
251	0x3d8f36ea	0.06992896
252	0xbd65bab1	-0.056086246
253	0x3dac04a9	0.08399326
254	0xbc3e6add	-0.011622158
255	0xbd96609a	-0.07342644

fc_hidden.bias f4 [100]
0	0x3ced0438	0.028932676
1	0x3d839503	0.06424906
2	0x3ccb6d7e	0.024832483
3	0x3d7fe9a4	0.062478676
4	0x3d5ec1bc	0.05438398
5	0x3cb24b6e	0.021764483
6	0x3d2f6834	0.042823985
7	0xbd7f14fa	-0.062275864
8	0x3cca9863	0.024730867
9	0x3bbc9698	0.005755257
10	0xbd77dea0	-0.060515046
11	0x3db38d1b	0.08767148
12	0x3dcf57c6	0.10124163
13	0x3ac76dd5	0.0015215228
14	0xbdd8f3ed	-0.105934
15	0x3c76f08f	0.015072002
16	0x3d24893e	0.040169947
17	0xbd5238da	-0.05132375
18	0xbd896d3b	-0.06710287
19	0x3c81f673	0.015864586
20	0xbc0afe47	-0.008483476
21	0x3d2c70e8	0.042099863
22	0x3d057c50	0.032589257
23	0x3d123ae2	0.035700686
24	0x3d28bfee	0.041198663
25	0xbcc85e8e	-0.02445915
26	0x3b800ee3	0.0039080246
27	0x3e0442f0	0.1291616
28	0x3c9a1d0c	0.018812679
29	0x3d8d71d2	0.06906475
30	0xbd768281	-0.060183052
31	0x3d51c272	0.051210828
32	0xbde8a693	-0.113598965
33	0x3dbfb881	0.09361363
34	0x3cd7a854	0.026325382
35	0xbbcc8650	-0.0062415972
36	0xbd70e049	-0.058807645
37	0x3d4d12a3	0.0500666
38	0x3d4d703a	0.050155856
39	0xbd70f26a	-0.058824934
40	0xbd6b08a0	-0.057381272
41	0x3d4e6fd7	0.050399628
42	0x3daa79de	0.083240256
43	0xbbcc0b58	-0.006226938
44	0xbd839356	-0.064245865
45	0xbc4a926f	-0.012364014
46	0xbcb99883	-0.022655731
47	0x3d599e26	0.053129338
48	0x3d94bade	0.072622046
49	0xbd83fdf9	-0.06444926
50	0x3d324c74	0.043529943
51	0x3d12a4de	0.03580176
52	0xbdb1af42	-0.08676006
53	0x3d4bd4f0	0.04976362
54	0x3b914631	0.0044334163
55	0x3da07572	0.07834901
56	0xbdd2d8ff	-0.10295295
57	0x3d7d58f0	0.061852396
58	0xbcaaaef0	-0.02083537
59	0xbdaedae8	-0.08537847
60	0xbd699d7b	-0.05703495
61	0x3ddf39f0	0.108997226
62	0x3d392624	0.04520239
63	0x3db789f0	0.08961856
64	0xbc8677e6	-0.016414594
65	0x3db840e9	0.08996756
66	0x3d630849	0.055427823
67	0xbd5a7d06	-0.053341888
68	0xbdd0befd	-0.10192678
69	0xbdb09828	-0.086227715
70	0x3c5af2cd	0.013363552
71	0xbd92a6f7	-0.07160752
72	0x3d9d421e	0.076786265
73	0x3c18a425	0.009316479
74	0x3d8a579d	0.06754992
75	0x3d7c7816	0.06163796
76	0xbd4e0fa5	-0.05030789
77	0xbd95cc3b	-0.073143445
78	0xbde2eac0	-0.11079931
79	0xbd58bbf3	-0.052913617
80	0x3c61944e	0.013768269
81	0xbcf24ab2	-0.029576633
82	0xbd485efe	-0.048918717
83	0x3d4281be	0.047487013
84	0x3c8fb3a4	0.017541714
85	0x3d7aab82	0.06119872
86	0x3dcfb0cd	0.10141144
87	0xbdd6abec	-0.1048201
88	0x3c069ee1	0.008216591
89	0x3d0393a7	0.032123234
90	0xbde0a1af	-0.10968339
91	0xbd69ad45	-0.05705001
92	0xbdc58a78	-0.096455514
93	0x3c090a57	0.008364282
94	0x3d7eedd6	0.062238537
95	0x3dd7ee82	0.10543539
96	0xbd5c0063	-0.053711306
97	0x3daa9acd	0.08330307
98	0xbc8ae831	-0.01695642
99	0x3c9ed7fb	0.019390097

fc_out.weight f4 [1, 100]
0	0xbdb05a37	-0.08610957
1	0xbe44442b	-0.19166629
2	0xbd86ccb2	-0.06582011
3	0x3dbbac77	0.091637544
4	0xbd08fa66	-0.033441924
5	0x3e275c4d	0.16343804
6	0x3e140545	0.14455135
7	0xbdec6282	-0.115422264
8	0x3e0602a9	0.13086952
9	0xbe3b258f	-0.18276046
10	0x3e0ec8d1	0.13943793
11	0x3dc18d0c	0.09450731
12	0xbdfb5872	-0.12272729
13	0xbe702e51	-0.23455168
14	0x3e137ce4	0.1440311
15	0xbde24df7	-0.11050027
16	0x3df6268f	0.12019073
17	0x3e0d1e44	0.13781077
18	0xbd9a49b6	-0.075335905
19	0xbd22e912	-0.039773054
20	0xbde94d0a	-0.11391647
21	0x3ea81d9d	0.32835093
22	0xbe5994fe	-0.21248242
23	0x3e30b944	0.17258173
24	0xbdda50d5	-0.10659949
25	0xbd8b22dd	-0.06793759
26	0xbdc8a8f0	-0.09797847
27	0x3d421266	0.047380827
28	0xbda3f13d	-0.08004997
29	0x3de9207e	0.113831505
30	0xbdc85b23	-0.09783008
31	0xbdccfb3d	-0.100088574
32	0xbdcba75f	-0.09944033
33	0x3c984036	0.018585306
34	0x3cda939c	0.026681714
35	0x3e09d4b3	0.13460045
36	0x3bd67e6c	0.0065458324
37	0xbde60cee	-0.11232935
38	0x3dc015d6	0.09379165
39	0x3e0ad636	0.13558277
40	0xbdab5da0	-0.08367467
41	0xbdfa1319	-0.12210674
42	0x3d9eaf43	0.07748272
43	0x3e1de02c	0.15417546
44	0xbe02e692	-0.12783268
45	0xbdbdd355	-0.09268824
46	0xbda0e408	-0.078559935
47	0xbdaaccd0	-0.08339846
48	0xbdab38d3	-0.08360448
49	0xbd97c346	-0.07410292
50	0x3dd85ed3	0.10564961
51	0xbdc6cc23	-0.09706905
52	0xbd90e5bf	-0.070750706
53	0x3c9ed5f4	0.01938913
54	0xbe12d1db	-0.14337866
55	0x3dcf8a19	0.10133762
56	0xbdd020bd	-0.10162494
57	0x3dd24949	0.10267884
58	0xbde068a1	-0.109574564
59	0x3c52268e	0.012826575
60	0x3d8025e5	0.06257228
61	0x3e18e896	0.14932474
62	0xbde5303e	-0.11190842
63	0xbdfbf5a3	-0.12302711
64	0xbde192c3	-0.11014321
65	0x3bbb0591	0.0057074507
66	0x3ccf40e1	0.025299491
67	0xbe09d2b1	-0.13459279
68	0x3dce758e	0.100810155
69	0x3dae46e1	0.08509613
70	0xbcd95d16	-0.026533645
71	0xbdc7a6c3	-0.09748604
72	0xbe4ee0d1	-0.20202948
73	0x3dc23a0e	0.09483729
74	0x3dc76dc1	0.09737731
75	0xbde2f4f4	-0.11081877
76	0x3e07ad01	0.1324959
77	0xbe3b14e6	-0.18269691
78	0x3d790758	0.06079802
79	0xbe0c70cd	-0.13714905
80	0xbe0d20a5	-0.13781984
81	0x3e02f5fb	0.12789147
82	0x3df43a69	0.11925203
83	0x3dc77f57	0.09741085
84	0x3d7c2081	0.061554436
85	0x3d968d66	0.07351188
86	0xbe0dc9de	-0.13846537
87	0x3d82b0e4	0.063813955
88	0x3cffbd78	0.031218275
89	0x3dd5e619	0.10444278
90	0xbdf745f1	-0.12073887
91	0xbde5e80d	-0.11225901
92	0x3d7e6b33	0.062113952
93	0x3dc9e69d	0.09858439
94	0xbc9616c7	-0.018321408
95	0x3cf2cfc3	0.029640084
96	0xbd47c074	-0.048767522
97	0xbde38aae	-0.111104354
98	0x3e33e5cd	0.17568131
99	0xbddec720	-0.10877824
