Copula by Ratio Estimation/2d_exp/model_parameters_NNet_ratio_25_runs_4copulas_2Dexperiment_ok/NNet_ratio_run_8_cop_u_1_ok.pt (torch, 45088 bytes, 5 tensors)

fc_in.weight f4 [100, 2]
-0.35393724 -0.37415585 -0.3266885 -0.28038695 0.8026257 0.65898734 0.6063893 0.049775913
-0.16522205 -0.56053454 0.04816728 0.099424206 -0.235381 -0.40914595 -0.06213446 0.6349521
0.5908715 0.35369748 -0.35799304 0.57438636 0.3824329 -0.76614094 0.2579095 0.35412264
-0.2550691 0.404874 -0.24475501 -0.20426472 0.038659424 0.5798928 -0.45028222 -0.5478597
0.6579153 -0.6625346 -0.16586754 0.3868508 -0.44573876 0.18426661 -0.2022356 0.6198447
-0.071933925 0.4927218 0.15294306 -0.11375124 -0.20785739 -0.12946746 -0.3269548 0.38208142
-0.22971225 0.42242214 0.076295145 0.4685482 0.7293919 -0.3142996 -0.34936506 -0.11301767
-0.6537776 0.5904897 -0.68892395 -0.68938255 0.45691296 0.007393096 -0.7221837 -0.57208467
-0.055059377 -0.12949711 0.6794299 0.3996289 -0.6598815 0.05554561 -0.17314127 -0.51941097
0.53839946 -0.46167612 -0.67180645 -0.6239575 0.10129072 -0.2912168 -0.51485705 -0.22335579
0.2637358 0.4429566 0.43923375 0.026756914 -0.22359613 -0.43246523 -0.6618597 0.59742624
-0.59924793 0.40791243 0.015838448 0.50340194 -0.68337697 0.46771345 0.1310233 -0.5127648
0.4735401 -0.5928542 0.52752525 0.30339047 0.4431059 0.6683148 0.6059206 0.597239
0.38098243 0.31066003 -0.5916511 0.34065756 0.033669688 0.36179316 -0.15930425 0.2530059
0.35305765 0.6010742 -0.28521192 0.5055816 -0.6177857 -0.42093778 -0.4408348 -0.35815296
0.3497549 -0.5733084 -0.65390426 -0.51438993 0.415898 0.52373433 -0.0046288874 0.5989207
-0.49662983 -0.54307824 -0.020158013 0.7921837 -0.30736992 0.41938463 -0.38636354 0.041191828
0.63595706 -0.060652867 0.04808294 -0.49308947 -0.45395008 0.26407254 -0.36867934 0.3913199
0.3508589 0.4659076 0.077326566 -0.026130203 -0.4295571 -0.25938118 -0.122225 0.4057559
-0.6705095 -0.54639184 -0.22602329 0.48828653 0.7193645 0.29299507 -0.09855504 -0.13965805
-0.340969 -0.2666263 0.20361486 -0.42886284 0.8701615 0.012151724 0.43673527 0.3409111
0.6347243 0.24448897 0.107800424 -0.042193126 -0.16047484 0.6426621 0.5983196 -0.7301633
0.26506507 -0.41030735 -0.62833035 0.085474394 0.19943419 0.6814133 -0.37095156 0.29253092
-0.252835 -0.39267996 0.69621915 0.23862585 -0.7493878 0.09232758 0.45922786 -0.6897469
0.01616867 -0.43248555 0.57012373 -0.3199643 -0.4659198 -0.0912319 -0.39872295 -0.018321518
00000000: 4337 b5be 5b91 bfbe b743 a7be e18e 8fbe
00000010: e178 4d3f 65b3 283f 543c 1b3f d4e1 4b3d
00000020: f82f 29be 317f 0fbf 0e4b 453d eb9e cb3d
00000030: b807 71be 947b d1be b480 7ebd 398c 223f
00000040: 5b43 173f d617 b53e dd4a b7be fc0a 133f
00000050: 3fce c33e d021 44bf b70c 843e 904f b53e
00000060: 6b98 82be a54b cf3e 0fa1 7abe c52a 51be
00000070: 5859 1e3d db73 143f 648b e6be 8940 0cbf
00000080: 236d 283f de9b 29bf 2ed9 29be 4f11 c63e
00000090: df37 e4be 63b0 3c3e d916 4fbe 24ae 1e3f
000000a0: 1852 93bd 0846 fc3e 1b9d 1c3e 69f6 e8bd
000000b0: 91d8 54be 1e93 04be 9f66 a7be 2da0 c33e
000000c0: b039 6bbe b747 d83e a140 9c3d 8de5 ef3e
000000d0: 6db9 3a3f e1eb a0be fadf b2be cf75 e7bd
000000e0: f85d 27bf 552a 173f 525d 30bf 607b 30bf
000000f0: 7ff0 e93e c941 f23b 08e1 38bf 2474 12bf
00000100: f185 61bd e49a 04be 1eef 2d3f 299c cc3e
00000110: feed 28bf cb83 633d f24b 31be 1ef8 04bf
00000120: 8cd4 093f d060 ecbe 82fb 2bbf aebb 1fbf
00000130: 8271 cf3d 5e1a 95be accd 03bf 61b7 64be
00000140: 6108 873e 35cb e23e 3fe3 e03e 5131 db3c
00000150: 62f6 64be 156c ddbe a36f 29bf edf0 183f
00000160: 5068 19bf e6d9 d03e a2bf 813c f3de 003f
00000170: cbf1 2ebf 2378 ef3e f92a 063e 8e44 03bf
00000180: d973 f23e 4bc5 17bf e50b 073f ff55 9b3e
00000190: c7de e23e ae16 2b3f 9d1d 1b3f a8e4 183f
000001a0: 2110 c33e d50e 9f3e 7276 17bf ab6a ae3e
000001b0: 3ae9 093d f43c b93e a720 23be fd89 813e
000001c0: f9c3 b43e 00e0 193f 4c07 92be cc6d 013f
000001d0: 3427 1ebf 2885 d7be 19b5 e1be d35f b7be
000001e0: 1313 b33e 57c4 12bf 4566 27bf 0faf 03bf
000001f0: 95f0 d43e 7413 063f ecad 97bb de52 193f
00000200: 4446 febe 2d07 0bbf 6b22 a5bc 8dcc 4a3f
00000210: 975f 9dbe 95b9 d63e 71d1 c5be c3b8 283d
00000220: 15ce 223f 246f 78bd 9ef2 443d 3976 fcbe
00000230: 256c e8be 8434 873e 8ac3 bcbe 155b c83e
00000240: c7a3 b33e 718b ee3e 645d 9e3d 020f d6bc
00000250: e9ee dbbe 9ccd 84be 1a51 fabd 3dbf cf3e
00000260: 83a6 2bbf 56e0 0bbf a672 67be b100 fa3e
00000270: 4628 383f 7303 963e 3ad7 c9bd 8502 0fbe
00000280: 7d93 aebe 3e83 88be 6a80 503e e993 dbbe
00000290: e7c2 5e3f 0618 473c c49b df3e e68b ae3e
000002a0: 4b7d 223f 515b 7a3e 78c6 dc3d b3d2 2cbd
000002b0: 8453 24be 8185 243f 792b 193f fbeb 3abf
000002c0: 9cb6 873e ce13 d2be 42da 20bf 330d af3d
000002d0: 7a38 4c3e 1a71 2e3f 5ded bdbe 9dc6 953e
000002e0: 9773 81be 590d c9be 6b3b 323f 565a 743e
000002f0: e1d7 3fbf 3e16 bd3d ea1f eb3e 4193 30bf
00000300: 2974 843c bf6e ddbe a1f3 113f 5cd2 a3be
00000310: 0a8d eebe cad7 babd 6a25 ccbe 0217 96bc

fc_in.bias f4 [100]
0.05098371 0.26414022 0.48236385 -0.73116064 0.5864618 0.41883722 -0.6173265 -0.26629186
-0.62162215 -0.6075301 0.3836497 -0.75083995 0.5806291 -0.47191858 -0.6455181 -0.2924246
-0.3016015 0.39059108 -0.65469754 0.13432905 0.2015028 0.050109502 -0.5047535 -0.7049502
-0.48139817 0.7230781 -0.06814823 0.41050693 -0.21181883 0.66894186 0.25894552 0.43132746
-0.66775036 -0.54693437 -0.5975846 -0.31067136 -0.68225485 -0.7006769 -0.33156174 -0.3330951
-0.45902997 -0.3351643 -0.75354767 -0.36233544 0.074360155 0.6837518 0.36513987 0.64094836
0.5525277 0.67985755 0.5745821 0.2738328 0.28477436 -0.13281982 -0.3825189 0.6463163
-0.61860436 -0.45196036 0.31224117 0.7194955 0.35262695 -0.35942018 0.58595127 -0.21456173
0.13054019 0.1967493 0.11192174 -0.49809298 -1.0602924 0.45733196 -0.52529 -0.2552499
0.77117914 -0.5214701 0.18029526 -0.38174543 0.67609924 -0.1462965 0.6454035 -0.14353672
-0.1803677 -0.19676097 0.23145445 0.08241888 0.2684025 -0.48260736 -0.22210388 -0.48786235
0.5103562 0.16065325 -0.7108614 0.18421428 -0.7232755 -0.62927306 -0.6633905 0.5797583
-0.5342237 -0.5126813 0.47859073 -0.38772705
00000000: 4bd4 503d 633d 873e 65f8 f63e 582d 3bbf
00000010: 5c22 163f d571 d63e 1c09 1ebf 6857 88be
00000020: a122 1fbf 1887 1bbf bc6d c43e 0c37 40bf
00000030: 1ca4 143f 509f f1be ad40 25bf adb8 95be
00000040: 836b 9abe 8efb c73e 429a 27bf 8e8d 093e
00000050: c056 4e3e 9f3f 4d3d 8637 01bf 9e77 34bf
00000060: d279 f6be a51b 393f 4d91 8bbd f72d d23e
00000070: 09e7 58be c63f 2b3f 8294 843e f4d6 dc3e
00000080: b0f1 2abf e403 0cbf 4efb 18bf 5110 9fbe
00000090: 41a8 2ebf 905f 33bf 76c2 a9be 718b aabe
000000a0: fa05 ebbe a89a abbe 80e8 40bf 0884 b9be
000000b0: 234a 983d 5c0a 2f3f 9df3 ba3e 3115 243f
000000c0: 7572 0d3f 250b 2e3f d017 133f d033 8c3e
000000d0: f2cd 913e eb01 08be 84d9 c3be fc74 253f
000000e0: db5c 1ebf 5967 e7be 13de 9f3e db30 383f
000000f0: 858b b43e ec05 b8be e700 163f 12b6 5bbe
00000100: 54ac 053e a678 493e 3a37 e53d 0b06 ffbe
00000110: a9b7 87bf 6a27 ea3e 6879 06bf 1db0 82be
00000120: ff6b 453f 117f 05bf 529f 383e 2374 c3be
00000130: d714 2d3f c0ce 15be 2a39 253f 4afb 12be
00000140: 4fb2 38be b57b 49be 6502 6d3e 3bcb a83d
00000150: 0d6c 893e 5018 f7be 336f 63be 18c9 f9be
00000160: b4a6 023f 4982 243e 03fb 35bf aba2 3c3e
00000170: 9528 39bf 0a18 21bf f6d3 29bf 0a6b 143f
00000180: e2c2 08bf 153f 03bf d809 f53e 2984 c6be

fc_hidden.weight f4 [100, 100]
0.05796985 -0.034419123 -0.018474799 -0.061963294 0.058186255 -0.08428459 0.0349361 0.025105253
0.051412225 -0.12797539 -0.080318406 0.07181963 -0.040171254 0.11294986 -0.03893269 0.041306265
-0.049499936 -0.033239946 -0.16070117 -0.017255194 -0.1471639 0.009914 -0.031440448 0.20957533
0.02098756 -0.09339873 -0.12370257 -0.041042913 0.0017728881 0.022239882 -0.011407638 0.061955947
-0.104183055 -0.13417894 -0.007216542 -0.03500879 -0.017814578 -0.0032981676 -0.3237625 0.005801416
0.028429195 0.08359528 -0.04913177 -0.13397822 0.03909604 -0.03274267 -0.041047703 0.05638338
-0.008698624 0.013963387 -0.14279148 0.06730502 0.018118456 -0.054106507 -0.21025924 0.079303086
0.092086166 0.010426282 0.05631201 -0.08238458 0.038119566 0.06896156 0.081256196 0.09167953
0.05032836 -0.07123765 -0.06485524 0.048276722 0.01460645 0.09411681 -0.039100375 0.031639647
-0.14856136 -0.031634297 0.07119778 0.037105743 0.0008076237 -0.009236667 -0.039506838 -0.03242992
0.09277087 -0.060723495 0.030146789 0.04759343 -0.042136867 -0.023809422 -0.060115274 -0.08801443
-0.09374029 -0.0723003 0.047388274 -0.09573824 -0.0023698108 0.042726602 0.10925407 0.054432627
-0.10871954 0.0427176 0.033919897 -0.03176675 -0.06768778 -0.015440684 0.07960675 -0.21406044
-0.058514882 0.054944135 -0.061935864 -0.020692958 0.11584896 -0.09936373 -0.04780617 -0.06472509
-0.09341771 0.008562068 -0.041440014 -0.10886453 0.08312961 0.062658444 0.0055258973 0.043652263
-0.04136545 0.03000134 -0.0375359 0.1304602 0.05895556 -0.019028237 -0.10245953 -0.14079577
0.04339864 -0.17342424 0.07161376 0.0059538465 -0.054740842 -0.05288091 0.33095703 -0.05124571
-0.0645152 0.055632606 -0.27872333 0.07833865 0.09694663 -0.012091248 -0.02100764 0.09302621
-0.0716923 -0.028765561 0.04591518 -0.078863084 0.036787376 0.05530199 -0.020704683 0.107810386
0.07862228 0.055712886 0.089612216 0.0058504133 0.104288474 0.008510766 0.024993693 -0.16513151
0.09641638 -0.102537245 0.021278935 0.057985615 0.045613933 0.012515307 0.06714834 0.10088232
0.234658 0.008323257 0.13470925 0.12197505 -0.06296903 0.012791174 0.03950082 0.14814883
0.068139054 -0.028689384 0.08126232 -0.01960724 0.0061517493 -0.15742666 -0.06493441 -0.05299198
-0.035065725 -0.067457296 -0.08846711 -0.10391665 -0.08303248 0.038030714 0.11873444 -0.049097788
-0.031800028 0.08399376 0.05916489 0.008992726 -0.05847715 0.07415929 -0.11994466 0.008307894
0.093946114 -0.069014885 0.03545218 0.16907063 -0.035134204 -0.00891976 0.016300842 0.095134094
-0.00027525332 0.012821431 -0.0041970145 0.08969498 0.09437968 -0.07109384 0.065750904 -0.023708904
0.0418745 -0.04564771 0.0733015 -0.03923536 -0.08315192 0.12886545 0.046144694 -0.104169756
-0.05192762 -0.076822706 0.09753468 -0.011492331 0.09782021 -0.0454731 0.011534774 0.0561371
0.03599968 -0.07919009 -0.016877487 -0.051455114 0.09091945 -0.06858449 0.20229806 0.0098241065
-0.052482642 0.059088726 0.013153429 -0.07568837 -0.008062118 0.10085646 0.09557754 -0.07990539
0.080660746 -0.041058823 -0.086869806 0.059603125 -0.097203836 -0.018992672 0.07346562 0.038717765
00000000: cb71 6d3d 11fb 0cbd 7658 97bc 39cd 7dbd
00000010: b654 6e3d 669d acbd 2819 0f3d 88a9 cd3c
00000020: a095 523d fb0b 03be fa7d a4bd 2c16 933d
00000030: 9d8a 24bd 4252 e73d e277 1fbd c230 293d
00000040: 72c0 4abd 9c26 08bd d98e 24be c45a 8dbc
00000050: 22b2 16be 546e 223c b3c7 00bd ea9a 563e
00000060: 1aee ab3c d547 bfbd c657 fdbd 9d1c 28bd
00000070: 4160 e83a 6a30 b63c 1ae7 3abc 85c5 7d3d
00000080: ed5d d5bd 3466 09be be78 ecbb 6165 0fbd
00000090: e1ef 91bc 1226 58bb 33c4 a5be ce19 be3b
000000a0: 58e4 e83c 0134 ab3d 653e 49bd 9631 09be
000000b0: 2b23 203d 2e1d 06bd a321 28bd 42f2 663d
000000c0: ac84 0ebc b1c6 643c ee37 12be 37d7 893d
000000d0: 286d 943c c99e 5dbd 334e 57be a869 a23d
000000e0: ac97 bc3d ffd2 2a3c 6ca7 663d 3fb9 a8bd
000000f0: 4323 1c3d b83b 8d3d a669 a63d 7ac2 bb3d
00000100: 1c25 4e3d 0ce5 91bd d3d2 84bd d0bd 453d
00000110: e44f 6f3c 50c0 c03d b727 20bd 9398 013d
00000120: 7820 18be f792 01bd 24d0 913d 31fc 173d
00000130: b6b6 533a 6455 17bc ecd1 21bd 3cd5 04bd
00000140: a7fe bd3d 33b9 78bd 66f6 f63c 54f1 423d
00000150: b597 2cbd fa0b c3bc 6f3b 76bd e940 b4bd
00000160: e9fa bfbd 2e12 94bd 351a 423d 6912 c4bd
00000170: d44e 1bbb 1702 2f3d 99c0 df3d bff4 5e3d
00000180: 5aa8 debd a6f8 2e3d 97ef 0a3d da1d 02bd
00000190: e49f 8abd ecfa 7cbc dd08 a33d a932 5bbe
000001a0: 4dad 6fbd 1a0d 613d 76b0 7dbd 4784 a9bc
000001b0: 3842 ed3d 367f cbbd 67d0 43bd 978e 84bd
000001c0: c951 bfbd eb47 0c3c 01bd 29bd 5ef4 debd
000001d0: db3f aa3d 1253 803d 9612 b53b b7cc 323d
000001e0: d16e 29bd 5fc5 f53c 3ebf 19bd 5c97 053e
000001f0: 637b 713d 1be1 9bbc 4dd6 d1bd c42c 10be
00000200: c6c2 313d 2096 31be 3caa 923d 7c18 c33b
00000210: ef37 60bd a799 58bd 3373 a93e 06e7 51bd
00000220: 8c20 84bd 04df 633d d3b4 8ebe 0470 a03d
00000230: f48b c63d 5f1a 46bc 3718 acbc 8784 be3d
00000240: 6ad3 92bd c1a5 ebbc 8e11 3c3d f882 a1bd
00000250: 5cae 163d 5784 623d de9c a9bc b1cb dc3d
00000260: b804 a13d 3233 643d 9c86 b73d d3b4 bf3b
00000270: 3295 d53d bd70 0b3c 93bf cc3c 3c18 29be
00000280: f375 c53d 0cff d1bd 2951 ae3c 5382 6d3d
00000290: add5 3a3d 010d 4d3c 1285 893d 649b ce3d
000002a0: 304a 703e 455e 083c 39f1 093e 0ece f93d
000002b0: e8f5 80bd 1392 513c 9dcb 213d 54b4 173e
000002c0: 7d8c 8b3d 0006 ebbc dc6c a63d 5d9f a0bc
000002d0: 9d94 c93b 7434 21be 55fc 84bd 1e0e 59bd
000002e0: 14a1 0fbd 0d27 8abd 3f2e b5bd 41d2 d4bd
000002f0: ef0c aabd 18c6 1b3d 0b2b f33d c31a 49bd
00000300: bf40 02bd ec04 ac3d e256 723d 3a56 133c
00000310: bc85 6fbd d3e0 973d 8ca5 f5bd d51d 083c
00000320: d266 c03d ad57 8dbd 4e36 113d da20 2d3e
00000330: e2e8 0fbd 2f24 12bc 5889 853c aad5 c23d
00000340: e04f 90b9 fb10 523c 1c87 89bb 00b2 b73d
00000350: 224a c13d a699 91bd 69a8 863d 2d39 c2bc
00000360: 9984 2b3d 18f9 3abd 191f 963d 42b5 20bd
00000370: 8e4b aabd 4ef5 033e 3802 3d3d f456 d5bd
00000380: 0eb2 54bd 3955 9dbd 43c0 c73d 544a 3cbc
00000390: f655 c83d 0042 3abd 59fc 3c3c 04f0 653d
000003a0: 6774 133d 6a2e a2bd a842 8abc 99c2 52bd
000003b0: fa33 ba3d 0676 8cbd 3927 4f3e 4af5 203c
000003c0: 0af8 56bd 0507 723d 7b81 573c 8102 9bbd
000003d0: f916 04bc d58d ce3d 28be c33d 70a5 a3bd
000003e0: 7631 a53d 4c2d 28bd cce8 b1bd 6822 743d
000003f0: ce12 c7bd 8596 9bbc 2575 963d 8596 1e3d

fc_hidden.bias f4 [100]
-0.03440862 -0.07417152 -0.005163122 0.11399252 -0.037301973 -0.00929192 -0.048640423 0.10718191
0.08517388 0.0026611383 -0.031172724 0.052854165 -0.043880817 -0.007953425 -0.05286642 -0.05601114
0.05539795 -0.1036417 0.003948343 0.037987728 -0.01575609 0.049840413 0.0441369 0.03754203
0.0309993 -0.08702049 0.013054356 0.05757913 0.019684369 -0.05882176 0.033355918 0.060362253
0.10527595 0.10678347 -0.0120163495 0.028849894 0.03217822 0.10695122 0.04727185 0.025776986
-0.093843564 -0.07312062 -0.06390318 0.09891352 0.010148294 0.01762945 0.03584632 0.07763672
-0.07947894 -0.020982975 0.0781966 0.024427058 0.101796575 0.055444695 0.020939933 -0.056367494
0.12611133 0.005485535 0.08519256 -0.021875944 0.0348133 0.04560015 -0.03610705 -0.06045554
0.06950129 -0.082886994 -0.02237773 0.0052999402 0.06843978 -0.060298394 0.09996656 -0.018444024
0.024261774 -0.06941964 -0.102415346 -0.0016249702 -0.04670606 0.019310653 -0.07291533 -0.07737044
-0.0064931912 -0.06340688 0.047623146 -0.15443455 0.07791843 0.042977836 0.0060211224 0.030563885
-0.05151976 0.019061392 0.05086307 0.029030154 0.07809195 0.07781846 0.11644756 -0.033927727
0.11319771 -0.07997648 -0.0130765885 -0.050097402
00000000: 0ef0 0cbd 3de7 97bd 682f a9bb e974 e93d
00000010: f4c9 18bd 233d 18bc 2e3b 47bd 3082 db3d
00000020: a56f ae3d 7e66 2e3b f15d ffbc 9c7d 583d
00000030: 5fbc 33bd 154f 02bc 768a 58bd f06b 65bd
00000040: f6e8 623d 1a42 d4bd 1a61 813b 0599 1b3d
00000050: ea12 81bc 7625 4c3d e5c8 343d acc5 193d
00000060: 3ef2 fd3c cc37 b2bd f0e1 553c 18d8 6b3d
00000070: 1d41 a13c 16ef 70bd 37a0 083d 693e 773d
00000080: eb9a d73d 4bb1 da3d 39e0 44bc 9d56 ec3c
00000090: 4fcd 033d 3e09 db3d 21a0 413d 422a d33c
000000a0: 0e31 c0bd 43c0 95bd acdf 82bd 2c93 ca3d
000000b0: 0845 263c a36b 903c 97d3 123d 0000 9f3d
000000c0: dbc5 a2bd 7de4 abbc 8a25 a03d 411b c83c
000000d0: b97a d03d fa19 633d 398a ab3c 9ae1 66bd
000000e0: 5423 013e 01c0 b33b 7079 ae3d 2e35 b3bc
000000f0: 6498 0e3d 39c7 3a3d fce4 13bd 3aa0 77bd
00000100: b156 8e3d a8c0 a9bd 8051 b7bc 1fab ad3b
00000110: 282a 8c3d 73fb 76bd 45bb cc3d ec17 97bc
00000120: a1c0 c63c e22b 8ebd 23bf d1bd f4fc d4ba
00000130: db4e 3fbd 6031 9e3c a254 95bd 6574 9ebd
00000140: d6c4 d4bb 77db 81bd 7d10 433d 1724 1ebe
00000150: b393 9f3d 8709 303d d64c c53b 1d61 fa3c
00000160: 6206 53bd a326 9c3c cb55 503d a5d0 ed3c
00000170: acee 9f3d 495f 9f3d 0f7c ee3d cdf7 0abd
00000180: 33d4 e73d b5ca a3bd 303f 56bc ef32 4dbd

fc_out.weight f4 [1, 100]
0.119536914 0.09885259 -0.07168804 -0.16258337 0.0746953 0.038279675 0.0024491476 0.08466064
0.10293721 -0.09606486 -0.12889515 0.03456071 0.09794953 -0.15600704 0.06320572 -0.105088495
0.005198118 0.057559215 -0.15825571 0.024970444 0.075835764 -0.11049063 -0.076145515 0.11694607
-0.1337687 0.030271173 -0.056640197 -0.015965402 -0.09492956 0.005022962 -0.12075208 0.050136812
0.10071843 -0.04788856 0.12825172 -0.07306448 0.02511197 0.11612037 -0.101032324 0.0958923
0.072633736 -0.0842627 0.0024908364 0.05008939 -0.071424365 0.0059164544 -0.11192008 0.0775773
-0.008281197 -0.07373857 -0.09331723 0.06311014 -0.08300504 -0.083969824 -0.19887048 0.03315075
0.13388467 0.11423931 -0.026857205 -0.09173108 0.06718678 -0.13747951 0.08382575 0.12188619
0.015229953 0.087754905 -0.015086159 0.122177765 0.03196586 0.06015571 0.013431714 -0.09796633
-0.02473923 -0.10267499 -0.06008456 0.10164129 -0.017069872 -0.17128769 -0.022901382 0.076857075
0.0722466 -0.06373166 -0.053862393 -0.10231448 0.056977138 0.029373754 -0.10650263 -0.13515171
0.07588877 0.050309937 0.17369834 -0.05116315 0.14122775 -0.07425108 0.055460047 -0.06784231
-0.07683062 0.031250685 0.08677858 -0.08170911
00000000: c5cf f43d 3a73 ca3d 2ed1 92bd 417c 26be
00000010: d9f9 983d 26cb 1c3d e181 203b 8f62 ad3d
00000020: bed0 d23d a7bd c4bd 17fd 03be 888f 0d3d
00000030: c399 c83d 4fc0 1fbe 0072 813d a338 d7bd
00000040: f954 aa3b 36c3 6b3d c90d 22be d18e cc3c
00000050: c84f 9b3d e948 e2bd 2ef2 9bbd 6c81 ef3d
00000060: a9fa 08be 40fb f73c 8dff 67bd e0c9 82bc
00000070: 6e6a c2bd a997 a43b de4c f7bd 425c 4d3d
00000080: 7745 ce3d cb26 44bd 6b54 033e d5a2 95bd
00000090: 9eb7 cd3c 84d0 ed3d 09ea cebd 2f63 c43d
000000a0: ffc0 943d ec91 acbd 4d3d 233b 882a 4d3d
000000b0: f046 92bd d1de c13b 5b36 e5bd d9e0 9e3d
000000c0: dcad 07bc 3f04 97bd 1b1d bfbd e43f 813d
000000d0: 8cfe a9bd 5ff8 abbd b4a4 4bbe 15c9 073d
000000e0: 1019 093e 4df6 e93d a403 dcbc 81dd bbbd
000000f0: 3999 893d 6ec7 0cbe d6ac ab3d 779f f93d
00000100: 0e87 793c d8b8 b33d f02b 77bc 5638 fa3d
00000110: a2ee 023d d565 763d b110 5c3c 92a2 c8bd
00000120: eda9 cabc 4447 d2bd 3a1b 76bd 4f29 d03d
00000130: 1ed6 8bbc 0a66 2fbe ae9b bbbc 3e67 9d3d
00000140: 07f6 933d bf85 82bd d09e 5cbd 418a d1bd
00000150: dc60 693d 3aa1 f03c 0d1e dabd 3665 0abe
00000160: 926b 9b3d cb11 4e3d fadd 313e 7490 51bd
00000170: 029e 103e f310 98bd 132a 633d e9f0 8abd
00000180: 5f59 9dbd b800 003d f8b8 b13d 1b57 a7bd
