Copula by Ratio Estimation/model_parameters_NNet_ratio_25_runs_4copulas_2Dexperiment/NNet_ratio_run_7_cop_u_1.pt (torch, 44588 bytes, 5 tensors)

fc_in.weight f4 [100, 2]
0	0xbf2c487c	-0.672981
1	0xbe8699d3	-0.26289234
2	0x3ef8e1eb	0.48609862
3	0x3ebc3069	0.36755684
4	0xbead1214	-0.33802855
5	0x3f05e3bf	0.5230064
6	0x3da2dd04	0.07952312
7	0xbe439a68	-0.1910187
8	0x3f2b876c	0.6700351
9	0x3cdbc684	0.026828058
10	0xbf08471b	-0.532335
11	0x3e7f1a63	0.2491241
12	0xbec238e6	-0.37934035
13	0xbf241aed	-0.64103585
14	0x3e8646f5	0.2622601
15	0x3ed98f8a	0.42492324
16	0x3e9c38b9	0.30512026
17	0x3ea2045c	0.3164395
18	0x3e5dc800	0.21658325
19	0xbebe754e	-0.3719887
20	0x3ed36d55	0.4129435
21	0x3c51fb50	0.012816265
22	0xbf0ba4b6	-0.54548204
23	0x3f17b884	0.59265924
24	0xbe17d9c8	-0.1482917
25	0xbd07172a	-0.032981075
26	0x3e264b73	0.16239719
27	0xbe7557fc	-0.23959345
28	0xbefb5f57	-0.49096176
29	0x3eaf514a	0.34241706
30	0x3d755e06	0.05990412
31	0xbf1ab513	-0.6043255
32	0xbe78206a	-0.24231115
33	0xbe2ae932	-0.1669052
34	0xbe5b30aa	-0.21405283
35	0xbe304d93	-0.17217092
36	0x3eacae48	0.33726716
37	0x3d99898a	0.074969366
38	0x3f01a294	0.506387
39	0xbc0a062b	-0.008424322
40	0xbeb8bc28	-0.36081052
41	0xbf2a6357	-0.6655783
42	0x3e2c2104	0.1680947
43	0x3f34d18a	0.7063223
44	0xbe428451	-0.18995787
45	0x3e18ca2c	0.14920872
46	0x3f1d9ee4	0.6157057
47	0xbdc67e89	-0.096921034
48	0xbf315036	-0.6926302
49	0x3f0b8ef8	0.5451503
50	0xbdd76891	-0.10517991
51	0x3e8e49a2	0.27790552
52	0xbf0d8311	-0.55278116
53	0xbef698d5	-0.48163477
54	0xbf2021c5	-0.6255153
55	0x3e035ec9	0.12829126
56	0xbed5068b	-0.41606554
57	0xbe67996f	-0.22617124
58	0xbd5e6658	-0.05429682
59	0xbd438009	-0.047729526
60	0x3de3d878	0.111252725
61	0xbe896037	-0.2683122
62	0x3ebb682d	0.36602917
63	0x3e9971ef	0.29969737
64	0xbeb2ee1c	-0.34947288
65	0x3ee129ea	0.4397729
66	0x3eb874e4	0.3602668
67	0x3f1c4e5f	0.61057085
68	0xbf1f2ab5	-0.6217454
69	0x3d9d2c31	0.076744445
70	0x3f3a68b0	0.7281599
71	0xbecd2060	-0.40063763
72	0x3f262b70	0.6491003
73	0x3f2d4e8e	0.6769799
74	0xbf1e1f6c	-0.61766696
75	0xbe984ea9	-0.29747513
76	0xbe7c3976	-0.24631295
77	0x3e60878a	0.21926704
78	0x3e1f5058	0.15557992
79	0x3f21a37b	0.63140076
80	0xbf314321	-0.69243056
81	0x3db65ea6	0.089047715
82	0x3e89e140	0.26929665
83	0x3e4b8fd4	0.19879085
84	0xbe15a23c	-0.14612669
85	0x3e859bd3	0.26095447
86	0xbeb5b656	-0.35490674
87	0x3eb9dfc2	0.36303526
88	0xbed7be9c	-0.4213761
89	0x3d8be409	0.06830604
90	0xbf3c7d72	-0.73628914
91	0x3ee6af74	0.45055735
92	0xbec98e0b	-0.39366183
93	0x3ed79896	0.421086
94	0xbee54fe4	-0.44787514
95	0xbde6ef6b	-0.11276134
96	0x3f2fcc9f	0.686716
97	0x3e6ec5d8	0.23317659
98	0xbedb0af6	-0.427818
99	0x3e0f54c4	0.1399718
100	0x3f1273a0	0.5720768
101	0x3ec83632	0.39103848
102	0xbf06a0ce	-0.5258912
103	0xbf2dd8db	-0.6790902
104	0xbf1ceacc	-0.6129577
105	0x3ee1aa5b	0.44075283
106	0xbef335d4	-0.47502005
107	0xbdcac17b	-0.09900185
108	0x3ea94509	0.33060482
109	0x3ea875f8	0.32902503
110	0x3eebfaba	0.46089727
111	0x3e8f7d63	0.2802535
112	0x3ed63b22	0.4184199
113	0xbed3282d	-0.4124159
114	0x3f2d3615	0.6766065
115	0xbde632e8	-0.11240178
116	0xbe94c1ba	-0.29054052
117	0xbe88b951	-0.26703885
118	0xbefc897b	-0.4932364
119	0xbf35db9f	-0.7103824
120	0x3eade448	0.33963227
121	0x3e362aa9	0.17789711
122	0x3d8b7e8d	0.06811247
123	0xbf2a9f8d	-0.66649705
124	0x3e02cd5c	0.12773651
125	0xbef9d8bd	-0.4879817
126	0x3f30e0df	0.69093126
127	0x3f07329b	0.5281159
128	0xbeaaee03	-0.33384714
129	0x3ef74b6b	0.48299727
130	0x3ef2675e	0.47344488
131	0x3e5df940	0.21677113
132	0x3d8644f1	0.06556118
133	0x3f2d5a6e	0.6771611
134	0x3e0e9d34	0.13927156
135	0xbeabc4ab	-0.33548483
136	0xbece613e	-0.40308565
137	0x3ecb72eb	0.39736113
138	0xbf028660	-0.5098629
139	0xbcabff92	-0.020995889
140	0xbf369c56	-0.713323
141	0xbe9655ca	-0.29362327
142	0x3df19b21	0.117971666
143	0xbe8738bb	-0.2641047
144	0x3ec3e5d1	0.38261274
145	0xbe14069a	-0.14455643
146	0xbee96c34	-0.45590365
147	0xbdab7772	-0.08372392
148	0x3ef35dd8	0.47532535
149	0xbd4139d1	-0.04717428
150	0x3ed54172	0.41651493
151	0xbeb26ccd	-0.34848633
152	0xbf039eef	-0.5141439
153	0x3e4568bf	0.19278239
154	0xbe8a1931	-0.26972345
155	0x3d9f5830	0.07780492
156	0xbd89ee3f	-0.06734895
157	0xbd4ae4f9	-0.04953477
158	0x3ec32e47	0.38121244
159	0xbeda7f5f	-0.426753
160	0x3e641a0b	0.2227556
161	0xbe9bebc5	-0.30453315
162	0x3df9e686	0.12202172
163	0x3ee30dd6	0.44346493
164	0x3ee1033f	0.4394779
165	0x3f294b19	0.66130215
166	0xbed29743	-0.4113103
167	0x3ebbd6d4	0.36687338
168	0x3e024f6b	0.12725608
169	0xbebc3692	-0.36760384
170	0xbf04b3d0	-0.5183687
171	0xbf1f1314	-0.62138486
172	0x3ef97f6b	0.48730025
173	0xbea916d9	-0.33025244
174	0xbe92aada	-0.28645974
175	0x3eb8b8f0	0.36078596
176	0x3ea8cd18	0.32968974
177	0x3edf59bd	0.43623152
178	0x3e161fdf	0.14660595
179	0xbeec8156	-0.46192425
180	0x3f091182	0.5354234
181	0x3ee1994e	0.44062275
182	0xbea64208	-0.32472253
183	0xbefdc23b	-0.4956225
184	0xbeb25017	-0.3482673
185	0x3f2ae1de	0.66750896
186	0xbe8ab8a6	-0.27094
187	0x3e9b66cb	0.30351862
188	0x3f5081b0	0.8144789
189	0x3f3144c5	0.6924556
190	0x3f05e99d	0.5230959
191	0x3defd171	0.1170987
192	0x3dd7803c	0.10522506
193	0xbf180570	-0.59383297
194	0xbf0c0fd4	-0.5471165
195	0x3efc7802	0.4931031
196	0x3eac9be7	0.33712694
197	0xbf43f8bd	-0.7655142
198	0xbf030e3f	-0.5119361
199	0xbecda4d5	-0.4016482

fc_in.bias f4 [100]
0	0x3e351ed6	0.17687544
1	0xbdfa8fa9	-0.12234432
2	0x3e885db2	0.26633984
3	0x3e792028	0.24328673
4	0xbf08da5e	-0.534582
5	0xbf120882	-0.5704423
6	0xbdec9f8b	-0.11553868
7	0xbeeb2eb1	-0.4593406
8	0x3e6a7057	0.22894417
9	0xbe6eb643	-0.23311715
10	0x3ebfb297	0.3744094
11	0x3f2692b6	0.65067613
12	0xbe1a1fc5	-0.15051182
13	0x3ef443c6	0.47707957
14	0x3f23c173	0.63967055
15	0x3db8841d	0.090095736
16	0xbf1b8848	-0.60754824
17	0xbf3d4e07	-0.73947185
18	0x3eb129e7	0.3460228
19	0xbd0ac44e	-0.033878617
20	0xbe16f102	-0.14740375
21	0xbee37d8c	-0.44431722
22	0xbe1f247d	-0.15541263
23	0x3e436076	0.19079766
24	0xbf10fffb	-0.56640595
25	0x3f02c444	0.5108073
26	0xbdf477b1	-0.11936892
27	0xbd3ab5e5	-0.045583624
28	0xbf23d156	-0.63991296
29	0xbdc6c67f	-0.09705829
30	0x3eb4743a	0.35244924
31	0x3c7fd7a1	0.015615375
32	0xbe630803	-0.22171025
33	0x3eea8cb7	0.45810482
34	0xbd4fa3db	-0.050693374
35	0xbdf7470f	-0.120741
36	0xbeb55103	-0.3541337
37	0x3f26c810	0.6514902
38	0xbe2cc7b5	-0.16873057
39	0x3eeae2f9	0.4587629
40	0x3b11d9bf	0.002225503
41	0xbf4bacac	-0.7956035
42	0x3f1c0c65	0.6095641
43	0xbd5c5fff	-0.053802487
44	0xbef3b4b1	-0.47598794
45	0x3dcb128e	0.099156484
46	0xbe424cd2	-0.18974617
47	0x3f078e84	0.52951837
48	0x3ee8259b	0.4534119
49	0xbde0d963	-0.10978963
50	0xbe6b7472	-0.22993639
51	0x3e36636a	0.17811361
52	0xbf2ffdf7	-0.68746895
53	0xbef810d6	-0.48450345
54	0xbe086efe	-0.1332359
55	0xbdc40e6e	-0.09573065
56	0x3d769c32	0.060207553
57	0xbec26ea8	-0.3797505
58	0xbea22de6	-0.31675643
59	0x3eb17b3c	0.34664333
60	0x3ee50fd5	0.4473864
61	0x3e83e4c7	0.2576048
62	0xbf3b322f	-0.7312345
63	0xbe337261	-0.17524101
64	0x3e8babf7	0.27279636
65	0xbea334dd	-0.3187627
66	0xbe25352a	-0.16133562
67	0x3edbdfd8	0.42944217
68	0xbd6d8a3d	-0.057993162
69	0xbea07fee	-0.31347603
70	0xbd053cbd	-0.032528628
71	0x3eb16d51	0.34653714
72	0xbf59c132	-0.8506042
73	0x3eb6e4a1	0.35721305
74	0xbcc858bd	-0.024456376
75	0x3de11773	0.10990801
76	0xbecb7c1f	-0.39743134
77	0x3e915edb	0.2839268
78	0x3e9061a3	0.2819949
79	0x3e73e547	0.23817931
80	0x3df0e76a	0.11762889
81	0xbf2e8ec1	-0.68186575
82	0xbf38f3b2	-0.7224685
83	0x3f02072c	0.50792193
84	0xbf28c5a0	-0.6592655
85	0x3f228cbd	0.63496
86	0x3eaf1237	0.34193584
87	0xbeb0f0e8	-0.34558797
88	0x3f150a21	0.5821858
89	0xbf037415	-0.51349
90	0xbed3c973	-0.4136463
91	0x3e55f922	0.20895818
92	0xbe62b829	-0.22140564
93	0x3ef4563e	0.47722048
94	0xbedcbdfa	-0.4311369
95	0xbf4782ff	-0.7793426
96	0x3f1bee3d	0.609104
97	0xbf183076	-0.59448946
98	0xbf0be5b8	-0.546474
99	0xbdfe2ada	-0.12410517

fc_hidden.weight f4 [100, 100]
0	0xbd3b1710	-0.04567629
1	0x3d6b16ce	0.057394795
2	0x3d79a626	0.060949467
3	0x3cbe6ce1	0.023245277
4	0x3d385ea9	0.04501215
5	0xbe2c5ce7	-0.16832314
6	0xbd5b0df6	-0.05348011
7	0x3d2daaa1	0.042399053
8	0x3e15e538	0.14638221
9	0xbe1e0588	-0.15431798
10	0xbd1ec882	-0.038765438
11	0xbdb8f3a0	-0.09030843
12	0xbe3ab3dd	-0.18232675
13	0x3d68051d	0.0566455
14	0x3d3c6e85	0.046003837
15	0x3db4659d	0.08808444
16	0x3e367ee8	0.17821848
17	0x3d9d87f9	0.0769195
18	0x3db913d3	0.09036984
19	0xbbeedee3	-0.0072897538
20	0xbe288b9c	-0.16459507
21	0x3c3c9249	0.0115094865
22	0xbdb06f7d	-0.08615015
23	0x3dedb431	0.116066344
24	0xbcc1ffaa	-0.02368148
25	0x3da7bc62	0.08190228
26	0xbd98b631	-0.07456625
27	0x3c8ee645	0.017443785
28	0xbe0399d7	-0.12851654
29	0xbd263c9b	-0.04058514
30	0xbd032b19	-0.032023523
31	0xbd32f7e4	-0.04369344
32	0x3d9063ee	0.0705031
33	0xb9e9a018	-0.00044560502
34	0x3d0933b2	0.033496566
35	0x3de430e2	0.11142136
36	0x3d961982	0.07329084
37	0x3e1cdfb8	0.15319717
38	0xbc1a6ec0	-0.009425819
39	0x3de529df	0.11189627
40	0xbba8ed5b	-0.005155248
41	0x3e1b0dc9	0.15141977
42	0xbd253c5c	-0.040340766
43	0x3db74e05	0.08950428
44	0xb896661b	-7.171576e-05
45	0x3daa7c6a	0.08324511
46	0x3ca23fde	0.019805845
47	0x3d2387d0	0.039924443
48	0xbd264b5e	-0.04059922
49	0x3ca61d95	0.020277778
50	0x3d429622	0.04750646
51	0x3d72f647	0.0593169
52	0x3e5bcb32	0.21464232
53	0xbc9af725	-0.018916676
54	0xbd778bd9	-0.060436103
55	0xbd8105d0	-0.06299937
56	0xbd07d490	-0.0331617
57	0xbd80b62a	-0.06284745
58	0xbec6de45	-0.38841453
59	0xbcbc00d3	-0.022949612
60	0xbd98b04b	-0.074555
61	0xbd10b861	-0.035332087
62	0xbd0cca4f	-0.034372624
63	0x3da6e781	0.081496246
64	0xbd2c8026	-0.0421144
65	0xbdbbd8f0	-0.09172237
66	0x3db07ac8	0.08617169
67	0x3cfd1571	0.030894013
68	0x3e043dea	0.12914243
69	0x3b802894	0.0039110873
70	0x3df1f509	0.11814315
71	0x3cc44fda	0.023963857
72	0x3df46128	0.119325936
73	0xbc44f7cb	-0.012021969
74	0x3c4c20f0	0.012459025
75	0x3db81b23	0.08989551
76	0x3d35f7cd	0.044425774
77	0xbd02dd05	-0.031949062
78	0xbc8970a0	-0.016777337
79	0x3dee4f7f	0.116362564
80	0x3d736682	0.05942393
81	0xbe09dbc4	-0.1346274
82	0x3e06e9c8	0.13175118
83	0xbdc0198d	-0.093798734
84	0xbe46f0f9	-0.19427861
85	0x3c1fce0e	0.009753717
86	0xbdc326f7	-0.09528916
87	0x39a7c7e0	0.0003200164
88	0x3de4647c	0.111519784
89	0xbd09c666	-0.033636473
90	0x3db53e59	0.088497825
91	0xbe0530a4	-0.13006836
92	0xbc9a11fe	-0.018807407
93	0x3dca108c	0.09866437
94	0x3cadedb8	0.021231517
95	0xbe44e716	-0.19228777
96	0xbdd9b2bd	-0.10629795
97	0xbdaa1a68	-0.08305818
98	0x3d6636bd	0.056204546
99	0xbdc27073	-0.09494104
100	0xbcc141f6	-0.023591023
101	0x3d696755	0.05698331
102	0xbda7e970	-0.081988215
103	0xbd499f24	-0.049224034
104	0xbd4589b5	-0.04822703
105	0x3c90a2a5	0.01765568
106	0xbd872e07	-0.06600576
107	0x3d1274ca	0.03575591
108	0x3dc6d9d8	0.09709519
109	0xbcbb8a3c	-0.022893064
110	0x3d2da55e	0.042394035
111	0x3cd272cc	0.025689505
112	0xbcbdfb94	-0.02319125
113	0xbdd8e92e	-0.105913505
114	0xbd2bd8de	-0.041954868
115	0x3d452b93	0.04813726
116	0x3d3fcc72	0.046825834
117	0x3d8e5dbf	0.069514744
118	0xbd49da84	-0.04928066
119	0xbd5c0c54	-0.053722695
120	0xbde5ae3a	-0.11214872
121	0xbdb3f8ad	-0.087876655
122	0x3b08359d	0.002078391
123	0x3c8e36b4	0.017360069
124	0x3cee0687	0.029055847
125	0x3d881af9	0.066457696
126	0xbc4bfed7	-0.012450895
127	0xbd85086f	-0.06495749
128	0xbd42cc49	-0.047558103
129	0x3b85aaf5	0.0040792176
130	0xbd4f613b	-0.050629836
131	0xbd62190c	-0.055199668
132	0xbd167bdc	-0.036739215
133	0xbcd14b25	-0.025548527
134	0x39b7855f	0.0003500385
135	0x3d53713d	0.051621664
136	0xbd006673	-0.031347703
137	0xbdb69ca4	-0.089165956
138	0xbcf3867d	-0.029727215
139	0xbc96d743	-0.018413192
140	0x3cfdb9b7	0.030972345
141	0xbd970720	-0.07374406
142	0x3c94d95e	0.018170055
143	0x3d115cc0	0.035488844
144	0xbd8e35ab	-0.0694383
145	0x3d70ba80	0.05877161
146	0x3d681dd1	0.05666906
147	0xbd86e4ab	-0.06586584
148	0x3cad7352	0.021173153
149	0xbde91c7c	-0.11382386
150	0xbdd1c781	-0.102431305
151	0xbd500b29	-0.050791893
152	0xbd2f4f45	-0.042800207
153	0x3d662d74	0.05619569
154	0xbd6a4f9e	-0.057204835
155	0x3da0f0ea	0.07858451
156	0xbd3a98ee	-0.045556
157	0xbc65cd54	-0.014026005
158	0xbda03505	-0.07822613
159	0x3d90c57a	0.07068916
160	0x3b48a630	0.0030616634
161	0x3cee98e5	0.02912564
162	0xbd135ed9	-0.035979126
163	0x3bf83aae	0.0075753545
164	0xbda1b329	-0.078955
165	0x3dce3b0c	0.10069856
166	0xbbba1332	-0.005678558
167	0x3cf4e4fd	0.029894346
168	0x3c7e2d11	0.015513674
169	0xbae5bfe8	-0.0017528506
170	0x3dabbbb8	0.08385414
171	0xbde7a8a4	-0.113114625
172	0xbd63e8d6	-0.05564197
173	0x3da39adb	0.07988521
174	0x3d7d2bc5	0.06180932
175	0x3d89419f	0.06701969
176	0xbd4068ef	-0.046975072
177	0xbce54a2a	-0.027989466
178	0xbc3cf903	-0.011533978
179	0xbbae9e27	-0.005328912
180	0x3c2a0157	0.010376296
181	0xbd939dcf	-0.07207834
182	0xbd9e949f	-0.07743191
183	0x3ca8b55c	0.020594291
184	0xbc4cdee0	-0.012504309
185	0xbdd4a462	-0.10382916
186	0xbd59d90f	-0.05318552
187	0xbde9953e	-0.11405419
188	0x3b3c3596	0.0028718463
189	0xbd4788fb	-0.04871462
190	0xbdb1e35e	-0.08685945
191	0x3d889440	0.066689014
192	0x3b0a78b4	0.0021129074
193	0x3c754abf	0.014971434
194	0x3c8b5375	0.017007569
195	0xbaea25b7	-0.0017864023
196	0xbdade4e0	-0.0849092
197	0x3d272506	0.040806793
198	0xbdc1ec1d	-0.09468863
199	0xbcb3f678	-0.021968111
200	0xbd2aad20	-0.04166901
201	0xbe12b2a1	-0.14325954
202	0xbdb16a21	-0.086628206
203	0xbdf70d24	-0.12063053
204	0xbc10c855	-0.008836825
205	0xbd8ac7fd	-0.06776426
206	0x3d86ce06	0.065822646
207	0xbd5c7b2b	-0.0538284
208	0xbe0299c1	-0.12753965
209	0x3ddf5593	0.10904994
210	0xbcc88e62	-0.024481956
211	0xbde2e3eb	-0.11078628
212	0x3c9ce756	0.019153278
213	0x3d8120bb	0.06305071
214	0x3c95b1b2	0.018273208
215	0x3d43636b	0.047702234
216	0xbe513c1d	-0.20433088
217	0xbdeac61b	-0.11463567
218	0x3ce94ac4	0.028478034
219	0x3d866ef3	0.06564131
220	0x3d6c5880	0.057701588
221	0x3cf0f78e	0.029414918
222	0xbe59e07e	-0.21277043
223	0xbc5c41b6	-0.013443401
224	0xbdd3260c	-0.10309991
225	0xbd5283f3	-0.051395368
226	0xbd7316d5	-0.059347946
227	0xbda525c9	-0.080638476
228	0x3de8d43c	0.113686055
229	0xbd52ab3c	-0.051432833
230	0x3d462b67	0.048381235
231	0xbe141a41	-0.1446314
232	0x3da11dc9	0.07867009
233	0xbd15a79f	-0.03653681
234	0x3c61b163	0.013775202
235	0x3dd0f001	0.10202027
236	0xbd372ac3	-0.044718515
237	0xbdbbed2b	-0.091760956
238	0xbd465e5d	-0.048429836
239	0xbd211bb5	-0.039333064
240	0xbd14ef2b	-0.0363609
241	0xbdad70ad	-0.08468757
242	0xbd0bc364	-0.034121886
243	0x3d39402e	0.045227222
244	0xbe78cc24	-0.24296623
245	0xbc97ed14	-0.018545665
246	0xbd90fe70	-0.0707978
247	0xbe067bb8	-0.13133132
248	0x3d1f9e54	0.038969353
249	0xbde0b6a3	-0.10972335
250	0x3c62f76c	0.013852935
251	0x3da65cf5	0.08123199
252	0x3d8d182a	0.068893746
253	0x3c56df82	0.013114812
254	0xbc08676c	-0.008325439
255	0x3c26669d	0.010156301

fc_hidden.bias f4 [100]
0	0x3d2f79a1	0.042840604
1	0x3da21d50	0.07915747
2	0xbd683004	-0.056686416
3	0x3b5da9e9	0.0033823198
4	0x3cf6e983	0.030140644
5	0x3d577a48	0.05260685
6	0xbd1fc12c	-0.039002582
7	0xbd8d8106	-0.06909375
8	0xbc93045e	-0.017946418
9	0x3cfb4011	0.030670198
10	0x3b0a744f	0.0021126454
11	0xbe1da18d	-0.15393658
12	0xbd8bcb14	-0.068258435
13	0x3cddf77b	0.027095547
14	0x3bc45c2f	0.0059924345
15	0xbdad227a	-0.084538415
16	0xbc7d7a56	-0.015471062
17	0xbdc9c8a4	-0.09852722
18	0x3d235467	0.039875414
19	0x3cb1fe40	0.021727681
20	0x3d969e93	0.073544644
21	0x3cdd6712	0.027026687
22	0x3d26f571	0.040761415
23	0xbd84d630	-0.064861655
24	0xbc2e82c8	-0.010651298
25	0xbdefddf2	-0.117122546
26	0xbcbea586	-0.023272287
27	0x3ac801f7	0.0015259375
28	0x3d001b39	0.03127596
29	0x3d868b1f	0.06569504
30	0x3c740c50	0.014895514
31	0xbdadd536	-0.084879324
32	0xbd7f1164	-0.062272444
33	0x3d27fc5c	0.041012153
34	0x3c8554fe	0.016275879
35	0x3cd8b76d	0.026454652
36	0x3d8a3902	0.067491546
37	0xbbb3d88c	-0.005488461
38	0xbdc1284c	-0.09431514
39	0x3c19016e	0.00933872
40	0xbbdf07e1	-0.006806359
41	0x3da5139c	0.08060381
42	0xbd42c019	-0.04754648
43	0xbcf3b59a	-0.02974968
44	0x3c067d20	0.008208543
45	0xbdc4b0d7	-0.09604042
46	0xbdd014d6	-0.10160224
47	0x3ca43440	0.020044446
48	0xbd8cd1b8	-0.06875938
49	0xbd232347	-0.039828565
50	0x3dc44025	0.09582547
51	0xbd8b7a52	-0.0681044
52	0x3d570486	0.05249455
53	0xbbda7bd2	-0.0066675926
54	0xbd010ed8	-0.031508297
55	0x3c25b84f	0.010114743
56	0x3e0e8cb9	0.13920869
57	0xbdb3f647	-0.08787208
58	0x3d727522	0.059193738
59	0x3d914ce8	0.07094747
60	0xbd9891d6	-0.07449691
61	0x3cff2b5b	0.031148603
62	0x3e287a61	0.16452934
63	0x3c4feefa	0.012691254
64	0x3d71f98c	0.059075877
65	0xbdacec1e	-0.08443473
66	0x3bbfe908	0.005856637
67	0x3dd49456	0.10379855
68	0x3d4583fd	0.048221577
69	0x3b294760	0.0025829896
70	0xbc886ad8	-0.01665251
71	0x3d191e11	0.03738219
72	0x3dc13de2	0.09435631
73	0xbce264c8	-0.027635947
74	0xbdd272f8	-0.10275835
75	0x3d2a0e84	0.04151775
76	0x3dbc5f2d	0.09197841
77	0xbd8ce6e8	-0.06879979
78	0xbd0d2cb2	-0.034466453
79	0x3ddd91aa	0.10818799
80	0x3df34cc3	0.118798755
81	0xbcc1b71c	-0.023646884
82	0x3cef923c	0.029244535
83	0x3d9efa39	0.0776257
84	0x3c718477	0.014741055
85	0x3dd95dea	0.10613616
86	0xbce5769b	-0.028010657
87	0xbd82ab7d	-0.06380365
88	0x3e2a358a	0.16621986
89	0x3ce89530	0.02839145
90	0x3d4302d3	0.047610115
91	0xbd8814cf	-0.06644594
92	0xbca573d9	-0.020196842
93	0x3d28e16c	0.041230604
94	0x3d80cd5c	0.06289169
95	0x3dd23515	0.10264031
96	0xbaa8b7c8	-0.0012872154
97	0xbd803b9e	-0.06261371
98	0x3db0447b	0.086068116
99	0xbc58ddc1	-0.013236464

fc_out.weight f4 [1, 100]
0	0x3e263957	0.16232811
1	0x3d9e207b	0.07721039
2	0xbd4ec3a7	-0.050479557
3	0x3da85a0a	0.082202986
4	0x3e52b1d6	0.20575652
5	0x3c5c34cd	0.013440323
6	0xbe03dd0f	-0.12877296
7	0xbe1bddeb	-0.15221374
8	0x3dff4e97	0.12466162
9	0xbe00105b	-0.12506239
10	0xbd8aa64c	-0.0677
11	0x3d1fbe3f	0.038999792
12	0xbdf72f25	-0.12069539
13	0xbe1da029	-0.15393128
14	0xbdb60a95	-0.08888737
15	0x3b830f11	0.003999599
16	0x3e1a8b1c	0.15092129
17	0xbe300132	-0.17187956
18	0xbded34bf	-0.11582326
19	0x3d02b377	0.031909432
20	0x3dd6e602	0.10493089
21	0x3ceb3b56	0.028714817
22	0xbdde45ee	-0.10853182
23	0x3dddf141	0.10837031
24	0xbdf03c0d	-0.11730204
25	0xbde48dfc	-0.11159894
26	0x3dabf949	0.08397157
27	0x3d80066e	0.06251226
28	0xbe00fdc0	-0.12596798
29	0x3d847b0e	0.06468783
30	0x3dae3d8e	0.085078344
31	0xbdc16d4b	-0.09444674
32	0xbdd3ddac	-0.10345015
33	0x3e3a6d12	0.1820567
34	0xbdf8f3ab	-0.12155851
35	0x3d8b851e	0.068124995
36	0x3e091221	0.13385822
37	0x3e363bb5	0.17796214
38	0x3d980b0e	0.074239835
39	0xbdcdff6d	-0.10058484
40	0xbdcf49ed	-0.10121522
41	0x3df47973	0.11937227
42	0xbe03f310	-0.1288569
43	0xbd8d19b1	-0.06889666
44	0xbe2b3944	-0.16721064
45	0x3d3ec7dd	0.046577323
46	0xbd764724	-0.06012644
47	0x3debf432	0.11521186
48	0xbcfbb3a0	-0.0307253
49	0x3dc5d84a	0.096603945
50	0xbe0cf685	-0.13765915
51	0x3da77d1d	0.0817816
52	0xbd107659	-0.035269115
53	0xbe3ab3ab	-0.182326
54	0x3dc79b9c	0.09746477
55	0x3df750b2	0.12075938
56	0x3c126744	0.008935753
57	0xbd162925	-0.036660332
58	0xbdaebe1b	-0.085323535
59	0xbe0b11d5	-0.13581021
60	0x3e171235	0.14753039
61	0xbe3c8b93	-0.18412618
62	0x3d895cb0	0.06707132
63	0x3ddbb348	0.107275546
64	0xbdde2de2	-0.10848595
65	0xbe51ee80	-0.20501137
66	0x3e2cae0a	0.16863266
67	0x3d46e692	0.048559733
68	0xbdd97201	-0.10617448
69	0xbdea5cc9	-0.114434786
70	0x3ddfe3f1	0.10932148
71	0xbd273e30	-0.04083079
72	0xbdf73678	-0.12070936
73	0x3caec8a2	0.021335904
74	0xbe12271f	-0.14272736
75	0x3d30aa4a	0.04313115
76	0xbda75710	-0.08170903
77	0xbdd66ac9	-0.104695864
78	0xbe409778	-0.1880778
79	0xbdb143cc	-0.08655509
80	0x3d92a4c0	0.0716033
81	0xbe07299c	-0.13199466
82	0xbe0008d3	-0.12503366
83	0x3d6b984b	0.057518285
84	0xbd91f4ac	-0.071267456
85	0x3df4b3c3	0.11948349
86	0xbd69d8ca	-0.05709151
87	0xbd776701	-0.060400967
88	0x3d9232b5	0.07138578
89	0xbe2063a8	-0.15663016
90	0x3df3b884	0.11900428
91	0xbda5fa9c	-0.081044406
92	0x3e2fffa0	0.17187357
93	0x3e101e65	0.14074095
94	0xbddc43a0	-0.10755086
95	0x3dc07cd0	0.09398806
96	0xbde27044	-0.11056569
97	0x3d331a06	0.04372599
98	0x3db17f49	0.08666856
99	0x3db2fcb0	0.087396026
