Copula by Ratio Estimation/model_parameters_NNet_ratio_25_runs_4copulas_2Dexperiment/NNet_ratio_run_22_cop_u_0.pt (torch, 44597 bytes, 5 tensors)

fc_in.weight f4 [100, 2]
-0.12097271 -0.51181227 -0.09437313 -0.17948195 0.07758659 -0.072957136 -0.2482848 -0.541993
-0.46582204 -0.20723678 0.5783214 -0.65837014 0.12566368 0.39695072 0.6741134 -0.68824285
0.15902917 -0.22573699 0.12870538 0.7500806 0.51387626 0.18784928 0.54930997 -0.03628231
-0.31882906 0.49151763 0.67121196 -0.26456472 -0.19842911 -0.39046586 -0.050707787 0.6121969
-0.08923349 0.5957908 0.049343344 -0.38206092 0.57339084 -0.22992831 0.15385251 0.5578282
0.43847287 -0.43371788 0.17797658 0.65407014 -0.6723999 -0.55438906 -0.28666556 0.6350186
0.29371056 0.23777206 0.090725735 0.0711967 -0.5860466 -0.320831 0.011814902 -0.57409096
-0.67898744 -0.23878402 -0.03270827 0.66783816 -0.14296813 0.7560995 -0.5223247 0.10592641
0.33622456 -0.68380463 -0.20527184 0.67062503 -0.06887129 -0.34027964 0.034289796 -0.14146344
-0.19941667 -0.21999314 0.7025782 0.6413598 0.04562299 -0.39361417 0.5943875 0.72905505
0.29547402 -0.16754508 0.619087 0.095842294 0.20291147 -0.64760983 -0.20370194 0.0670091
0.5892562 0.61466503 -0.2051056 -0.68743587 0.3608328 0.46691924 0.20295252 0.13297251
-0.30454367 0.08976266 0.30402556 0.14721456 0.0049758125 -0.36193883 -0.18718736 -0.18359727
-0.57118785 -0.5892321 -0.53885823 -0.5802595 0.23571521 -0.49059302 0.29501423 0.4281535
0.192285 0.21725877 -0.07931616 0.25334018 -0.641263 -0.55406404 -0.6626731 0.6834588
-0.37114742 0.5481847 0.040747743 0.14007151 0.2592034 0.23655398 0.40339792 -0.05986132
0.39007795 -0.25925612 -0.4943613 0.30614874 0.23769838 -0.040356994 -0.7535092 0.15923728
-0.61590725 0.15479557 0.12757786 0.6997159 0.079026915 -0.55362463 -0.5938033 0.47894335
-0.25156105 -0.6873276 -0.59872305 0.2884073 0.0023748307 -0.67673546 -0.23459017 -0.04214609
-0.4014458 -0.43224415 -0.48443818 -0.68988824 0.20722392 -0.19814456 -0.42197466 -0.2642188
-0.5366183 0.27707168 0.3467284 -0.39656797 -0.47905946 0.43809944 -0.1570821 -0.65754735
0.62385976 -0.71280307 0.20906626 -0.42645398 -0.56477386 0.6428011 -0.43065313 -0.25198233
0.51751435 -0.28759155 -0.080518186 0.5643133 0.37621632 0.4670556 0.029457001 -0.048364013
0.49497196 -0.4537733 0.58015203 0.113518864 -0.5553099 0.5276204 0.68600196 -0.2280414
0.3235697 -0.30398327 0.35203433 -0.19669633 0.49171308 -0.5592209 0.56654686 0.32625076
00000000: 8ac0 f7bd 2106 03bf b346 c1bd 1eca 37be
00000010: b8e5 9e3d 8d6a 95bd 5f3e 7ebe 0ec0 0abf
00000020: 3a80 eebe e135 54be df0c 143f f28a 28bf
00000030: fbad 003e 203d cb3e b292 2c3f af30 30bf
00000040: 8bd8 223e 9927 67be 58cb 033e 4805 403f
00000050: 658d 033f 905b 403e 949f 0c3f c29c 14bd
00000060: 903d a3be 33a8 fb3e 8cd4 2b3f 0775 87be
00000070: 0031 4bbe 24eb c7be f8b2 4fbd f0b8 1c3f
00000080: 0cc0 b6bd bf85 183f 3f1c 4a3d 7d9d c3be
00000090: bec9 123f 5472 6bbe 838b 1d3e d4cd 0e3f
000000a0: 847f e03e 4510 debe 7e3f 363e 2471 273f
000000b0: 6622 2cbf 71ec 0dbf d4c5 92be 9490 223f
000000c0: 3b61 963e 857a 733e 6ace b93d 93cf 913d
000000d0: 2607 16bf f643 a4be 4a93 413c a0f7 12bf
000000e0: 1fd2 2dbf cc83 74be 1bf9 05bd 71f7 2a3f
000000f0: 3d66 12be bd8f 413f 12b7 05bf f2ef d83d
00000100: a025 ac3e d20d 2fbf c832 52be 15ae 2b3f
00000110: 640c 8dbd 2239 aebe 7573 0c3d cbdb 10be
00000120: e233 4cbe e245 61be 2adc 333f 2830 243f
00000130: 2cdf 3a3d cc87 c9be c729 183f 5aa3 3a3f
00000140: 5f48 973e f090 2bbe 7c7c 1e3f f748 c43d
00000150: 06c8 4f3e c2c9 25bf 3e97 50be 113c 893d
00000160: 7fd9 163f b05a 1d3f 3407 52be ccfb 2fbf
00000170: 14bf b83e 0a10 ef3e c9d2 4f3e f229 083e
00000180: 26ed 9bbe 7cd5 b73d 3da9 9b3e 6abf 163e
00000190: 240c a33b 0c50 b9be 0bae 3fbe ec00 3cbe
000001a0: 5e39 12bf ead7 16bf 9df2 09bf e38b 14bf
000001b0: 545f 713e 022f fbbe 1b0c 973e f036 db3e
000001c0: 5ce6 443e 1579 5e3e 8370 a2bd ceb5 813e
000001d0: d029 24bf 24d7 0dbf f2a4 29bf 28f7 2e3f
000001e0: 0907 bebe d555 0c3f 1be7 263d e86e 0f3e
000001f0: 4fb6 843e 353b 723e 2c8a ce3e 2531 75bd
00000200: 4cb8 c73e 38bd 84be ed1c fdbe 87bf 9c3e
00000210: 3467 733e 604d 25bd fbe5 40bf 190f 233e
00000220: 19ac 1dbf bb82 1e3e c5a3 023e 9520 333f
00000230: ddd8 a13d 58ba 0dbf 7e03 18bf 1038 f53e
00000240: 9ccc 80be b4f4 2fbf ea45 19bf 1faa 933e
00000250: 0ca3 1b3b 893e 2dbf 6838 70be 61a1 2cbd
00000260: 4e8a cdbe 1b4f ddbe 4808 f8be 849c 30bf
00000270: 8232 543e 68e6 4abe 100d d8be b047 87be
00000280: d15f 09bf 57dc 8d3e 6386 b13e f50a cbbe
00000290: 4847 f5be 924e e03e 21da 20be 0655 28bf
000002a0: 46b5 1f3f 437a 36bf 7715 563e 2d58 dabe
000002b0: 0595 10bf 9d8e 243f 917e dcbe d403 81be
000002c0: d27b 043f 333f 93be b8e6 a4bd d676 103f
000002d0: 6d9f c03e e921 ef3e cf4f f13c 5819 46bd
000002e0: f76c fd3e f954 e8be d884 143f 947c e83d
000002f0: ca28 0ebf 2112 073f d39d 2f3f af83 69be
00000300: edaa a53e b2a3 9bbe d83d b43e c36a 49be
00000310: d1c1 fb3e 1a29 0fbf 3709 113f 570a a73e

fc_in.bias f4 [100]
-0.39855415 -0.06666019 0.20588928 0.4521639 0.53916824 -0.12098047 0.49870932 0.05244814
-0.6993074 -0.20187211 -0.45095667 0.44635576 0.40999454 -0.5129195 0.23599894 0.0569003
0.58130395 -0.42653978 0.6640799 -0.3253978 0.62873536 0.52914804 0.5031398 -0.06144907
-0.69542634 0.72962916 -0.5195466 -0.07092595 -0.20295613 0.54851925 -0.5111692 -0.075498976
0.06831712 -0.47755373 0.549678 0.2934061 0.31998917 -0.1263512 0.5771947 -0.35300136
-0.03849552 -0.2753235 -0.3153109 0.24740322 -0.69786257 -0.30470812 -0.018701501 0.30909416
0.55674076 -0.5998857 -0.42230946 -0.17342465 -0.23932736 0.70147336 0.20607242 0.576645
-0.5308682 0.1251899 0.24336438 -0.45612037 0.48366335 -0.6195648 -0.64075166 -0.30041718
0.039471183 0.6010637 -0.65049756 -0.6357736 -0.6223769 -0.27731737 -0.034188993 -0.2777877
0.2710146 -0.026086906 -0.58899355 -0.13066919 -0.39201555 0.6359701 0.7397917 0.048179734
-0.16371761 -0.07102227 -0.15551546 -0.51606816 -0.5377233 0.60657746 0.05387707 -0.63921577
0.25825703 0.034831885 0.4886025 -0.18344386 -0.262115 0.5240707 -0.41505957 -0.07648605
0.7149635 -0.111576796 -0.42384836 -0.070332654
00000000: 4a0f ccbe 2385 88bd a4d4 523e 0782 e73e
00000010: ee06 0a3f 9cc4 f7bd d456 ff3e dcd3 563d
00000020: cf05 33bf 90b7 4ebe cbe3 e6be be88 e43e
00000030: ceea d13e b14e 03bf b5a9 713e 4a10 693d
00000040: 56d0 143f 6c63 dabe 2401 2a3f 8a9a a6be
00000050: cdf4 203f 3f76 073f c5cd 003f 05b2 7bbd
00000060: 7607 32bf fac8 3a3f 0201 05bf a041 91bd
00000070: bbd3 4fbe c26b 0c3f fcdb 02bf 359f 9abd
00000080: d9e9 8b3d ec81 f4be b3b7 0c3f 5339 963e
00000090: 9fd5 a33e 3562 01be 08c3 133f 98bc b4be
000000a0: 7aad 1dbd 34f7 8cbe 6e70 a1be 4557 7d3e
000000b0: 1fa7 32bf b402 9cbe e433 99bc 9741 9e3e
000000c0: 9086 0e3f 1c92 19bf f238 d8be 3b96 31be
000000d0: 3b12 75be c293 333f a604 533e 029f 133f
000000e0: fae6 07bf c831 003e 8334 793e 9c88 e9be
000000f0: b9a2 f73e cc9b 1ebf 4d08 24bf 48d0 99be
00000100: 89ac 213d 50df 193f 0287 26bf 0fc2 22bf
00000110: 1854 1fbf 8bfc 8dbe c209 0cbd 303a 8ebe
00000120: 6dc2 8a3e 35b4 d5bc 48c8 16bf 25ce 05be
00000130: 43b6 c8be f0ce 223f fd62 3d3f 1d58 453d
00000140: 97a5 27be 2074 91bd 723f 1fbe 0b1d 04bf
00000150: 3ca8 09bf a948 1b3f 34ae 5c3d a5a3 23bf
00000160: 443a 843e e1ab 0e3d 1b2a fa3e b5d8 3bbe
00000170: f033 86be 7f29 063f b082 d4be b8a4 9cbd
00000180: d907 373f 6082 e4bd a702 d9be 910a 90bd

fc_hidden.weight f4 [100, 100]
-0.02882296 -0.07490644 0.000704149 -0.027961139 0.02691199 -0.03739335 0.11404938 -0.09041234
-0.019426344 0.07857145 0.049603954 -0.04695414 -0.005691195 -0.03145377 -0.005712879 0.009486146
0.06399085 0.12293311 0.044788256 0.037387934 -0.05232538 -0.037357043 0.049414985 0.018988777
0.050254274 -0.04174446 -0.03181685 -0.017688148 -0.00095518964 -0.042677958 -0.06301194 -0.052470185
0.107604824 -0.12790598 -0.0394588 0.0010537588 -0.07291846 -0.07070134 -0.0934293 0.008478114
-0.101986945 -0.11402998 0.016288588 -0.05118083 0.11452516 0.09333477 0.0034890177 0.06588515
-0.01701432 0.11726236 0.17483678 0.011473083 0.044740144 0.06680176 0.07134877 -0.023549916
0.031384785 0.05353306 0.068804055 -0.044697292 0.022183962 -0.05265446 0.10385435 0.07551153
0.042144544 -0.0070592207 -0.05906339 -0.080151096 0.025977824 -0.06351556 0.016065273 -0.09407082
0.01652142 -0.10189031 0.05595219 0.07049995 0.077662475 -0.053603254 0.047895197 0.033630088
0.05809803 0.009538618 -0.075229384 0.13372105 -0.07687157 -0.0017304618 0.013569964 -0.09517568
0.03217715 0.0099371355 0.060770255 0.06155065 -0.07920375 0.072246745 -0.059240945 0.0037583758
0.08603748 0.05319193 -0.020675225 0.11453457 0.0587051 0.004911859 -0.07325 -0.0041069267
0.04797196 -0.08340868 0.01322976 0.03585599 -0.052749705 0.05601365 -0.06111188 0.028076723
-0.034774665 -0.009318377 0.048994962 -0.087184586 -0.09329061 0.027426915 0.02642844 0.062978394
0.044990152 0.018921934 -0.09048797 -0.007189329 -0.012761051 0.029924808 -0.019596834 0.050985422
0.008225453 -0.08249195 -0.060236465 -0.050007343 -0.07324973 -0.096444026 -0.06007168 0.030321974
-0.041992135 -0.044606257 -0.10129516 0.03297151 0.062502205 -0.010497288 -0.044678774 0.08729682
-0.061291695 -0.098266 -0.051486786 0.03199491 0.06381949 -0.08596781 -0.039318122 -0.0946183
0.00037767793 -0.078193285 -0.08739961 0.00074620516 -0.08600241 -0.08192457 -0.017328706 0.023959652
-0.038626634 -0.0013461482 -0.08762435 0.09409594 -0.095825136 -0.09677395 -0.07530819 -0.04625509
0.053591438 0.081573136 0.0856083 -0.09690914 0.008240493 0.078603655 0.033893485 0.021135285
-0.093103535 0.07193781 0.009091197 -0.06862116 0.05614445 0.07583259 -0.034324564 0.016431103
0.024926927 0.04863583 -0.06122128 0.036428783 -0.075768024 0.036281995 -0.044477295 0.07953426
-0.07041863 -0.0049928282 0.027803011 -0.05542505 0.019574173 -0.002619212 0.058920212 -0.05771614
0.10364036 0.061072864 0.023013845 0.089006655 -0.046446998 -0.094258755 -0.04618273 0.026611352
-0.04255138 0.06584542 -0.03164966 -0.097522035 0.07644284 0.042640284 -0.049641836 0.077896535
-0.024326704 -0.03670136 0.05920691 -0.02948921 -0.05737441 0.024585653 0.013264229 0.0526904
0.030795231 -0.015294537 -0.08812065 -0.06485249 -0.0993062 -0.009113699 0.08157472 0.0019703344
0.06646258 -0.12147871 -0.02549719 0.106151655 -0.036002472 0.028226513 0.024620164 0.028002357
-0.008942221 0.0057801697 -0.11316492 0.09347951 0.099772595 0.1022698 -0.07240135 -0.005277713
-0.06444767 0.05326624 0.13505359 0.14190675 0.054922763 0.06462834 -0.008468816 0.048260923
00000000: 211e ecbc 8c68 99bd a496 383a c20e e5bc
00000010: 8976 dc3c c529 19bd b992 e93d 1b2a b9bd
00000020: ff23 9fbc 12ea a03d 842d 4b3d fc52 40bd
00000030: 347d babb abd5 00bd 1a33 bbbb c86b 1b3c
00000040: a20d 833d 5bc4 fb3d e473 373d 1724 193d
00000050: 2353 56bd b303 19bd 5e67 4a3d 5a8e 9b3c
00000060: 6dd7 4d3d 3dfc 2abd 6352 02bd bce6 90bc
00000070: b165 7aba 15cf 2ebd 670c 81bd faea 56bd
00000080: eb5f dc3d c9f9 02be 8d9f 21bd 471e 8a3a
00000090: 4656 95bd ddcb 90bd dc57 bfbd cae7 0a3c
000000a0: 88de d0bd 8d88 e9bd a56f 853c fda2 51bd
000000b0: 2b8c ea3d 4d26 bf3d 01a8 643b cbee 863d
000000c0: 9d61 8bbc 4027 f03d 6a08 333e 99f9 3b3c
000000d0: 7141 373d 5ccf 883d 4e1f 923d c1eb c0bc
000000e0: 558d 003d 7b45 5b3d 24e9 8c3d 8214 37bd
000000f0: 24bb b53c 34ac 57bd 97b1 d43d caa5 9a3d
00000100: c29f 2c3d 0951 e7bb 74ec 71bd 4226 a4bd
00000110: 72cf d43c 7214 82bd 529b 833c 34a8 c0bd
00000120: ee57 873c deab d0bd 202e 653d 4762 903d
00000130: 810d 9f3d 168f 5bbd c12d 443d b4bf 093d
00000140: 33f8 6d3d dd47 1c3c dd11 9abd 2cee 083e
00000150: d76e 9dbd aad0 e2ba 8e54 5e3c 78eb c2bd
00000160: 30cc 033d 5ecf 223c 3bea 783d 891c 7c3d
00000170: 9335 a2bd 1af6 933d a2a6 72bd 154f 763b
00000180: 6b34 b03d c8df 593d 175f a9bc 1a91 ea3d
00000190: c274 703d a9f3 a03b 1904 96bd 6693 86bb
000001a0: 3f7e 443d 2cd2 aabd a3c1 583c bbdd 123d
000001b0: 1310 58bd 926e 653d 7350 7abd 2801 e63c
000001c0: e16f 0ebd 1bac 18bc f1ae 483d d58d b2bd
000001d0: 260f bfbd 69ae e03c 7580 d83c d1fa 803d
000001e0: 9847 383d 2c02 9b3c c251 b9bd 7694 ebbb
000001f0: ba13 51bc df24 f53c 8a89 a0bc 17d6 503d
00000200: 0dc4 063c 8af1 a8bd 83ba 76bd 80d4 4cbd
00000210: f403 96bd 7284 c5bd b90d 76bd ca65 f83c
00000220: f2ff 2bbd 0db5 36bd d673 cfbd 220d 073d
00000230: 2801 803d d1fc 2bbc 1701 37bd adc8 b23d
00000240: 000d 7bbd af3f c9bd cfe3 52bd 180d 033d
00000250: cbb3 823d e40f b0bd 0a0c 21bd 3dc7 c1bd
00000260: 1303 c639 cd23 a0bd 91fe b2bd fb9c 433a
00000270: 0822 b0bd 12c8 a7bd eef4 8dbc 0847 c43c
00000280: f636 1ebd 3d71 b0ba 6574 b3bd 5fb5 c03d
00000290: f83f c4bd 6c31 c6bd 2e3b 9abd fa75 3dbd
000002a0: b282 5b3d d10f a73d 6853 af3d 4d78 c6bd
000002b0: 2203 073c f4fa a03d e5d3 0a3d e823 ad3c
000002c0: 11ad bebd 2154 933d 3ef3 143c 4089 8cbd
000002d0: b9f7 653d 1e4e 9b3d ea97 0cbd 859a 863c
000002e0: 8e33 cc3c 5d36 473d 2ac3 7abd 5936 153d
000002f0: 442c 9bbd 6e9c 143d d32d 36bd dce2 a23d
00000300: a537 90bd e19a a3bb 24c3 e33c 6105 63bd
00000310: 045a a03c 16a7 2bbb 5256 713d c267 6cbd
00000320: 6641 d43d 8a27 7a3d 8887 bc3c 1f49 b63d
00000330: 353f 3ebd bc0a c1bd 1a2a 3dbd 0d00 da3c
00000340: 5b4a 2ebd f7d9 863d 13a3 01bd a2b9 c7bd
00000350: 108e 9c3d 94a7 2e3d 3d55 4bbd 3888 9f3d
00000360: cc48 c7bc 2a54 16bd f282 723d 5b93 f1bc
00000370: 6e01 6bbd da67 c93c 3552 593c e4d1 573d
00000380: 4846 fc3c f095 7abc 9978 b4bd 62d1 84bd
00000390: 0d61 cbbd a051 15bc a610 a73d ba20 013b
000003a0: 881d 883d d4c9 f8bd 7cdf d0bc 0a66 d93d
000003b0: 5477 13bd 4a3b e73c 3ab0 c93c 3365 e53c
000003c0: 6582 12bc 9467 bd3b 02c3 e7bd 2f72 bf3d
000003d0: 9355 cc3d d472 d13d 2947 94bd aaf0 acbb
000003e0: 24fd 83bd b32d 5a3d 7d4b 0a3e 0150 113e
000003f0: b1f6 603d dd5b 843d cac0 0abc 3fad 453d

fc_hidden.bias f4 [100]
0.004800557 -0.011214692 0.008254192 0.043937992 0.012794327 0.092178024 0.10395658 -0.06271041
0.033724602 -0.072484285 0.066424094 0.07546515 -0.056989696 0.072038665 -0.00859031 0.08735719
0.057737377 0.0032755476 0.08252681 0.106554635 -0.10945648 -0.08731951 0.05760046 -0.013932507
-0.035310466 0.08574631 0.063307576 0.07559827 -0.080703385 0.10026417 -0.058843132 -0.032688685
0.022259146 -0.06661215 -0.043539915 -0.0738241 0.002360411 0.062651925 -0.09741028 0.092462815
0.01951347 -0.05472579 0.012176419 -0.01145759 -0.0784188 0.08856488 0.03917957 0.009150006
-0.03634777 0.1045686 -0.012187814 0.122691035 0.097546145 -0.0462597 0.076443896 -0.01426534
-0.029475553 -0.11524283 0.062759764 0.026539937 -0.054933738 0.0043793465 0.060717776 -0.0061049694
0.036997214 -0.07434467 -0.12151568 -0.022508396 -0.048502665 0.050838374 0.03398508 -0.046894133
0.007370149 -0.048981935 -0.07665143 -0.054436363 -0.06361406 0.0991477 -0.078023344 0.100502715
0.034031622 -0.09678072 0.079924345 -0.08064996 -0.06385259 0.004002623 -0.01590077 -0.09015191
0.017628076 -0.06862026 -0.025982572 -0.060563844 -0.0065981033 0.07934618 -0.08589204 0.033214018
-0.064293966 0.042062774 -0.049712177 0.07956206
00000000: fe4d 9d3b d4bd 37bc 973c 073c 53f8 333d
00000010: 4c9f 513c d5c7 bc3d 30e7 d43d 516e 80bd
00000020: cf22 0a3d a472 94bd 5b09 883d 798d 9a3d
00000030: 076e 69bd 0289 933d 5fbe 0cbc 54e8 b23d
00000040: 077e 6c3d 92aa 563b d103 a93d 5139 da3d
00000050: b82a e0bd 92d4 b2bd 76ee 6b3d 2b45 64bc
00000060: b5a1 10bd c39b af3d 67a7 813d 44d3 9a3d
00000070: d147 a5bd 4d57 cd3d 7f05 71bd 92e4 05bd
00000080: d058 b63c f36b 88bd e956 32bd 1731 97bd
00000090: 20b1 1a3b a74f 803d 0a7f c7bd 255d bd3d
000000a0: b6da 9f3c 2628 60bd 9a7f 473c 9eb8 3bbc
000000b0: 099a a0bd 8161 b53d c27a 203d e8e9 153c
000000c0: 66e1 14bd 1028 d63d 66af 47bc 7045 fb3d
000000d0: 46c6 c73d d07a 3dbd 9e8e 9c3d 2cb9 69bc
000000e0: b776 f1bc 6f04 ecbd 3188 803d 486a d93c
000000f0: 3302 61bd 9f80 8f3b 34b3 783d 320c c8bb
00000100: 648a 173d 0542 98bd 36dd f8bd 8763 b8bc
00000110: bbaa 46bd e63b 503d f033 0b3d 1014 40bd
00000120: 4a81 f13b 48a1 48bd 6dfb 9cbd aaf8 5ebd
00000130: 1748 82bd f30d cb3d b4ca 9fbd 5ed4 cd3d
00000140: be64 0b3d f834 c6bd 60af a33d ce2b a5bd
00000150: 26c5 82bd 6f28 833b 5542 82bc 91a1 b8bd
00000160: c168 903c c788 8cbd 67d9 d4bc cb11 78bd
00000170: e734 d8bb 4080 a23d 2ae8 afbd 6c0b 083d
00000180: 8eac 83bd 044a 2c3d ff9e 4bbd 6ff1 a23d

fc_out.weight f4 [1, 100]
0.08203339 0.0683248 0.090003416 0.06013305 0.030278413 0.062392604 -0.015852977 0.016661122
0.13953522 -0.11289657 0.102155074 -0.07536459 0.018350158 -0.12336784 -0.039014652 -0.11614765
-0.00012799076 -0.11816113 0.07637309 0.07644319 0.024456609 -0.009171188 0.02015134 0.078475095
-0.09396575 -0.030339817 -0.055331763 -0.072955534 -0.06322758 0.09793016 0.12088227 0.0820177
0.035427973 0.022903899 -0.044086814 0.032455646 -0.07596046 -0.108123235 -0.03916119 -0.014570405
-0.03182485 -0.07964297 -0.109449655 0.10171468 0.13723348 0.0975826 -0.10124747 -0.094852895
-0.115589745 0.15603228 0.117051244 0.11470008 -0.09255325 0.053171802 -0.07616532 0.09244072
0.13142666 0.038511626 0.075607784 -0.0799493 -0.10060677 -0.088470645 0.13225871 0.108767055
0.0474505 0.04717571 -0.10740726 0.10619106 0.127336 -0.103628695 0.061133504 -0.042786058
-0.08795868 0.057331573 -0.082446344 0.043091208 -0.09188437 0.09102173 -0.1266309 0.048499253
-0.048430976 0.0073809377 0.023004996 0.054363016 -0.11382331 0.037375532 0.022416713 -0.06674424
-0.021931166 -0.10900979 -0.08637225 -0.0921259 -0.14732836 0.06749152 0.039910857 -0.09108122
0.08289695 0.12477315 -0.074973494 0.13255043
00000000: 1f01 a83d dfed 8b3d b653 b83d 134e 763d
00000010: 6f0a f83c 638f 7f3d 1ade 81bc e87c 883c
00000020: 52e2 0e3e 5136 e7bd ae36 d13d c058 9abd
00000030: 1253 963c 47a8 fcbd d4cd 1fbd d2de edbd
00000040: 4235 06b9 76fe f1bd 7f69 9c3d 3f8e 9c3d
00000050: 3a59 c83c c042 16bc 6c14 a53c 8db7 a03d
00000060: 1d71 c0bd 358b f8bc 8fa3 62bd b669 95bd
00000070: 767d 81bd 9c8f c83d 2091 f73d e5f8 a73d
00000080: ec1c 113d f5a0 bb3c 6094 34bd 36f0 043d
00000090: 2891 9bbd b76f ddbd 7c67 20bd b5b8 6ebc
000000a0: c65a 02bd da1b a3bd 2427 e0bd c94f d03d
000000b0: ef86 0c3e 63d9 c73d d55a cfbd 3c42 c2bd
000000c0: 51ba ecbd edc6 1f3e 90b8 ef3d e0e7 ea3d
000000d0: 8f8c bdbd adca 593d 90fc 9bbd 8f51 bd3d
000000e0: b694 063e 5ebe 1d3d 41d8 9a3d 75bc a3bd
000000f0: ec0a cebd 1930 b5bd d46e 073e 43c1 de3d
00000100: 755b 423d 513b 413d 56f8 dbbd b37a d93d
00000110: 5e64 023e 483b d4bd 2067 7a3d 6f40 2fbd
00000120: ae23 b4bd 83d4 6a3d a1d9 a8bd 6880 303d
00000130: df2d bcbd 9a69 ba3d 88ab 01be 27a7 463d
00000140: 8f5f 46bd cbdb f13b f974 bc3c c1ab 5e3d
00000150: 321c e9bd 1617 193d 41a3 b73c 34b1 88bd
00000160: fda8 b3bc 8640 dfbd efe3 b0bd 81ac bcbd
00000170: 3fdd 16be fe38 8a3d 9179 233d ca88 babd
00000180: e0c5 a93d 1189 ff3d b48b 99bd 4dbb 073e
