Copula by Ratio Estimation/model_parameters_NNet_ratio_25_runs_4copulas_2Dexperiment/NNet_ratio_run_2_cop_u_1.pt (torch, 44588 bytes, 5 tensors)

fc_in.weight f4 [100, 2]
0.23923257 0.50146425 0.64793825 -0.39780122 -0.039524652 0.6362829 -0.6610894 0.06933261
-0.21083203 0.6783142 -0.38284868 -0.76456887 -0.64602447 -0.6236352 0.38708574 0.43034574
0.2931268 0.0140526015 0.5393048 -0.021942616 -0.72834116 -0.08240963 0.69015044 -0.10428361
0.48455927 -0.6762493 -0.057537973 -0.015770257 0.6319965 -0.6271532 0.46054864 -0.74671966
-0.098148085 -0.29336455 0.2569621 0.37552756 0.60030264 -0.08279408 -0.44462997 0.6365848
-0.16291054 0.6210714 -0.38432464 -0.6275509 0.30452135 -0.3498062 0.42999688 0.4684026
0.15286109 0.6485705 0.06837756 -0.07850601 -0.6684432 0.4558647 -0.47212818 0.064477965
-0.3385636 -0.60091174 -0.5742892 0.63961124 -0.4411372 -0.4300331 0.4074524 -0.03356811
-0.7498259 0.0151378345 0.21022329 0.14635973 -0.42489403 0.6254552 -0.5146528 0.35377955
0.179983 -0.2673022 0.08770509 -0.10012493 -0.367974 0.6208934 0.36959547 -0.5012779
0.27089077 0.30670848 0.5908127 0.19244578 -0.038281843 -0.40853348 -0.28763676 -0.83013713
-0.4436592 -0.18547201 0.11635118 0.26938844 -0.079397365 0.22890684 -0.7163241 0.69492966
0.5191476 0.4767432 -0.30534378 0.6236244 0.025765711 -0.258245 0.54441786 0.1330916
-0.3305127 0.5961853 -0.52632135 -0.40038413 0.62271047 -0.4892711 0.50886184 0.77907586
0.10678649 -0.16459358 0.27939147 -0.23972483 -0.41366518 0.33483654 0.46444464 0.28370237
0.47386944 -0.1133979 0.37706748 0.70239824 0.06028096 -0.13138975 0.6200681 0.6569001
0.5772254 -0.6416184 -0.13226806 0.15247843 -0.2770537 -0.16075161 -0.38912338 0.37663284
-0.13013676 0.43307114 -0.68413454 -0.34434325 -0.7711383 0.40726498 -0.6537081 -0.25603586
0.048024658 -0.002866596 -0.09177295 -0.3857373 -0.08146699 -0.0761506 -0.07499227 -0.3712441
-0.629327 -0.41295806 0.4682682 -0.39919335 0.08032641 -0.11571875 0.6686164 0.27676997
0.2394659 -0.4152217 0.7013027 -0.37885225 0.4191895 0.43421263 0.7849526 0.26404786
0.79411525 0.07346161 -0.015825128 0.56571084 -0.13494228 0.49846014 -0.06449113 0.10592464
-0.4032188 0.47837225 -0.65824795 -0.47999507 0.4858691 -0.42114606 0.65752065 0.5399712
-0.574462 -0.3293581 0.46414772 -0.39808667 0.5913279 0.1758751 -0.36255494 -0.27280572
0.41945148 -0.5679694 0.5574999 -0.5325751 -0.15775803 -0.19981293 -0.6888708 -0.61742616
00000000: 62f9 743e f65f 003f 48df 253f 9aac cbbe
00000010: 9ae4 21bd 70e3 223f 283d 29bf 41fe 8d3d
00000020: 5ae4 57be 00a6 2d3f be04 c4be c9ba 43bf
00000030: dc61 25bf 8ea6 1fbf 1a30 c63e 4756 dc3e
00000040: b714 963e e23c 663c e10f 0a3f 00c1 b3bc
00000050: 9174 3abf 61c6 a8bd b3ad 303f a592 d5bd
00000060: 2718 f83e ad1e 2dbf f0ac 6bbd a030 81bc
00000070: 86ca 213f 1d8d 20bf 08cd eb3e 0529 3fbf
00000080: dd01 c9bd e133 96be 8990 833e 2645 c03e
00000090: 6fad 193f f18f a9bd 8aa6 e3be 39f7 223f
000000a0: 05d2 26be 89fe 1e3f 33c6 c4be 2da7 20bf
000000b0: 39ea 9b3e cc19 b3be 8d28 dc3e 77d2 ef3e
000000c0: 9e87 1c3e b708 263f 8909 8c3d c2c7 a0bd
000000d0: 181f 2bbf 1967 e93e c9ba f1be 060d 843d
000000e0: 3558 adbe 5ad5 19bf 9e04 13bf 90bd 233f
000000f0: bcdc e1be 4c2d dcbe 9a9d d03e b77e 09bd
00000100: 97f4 3fbf ae04 783c c644 573e 53df 153e
00000110: b68b d9be d51d 203f 49c0 03bf 9822 b53e
00000120: 774d 383e d5db 88be ba9e b33d 4d0e cdbd
00000130: 1767 bcbe dff2 1e3f 9e3b bd3e c053 00bf
00000140: 32b2 8a3e e508 9d3e 803f 173f 8210 453e
00000150: 6ccd 1cbd 4d2b d1be 2045 93be de83 54bf
00000160: 4c27 e3be 60ec 3dbe 8749 ee3d 48ed 893e
00000170: 169b a2bd 8e66 6a3e 0461 37bf e9e6 313f
00000180: dbe6 043f af17 f43e 0556 9cbe d9a5 1f3f
00000190: 9d12 d33c b038 84be f85e 0b3f 2a49 083e
000001a0: f638 a9be 9a9f 183f ffbc 06bf 26ff ccbe
000001b0: f469 1f3f be81 fabe c544 023f 8471 473f
000001c0: e0b2 da3d 388b 28be 660c 8f3e 6d7a 75be
000001d0: eccb d3be b26f ab3e b0cb ed3e 7041 913e
000001e0: 049f f23e 283d e8bd fd0e c13e 5fd0 333f
000001f0: 2be9 763d 098b 06be c8bc 1e3f 9b2a 283f
00000200: 0bc5 133f 1a41 24bf 4771 07be 4e23 1c3e
00000210: fcd9 8dbe 129c 24be 2e3b c7be 05d6 c03e
00000220: 9242 05be 80bb dd3e 7123 2fbf c24d b0be
00000230: 5269 45bf 0985 d03e 6a59 27bf 2217 83be
00000240: 81b5 443d 80dd 3bbb 75f3 bbbd 5c7f c5be
00000250: 2ad8 a6bd d9f4 9bbd 8c95 99bd b513 bebe
00000260: 931b 21bf 3d6f d3be d9c0 ef3e 1263 ccbe
00000270: 2c82 a43d f4fd ecbd 722a 2b3f cbb4 8d3e
00000280: 8d36 753e f097 d4be 9388 333f ecf8 c1be
00000290: 02a0 d63e 1e51 de3e a7f2 483f 4831 873e
000002a0: 234b 4b3f 0a73 963d b3a3 81bc 6dd2 103f
000002b0: 4f2e 0abe 2b36 ff3e ed13 84bd 05ef d83d
000002c0: b272 cebe 35ed f43e f082 28bf eac1 f5be
000002d0: d6c3 f83e 75a0 d7be 4653 283f 8d3b 0a3f
000002e0: f10f 13bf a0a1 a8be c5a4 ed3e 04d2 cbbe
000002f0: 4461 173f 9a18 343e cda0 b9be 31ad 8bbe
00000300: 58c2 d63e 7166 11bf 50b8 0e3f d756 08bf
00000310: 528b 21be c39b 4cbe d659 30bf a40f 1ebf

fc_in.bias f4 [100]
-0.1385422 0.5120521 -0.25008604 0.3714114 0.20117223 -0.40471625 0.2658485 -0.3726091
0.5671404 0.22349274 0.033678744 -0.17527641 0.40883252 -0.6951898 -0.56352156 -0.120235264
0.44790104 0.36065832 -0.16954955 0.66671795 0.43327168 -0.09349146 -0.11620868 0.23179719
0.23112711 0.26373938 -0.24144886 0.52799994 -0.08299578 0.26794764 0.55001223 -0.75229836
0.5251155 0.687613 -0.37150806 0.74913335 -0.32913464 0.49020767 -0.30839708 -0.27531457
-0.15025553 0.43612736 -0.071695976 -0.35343617 -0.7408322 -0.6541531 -0.29496652 -0.015251819
0.6236886 -0.20818052 -0.21159671 0.17192218 0.32601374 -0.4282427 0.3370371 -0.14792064
0.41184342 0.22787635 0.699588 -0.38300198 -0.57103264 -0.36927763 -0.4717459 -0.50033253
-0.4803376 0.050741915 0.33759868 -0.503762 0.0028266183 -0.61787385 0.46936455 -0.5171587
0.41700727 -0.13804226 0.06874954 -0.46465224 0.7042949 -0.20510791 0.65701574 -0.37789604
-0.6083325 -0.5297881 -0.20174423 -0.48874843 -0.41281906 0.6244772 0.5467269 0.28246525
-0.06510026 -0.53729194 0.16001092 0.3723668 -0.47475886 0.61047727 -0.3455461 0.05353968
-0.5703047 0.55118495 -0.19385609 -0.5847092
00000000: 02de 0dbe d915 033f 470b 80be a329 be3e
00000010: 1800 4e3e f836 cfbe 4b1d 883e 9fc6 bebe
00000020: 1d30 113f 48db 643e b9f2 093d a97b 33be
00000030: 7f52 d13e f5f7 31bf f342 10bf e83d f6bd
00000040: 4953 e53e 35a8 b83e 669e 2dbe 07ae 2a3f
00000050: c9d5 dd3e 7378 bfbd d1fe edbd 3e5c 6d3e
00000060: 96ac 6c3e d908 873e 5f3e 77be 012b 073f
00000070: b1f9 a9bd 6f30 893e 9acd 0c3f a096 40bf
00000080: f86d 063f 6807 303f 4e36 bebe 34c7 3f3f
00000090: 5684 a8be 80fc fa3e 39e6 9dbe 08f6 8cbe
000000a0: 96dc 19be 164c df3e 57d5 92bd 96f5 b4be
000000b0: 2ea7 3dbf 9476 27bf da05 97be c4e2 79bc
000000c0: 0eaa 1f3f 462d 55be cfac 58be 5e0c 303e
000000d0: 46eb a63e a142 dbbe 2090 ac3e 8278 17be
000000e0: 24dd d23e 6b58 693e 3318 333f d618 c4be
000000f0: 322f 12bf f511 bdbe ae88 f1be cb15 00bf
00000100: cfee f5be c1d6 4f3d bcd9 ac3e 8cf6 00bf
00000110: c93e 393b fb2c 1ebf 8d50 f03e 8364 04bf
00000120: fa81 d53e f35a 0dbe 8fcc 8c3d e6e6 edbe
00000130: ac4c 343f cf07 52be 2f32 283f 977b c1be
00000140: aebb 1bbf 31a0 07bf 0a96 4ebe 3c3d fabe
00000150: 055d d3be bddd 1f3f 4bf6 0b3f 499f 903e
00000160: 4953 85bd f78b 09bf e7d9 233e dca6 be3e
00000170: 9813 f3be 3d48 1c3f 6beb b0be 6c4c 5b3d
00000180: 7dff 11bf 751a 0d3f 3682 46be 81af 15bf

fc_hidden.weight f4 [100, 100]
0.045190174 0.007004793 -0.031211188 0.061931346 -0.047413882 -0.007424469 0.017896863 -0.08013626
-0.008413705 -0.063353844 0.020252818 0.044286583 0.046388358 0.06539867 0.05471586 0.079937786
-0.07331584 0.076376215 0.09042227 0.038524233 -0.0013783397 -0.093377344 0.009499057 -0.01877078
-0.09601732 -0.034332097 -0.10441152 -0.07329651 -0.070239596 0.019206809 0.018637098 0.08641302
0.066384755 -0.041326888 0.086970806 -0.012290597 -0.097122625 0.010321201 0.017557494 0.0032220727
-0.096778624 -0.06590997 -0.023801547 -0.012573747 -0.008143777 0.054997493 0.08330598 -0.029930262
0.005731135 -0.042446073 0.037564408 0.055425085 -0.0525157 -0.09377545 -0.0032945005 -0.02017806
-0.10045215 -0.008262714 0.04942391 -0.06201363 -0.06446812 0.028480202 0.022971595 -0.07277925
-0.063367635 -0.09373438 -0.0030821117 -0.025778258 0.036177907 -0.06241171 -0.07325889 -0.0520604
0.066062994 0.065814964 0.023798157 -0.011901243 -0.0223683 0.025438314 -0.067387104 -0.07348712
0.020224385 0.03859135 -0.030762786 -0.0646226 -0.052499015 0.009703321 0.003336491 -0.0586033
0.08670018 -0.049778607 -0.08428454 0.060680103 -0.08948724 -0.008563745 -0.0565764 0.0057226075
-0.03821249 -0.0076695615 -0.017913835 0.07564176 -0.10226703 0.0024006006 -0.027990406 0.025210265
0.046117384 -0.08894096 -0.07823392 -0.056080397 0.04228878 0.03609981 0.012278131 0.0035209
0.10972409 0.0073111146 -0.048673533 0.0058057574 -0.03161739 0.0019821725 0.05681715 0.11475232
0.07249378 0.11788354 0.076358035 -0.00047394482 0.02792325 0.05842279 -0.026190005 0.09600393
0.08769931 -0.01925719 0.026843902 -0.056087412 -0.10762872 -0.07010763 0.11613267 0.090840034
0.18727338 0.07450658 0.012314936 0.030316051 -0.031736195 -0.10194932 0.053148475 -0.11624059
-0.0039545665 0.13282232 -0.039507616 0.093719766 -0.09723078 -0.07353093 0.105271325 0.07928801
0.016831737 -0.026454095 0.015286713 0.06602429 0.11957691 -0.018592836 -0.08394986 -0.08971582
0.15928438 -0.08597664 0.027282411 0.037412766 0.03625143 0.08097482 0.010642122 -0.06947851
0.13031045 -0.006663753 0.076091796 0.006778207 -0.0050432924 0.0119085815 0.026934216 -0.2145493
0.051999852 -0.023470882 -0.07662903 0.011940894 0.065536775 0.12347699 0.10967295 -0.056582764
0.05366284 0.06125393 -0.0073103127 0.06352856 -0.054471146 -0.02458172 0.033050418 -0.021878459
0.013716983 0.039118733 -0.06250811 -0.069924444 0.106317155 0.025515474 0.13128063 0.007370243
0.08215603 0.07996858 0.05429413 0.07762615 0.05786769 0.15328392 -0.085170485 0.06117523
-0.049791835 0.115187824 -0.046840027 -0.08521153 -0.034039337 -0.5422185 0.071326196 -0.11815718
-0.052261952 0.06907226 -0.035289053 0.040313803 0.06419824 -0.07098307 -0.038221736 0.0727943
0.06942985 0.005023101 0.027393047 -0.0137635935 -0.11942949 0.013228145 0.047198493 0.052308593
-0.010385543 -0.020589823 -0.06789541 0.10720699 -0.08939296 0.042308588 -0.0052384166 0.007768116
-0.026355725 0.04486868 -0.06522116 0.011654646 0.06999084 0.07010883 -0.021508323 -0.033446886
0.064730845 -0.0149303125 -0.13652465 -0.04967242 0.018032398 -0.20013829 0.09251914 0.057593767
00000000: 5519 393d 7688 e53b 9bae ffbc b9ab 7d3d
00000010: 0f35 42bd f648 f3bb 719c 923c 7b1e a4bd
00000020: a3d9 09bc a9bf 81bd 3de9 a53c d965 353d
00000030: b801 3e3d bdef 853d bd1d 603d 6cb6 a33d
00000040: 9d26 96bd 226b 9c3d 502f b93d 96cb 1d3d
00000050: 68a9 b4ba 9f3c bfbd efa1 1b3c 2ec5 99bc
00000060: bba4 c4bd d09f 0cbd b5d5 d5bd 7b1c 96bd
00000070: c7d9 8fbd 9957 9d3c d4ac 983c 4ff9 b03d
00000080: bbf4 873d 6246 29bd c01d b23d 805e 49bc
00000090: 3ae8 c6bd 411a 293c bcd4 8f3c 6929 533b
000000a0: df33 c6bd cefb 86bd 76fb c2bc 1e02 4ebc
000000b0: 7a6d 05bc 0d45 613d 539c aa3d 4f30 f5bc
000000c0: 3fcc bb3b efdb 2dbd 23dd 193d 6a05 633d
000000d0: b41a 57bd 580d c0bd 8ce8 57bb 754c a5bc
000000e0: dbb9 cdbd 5660 07bc ba70 4a3d 0102 7ebd
000000f0: dd07 84bd 504f e93c ed2e bc3c 4a0d 95bd
00000100: e4c6 81bd d0f7 bfbd 41fd 49bb ed2c d3bc
00000110: 492f 143d 6ca3 7fbd c208 96bd 493d 55bd
00000120: 094c 873d ffc9 863d 5af4 c23c 6efd 42bc
00000130: ba3d b7bc 0364 d03c 4002 8abd 6a80 96bd
00000140: 9cad a53c f711 1e3d 3d02 fcbc db58 84bd
00000150: 3509 57bd aefa 1e3c 08a9 5a3b 040a 70bd
00000160: dd8f b13d a7e4 4bbd 5f9d acbd b38b 783d
00000170: 1645 b7bd f34e 0cbc a8bc 67bd b684 bb3b
00000180: b384 1cbd f250 fbbb 09c0 92bc 11ea 9a3d
00000190: 6071 d1bd 6553 1d3b 234c e5bc c285 ce3c
000001a0: 95e5 3c3d ae26 b6bd 1b39 a0bd 8fb4 65bd
000001b0: 0037 2d3d 65dd 133d 372a 493c e6be 663b
000001c0: 06b7 e03d 1392 ef3b e65d 47bd 393e be3b
000001d0: 3d81 01bd 56e7 013b 1ab9 683d 4403 eb3d
000001e0: 9e77 943d ed6c f13d 9a61 9c3d cc7b f8b9
000001f0: 4dbf e43c bc4c 6f3d 6c8c d6bc b59d c43d
00000200: b29b b33d 41c1 9dbc bee7 db3c eabb 65bd
00000210: 726c dcbd 9794 8fbd f7d6 ed3d 570a ba3d
00000220: 98c4 3f3e e896 983d 96c4 493c 5e59 f83c
00000230: d0fd 01bd ceca d0bd 37b2 593d 8c0f eebd
00000240: 4f95 81bb 9302 083e bdd2 21bd 26f0 bf3d
00000250: ee20 c7bd 6297 96bd 7e98 d73d c161 a23d
00000260: b6e2 893c 42b6 d8bc 1f75 7a3c be37 873d
00000270: bde4 f43d 0150 98bc e7ed abbd eebc b7bd
00000280: 721b 233e 8514 b0bd 5d7f df3c 213e 193d
00000290: 617c 143d 20d6 a53d 4b5c 2e3c c04a 8ebd
000002a0: 1a70 053e 9d5b dabb 04d6 9b3d b91b de3b
000002b0: 3442 a5bb 361c 433c 25a5 dc3c d0b2 5bbe
000002c0: ccfd 543d 0246 c0bc aeef 9cbd bda3 433c
000002d0: 2538 863d 81e1 fc3d 369c e03d 54c3 67bd
000002e0: 91cd 5b3d 67e5 7a3d 598b efbb 431b 823d
000002f0: 231d 5fbd 9a5f c9bc e05f 073d 743a b3bc
00000300: 32bd 603c f73a 203d 4104 80bd 8c34 8fbd
00000310: cfbc d93d d405 d13c 6e6e 063e 1482 f13b
00000320: 6c41 a83d 91c6 a33d 8663 5e3d 75fa 9e3d
00000330: ac06 6d3d 76f6 1c3e dd6d aebd e192 7a3d
00000340: 86f2 4bbd 98e7 eb3d 54db 3fbd 6283 aebd
00000350: d56c 0bbd d5ce 0abf 7813 923d 64fc f1bd
00000360: a110 56bd c275 8d3d 418b 10bd 1620 253d
00000370: 5e7a 833d 925f 91bd 658e 1cbd 2e15 953d
00000380: 3d31 8e3d d398 a43b 6267 e03c b280 61bc
00000390: 7397 f4bd ddba 583c 3553 413d 8941 563d
000003a0: 2028 2abc fdab a8bc c00c 8bbd 578f db3d
000003b0: a813 b7bd c54b 2d3d 06a7 abbb ae8b fe3b
000003c0: f6e7 d7bc 39c8 373d ac92 85bd 21f3 3e3c
000003d0: 5c57 8f3d 3895 8f3d 3932 b0bc 9aff 08bd
000003e0: 9b91 843d 459e 74bc 1ecd 0bbe 4f75 4bbd
000003f0: aeb8 933c 0df1 4cbe ad7a bd3d 71e7 6b3d

fc_hidden.bias f4 [100]
-0.09971927 -0.0058591035 -0.032023676 0.07686111 0.0556865 -0.1129698 0.11872117 0.0067921467
-0.05614918 0.038967762 0.022017555 -0.025451696 -0.014974821 -0.09646519 0.051245414 0.003051851
0.07472401 -0.048710704 0.06107369 0.051767286 -0.09045306 0.07493039 0.073557116 0.014511581
0.038725737 0.0251205 0.011004254 0.0699414 -0.04192387 0.009699859 0.008051636 0.09746388
-0.04852769 0.01942253 -0.055771638 -0.06594201 -0.110931836 0.08920789 0.013985902 0.07994505
0.093225814 -0.084004566 0.07462846 0.07114563 0.04818095 0.012247993 -0.039776415 0.039721433
-0.045847345 -0.04134307 0.029718557 0.07767985 0.034259316 -0.037420753 0.08321951 0.013378792
0.078385085 0.0868747 -0.07623204 -0.046804246 0.0011324448 0.06228014 -0.04865822 0.10280148
0.050090518 -0.09902209 -0.068972886 -0.04886177 0.0469644 0.07027025 0.0059664473 0.0030259523
0.0412186 0.045959238 -0.030307183 -0.05567312 0.08511419 -0.06414041 0.051281843 -0.028135005
-0.0833137 -0.079174556 -0.0026419056 0.059248615 0.05857861 0.11570756 -0.03370661 0.044282597
0.06424935 0.09926956 -0.030406022 -0.056181714 0.12410659 -0.047974013 -0.042444937 0.0056561157
-0.04982136 0.009374659 0.016629322 -0.0334049
00000000: 9e39 ccbd b9fd bfbb 422b 03bd 5c69 9d3d
00000010: 8717 643d b65c e7bd 1624 f33d a890 de3b
00000020: affc 65bd a99c 1f3d 295e b43c 1380 d0bc
00000030: f458 75bc 8b8f c5bd b6e6 513d 9001 483b
00000040: e708 993d e084 47bd 6828 7a3d ef09 543d
00000050: 743f b9bd 1b75 993d 1da5 963d fbc1 6d3c
00000060: e19e 1e3d 82c9 cd3c 304b 343c 703d 8f3d
00000070: 5db8 2bbd 28ec 1e3c 02eb 033c 259b c73d
00000080: f9c4 46bd ff1b 9f3c cd70 64bd 9b0c 87bd
00000090: 3b30 e3bd a0b2 b63d 2025 653c 3bba a33d
000000a0: 2ded be3d 960a acbd ced6 983d cdb4 913d
000000b0: 6359 453d ceab 483c 98ec 22bd f1b2 223d
000000c0: 6dca 3bbd 5a57 29bd 5574 f33c 9d16 9f3d
000000d0: 7f53 0c3d 8146 19bd fe6e aa3d b932 5b3c
000000e0: 5c88 a03d 5deb b13d 8b1f 9cbd cfb5 3fbd
000000f0: 8b6e 943a 7619 7f3d d74d 47bd 9589 d23d
00000100: b72b 4d3d 18cc cabd a841 8dbd 4823 48bd
00000110: be5d 403d d9e9 8f3d 3082 c33b 0e4f 463b
00000120: d6d4 283d c13f 3c3d c546 f8bc 7f09 64bd
00000130: 5950 ae3d 0c5c 83bd e90c 523d 627b e6bc
00000140: 60a0 aabd 4526 a2bd d223 2dbb adae 723d
00000150: 20f0 6f3d 16f8 ec3d f10f 0abd ab61 353d
00000160: 2a95 833d d74d cb3d 0d16 f9bc cc1e 66bd
00000170: 992b fe3d 6680 44bd beda 2dbd f056 b93b
00000180: 7b11 4cbd 2b98 193c 373a 883c 94d3 08bd

fc_out.weight f4 [1, 100]
0.091027744 -0.104475856 0.06646238 0.12223024 0.072695106 0.14109063 -0.033073924 0.09654268
0.06497445 0.08240732 -0.03328307 -0.14224926 -0.1452062 -0.07505337 0.12770893 0.091652624
0.077927284 -0.13606133 -0.08254522 -0.15380214 0.07862125 -0.09635151 -0.033874482 0.070465736
0.028748825 0.053413227 -0.04029393 -0.15957946 -0.13890527 -0.107329026 0.110722676 0.13359438
0.012790708 -0.044585336 -0.0008576308 0.051915217 -0.1138596 0.0700563 -0.043492395 -0.054033764
0.049858026 0.07649747 0.203245 -0.09300238 -0.10906705 -0.23059428 0.23805808 -0.13178763
-0.08138632 0.028044688 -0.15662973 -0.17668414 -0.069678806 -0.16811998 0.06492619 0.040713675
-0.113286845 0.110399164 -0.038701966 0.06992223 0.016286083 0.047278948 0.05976359 0.077425286
-0.08412592 -0.1132293 0.04866248 0.17559005 -0.22265616 0.10436542 0.025926411 0.100452796
0.038198784 0.11319033 0.16636583 0.19578128 -0.08255066 0.06581268 0.079680815 0.12281153
-0.10439783 -0.10792917 -0.116467856 -0.053495143 -0.1449589 0.1304372 -0.061886773 -0.081202134
0.058849256 -0.097248346 -0.07117573 0.042962633 -0.072431326 0.119880565 -0.14513487 -0.07164761
-0.08477167 0.04673068 -0.11533703 -0.1074828
00000000: c16c ba3d 70f7 d5bd 6e1d 883d d953 fa3d
00000010: 2ce1 943d 107a 103e 8678 07bd 2bb8 c53d
00000020: 5311 853d 2bc5 a83d d453 08bd caa9 11be
00000030: efb0 14be 95b5 99bd 21c6 023e 5fb4 bb3d
00000040: 5798 9f3d a953 0bbe 780d a9bd 4f7e 1dbe
00000050: 2e04 a13d f153 c5bd f8bf 0abd 5750 903d
00000060: a882 eb3c d4c7 5a3d 3f0b 25bd cc68 23be
00000070: 2f3d 0ebe 52cf dbbd 92c2 e23d f7cc 083e
00000080: 1e90 513c 1d9f 36bd a1d2 60ba 0da5 543d
00000090: 392f e9bd ad79 8f3d 1525 32bd 8252 5dbd
000000a0: ee37 4c3d b5aa 9c3d 751f 503e 0878 bebd
000000b0: 8c5e dfbd e820 6cbe 7fc5 733e 56f3 06be
000000c0: dfad a6bd f9bd e53c 8b63 20be b0ec 34be
000000d0: c3b3 8ebd a527 2cbe 06f8 843d 62c3 263d
000000e0: ef02 e8bd f518 e23d f485 1ebd 6333 8f3d
000000f0: 646a 853c 92a7 413d abca 743d 2691 9e3d
00000100: 364a acbd c3e4 e7bd 4f52 473d e1cd 333e
00000110: faff 63be 8abd d53d a063 d43c 32ba cd3d
00000120: 5476 1c3d 55d0 e73d ce5b 2a3e e37a 483e
00000130: 5210 a9bd ccc8 863d b22f a33d 9d84 fb3d
00000140: 88ce d5bd f809 ddbd b386 eebd b91d 5bbd
00000150: 1b70 14be 5491 053e fc7c 7dbd 4e4d a6bd
00000160: eb0b 713d 242a c7bd 95c4 91bd 96f9 2f3d
00000170: e056 94bd f183 f53d 3c9e 14be fbbb 92bd
00000180: c59c adbd ab68 3f3d d235 ecbd f11f dcbd
