Copula by Ratio Estimation/2d_exp/model_parameters_NNet_ratio_25_runs_4copulas_2Dexperiment_ok1/NNet_ratio_run_12_cop_u_0_ok.pt (torch, 45099 bytes, 5 tensors)

fc_in.weight f4 [100, 2]
0.609428 0.5072919 0.7509617 0.3290264 -0.505327 0.7527046 0.16313435 0.16945358
0.3414282 -0.40315646 -0.6025254 -0.5769886 0.5980614 0.5419577 0.20275642 0.21075831
-0.30102363 0.6336604 0.0140841575 0.013117717 -0.12773907 -0.5492435 0.52460575 -0.18098706
-0.023871876 -0.42171946 -0.29646504 -0.033976246 -0.52660906 0.23554769 0.29050514 0.39406306
0.13711569 -0.7354068 -0.049727555 -0.6874297 -0.70787895 -0.014242722 -0.02656579 0.57008654
-0.07628965 -0.44227946 0.59588915 -0.01871592 0.5689282 -0.027229222 -0.37630463 -0.45884863
0.13645193 -0.5236168 -0.20472018 0.6393385 -0.65429634 -0.10103856 -0.4930955 -0.27019644
0.38708004 -0.669512 0.23201703 0.6324802 -0.43111205 -0.6391008 -0.3403613 -0.28587216
0.70703924 0.056763716 -0.65030324 0.14559892 0.52896667 -0.31712523 -0.80347496 0.2576281
0.04062375 -0.63556117 -0.7552931 0.10723773 -0.31483993 0.2009711 -0.5320124 -0.5236358
0.6512353 0.67776084 0.2841924 -0.7881626 0.39257497 -0.58209914 0.49462995 -0.53163034
0.23103139 -0.25822753 0.683519 0.0062908493 0.48864684 0.14382416 0.14839812 0.6373161
-0.29661173 -0.5084647 -0.03323213 0.3251759 -0.619186 -0.038856443 -0.0142430235 0.3632932
0.39671823 0.2557641 -0.6486515 -0.5783329 -0.18923835 0.44738966 -0.19423006 0.61831397
-0.5385496 -0.12575993 0.6243393 -0.52478355 0.22359131 0.20860444 0.12573983 0.6638179
0.6088046 0.011329928 0.25203565 -0.5860982 0.48383316 -0.24671854 -0.1564405 0.15610631
0.34565297 0.15775114 -0.19777969 -0.21149571 -0.45972824 0.070964634 0.19207677 -0.18792388
0.34579286 -0.497455 -0.26483124 -0.35611638 -0.75336015 -0.63051414 0.13245459 0.58647865
-0.13085327 0.22438766 0.3557698 0.7413795 0.53898907 0.6007479 0.02440683 0.34297338
0.5218074 0.17655066 0.30894157 -0.7093594 0.47393173 -0.26577803 -0.705199 0.317654
0.30536547 -0.34186283 0.66765296 -0.22296606 0.39998952 -0.20343998 -0.7784379 0.25312933
0.3064679 -0.5361398 0.005691312 -0.23090872 0.30106166 -0.4861763 0.12768799 0.022695035
-0.64131373 0.37937593 -0.6637483 0.2585587 0.20808421 -0.3475019 -0.07568045 -0.106793955
0.54173 -0.30775678 -0.45136887 0.7372335 0.6433778 -0.33472273 -0.008259683 -0.124123104
0.5204267 0.4946404 0.32628933 -0.11027723 0.5267578 0.17207806 -0.46141452 0.48757038
00000000: 7903 1c3f e2dd 013f 073f 403f 2676 a83e
00000010: 1c5d 01bf 40b1 403f b10c 273e 3d85 2d3e
00000020: adcf ae3e 866a cebe 1b3f 1abf 86b5 13bf
00000030: 8d1a 193f bdbd 0a3f 619f 4f3e 07d1 573e
00000040: c51f 9abe 9137 223f 3dc1 663c b1eb 563c
00000050: 08ce 02be 399b 0cbf 904c 063f ac54 39be
00000060: f48e c3bc 9deb d7be 44ca 97be ad2a 0bbd
00000070: dacf 06bf 6a33 713e 17bd 943e a2c2 c93e
00000080: 0e68 0c3e 9f43 3cbf 1faf 4bbd 65fb 2fbf
00000090: 8e37 35bf 4e5a 69bc 80a0 d9bc 31f1 113f
000000a0: bf3d 9cbd 7472 e2be 318c 183f 2152 99bc
000000b0: 47a5 113f d10f dfbc 00ab c0be 35ee eabe
000000c0: 0eba 0b3e c00b 06bf 2ba2 51be b0ab 233f
000000d0: f77f 27bf 4eed cebd 0377 fcbe 3057 8abe
000000e0: 5b2f c63e 2365 2bbf df95 6d3e 39ea 213f
000000f0: b8ba dcbe 1c9c 23bf d643 aebe d65d 92be
00000100: 8600 353f 1281 683d 467a 26bf e217 153e
00000110: 5c6a 073f 3d5e a2be 89b0 4dbf d5e7 833e
00000120: 1765 263d 23b4 22bf e35a 41bf 749f db3d
00000130: b332 a1be 5ecb 4d3e f731 08bf ff0c 06bf
00000140: 5bb7 263f bc81 2d3f ab81 913e 06c5 49bf
00000150: 96ff c83e 7304 15bf 2340 fd3e ed18 08bf
00000160: 7e93 6c3e 6636 84be 1afb 2e3f 7823 ce3b
00000170: eb2f fa3e a446 133e adf5 173e 2627 233f
00000180: 7edd 97be be2a 02bf 6a1e 08bd 757d a63e
00000190: f982 1ebf ef27 1fbd 925b 69bc 9101 ba3e
000001a0: a71e cb3e 83f3 823e 060e 26bf a00d 14bf
000001b0: b3c7 41be 4210 e53e 3fe4 46be d349 1e3f
000001c0: 63de 09bf 36c7 00be b3d4 1f3f 3758 06bf
000001d0: 1ff5 643e 679c 553e f1c1 003e f8ef 293f
000001e0: 9eda 1b3f 2aa1 393c d10a 813e 880a 16bf
000001f0: fbb8 f73e c9a3 7cbe f031 20be 55da 1f3e
00000200: 6df9 b03e 8489 213e c286 4abe 5592 58be
00000210: 8061 ebbe e855 913d c6af 443e 1e6f 40be
00000220: c30b b13e 6cb2 febe f697 87be e354 b6be
00000230: 36dc 40bf 6069 21bf 2da2 073e 7723 163f
00000240: 66fe 05be e1c5 653e 7627 b63e 0ccb 3d3f
00000250: 30fb 093f 9dca 193f d5f0 c73c 359a af3e
00000260: 2b95 053f b2c9 343e 972d 9e3e 9498 35bf
00000270: 2ea7 f23e 0f14 88be ec87 34bf 8ca3 a23e
00000280: dd58 9c3e a508 afbe 4eeb 2a3f 3751 64be
00000290: 6dcb cc3e 9252 50be b547 47bf 2b9a 813e
000002a0: 5ce9 9c3e 7540 09bf 2f7e ba3b 5673 6cbe
000002b0: c124 9a3e 1aec f8be a4c0 023e f0ea b93c
000002c0: 232d 24bf 903d c23e 69eb 29bf ce61 843e
000002d0: 0714 553e c5eb b1be 5afe 9abd cab6 dabd
000002e0: d1ae 0a3f 4c92 9dbe d219 e7be 56bb 3c3f
000002f0: 68b4 243f c760 abbe 9f53 07bc 4134 febd
00000300: af3a 053f 8241 fd3e 650f a73e 07d9 e1bd
00000310: 99d9 063f 3b35 303e 863e ecbe d3a2 f93e

fc_in.bias f4 [100]
0.338374 -0.4484188 -0.23989177 -0.6121743 0.65824103 0.7082546 0.48293418 -0.7628737
-0.24749535 -0.11399312 0.2414851 0.5749436 -0.008750097 0.20705453 0.11277634 0.72740597
-0.6403924 0.26959062 -0.72619694 -0.1514221 0.19372688 0.40271637 0.3746834 0.5722834
-0.40707302 0.5544035 0.5965458 -0.29054356 -0.39445528 -0.008307689 -0.25893867 -0.5923009
0.34296536 0.30703884 -0.33620328 0.2797345 0.6909699 -0.38182458 0.5059008 -0.7661779
0.34443462 -0.566849 -0.38671356 -0.5009243 -0.043557126 0.6995844 -0.037661396 0.14570789
0.66902703 -0.30744603 0.5553957 0.55735356 0.06843051 0.4457298 -0.5492932 0.1350335
-0.5681736 0.63072354 -0.7963682 -0.5858646 0.6250279 -0.4180251 0.16095017 0.22081546
0.27374902 -0.107477106 0.55982006 0.06113713 -0.24110667 0.54476154 0.037536725 -0.56654024
-0.53836536 0.5046398 -0.6754664 -0.29160675 -0.6784454 0.2975892 -0.6981149 0.124013394
-0.057717953 -0.14495006 0.47114122 0.1907893 0.728313 0.5976204 0.2479239 -0.6565943
-0.4602606 0.38572025 -0.059178833 0.09924996 -0.051145893 -0.52781826 0.27204275 0.10501504
-0.4817011 0.40496317 -0.6775303 0.29243708
00000000: 5b3f ad3e 2697 e5be 30a6 75be 74b7 1cbf
00000010: 7c82 283f 2c50 353f 2643 f73e b14b 43bf
00000020: 6c6f 7dbe 3a75 e9bd df47 773e 812f 133f
00000030: 915c 0fbc 1a06 543e 48f7 e63d 4737 3a3f
00000040: c2f0 23bf c807 8a3e 0be8 39bf 650e 1bbe
00000050: 5760 463e d730 ce3e 81d6 bf3e 2a81 123f
00000060: e06b d0be 63ed 0d3f 3ab7 183f 20c2 94be
00000070: 0bf6 c9be f91c 08bc 9c93 84be 08a1 17bf
00000080: 2899 af3e 3234 9d3e d622 acbe 5c39 8f3e
00000090: 67e3 303f 837e c3be b782 013f 3c24 44bf
000000a0: bc59 b03e 041d 11bf 52ff c5be 933c 00bf
000000b0: f568 32bd f717 333f d642 1abd 7334 153e
000000c0: 5b45 2b3f 9169 9dbe 6a2e 0e3f b9ae 0e3f
000000d0: 4c25 8c3d b236 e43e 7b9e 0cbf 3946 0a3e
000000e0: d373 11bf 1977 213f c9de 4bbf 39fb 15bf
000000f0: d401 203f 6307 d6be 1fd0 243e 731d 623e
00000100: d528 8c3e f51c dcbd 5e50 0f3f ed6a 7a3d
00000110: abe4 76be 7e75 0b3f 1cc0 193d c808 11bf
00000120: 50d2 09bf 1330 013f 5eeb 2cbf 7b4d 95be
00000130: 99ae 2dbf 9d5d 983e a8b7 32bf bcfa fd3d
00000140: a969 6cbd ca6d 14be 6c39 f13e 455e 433e
00000150: b972 3a3f a7fd 183f c3df 7d3e 9016 28bf
00000160: 47a7 ebbe 207d c53e 8165 72bd 9043 cb3d
00000170: 5b7e 51bd 191f 07bf 3049 8b3e 2012 d73d
00000180: 87a1 f6be 5557 cf3e a072 2dbf 50ba 953e

fc_hidden.weight f4 [100, 100]
0.06882126 -0.06344134 0.058871947 0.043873962 -0.027107084 0.046179 -0.079126686 0.07783402
0.06646264 0.08310908 -0.07044829 -0.09191869 -0.049012206 -0.043810047 0.029635092 -0.03026584
-0.038875043 -0.073883116 -0.0044800336 0.06212747 0.035552364 0.04242122 -0.05222754 0.01133109
-0.01782838 -0.0799217 -0.04417541 -0.12194698 0.059051167 -0.04695033 0.043115567 -0.0656264
0.0037361516 0.05736421 0.07674539 0.048739634 -0.005207433 0.028280146 0.06993945 -0.008882991
-0.08585467 -0.03122961 0.0075836135 -0.080872685 -0.016347298 -0.06599909 0.055598035 -0.110628635
-0.02155378 -0.058939096 -0.11237177 0.060962643 -0.0594949 -0.028939458 -0.03969457 -0.09087655
0.05957087 0.011398892 -0.07992431 -0.04091526 0.058283858 0.06010972 0.020064842 0.04164502
-0.067618445 -0.00731245 0.0712241 0.07903873 -0.0073480858 0.06818312 -0.002491428 -0.0064140395
0.05831031 0.04516574 0.01565897 -0.0048699966 -0.048550118 0.008075728 0.040007096 -0.04157272
0.013883325 -0.06672034 0.031100588 0.022940164 -0.07508577 -0.08317023 0.016324913 0.021780616
-0.014618219 -0.06592582 -0.05928656 -0.036685307 -0.020853018 0.07177187 0.029151838 -0.055478733
-0.054627907 -0.03357231 -0.05583007 -0.110853724 0.04630698 0.026363658 -0.037732303 0.010674302
0.036571726 -0.016343307 -0.034848824 -0.08624314 -0.009347215 0.036254093 -0.11850763 0.028022466
-0.07753959 0.1233324 0.0074783047 0.08864663 -0.17543899 -0.054745454 0.14062206 0.119194284
-0.123729475 -0.17429046 0.0074180816 0.06774573 -0.067221776 0.06276503 0.08780666 -0.008496967
0.0073210187 -0.17231268 -0.054876607 -0.18009065 -0.056306284 0.1468911 0.06109658 -0.00488471
-0.0508165 0.09036456 0.010244693 -0.053806286 -0.1287862 0.16518913 0.13314536 0.059883837
-0.19835365 -0.086971916 -0.06317209 0.10512246 -0.06549463 -0.13472264 0.06460346 0.01562252
-0.09402893 -0.048847143 -0.29084957 0.01450897 0.0663319 -0.112286575 0.11506124 -0.25533774
-0.040465366 -0.10695321 -0.25658333 0.10589836 0.03894958 -0.08144602 0.040418234 -0.06298261
0.18461749 -0.08149365 0.067775585 -0.05552165 -0.6687057 0.07970508 -0.12527119 -0.1496887
-0.02775906 -0.09525132 -0.010647419 0.18628258 -0.051252853 -0.056842376 -0.10351478 0.047598537
0.0031226312 -0.01495088 -0.026646856 0.008662486 0.08748926 0.1470471 -0.12877458 0.007956422
0.032398775 -0.031378068 -0.14413057 -0.06964625 -0.047530312 -0.021756206 -0.0013297613 0.13989472
-0.028621295 -0.055233173 0.12549487 -0.16007344 0.057551652 0.05111938 0.09510924 -0.082274295
0.09391704 -0.0066492576 0.056248695 0.085890144 0.045289185 -0.0006371798 -0.029691307 0.05642747
0.011428524 0.019477159 -0.037355386 0.03942506 -0.017843714 -0.03599427 -0.03910347 0.009652107
0.07667311 0.11300313 -0.045139547 0.13602708 0.046781298 0.06678141 -0.055864006 -0.074083626
0.13965411 0.10247536 0.036251154 0.12125014 -0.033406038 0.08012996 -0.05476947 0.025083598
-0.03900863 0.008193651 0.11876703 0.094637245 0.07071918 -0.104504324 0.122013815 -0.057347782
-0.0926038 0.028013729 -0.0844155 -0.0040259776 0.036462057 0.10129725 0.10180304 0.074253306
00000000: 29f2 8c3d 89ed 81bd b623 713d 2fb5 333d
00000010: ad0f debc 3126 3d3d 2c0d a2bd 7167 9f3d
00000020: 911d 883d 1835 aa3d 3147 90bd de3f bcbd
00000030: 06c1 48bd 2a72 33bd 4bc5 f23c 11f0 f7bc
00000040: 703b 1fbd 0850 97bd 3fcd 92bb 6079 7e3d
00000050: 5b9f 113d e0c1 2d3d 8cec 55bd 09a6 393c
00000060: d30c 92bc fdad a3bd 46f1 34bd 57bf f9bd
00000070: a3df 713d fd4e 40bd f399 303d 2267 86bd
00000080: 39da 743b bcf6 6a3d b02c 9d3d 36a3 473d
00000090: 1da3 aabb c4ab e73c 6a3c 8f3d f789 11bc
000000a0: 93d4 afbd 3dd5 ffbc f67f f83b 94a0 a5bd
000000b0: c5ea 85bc 882a 87bd c4ba 633d 4491 e2bd
000000c0: 8e91 b0bc 1f6a 71bd 2c23 e6bd f7b3 793d
000000d0: edb0 73bd 7112 edbc c696 22bd 7c1d babd
000000e0: 9600 743d 6bc2 3a3c 5baf a3bd c296 27bd
000000f0: 0ebb 6e3d 9c35 763d 065f a43c f893 2a3d
00000100: 8a7b 8abd 479d efbb f1dd 913d 0fdf a13d
00000110: 36c8 f0bb 97a3 8b3d 3a47 23bb dd2c d2bb
00000120: cbd6 6e3d b6ff 383d 3e47 803c 7e94 9fbb
00000130: 7ddc 46bd 0f50 043c 7bde 233d 2848 2abd
00000140: e376 633c aca4 88bd a9c6 fe3c 03ed bb3c
00000150: 91c6 99bd 2755 aabd d3bb 853c 436d b23c
00000160: 4181 6fbc 1e04 87bd 77d6 72bd 5543 16bd
00000170: f3d3 aabc 21fd 923d d6cf ee3c ab3d 63bd
00000180: 83c1 5fbd 1e83 09bd 12ae 64bd 4707 e3bd
00000190: 63ac 3d3d 99f8 d73c 308d 1abd 44e3 2e3c
000001a0: 3ccc 153d 66e2 85bc a4bd 0ebd 3ea0 b0bd
000001b0: 1025 19bc 2c7f 143d 21b4 f2bd 5f8f e53c
000001c0: 14cd 9ebd b395 fc3d 910c f53b 5d8c b53d
000001d0: 47a6 33be c53c 60bd 3bff 0f3e 221c f43d
000001e0: e165 fdbd 3379 32be 6113 f33b 46be 8a3d
000001f0: 92ab 89bd f48a 803d fad3 b33d dd36 0bbc
00000200: 28e5 ef3b bc72 30be 4bc6 60bd af69 38be
00000210: 6ba1 66bd 9f6a 163e 6840 7a3d eb0f a0bb
00000220: f624 50bd 0e11 b93d 5bd9 273c fb63 5cbd
00000230: 88e0 03be 5727 293e 4257 083e c148 753d
00000240: 381d 4bbe 551e b2bd 5e60 81bd 724a d73d
00000250: 0c22 86bd bbf4 09be d24e 843d 99f5 7f3c
00000260: 3d92 c0bd f113 48bd 3cea 94be 08b7 6d3c
00000270: 05d9 873d 81f6 e5bd 3aa5 eb3d a1bb 82be
00000280: 03bf 25bd 490a dbbd e45e 83be 3de1 d83d
00000290: 9889 1f3d 2ccd a6bd 978d 253d 07fd 80bd
000002a0: 5e0c 3d3e 25e6 a6bd edcd 8a3d ab6a 63bd
000002b0: 4c30 2bbf 6b3c a33d 1747 00be ff47 19be
000002c0: f866 e3bc 2013 c3bd 8372 2ebc dcc0 3e3e
000002d0: 83ee 51bd 8dd3 68bd 8fff d3bd aff6 423d
000002e0: 0fa5 4c3b 89f4 74bc 824a dabc 1aed 0d3c
000002f0: 922d b33d 8493 163e 7cdd 03be a75b 023c
00000300: 94b4 043d 4a86 00bd f796 13be b1a2 8ebd
00000310: 25af 42bd 123a b2bc 634b aeba 9040 0f3e
00000320: 3577 eabc 2e3c 62bd ba81 003e 4bea 23be
00000330: 48bb 6b3d 8e62 513d a2c8 c23d 6d7f a8bd
00000340: 9457 c03d 04e2 d9bb 0865 663d 2ce7 af3d
00000350: 2781 393d 6a08 27ba 2f3b f3bc 7e20 673d
00000360: b43e 3b3c 908e 9f3c f601 19bd 2c7c 213d
00000370: fb2c 92bc ba6e 13bd f62a 20bd df23 1e3c
00000380: cb06 9d3d 2f6e e73d 3fe4 38bd af4a 0b3e
00000390: bf9d 3f3d b1c4 883d a8d1 64bd 28b9 97bd
000003a0: 7d01 0f3e 9ade d13d 177c 143d fe51 f83d
000003b0: c5d4 08bd 2d1b a43d f455 60bd 1e7c cd3c
000003c0: 83c7 1fbd aa3e 063c 213c f33d 2cd1 c13d
000003d0: 38d5 903d 5d06 d6bd 61e2 f93d 82e5 6abd
000003e0: 10a7 bdbd 0c7d e53c 09e2 acbd 59ec 83bb
000003f0: 3d59 153d ef74 cf3d 1d7e d03d 1e12 983d

fc_hidden.bias f4 [100]
0.013093676 -0.023548538 -0.06889413 0.047310207 -0.041974835 -0.022473177 0.050954394 0.11576616
0.08436697 0.08075873 0.08968257 -0.05840346 0.076978885 0.03201532 0.08636977 0.07913344
-0.01881974 -0.025662784 -0.021918114 0.069642454 -0.034372866 -0.0864018 0.08695836 -0.0077739996
0.02156517 0.0552292 0.06333978 0.05485284 0.06598939 0.095783636 0.0007359096 -0.055497266
0.06326777 -0.06372832 0.033429917 0.09898861 -0.03591628 -0.01873956 0.05205504 0.0062746718
-0.08052622 -0.0141312145 0.08827426 0.008614543 0.12164023 0.095590755 -0.009404069 0.009905959
0.08504861 -0.06966742 -0.0065065403 -0.08591699 -0.053126533 0.01593043 -0.025895584 -0.016718369
0.04710106 0.030541914 -0.05991626 0.09940969 -0.009875502 0.064973526 0.03387284 0.09898471
0.011994817 -0.0049129343 -0.077041276 -0.038158707 -0.035238206 -0.09345765 0.04833137 0.053960513
0.058269788 -0.0044431044 -0.045750372 0.004463216 -0.041201327 -0.07636467 -0.06590514 0.054019425
-0.0057107424 0.10875358 0.09873553 0.05099804 0.118889816 -0.04664234 -0.018880637 -0.052573226
-0.05534922 -0.031199124 -0.044905607 0.063975796 0.0062334496 0.08974041 -0.051218577 0.10768853
0.013221629 0.011017875 0.03933771 -0.084494986
00000000: dc86 563c dde8 c0bc 5e18 8dbd 59c8 413d
00000010: ceed 2bbd ab19 b8bc 8eb5 503d cf16 ed3d
00000020: 97c8 ac3d d564 a53d 7fab b73d 7738 6fbd
00000030: 1ba7 9d3d 7f22 033d a2e2 b03d b710 a23d
00000040: db2b 9abc c23a d2bc 9e8d b3bc b4a0 8e3d
00000050: 90ca 0cbd 6df3 b0bd 3a17 b23d 09bd febb
00000060: 70a9 b03c 0338 623d 49b8 813d 5fad 603d
00000070: 7225 873d 362a c43d 0fea 403a 1a51 63bd
00000080: 8892 813d fe83 82bd cfed 083d 8aba ca3d
00000090: f31c 13bd b583 99bc aa37 553d c39b cd3b
000000a0: eeea a4bd 9c86 67bc 23c9 b43d 0324 0d3c
000000b0: 831e f93d 16c5 c33d 8613 1abc 9a4c 223c
000000c0: f72d ae3d cbad 8ebd d134 d5bb 3ff5 afbd
000000d0: 359b 59bd 8880 823c fa22 d4bc f6f4 88bc
000000e0: 0bed 403d 0933 fa3c c16a 75bd 4f97 cb3d
000000f0: dccc 21bc d710 853d 3fbe 0a3d 7fb8 ca3d
00000100: e985 443c aefc a0bb d1c7 9dbd 4e4c 1cbd
00000110: f055 10bd b966 bfbd 1df7 453d b305 5d3d
00000120: 4dac 6e3d 7697 91bb be64 3bbd 2b40 923b
00000130: b9c2 28bd 1565 9cbd 46f9 86bd 7943 5d3d
00000140: 2e21 bbbb 32ba de3d db35 ca3d 52e3 503d
00000150: 817c f33d 0a0c 3fbd 91ab 9abc 0657 57bd
00000160: ddb5 62bd 4e95 ffbc f1ee 37bd be05 833d
00000170: f741 cc3b d2c9 b73d 92ca 51bd ce8b dc3d
00000180: 889f 583c 5184 343c 9420 213d b50b adbd

fc_out.weight f4 [1, 100]
0.03207098 -0.027056782 -0.13235746 0.16483589 0.076530375 0.036307137 0.087661535 0.09710426
0.06014608 -0.07950103 0.06802467 -0.028827887 -0.09091737 -0.06190517 0.05048053 0.07420874
0.07112752 -0.07367489 0.13979399 -0.10716961 0.07648851 -0.120752566 -0.071423806 0.047256134
-0.048389144 -0.1282554 0.112642705 -0.123449914 -0.09774915 -0.10275669 -0.07956865 0.18580882
-0.13930365 0.059836138 0.02632766 -0.042688128 -0.05271058 0.032052208 -0.07867114 0.10291516
0.082717106 0.119546264 -0.12820056 -0.086647406 0.14797916 0.11921675 -0.166996 0.00054685504
-0.067421086 0.1152546 0.024691341 0.095117934 0.06856298 0.086109936 -0.08375522 -0.12848523
-0.10890027 0.11250959 0.108043686 0.15904504 0.04884666 0.06949899 -0.06227534 0.052882914
-0.035917044 0.043130282 0.080788046 -0.086717725 -0.11377592 -0.076133266 -0.08510216 0.06659031
-0.023869827 0.093541756 -0.12548414 0.082088575 -0.17129631 -0.030367132 -0.078034855 0.058732353
-0.1408602 0.022831867 -0.07535787 -0.03683821 -0.08422409 0.09222377 0.067320965 -0.07080847
0.012334427 -0.102218 0.13995415 0.025655514 -0.12523513 0.11519118 0.060138144 0.13700722
0.04518068 -0.057884894 -0.1296311 -0.07039524
00000000: dc5c 033d 2fa6 ddbc b788 07be bdca 283e
00000010: f5bb 9c3d cbb6 143d e487 b33d 99de c63d
00000020: bc5b 763d 70d1 a2bd 8550 8b3d 7628 ecbc
00000030: e332 babd 4790 7dbd acc4 4e3d c0fa 973d
00000040: 4eab 913d dce2 96bd 2826 0f3e be7b dbbd
00000050: 02a6 9c3d 1f4d f7bd a546 92bd a68f 413d
00000060: b233 46bd 6255 03be 38b1 e63d 4fd3 fcbd
00000070: b530 c8bd 1972 d2bd e3f4 a2bd ab44 3e3e
00000080: 9ea5 0ebe bd16 753d 1bad d73c bfd9 2ebd
00000090: 0de7 57bd 2d49 033d 561e a1bd 2fc5 d23d
000000a0: 9667 a93d acd4 f43d 0247 03be 3274 b1bd
000000b0: d987 173e e927 f43d 0001 2bbe d25a 0f3a
000000c0: 1114 8abd 9b0a ec3d 7f45 ca3c 31cd c23d
000000d0: bf6a 8c3d 685a b03d db87 abbd a291 03be
000000e0: 1b07 dfbd 6e6b e63d 0246 dd3d b4dc 223e
000000f0: 6f13 483d 7d55 8e3d 6d14 7fbd c19b 583d
00000100: c01d 13bd 61a9 303d 3474 a53d 1099 b1bd
00000110: 5903 e9bd c2eb 9bbd 0b4a aebd 8060 883d
00000120: a88a c3bc d292 bf3d ea7e 00be 0e1e a83d
00000130: 4d68 2fbe 7ec4 f8bc bdd0 9fbd 5691 703d
00000140: a83d 10be e509 bb3c 3a55 9abd aae3 16bd
00000150: ae7d acbd d1df bc3d 93df 893d 0804 91bd
00000160: 5616 4a3c ac57 d1bd 2450 0f3e 832b d23c
00000170: a33d 00be 5ae9 eb3d 6a53 763d 9f4b 0c3e
00000180: 600f 393d b618 6dbd 04be 04be 612b 90bd
