Copula by Ratio Estimation/2d_exp/model_parameters_NNet_ratio_25_runs_4copulas_2Dexperiment_ok1/NNet_ratio_run_17_cop_u_1_ok.pt (torch, 45099 bytes, 5 tensors)

fc_in.weight f4 [100, 2]
000000 2d b1 35 bf ba 94 42 3e f8 7c 34 3f 79 a2 be 3e
       -0.70973474 0.19002047 0.7050319 0.37233332
000010 71 b8 11 3f 5f 41 ef bd 87 12 73 be 0c c5 11 3f
       0.5692206 -0.116823904 -0.23737536 0.56941295
000020 54 a5 79 3e bb bc fe be 24 34 19 bf cd 2e 26 bf
       0.24379474 -0.49753365 -0.59845185 -0.6491516
000030 f3 30 fa be ec 46 d6 3e 36 11 a2 be 28 40 c6 3e
       -0.4886547 0.41850984 -0.31653756 0.38720822
000040 cc 93 eb 3e b7 00 2e bf 0b 04 01 bf 98 dd 96 3d
       0.46011198 -0.6796984 -0.50396794 0.073664844
000050 8c 47 f7 3e 4c 18 fb be 1f 37 28 3f c6 b6 12 3e
       0.48296773 -0.49041975 0.6570911 0.14327535
000060 04 44 77 3e 96 06 f1 be 4c 8e 82 3e 82 02 15 bf
       0.2414704 -0.47075337 0.2549919 -0.5820695
000070 b0 84 33 bf 16 28 8e be a2 82 f5 3e cd 94 2a 3f
       -0.7012434 -0.27764958 0.47951227 0.666333
000080 f3 d8 00 3e 24 46 63 be 1e a2 d9 3e 0e 61 f2 be
       0.1258276 -0.22194725 0.42506498 -0.47339672
000090 48 6a dd be 0f 14 35 bf 2e 5f 34 bf d1 cc 1c 3f
       -0.4324515 -0.7073373 -0.7045773 0.61250025
0000a0 06 ef 2d bf 6f 50 70 3e b7 d9 a1 be 47 99 0f 3f
       -0.67942846 0.23468183 -0.31611416 0.5609326
0000b0 1e 2a 20 3f a6 d3 6c 3e 48 6a 16 bf e7 a4 f3 be
       0.62564266 0.23127612 -0.5875592 -0.47586748
0000c0 0b 53 e8 be dd 09 9f be 88 a1 1d bf 45 5a 23 3f
       -0.45375857 -0.31062213 -0.615746 0.63809615
0000d0 2b 73 c4 be 2f 89 4f 3b 62 c4 94 be 92 4b f3 be
       -0.38369116 0.003166746 -0.29056078 -0.47518593
0000e0 b1 f0 a3 be 85 cd 1b 3d 60 ef 4c 3e da ff c7 be
       -0.3201957 0.038037796 0.2001319 -0.39062387
0000f0 86 a6 9c be f0 ac 06 3e 87 be 1c bd 4c 95 39 bf
       -0.30595797 0.13151908 -0.03826764 -0.72493434
000100 98 e5 9a 3e 1d db fd be 33 f4 e3 3c f3 bd 06 3f
       0.3025329 -0.49581233 0.027826404 0.5263359
000110 31 d0 ce 3e 0f a3 4b 3f 88 9c 24 3f a4 ec 3a 3f
       0.40393212 0.7954568 0.6430135 0.73017335
000120 d9 44 b1 3c fd 1f 22 3f 5e d8 fe 3e 56 6a 3b bf
       0.021639274 0.6333006 0.4977445 -0.7320913
000130 94 f6 bd be 18 2f 47 3e a8 ea fb 3e 15 10 d8 bd
       -0.37102187 0.19451559 0.49202466 -0.105499424
000140 b8 56 2b 3e 64 fb 3e bf 86 12 91 3e 6c c9 a7 be
       0.167323 -0.7460234 0.28334445 -0.3277086
000150 34 a7 e9 3e f0 f3 22 3e b7 27 24 bf f1 cb 83 be
       0.45635378 0.15913367 -0.641231 -0.25741532
000160 09 fa 4c 3e 19 3c 05 bf 8a dc 6b be ad 78 0a bf
       0.20017256 -0.52044827 -0.23033348 -0.54090387
000170 29 43 1e bf 53 c3 06 3f 52 ae 22 3f c6 25 fd 3e
       -0.6182123 0.5264179 0.6354724 0.4944288
000180 0d cc 19 3e 58 25 28 bf 75 86 29 3f 77 c6 cf be
       0.15019245 -0.6568198 0.6622079 -0.40581104
000190 48 2c 38 bf 7b eb 17 3f 1c 00 1d be 34 da b6 3e
       -0.7194257 0.5934369 -0.15332073 0.3571335
0001a0 84 05 1a 3f 36 c0 2a 3f 24 4e 83 bd 78 c6 c2 be
       0.60164666 0.6669954 -0.064113885 -0.38042045
0001b0 da 5f be 3e 3f 35 0c 3f 62 b8 20 bf 8f 2e e0 be
       0.37182504 0.5476875 -0.62781346 -0.4378552
0001c0 17 a6 19 3f 63 01 d4 3e 0b 46 b4 3e 7d 63 a7 3e
       0.6001906 0.41407308 0.3520969 0.3269309
0001d0 f1 fe 48 bf 71 61 e8 3e e4 cd 98 3e 88 8a 0f be
       -0.7851401 0.45386842 0.29844582 -0.14017689
0001e0 8e a3 fb 3e 65 a6 0d 3f e5 1f ce 3e a6 1b 1d bf
       0.4914822 0.5533202 0.4025871 -0.61370313
0001f0 60 17 0e bc ec 3b 93 3e 7b 00 1f bf 82 f5 43 be
       -0.008672565 0.28756654 -0.6211011 -0.19136623
000200 58 3c 4b 3e 40 df 6d 3e d0 4b 13 3f 72 ae e2 3e
       0.19847238 0.23229694 0.57537556 0.44273716
000210 f1 a8 ba be 0f 55 d8 3d 77 03 8b bd f3 1b 26 bf
       -0.36457017 0.10563099 -0.0678777 -0.648864
000220 eb 23 97 be cb 4d 38 bf 04 95 97 be 23 74 1c 3f
       -0.2951959 -0.719937 -0.29605877 0.6111471
000230 52 0d 31 3f 5c 24 13 3f 2c 1f 53 be 5b 2e 4e be
       0.6916095 0.57477355 -0.2061736 -0.2013487
000240 d1 e2 0c 3e c1 cf 06 bf 85 25 bd 3d 43 b2 08 be
       0.13758399 -0.5266076 0.09235672 -0.13349251
000250 4a 44 14 bf 9e ef 23 3f d1 d0 30 3f 59 48 9b be
       -0.579167 0.640375 0.6906863 -0.30328634
000260 c3 b1 2c bf cf 7a b6 be 83 a0 0c bf 24 c3 fa 3e
       -0.6745874 -0.3564057 -0.5493242 0.48977005
000270 b7 a3 2e 3e 04 96 22 bf 01 65 68 bd 19 63 57 be
       0.1705464 -0.63510156 -0.05673695 -0.21033897
000280 7c 12 2b bf 2b ec 0e 3f ef 92 22 bf 13 7b 30 be
       -0.6682508 0.55829114 -0.6350545 -0.17234449
000290 4f 20 d9 3e b7 9a 2a be 34 9b 01 bf a6 01 c4 be
       0.42407462 -0.16660582 -0.50627446 -0.38282508
0002a0 78 b1 a6 bd 18 a9 da bc 2a 08 74 be 70 2f 02 be
       -0.08139318 -0.026691958 -0.2383124 -0.12713408
0002b0 e2 b3 bd be 5a 06 d2 be 66 86 dc 3e 19 ff 71 3e
       -0.37051302 -0.4102047 0.43071288 0.23632468
0002c0 af 70 ef 3e 46 48 33 be 60 d4 b7 be 07 f8 87 3e
       0.46765658 -0.17508039 -0.35904217 0.26556417
0002d0 1a 84 a8 3e 95 fc 0a bf 68 ff 2f be 5e dd 3e 3f
       0.32913285 -0.5429166 -0.17187274 0.7455653
0002e0 76 33 26 3f f3 57 8a 3e 61 52 b7 3e 28 6d 86 3e
       0.64922273 0.27020225 0.35805038 0.26255155
0002f0 64 8c de 3e 02 e4 f0 3d 06 4f ca 3e 88 b9 44 3c
       0.43466485 0.11762239 0.39513415 0.012007125
000300 bb c4 e6 3d 3d 9c de 3e 8f 08 2d 3f c0 12 1b bf
       0.11267992 0.43478575 0.67591184 -0.60575485
000310 19 33 3e 3f fd dd 13 3f 31 81 23 3f 59 3f c2 3e
       0.7429672 0.577606 0.63869005 0.37938955

fc_in.bias f4 [100]
000000 a7 83 7e be 96 8c b6 3e 72 13 02 bf 55 6d 1b 3f
       -0.24854909 0.35654134 -0.5081092 0.607137
000010 a5 7b 9f be c7 70 b1 3e c8 8c 1b be 87 4b 24 3f
       -0.3114902 0.34656355 -0.15190423 0.64177746
000020 44 0b bc be ce 62 a6 be 21 51 26 3f 15 bb c2 bd
       -0.36727345 -0.32497257 0.6496754 -0.09508339
000030 cf e2 1a bf a5 09 c6 be 05 e9 21 3f f2 d1 ba 3e
       -0.6050233 -0.38679233 0.63246185 0.364883
000040 56 fb 26 3f 17 7a bf 3e 93 1e f9 3d ce e1 0d 3f
       0.6522726 0.37397835 0.12164035 0.55422676
000050 4f b0 ea be 59 38 e9 be 2b 87 fb 3e 4e c1 23 bf
       -0.45837638 -0.45550802 0.49126562 -0.63966835
000060 ad bc a4 3e 9a fc 28 3f 84 cc f8 be 05 67 a7 3d
       0.32175198 0.6601044 -0.48593533 0.08173946
000070 1e 8b d3 3e c0 a4 00 bf 98 23 25 bf 91 ed 13 3f
       0.41317075 -0.5025139 -0.64507437 0.5778437
000080 86 61 09 bf 9f 57 22 bf 74 65 bb 3e 67 1d 0b bf
       -0.53664434 -0.6341495 0.3660084 -0.5434174
000090 ad 24 17 3f 74 1c 0b bf 33 d4 cb be 23 8d f6 3e
       0.5904034 -0.5434029 -0.39810333 0.48154554
0000a0 4d 71 21 bf 05 2a 2f bd ce 0b 3f 3f e9 fe 60 be
       -0.6306351 -0.042764682 0.7462739 -0.2197224
0000b0 29 fa e4 3e cb 3c 29 bf 66 25 5b be df 51 07 3e
       0.44722107 -0.6610839 -0.21400985 0.13214825
0000c0 39 ef 31 bf a4 a6 01 bf 4d d1 89 be 98 34 b4 be
       -0.6950565 -0.506449 -0.26917496 -0.35196376
0000d0 3b 97 01 bf 78 fe 2a bf 28 f1 33 bf e6 06 0c 3f
       -0.50621384 -0.6679454 -0.7028985 0.54698026
0000e0 77 95 2a 3f 9d c4 c3 be 3e 33 a9 3e 83 5a 4a 3d
       0.66634315 -0.38235942 0.33046907 0.049402725
0000f0 b1 29 d4 be 6c 46 86 bd 0e a8 d8 be 31 4c 2b 3f
       -0.41438058 -0.06556401 -0.42315716 0.66913134
000100 d8 3a 2d 3f f2 9c 41 bf 94 dc 4c 3d e9 04 70 3e
       0.67667913 -0.75630105 0.050015047 0.23439373
000110 d3 10 0a 3e bb 7a 48 3f 56 80 ad be a6 c5 9a 3e
       0.1348298 0.7831227 -0.33886975 0.3022892
000120 60 c3 de be a4 bd e8 3e 18 d2 03 3f fc a1 dc be
       -0.43508434 0.45457184 0.5149245 -0.43092334
000130 88 24 0c 3f 4b 07 be be a6 18 77 3e 1c f4 0d 3e
       0.5474324 -0.3711494 0.24130496 0.13862652
000140 73 8a 76 be ce 55 2a bf 76 f6 0a 3f 90 8e 7d be
       -0.24076252 -0.6653718 0.5428232 -0.24761415
000150 45 49 b0 3c fc 5b b2 be f0 91 09 3e f0 17 2e bf
       0.021519313 -0.34835804 0.13434577 -0.68005276
000160 cb 44 8d be 26 4b 27 3f 46 34 c4 3e d0 c0 23 3f
       -0.27591547 0.6534904 0.3832113 0.63966084
000170 f5 97 2e bf 37 94 93 3c 82 d5 ce bd 94 0d 01 bd
       -0.6820062 0.01801501 -0.10099317 -0.03150709
000180 4e b9 92 be d0 00 17 3e 4b 78 1d 3e 85 a2 ed be
       -0.28657 0.14746404 0.1537792 -0.46413055

fc_hidden.weight f4 [100, 100]
000000 f9 c4 83 bd f1 dd 53 bd e6 31 21 bd ac 4a 28 bd
       -0.06434054 -0.05172533 -0.039354227 -0.041086838
000010 3d bd 66 3d a5 e8 01 bd 7a 30 61 3d f0 17 d4 bd
       0.056332815 -0.031716008 0.05497787 -0.10356128
000020 2e 57 4b bd bf 12 8a bd 64 8a 6d 3d 32 99 dc 3c
       -0.049643688 -0.06741857 0.057993308 0.026928518
000030 45 a4 6f bd 7b f5 7f bd a5 ae ad bd 47 1b fc 3c
       -0.05850627 -0.062489968 -0.084805764 0.030774726
000040 82 93 32 bd c3 8f b9 bd f4 39 7f 3d 14 f2 61 bd
       -0.043597706 -0.090606235 0.062311128 -0.055162504
000050 52 bb 8e bc 32 61 5e bd 14 cc b6 bd ba d4 b0 bd
       -0.017423306 -0.05429191 -0.089256436 -0.08634324
000060 79 ca c8 3b 65 0a d2 bd 55 97 3a 3d 47 e4 b9 3d
       0.0061276522 -0.10255889 0.045554478 0.090767436
000070 86 12 4c bd 30 1e 3d 3d 80 79 64 bd f5 88 c2 bd
       -0.049822353 0.046171367 -0.055779934 -0.09498779
000080 df 68 c2 bc ec 4c 08 3d 35 eb 0c bd ae 56 6b 3d
       -0.023731647 0.033276483 -0.034404 0.05745571
000090 39 8a 90 3d 02 ce 79 3d a4 64 bd 3d 53 a4 a0 3d
       0.07057614 0.06098748 0.09247711 0.07843842
0000a0 2d 82 76 3d 0c a6 a4 3d ea 61 9d bd 46 3e 2e 3c
       0.06018274 0.080394834 -0.07684691 0.010634964
0000b0 51 06 c3 bb e8 34 7e bd e1 ab 86 bd 24 98 92 3d
       -0.0059516807 -0.062062174 -0.06575752 0.07157925
0000c0 ac fb bd bd 95 6a 86 bd f6 37 cc bd 26 d6 96 bc
       -0.09276518 -0.06563298 -0.09971611 -0.01841266
0000d0 a5 c5 8d 3d 5d ff 35 bd 5d f0 2c 3d 97 35 d2 bd
       0.06922463 -0.044432987 0.042221416 -0.10264128
0000e0 e0 11 c4 bc 15 ef 26 3d 49 34 3b 3d 92 01 36 bd
       -0.023934305 0.04075535 0.04570416 -0.04443509
0000f0 c8 ea b1 bd 21 ea b1 3d ac cf 90 bd d5 a9 98 3c
       -0.08687359 0.08687235 -0.0707086 0.01863567
000100 02 8b a2 bd 94 64 dd bd bc d6 91 3c f9 51 9d 3b
       -0.0793667 -0.108101994 0.017802589 0.0048010317
000110 08 f0 0c 3d 7a 90 a7 3c c1 46 e3 bc 4b 67 a0 bc
       0.0344086 0.020454634 -0.027743699 -0.019580504
000120 d4 48 85 3d c4 08 cb 3c 4b c2 9c 3d b9 31 97 3d
       0.065080315 0.024784453 0.07654246 0.07382531
000130 69 92 89 bd 8a 39 1b 3d d8 0e e1 3b 68 23 80 3d
       -0.06717379 0.03789667 0.0068682246 0.06256753
000140 13 1a 26 bd 2e ff 3c 3d 89 0b cf bd c2 cd 85 bd
       -0.04055221 0.046141796 -0.10109622 -0.06533386
000150 78 e1 8a bd ab 8e a2 3c 3c 2c 9d 3d d4 dc cb bd
       -0.06781286 0.01984342 0.07674453 -0.09954229
000160 c1 a1 c6 bd 99 24 9b bc fe 56 5f bd 76 be 39 bc
       -0.09698821 -0.01893835 -0.05452632 -0.011336913
000170 97 73 bc 3c b8 9e 66 3c bc f2 85 3d 10 d7 b7 bd
       0.023004336 0.014075927 0.065404385 -0.08976567
000180 d2 77 15 3d 68 bc 4d bd ba 3f 18 3d c8 bb a2 3d
       0.036491223 -0.050228506 0.03717015 0.07945973
000190 8a 62 02 bb 8d 8a 9c 3d dd 59 89 3d 5a 75 ff bc
       -0.001989516 0.07643614 0.06706593 -0.031183887
0001a0 aa ab bb bd 6d 7d 98 3c 98 85 41 3e fd 02 d4 3d
       -0.09163602 0.018614495 0.18898618 0.103521325
0001b0 d9 15 73 3c 19 b4 02 3e f9 23 1a 3e 1f e6 c9 bd
       0.014836752 0.12764014 0.15052785 -0.09858345
0001c0 d3 20 d3 bd 27 57 e2 3d cd 85 68 bd df ca 91 3c
       -0.10308995 0.11051779 -0.056768227 0.017796932
0001d0 77 3a 81 bc 4b 9d 82 3d b2 4e 31 3d 5d 00 cb 39
       -0.015774949 0.063776575 0.04328794 0.00038719448
0001e0 17 a1 b1 3d c3 98 7f bd 8c ff ed 3b 07 c3 08 be
       0.086733036 -0.062401544 0.0072631296 -0.13355647
0001f0 51 df 9c bb 6f 80 07 bd f4 28 9a bd da ed 09 be
       -0.0047873636 -0.03308147 -0.075273424 -0.1346964
000200 46 e2 ab 3d a3 4f bd bb 4a a5 f0 3d 04 95 20 bd
       0.083927676 -0.0057773157 0.117502764 -0.039204612
000210 3d 79 d8 3d 88 0e aa bb 91 c2 22 3d d9 c6 1c bc
       0.10569999 -0.0051897205 0.039736334 -0.009568893
000220 53 b9 9c 3d da 59 d5 3d 68 04 f4 3c cd f2 e4 3d
       0.07652535 0.104175285 0.029787257 0.11179123
000230 ce a9 6a 3c 08 6d bd bd 5d 42 fa 3d 55 6d 4a b9
       0.014322711 -0.09249312 0.12219689 -0.0001930495
000240 72 0b af bd 38 c7 cc 3d 27 67 c0 3d 0f 46 17 bd
       -0.08547105 0.099989355 0.09394675 -0.036932047
000250 1d d4 51 3e 8b 86 c6 3d 12 2d e2 3d 1c a2 7a bd
       0.20491071 0.09693631 0.11043753 -0.061189756
000260 67 30 70 3d cd ef ab 3e d3 f2 6e 3d 2b a2 10 3d
       0.05863991 0.3358139 0.058337044 0.035310905
000270 34 0b 89 bd 76 b7 4a bd bd 32 19 3d b6 b3 b9 3d
       -0.0669159 -0.04949137 0.037401903 0.0906748
000280 ea b9 e3 3d ae e8 ee bc 83 df 0b be 9d aa f7 3d
       0.11119445 -0.029163685 -0.13659482 0.12093089
000290 72 74 07 3e 37 72 32 3e b9 39 ca bd 8f fa 8f bd
       0.13228014 0.17426382 -0.09874291 -0.07030212
0002a0 6f 0f eb bd ac 23 93 3b 13 8c 05 bd 60 b0 9b bd
       -0.11477553 0.0044903364 -0.03260429 -0.07602
0002b0 dc 64 92 bd 16 8d 07 3e 83 8f d3 3d bc 3e 2c bd
       -0.07148144 0.13237414 0.10330107 -0.042052016
0002c0 b8 1d 69 bc cb c0 21 be 0b d6 1c 3e fe 1b 9d 3d
       -0.014228277 -0.15796201 0.15316026 0.07671355
0002d0 2c c7 45 3e 3b 6d 85 bd d1 43 26 bd b5 6b b2 bd
       0.1931426 -0.06514975 -0.04059202 -0.0871195
0002e0 78 d9 cb 3c bf 70 a4 3c 96 6d e8 bb 46 9d a3 bd
       0.02488397 0.020073293 -0.007093142 -0.07988982
0002f0 f8 f7 a4 3d 27 7b 8b bc d7 37 22 bd 5d 81 c3 bc
       0.08055109 -0.017026497 -0.039604034 -0.023865396
000300 58 e5 e2 bc 6a db 86 3d c3 e3 90 bd b2 73 74 bb
       -0.02769725 0.06584819 -0.07074692 -0.0037300405
000310 97 55 3b 3e 03 13 0b 3d b4 ad 17 bd e8 6d dd bd
       0.18294369 0.033953678 -0.03703089 -0.108119786
000320 13 f3 27 3d 7f 64 fd 3b f7 be bb bc 09 37 8f 3d
       0.041003298 0.0077329273 -0.022918208 0.06992919
000330 bb 55 83 bc d3 40 ae 3d 4f 06 03 3e c8 9b ac 3d
       -0.01603209 0.08508458 0.12795375 0.084281504
000340 24 87 71 be 1d f0 05 bc e3 e5 e0 bd bc 01 41 bd
       -0.23586708 -0.008174923 -0.109813474 -0.047120795
000350 35 56 89 bd 67 1e 23 bd 7c e6 4d 3c 13 bd 4e bb
       -0.06705896 -0.039823916 0.012567159 -0.0031545802
000360 d7 a3 d8 bd dd c9 9f bd ad b5 84 bd f9 6d 01 3e
       -0.10578125 -0.07802174 -0.064799644 0.12639607
000370 97 43 fb 3d ad 42 82 bd 04 52 31 3d 36 03 a4 3c
       0.12268751 -0.06360374 0.043291107 0.020021062
000380 a2 07 ab 3d e7 8f e1 3c f7 73 1f 3e 04 5c e4 3b
       0.08351065 0.027534438 0.15571581 0.006968977
000390 75 23 1e 3d 84 62 89 3d ed cf 0f 3e b0 5c 11 be
       0.038608033 0.067082435 0.14044161 -0.14195514
0003a0 b2 71 4f bd 41 05 cd bc dc 4b d5 bb 5f d8 2b 3d
       -0.050645538 -0.02502692 -0.0065092873 0.041954394
0003b0 38 cf 96 bd 9c e5 d0 bb d8 0d 3f 3e 29 a0 a0 bb
       -0.073637426 -0.006375028 0.18657625 -0.004901905
0003c0 7b 55 21 be 9b bb 61 3d 95 07 c9 bc 34 ae 7f bc
       -0.15755264 0.055110555 -0.024539748 -0.015605498
0003d0 40 6d 24 3d b6 85 5d bd cb b1 f2 bc 3c 45 db bd
       0.04014325 -0.054082595 -0.029625794 -0.10706565
0003e0 c9 ec c8 bd 35 61 ae bc 9e 80 fd 3d 34 9f 36 3e
       -0.09810788 -0.021286586 0.123780474 0.17834169
0003f0 51 a6 5d 3c 7c 40 0b be cd 4c 98 bd 90 d6 96 3d
       0.013528422 -0.13598818 -0.074365236 0.07365143

fc_hidden.bias f4 [100]
000000 e5 c9 99 3d 42 2a 89 bd 8e c5 d3 bd f8 5c 4b 3c
       0.075092115 -0.06697513 -0.10340415 0.012412302
000010 93 a3 d3 bd ba 55 52 bb 64 25 55 bd 4d 53 9e 3d
       -0.10333934 -0.0032094554 -0.05203761 0.07730732
000020 74 15 5c bd 25 54 9f bd 8d 66 00 bd 0a c8 23 3c
       -0.053731397 -0.07779721 -0.0313478 0.0099964235
000030 ce db 25 bc 16 60 6f bb 44 96 d8 3d ac aa bd bd
       -0.010123206 -0.0036525778 0.10575536 -0.09261069
000040 63 7c a7 bd c8 f5 db bd c8 ad ea 3c 60 c9 78 bd
       -0.08178022 -0.107402384 0.028647318 -0.06073892
000050 8a a8 8d 3d cf 4b 14 3e 62 c9 99 3d e8 2a 07 3d
       0.06916912 0.14482044 0.07509114 0.032999903
000060 54 6c 54 3d 7d 09 ac bd c3 d3 f4 bc 98 06 1d bc
       0.051861122 -0.08400247 -0.029886132 -0.009584092
000070 dd 96 1d 3d 7b 68 58 3d ad 26 a2 3c 59 dd c2 bd
       0.038473953 0.052834015 0.019793833 -0.09514875
000080 e9 e5 a1 bb 3b b2 7e bd ac 68 1c bc d3 24 84 bc
       -0.0049407375 -0.062181693 -0.00954644 -0.01613084
000090 8f db 9c bd c1 ef 83 3d 73 92 1d 3d ef 2d 39 3d
       -0.07659065 0.06442214 0.038469743 0.04520982
0000a0 5e c3 87 bd 12 00 d4 3d 63 c5 ca bb 60 c4 3a bd
       -0.0662906 0.10351576 -0.006188081 -0.045597434
0000b0 1e 47 e7 bd 06 7c a3 3d 51 23 37 bd 47 3a 57 3d
       -0.112928614 0.0798264 -0.044711415 0.052545812
0000c0 fd 47 a8 bd 07 60 20 3c d9 52 7d 3d 40 d4 be bd
       -0.08216856 0.00978852 0.061846588 -0.09317827
0000d0 6d fa ca bd 76 2c 4a 3d bc 20 05 3e 71 a8 ad bd
       -0.09911046 0.049358808 0.13000768 -0.08479393
0000e0 be a0 28 3d 6f cf aa bd 37 d8 5c 3d 47 a0 94 3c
       0.04116892 -0.08340346 0.053917136 0.018142832
0000f0 70 a4 58 bd c6 a8 a5 3d 44 69 a2 bd 38 83 88 bd
       -0.052891195 0.080888316 -0.07930234 -0.06665653
000100 6c ef d7 bd b8 00 63 3c 40 64 58 bd 3c 33 05 bd
       -0.10543713 0.013855152 -0.05282998 -0.032519564
000110 cf f7 9e bd f7 05 02 3c cf 95 83 3d 80 5e 8a bc
       -0.077621095 0.007935992 0.06425058 -0.016890764
000120 08 ed e3 bd d2 7a b6 3d ae 93 87 3d 66 ec c7 bc
       -0.111291945 0.08910145 0.066199645 -0.024404716
000130 d6 45 a2 ba e5 ac 0c 3d 98 0d 8c 3d a6 0e f8 bd
       -0.0012380432 0.034344573 0.0683853 -0.12112169
000140 bd 50 90 bc 78 be 09 3c aa 42 df 3d 6a 17 47 3b
       -0.017616624 0.008407228 0.10901387 0.0030378946
000150 74 c4 c3 3c 37 71 30 3d cf 03 bc bd 51 d8 f6 bc
       0.023897387 0.04307672 -0.09180414 -0.030132445
000160 77 d1 27 3d 55 50 9f bd 53 3e c5 bc 3f b8 2d 3d
       0.040971246 -0.07778994 -0.02407757 0.04241204
000170 d9 95 38 bd af ff ce bd a8 b1 a0 bd 96 29 7c bb
       -0.04506478 -0.101073615 -0.07846385 -0.0038476936
000180 ef 70 74 bd 00 61 da bc 09 82 bb bc d8 0b cb bc
       -0.059678014 -0.026657581 -0.022889154 -0.024785921

fc_out.weight f4 [1, 100]
000000 4c 4c c9 bd 8e 62 0c 3e 2a e3 fa bd ae 9d 52 3d
       -0.098290056 0.1370947 -0.12250359 0.051419906
000010 31 e0 91 bd 9c d8 64 bd 57 e2 08 bd 81 07 c8 bd
       -0.07122839 -0.055870637 -0.03341898 -0.09767056
000020 50 aa aa bd 05 06 42 3c ab 09 65 bd f4 e0 a2 bd
       -0.08333266 0.0118422555 -0.055917423 -0.07953063
000030 7b e1 67 3d b3 21 80 bd be 84 2a 3d 4c a8 ce bd
       0.05661152 -0.062564276 0.0416305 -0.10090694
000040 82 97 cf 3d 2f 1f b6 bd 1f 19 ba bd 24 ab 68 3d
       0.1013632 -0.088926665 -0.09086823 0.056803837
000050 7e 3d 32 3d 97 0f db bd cf 77 09 3d dd fb 84 bc
       0.043515675 -0.10696333 0.033561524 -0.016233379
000060 98 9a d9 3d 01 a9 6d 3d 08 0f da bd 83 b5 d9 bd
       0.106251895 0.058022503 -0.10647398 -0.10630324
000070 89 c4 ba 3d 39 fc 02 3e d8 79 9f 3d aa a9 66 3d
       0.09119517 0.12791528 0.07786912 0.056314148
000080 52 26 91 bd 2a ea 09 3e a9 7d 12 3c c3 bc 8d 3d
       -0.07087387 0.13468233 0.0089410925 0.06920769
000090 e0 50 01 3e ce 5a d3 bd 46 10 6c bd a2 68 ee bd
       0.12628508 -0.10320054 -0.057632707 -0.11641051
0000a0 62 2a 84 bd 7c 0d 19 bd eb 31 be 3d ff b0 19 3d
       -0.064533964 -0.037366375 0.09286865 0.037522312
0000b0 a9 3d 81 bd 3b 70 07 3e 55 60 83 bd 98 55 d4 bd
       -0.06310589 0.13226406 -0.06414858 -0.10367888
0000c0 aa 5a e6 3d b0 4f da bd 4b ad 00 be 99 3a fe bd
       0.112477615 -0.106597304 -0.12566106 -0.1241352
0000d0 d1 d7 84 3c 1c 17 87 3e b0 9a 99 bd b6 fc 10 bd
       0.01621619 0.2638482 -0.075002074 -0.035397254
0000e0 a6 a8 06 be 96 eb 01 be 59 ca 56 3d 4c 1d 31 3e
       -0.13150272 -0.12687525 0.052439068 0.17296332
0000f0 9b c0 6c 3d fb 7e 85 3d a8 ca 99 be bd 87 6c 3d
       0.05780087 0.0651836 -0.30037427 0.057746638
000100 92 ac 47 bc 62 d8 57 3e 55 29 b1 bd f9 99 1d bd
       -0.01218714 0.21078637 -0.086504616 -0.038476918
000110 72 42 e6 bd 1e 7e 20 bd 99 06 ee bb f4 d1 b9 3d
       -0.11243142 -0.039182775 -0.00726397 0.090732485
000120 aa 1d c5 bd ee 04 1a 3d 29 37 a0 3d 98 c4 02 3e
       -0.096247986 0.037602358 0.07823021 0.12770307
000130 47 37 3a bd ac ad 28 be b2 7f 78 bb 25 d4 33 3e
       -0.045462873 -0.164725 -0.003791791 0.17561395
000140 63 44 65 bc f1 d5 e1 3d c0 22 e0 bd 86 44 2c bd
       -0.013993355 0.11027134 -0.10944128 -0.042057537
000150 ee 74 83 bb 37 88 93 bd d9 31 6c 3c b0 ec 09 be
       -0.004011742 -0.07203715 0.0144161815 -0.13469195
000160 b2 97 62 3d ab f3 bf 3d fa f5 cc bc 1f 26 0f bd
       0.05532045 0.09372648 -0.025019635 -0.034948464
000170 15 2a c7 bd 32 6e 0a 3e 65 00 87 3d a1 aa 0b be
       -0.097248234 0.13518599 0.06591872 -0.13639309
000180 88 02 16 3e 70 61 2d 3d f9 88 d4 bd 36 de e3 bd
       0.14649403 0.04232925 -0.10377688 -0.11126368
