Copula by Ratio Estimation/2d_exp/model_parameters_NNet_ratio_25_runs_4copulas_2Dexperiment_ok1/NNet_ratio_run_1_cop_u_3_ok.pt (torch, 45088 bytes, 5 tensors)

fc_in.weight f4 [100, 2]
00000000: 455f 54bf 8bc3 a23e d2e3 04bd 12eb 2d3f
00000010: afa8 9dbe 4eac d23e 5fbb 07bc d3f5 14bf
00000020: 353b b73e ab68 fabe 4892 e73e afad a03e
00000030: e257 04bf 00aa fdbe 4c1b 003f edc1 e73e
00000040: 3f0e e13d 67a8 03bf f56b 9abd c7e6 81be
00000050: 11ac 2e3f d7d4 14be 1b2b 45bf e4e4 513e
00000060: d611 823d 99ec 1fbd 6382 20bf ceb6 6e3e
00000070: ba1b 85be bf84 f63e 2af3 95be bfab 2cbf
00000080: e439 b1bd ea1e d53e 7bc8 35bf 9f61 15bf
00000090: 1211 f23e 4195 cd3e efb6 c43e f444 e1bd
000000a0: c42e e1be e1a3 8dbe 47be eb3d 6e16 dfbe
000000b0: 6598 05bf 8439 0b3f 86f8 213f 9b33 073f
000000c0: b66b b9be 25ce b9be 2ac6 b93e 674b 0a3f
000000d0: 392e 38bf 854d d03e b2b3 0a3f 0652 02be
000000e0: c4ff 873d 2e79 2abd 1b0e 6ebe f949 2ebf
000000f0: e99d 09bf e277 133f e338 473f 33c5 d7bc
00000100: e7cc acbe 2c2d 18bf 7744 81be f083 e8be
00000110: 4889 703e 9d0c 87be d99e 653c 180e 103d
00000120: 96b5 ff3e 392b 563e 38b1 efbe 440f 713e
00000130: 4f58 353e 3c74 ff3e 4364 10bf 0f0e 34be
00000140: 8755 52be bd25 34bf 1c64 d13e f5ee a23d
00000150: a6d6 003f bc9d 053f 0cec 083f 4e95 2a3f
00000160: 0234 11bf 5b1b a33e 87f8 d23e 9a0d 913c
00000170: 0f10 3e3f 2b77 283f 2a79 bc3d f57b 0cbe
00000180: 0c4e 1b3f 6afb 0d3f aa4f 82be a986 613e
00000190: 1d35 073f eb71 ae3e 066a e03e 41db 23bf
000001a0: 7e9e 59bd d4a1 35bf 9f99 08bf 9350 543e
000001b0: baed 183f 0aba 433f 0e5c f2be 11da 8d3d
000001c0: 4aff 3cbf e3a8 4ebe 9418 1c3f 08cc 583e
000001d0: 121c 39bf c3c9 443e f9f6 8abc 5495 103e
000001e0: d02e 043f 6a47 b4bd fe5f 0f3f 0086 50be
000001f0: f202 e3be 454f 2a3f 7c45 3cbf 2590 fd3c
00000200: ebd9 b3be c413 1fbc 64fc 37bf e493 2a3e
00000210: 2faa 583f ab90 bcbe e01c 803e 045b c2be
00000220: 0777 04bf 44fc 893e 4200 973e 7f0b bf3e
00000230: f3d7 ad3e 6de5 fd3d ff51 eabd c199 05bf
00000240: 7a0c 23bf bfcf 433e 8abb 21bf ac25 ccbe
00000250: b50d 8cbe ab0c 1b3f 60eb 81bd 09ac 80be
00000260: fb32 edbe 84d0 873e 3135 293f be97 003f
00000270: c1d4 16bf 3ea5 b33e 3b30 5bbd fbbd 803e
00000280: 177a 34be 42e7 35bf 3252 5d3e 1665 6e3e
00000290: 756a 0ebf 83ad 10bf 5900 dc3e 42a9 1fbe
000002a0: 175e 80bc 7bfd 69be 548a c7be 0f42 aabe
000002b0: b09a 003e 44aa 1dbf cfaf c3bd 744f 5dbe
000002c0: 3a7e 28bf 2d9e a5be 128a 4c3f e89b c2be
000002d0: 1153 2bbf c6d2 8c3e 4f9e c6be 790a 01bf
000002e0: 88b9 9f3e 2675 10bf 14bb 2cbf c8b5 a1be
000002f0: 3b3c 0e3f a253 b53d 74e9 0f3e e0d0 cebe
00000300: 2bed 18bf 60e3 313f a4d1 f93c 2997 30bf
00000310: bcb0 673e 240c 9c3e f4cd 20bf a3ad 2ebd
-0.8295787 0.31789812 -0.03244383 0.67936814 -0.30792758 0.41147083 -0.008284419 -0.581876
0.3578736 -0.4890798 0.4522879 0.3138251 -0.516966 -0.49543762 0.5004165 0.4526514
0.10989045 -0.51428837 -0.075401224 -0.25371382 0.682313 -0.14534317 -0.770189 0.20497471
0.06351058 -0.039043996 -0.62698954 0.23311922 -0.25997716 0.48148152 -0.29287082 -0.67449564
-0.0865362 0.41625148 -0.71009034 -0.5835208 0.4727865 0.40152934 0.38420817 -0.1099948
-0.43980992 -0.27664092 0.11510902 -0.435718 -0.5218566 0.54384637 0.6326984 0.5281312
-0.3621499 -0.36290088 0.36284 0.54021305 -0.7194553 0.40684143 0.54180443 -0.12726602
0.0664058 -0.041619472 -0.23247568 -0.68081623 -0.53756577 0.576048 0.7782118 -0.02633915
-0.33750078 -0.59443927 -0.25247547 -0.4541316 0.23489869 -0.2637681 0.014014923 0.03516969
0.49943227 0.20914926 -0.46814895 0.2354098 0.17709468 0.49893367 -0.5640299 -0.17583488
-0.20540439 -0.70370084 0.4089669 0.07955734 0.5032753 0.5219381 0.5348518 0.6663407
-0.5671998 0.31856808 0.41205236 0.017706681 0.74243253 0.65806836 0.09202798 -0.13719161
0.60665965 0.5546175 -0.25451404 0.22024025 0.5281542 0.34071288 0.4383089 -0.6400643
-0.053129666 -0.70950055 -0.5335941 0.20733862 0.5973774 0.7645575 -0.47335857 0.069263585
-0.7382704 -0.20181613 0.60975003 0.21171582 -0.72308457 0.19217591 -0.016963469 0.14119464
0.5163393 -0.08802684 0.5600585 -0.20363617 -0.44338185 0.66527206 -0.73543525 0.030952523
-0.35127196 -0.009709302 -0.7186949 0.16657978 0.8463468 -0.36829123 0.2502203 -0.37960064
-0.5174412 0.26950276 0.29492384 0.37313458 0.3395382 0.12397275 -0.11441421 -0.52187735
-0.6369091 0.19122218 -0.63176787 -0.3987249 -0.27354208 0.60566205 -0.06343722 -0.25131252
-0.46327958 0.26526272 0.6609679 0.5023154 -0.58918387 0.35087007 -0.053512793 0.25144944
-0.17624699 -0.71055996 0.21613386 0.23280749 -0.5563119 -0.5651476 0.42969015 -0.1559191
-0.015669866 -0.22850601 -0.38972723 -0.33253524 0.12559009 -0.6158793 -0.09555017 -0.2161234
-0.65817606 -0.3234724 0.7989818 -0.38009572 -0.66923624 0.27504557 -0.38792655 -0.50406605
0.31196237 -0.56428754 -0.6747296 -0.31584 0.55560654 0.08853842 0.14053899 -0.40393734
-0.5973689 0.6948757 0.030495472 -0.6898065 0.22626013 0.30478013 -0.6281426 -0.04264606

fc_in.bias f4 [100]
00000000: 29b9 d0bd cc47 923e 375f 95be 68fd 50bf
00000010: 38e0 273d 4fb3 183f 83cd 593c 8f3f 2f3f
00000020: 0979 bbbe d4d8 663e 66de a7be 99fa d3be
00000030: d505 0abf 6eef c1bd 8444 96be 6282 9fbe
00000040: 3bb5 54be f16c 143f 2fb7 e63e 4eea 10bf
00000050: 2e6d f8bd cb4d 1e3f 31ce 9fbe 47e2 173f
00000060: d25f fe3d 4d1e db3d f66d 35bf 6b49 1b3f
00000070: 6299 c3be a372 01bf 6e69 25bf e533 0bbf
00000080: 6aaf 02bf bb56 fd3b 8551 0abf 9fcf 14bf
00000090: 921a 2cbf 3f9b d9be 8a9e 703c 71cb 3cbf
000000a0: 05d7 1f3f 570c bb3e 6b1a 85be 1a08 eebe
000000b0: 3863 483e 502e a33c 9c52 a3be cfd0 2fbf
000000c0: e52a 13bf 560b 07be f6f8 263f 345d 71be
000000d0: 5b20 d23e e15b a7bd 379c fa3e e40d 12bf
000000e0: 15ed 30be 8f4a 203f beb0 c6be 4138 1e3f
000000f0: e1cb 71be 7bfd a6be 0d5c b03d 6fe7 b73e
00000100: 23a3 aa3e 5d7a b23d cdec 5d3d c783 2f3f
00000110: 3279 f4be 7a46 50be bb4c 42bf 9f5d 1abf
00000120: e6bc 0a3f eb16 ea3e 2df5 b5bd 7668 633c
00000130: d749 1a3f 44e0 5c3e 935c d23d f2e1 b3be
00000140: 2211 5fbe 9fa5 a13e 9d56 3e3e ea25 80be
00000150: e4be 313f d37e 48bf c20a 80be 8072 a5be
00000160: 7c37 2dbe 7a6b 5cbd 1e70 1ebd b8ef ffbe
00000170: a83e 123f d07e adbe c7cd b3be a910 4f3e
00000180: 9d4e adbe 74af d4b9 c3f5 f9be fd17 aa3c
-0.101915665 0.28570402 -0.29174206 -0.8163667 0.040985316 0.59648603 0.013293627 0.6845636
-0.3661578 0.22543651 -0.32786864 -0.41402128 -0.5391515 -0.09469496 -0.29349148 -0.31154162
-0.20772259 0.5797873 0.45061633 -0.5660752 -0.121301994 0.6183745 -0.31212 0.59329647
0.1242062 0.10699139 -0.7087091 0.606589 -0.3820296 -0.50565547 -0.64614 -0.5437606
-0.5104891 0.0077312863 -0.5403064 -0.58129305 -0.67228043 -0.42501256 0.014686236 -0.73747927
0.6243747 0.36532852 -0.25996718 -0.46490556 0.19569099 0.019919544 -0.31898963 -0.6867799
-0.57487327 -0.13187918 0.65223634 -0.2357071 0.4104031 -0.081718214 0.48947307 -0.57052445
-0.1727794 0.6261377 -0.3880672 0.61804587 -0.2361293 -0.32615265 0.08611307 0.35918757
0.33327588 0.08714745 0.05418091 0.6856045 -0.47748715 -0.20339385 -0.7589833 -0.60299104
0.54194486 0.4572061 -0.08884654 0.013879886 0.6026892 0.21569926 0.102715634 -0.3513332
-0.2178388 0.3157167 0.18587728 -0.25028926 0.694319 -0.7831852 -0.25008208 -0.3231392
-0.16915697 -0.053813435 -0.038681142 -0.49987578 0.57126856 -0.33885813 -0.35117933 0.20221199
-0.3384904 -0.00040566514 -0.48820314 0.020763392

fc_hidden.weight f4 [100, 100]
00000000: 67b8 3b3e d9f0 2bbe 02cd 00be eb09 00be
00000010: 8064 543e b64c b43d db71 e1bd 1660 623d
00000020: c61a 9f3d 9849 843d 206a 8bbe e303 44be
00000030: 0095 053c 1096 153e 5e3c f43e 1c37 2c3d
00000040: a806 44bc f5d0 51be f643 bd3d 4ed7 53be
00000050: bfac b7bd b4af 273e 9694 7bbd acc6 0e3e
00000060: ac1f 4fbd f4cd 123c 7986 5abe 61f7 1a3e
00000070: 47b3 153d 27d4 153e e2a1 d4bd fede 63be
00000080: acc2 7ebc 90d0 da3d 588f babe f6b4 93bd
00000090: a6b7 c3be 7088 85bc 3bd9 2cbe 7011 b33d
000000a0: 8a2f 85ba 397f aa3d b325 92bd 096a 81be
000000b0: cbcb 3fbe 614c 4fbd ec4d 54bc 763c aebe
000000c0: caaf 22be aafc 353e 0303 f23d 3f62 7c3e
000000d0: bac0 8c3d fdb6 20be ce5b fcbc c46d 953c
000000e0: 315d b5bd 415f 4e3e 315c 61be 605c 503d
000000f0: 8a80 ebbd a501 78be 737f c6bd 9b07 53be
00000100: 900c 11be 6672 62be 587b 3c3e 8db2 aa3d
00000110: 8b8a ab3d ae84 a3bd b6ad a43e 3bf1 db3d
00000120: cac5 65be 0513 e4bd 1196 14be dba0 00bd
00000130: 3695 1dbe 4f0b 29bd 368e 8abe c37a 763d
00000140: dd74 c63d a2a5 833d 273c 70bd 4524 f0bd
00000150: 2031 273c 637b 513e eafe 7e3d bc02 cc3d
00000160: 1d45 f9bd e1f1 903d b830 9bbd 359a ebbc
00000170: 6d70 1b3e 8974 0dbe 7983 2dbe e731 423e
00000180: 1a67 01be d69e e43d 6bf8 2dbe 3902 87be
00000190: 106e 51be bbd7 f73c 47d9 49be d17c 043e
000001a0: c763 4c3d 4d11 15bd 3d8f 053e 3694 ef3d
000001b0: 0e0c 70bd 4fea aabc 3dcb 953d bebd 743d
000001c0: e7db 1e3c 925a 01be 7abd 49be fdd2 3d3d
000001d0: 5a9c a1bc 5822 813d afb7 923d f556 1d3e
000001e0: cf61 86bc 8921 a03d 6d5b c3bd 9570 ca3d
000001f0: 5aff d6bd afa5 1b3d 618b 45bd b8d0 58bd
00000200: e21a 78be ffb1 9e3d e2e9 b53c 6820 10bd
00000210: 1b00 e73c 0182 57bb ddad cc3d 4777 f13d
00000220: 258a 293d 4dff 3d3e 5a86 0c3e cc26 1c3d
00000230: 158b be3d 334a 683d b61b d43d 0e65 d73c
00000240: fa32 d2bc 4d98 5abd 0008 06bc cadf 033e
00000250: 3ab0 1b3d b9ab 9cbd 8d79 b53d 7c93 90bd
00000260: 83ec 6b3d 463b 2abe e797 4d3c f269 6cbe
00000270: 860a 76ba 1341 2fbd 5fff 023e ebb1 cb3c
00000280: 8749 82bd 04d4 953c ff7a b8bb 4b10 c6bd
00000290: a201 353c def3 5c3b 8e6d edbd 2308 c23d
000002a0: 5ea3 a3be 4a01 7a3d 8d69 ac3d bf69 193d
000002b0: 308f e5bc 048d aa3d 3170 28bd d5d0 05bd
000002c0: 6ab7 263d ded8 b03c c431 a7bd 4fa4 d2bc
000002d0: c634 bd3d c09a 4a3d 905c 89bd fd96 dd3d
000002e0: eb1c a53d 18df 5abd 3f67 793c ebcd 54be
000002f0: df21 afbd fff9 293c ddda 04be 4970 ce3b
00000300: 8e77 41bc de82 b6bb 5a00 b4bc ddcd d63d
00000310: 5139 44bd 54b9 d03d 08f6 8d3c ab6a 2a3d
00000320: b505 793e e5b1 003d 43d9 1c3e b665 00be
00000330: 63cb 48bc bbc3 4cbe 2979 35be a290 10bd
00000340: 37a6 43be 5e37 7dbd 21a0 c6bd 17f8 53be
00000350: 0d07 c3bd 55a7 293e bae4 273e d8ab e03c
00000360: 450a 9e3d 1636 8c3d 6262 edbd 8497 08bd
00000370: 3839 3d3c 8ab9 f83c 7ae0 3c3e ba67 503d
00000380: 4716 24bc fb67 88bd 7d87 d73d 867e 21be
00000390: e84e 143e b43a 82be 489b 473e 4ee7 8fbd
000003a0: 883b a1be f4ba b0bd 43ca 513d bfeb ebbd
000003b0: ceef bf3e 1c99 14be 515e c23d 1125 8cbe
000003c0: 8c02 563c db9c cfbd 70e9 e4bd 6ab1 1bbe
000003d0: 5d2b 733e 90de 7bbe 56c0 6abe 515f 973d
000003e0: 4771 3dbd a3cb 8e3e 5414 31be 2b74 28be
000003f0: e977 f3bb 673c 873e d80e 553d 72ff c3bd
0.18332063 -0.16791095 -0.12578204 -0.12503783 0.20741463 0.08803694 -0.11008044 0.055267416
0.077687785 0.064593494 -0.27229404 -0.19142108 0.0081532 0.14608026 0.47702307 0.042044744
-0.011964478 -0.20489867 0.09241478 -0.20687601 -0.089684956 0.16375619 -0.061421 0.13942975
-0.050567314 0.008960236 -0.2134036 0.1513343 0.036547925 0.14631711 -0.10382439 -0.22253034
-0.015549343 0.106843114 -0.36437488 -0.0721225 -0.3822605 -0.01630041 -0.16879742 0.0874356
-0.0010161262 0.08325047 -0.07136097 -0.2527621 -0.18730085 -0.05060995 -0.012958031 -0.34030503
-0.1588737 0.17772165 0.11816981 0.24646853 0.06872697 -0.15694804 -0.030805495 0.018240817
-0.088556655 0.20153524 -0.22007824 0.050869346 -0.11499126 -0.24219377 -0.09692278 -0.2060837
-0.14164948 -0.22113952 0.18406427 0.08334837 0.08376034 -0.07984291 0.3216378 0.107393704
-0.22438732 -0.1113644 -0.14510371 -0.031403404 -0.1538895 -0.04127055 -0.27061623 0.06017567
0.09690259 0.06428076 -0.058651116 -0.11725668 0.010204583 0.20457225 0.062254824 0.09961459
-0.121713854 0.07077385 -0.07577652 -0.028760055 0.15179606 -0.13813986 -0.16944684 0.18964349
-0.12636986 0.11163108 -0.16989295 -0.26368883 -0.20452142 0.030254235 -0.19711791 0.12938239
0.049899843 -0.036393452 0.13042922 0.11698191 -0.058605246 -0.02086368 0.07314155 0.059751265
0.0096959835 -0.12632206 -0.19701186 0.046343792 -0.019727875 0.06305379 0.07163941 0.15365203
-0.01640406 0.07818896 -0.095389225 0.098847546 -0.10497923 0.037999805 -0.048228625 -0.052933425
-0.24229005 0.07748794 0.02220625 -0.035187155 0.028198292 -0.0032883885 0.09994099 0.117903285
0.04139151 0.18554421 0.13723126 0.038122937 0.093038715 0.056711387 0.10356848 0.026293304
-0.025659073 -0.0533679 -0.008180618 0.12878338 0.03800986 -0.07649941 0.088610746 -0.070593804
0.057598602 -0.16624174 0.012548423 -0.2308729 -0.00093857234 -0.04278667 0.12792729 0.024865111
-0.063616805 0.018289573 -0.0056298967 -0.096710764 0.011047753 0.0033714692 -0.115931615 0.09474208
-0.31960577 0.061036386 0.0841857 0.037454363 -0.028022379 0.08327678 -0.04112262 -0.03266986
0.04070226 0.021587785 -0.08163789 -0.025713114 0.09238581 0.049463987 -0.06707108 0.10819814
0.08062156 -0.053435415 0.01522237 -0.20781676 -0.08551382 0.010374545 -0.12974115 0.0063000065
-0.011808289 -0.0055698 -0.021972824 0.10488484 -0.047906224 0.101915985 0.01732923 0.041605633
0.24318583 0.031419653 0.15317254 -0.125388 -0.012255522 -0.1999654 -0.17722 -0.035294183
-0.19106375 -0.06182038 -0.09698511 -0.20700108 -0.09522829 0.16567738 0.16395846 0.027425691
0.077168025 0.068462536 -0.11591031 -0.03334762 0.011549287 0.03036191 0.18445006 0.05088017
-0.010015077 -0.06660458 0.10523889 -0.15770921 0.14483225 -0.25435412 0.19492829 -0.0702654
-0.3149073 -0.086294085 0.051218282 -0.115195744 0.37487644 -0.14511532 0.09490646 -0.2737203
0.013062131 -0.1013734 -0.11177337 -0.15204397 0.2374701 -0.2459662 -0.22924933 0.07391227
-0.046250608 0.27889737 -0.17292911 -0.16450565 -0.007430066 0.2641327 0.05201611 -0.09570207

fc_hidden.bias f4 [100]
00000000: 95e0 a53d 7360 a5bd 9846 c83d 0ef4 6d3d
00000010: 3e18 8e3d 8717 b8bd 578c e03d 873f f6bc
00000020: 99a7 3ebd c3d2 693d 1fe5 2d3d 3888 113d
00000030: 20a6 0c3d cd75 b13d b6ef 72bc ab23 c7bc
00000040: a84b 053e 0c4b e0bd f42e 76bd 25d6 c83d
00000050: df69 873d dac0 813d 0af6 a5bc 1786 fe3c
00000060: affd d73d 949b e4bd d29c ce3d c17a 093d
00000070: e2e1 2abd a3a4 10bc 8e46 083d 0401 afbd
00000080: 652c 26bd af10 423d b689 203d f6ec 923d
00000090: 12b8 c3bd a67e 10bc cfa0 d4bd 9e06 30bc
000000a0: 0d71 623d e804 d83c 9aae 6d3a cc50 27bd
000000b0: a140 153c 4ea6 88bd 9f68 ab3d 447f 8abc
000000c0: ee5e c3bc 95a4 743c 0062 4d3d db46 acbd
000000d0: 0bfc 5abc e037 85bd dee5 ebbc 1ed5 333c
000000e0: 63ec 8a3c e9b1 0cbb 7ebb 1cbd c49b 9a3d
000000f0: 0c94 893d 9953 6fbd 2f8d c3bd bd53 c43c
00000100: 3df3 5fbd 02c2 61ba 9e82 aabd 5550 a63d
00000110: c74b 7b3c 201c 433d b1ad b23d cb65 d6bc
00000120: dbe8 c43d 6f92 88bc 93af a0bc eca7 873d
00000130: b855 e6bc afe4 3ebd b6c9 7e3d 1a79 bb3d
00000140: 10cc 903d c4f4 be3d c8b8 873d 7df3 9b3d
00000150: 5f69 e4bc 7dd8 19bd 0da0 5c3b 4369 0ebd
00000160: 8f66 363d 2559 fe3c 0d21 f83c 8b14 403d
00000170: 036c 2c3d 4966 b0bc 6b57 8b3d 4745 e93d
00000180: 91a8 b63d 571a cb3d 036c 323c bf18 21bd
0.08099476 -0.08075037 0.0977909 0.058094077 0.069382176 -0.089888625 0.10964268 -0.03005959
-0.046546552 0.057085764 0.042454835 0.0355303 0.034338117 0.08665047 -0.014827659 -0.024309
0.13017142 -0.10951814 -0.06010337 0.0980647 0.0661199 0.06335612 -0.020258922 0.031069798
0.10546433 -0.11162487 0.10088505 0.033564333 -0.041719325 -0.008828315 0.03327041 -0.085451156
-0.04056968 0.047379192 0.03919383 0.07174103 -0.09556593 -0.008819258 -0.10382234 -0.010743765
0.055283595 0.026369527 0.000906685 -0.04084854 0.009109647 -0.06672345 0.08369564 -0.016906388
-0.023848977 0.014931818 0.05014229 -0.08411952 -0.013365756 -0.06504798 -0.028796133 0.010976104
0.016958421 -0.0021468347 -0.038264744 0.07549241 0.06717691 -0.058429334 -0.09548413 0.02396571
-0.05467533 -0.0008611978 -0.083256945 0.08120791 0.015337891 0.047634244 0.08724535 -0.026171586
0.09614726 -0.016671387 -0.01961497 0.066238254 -0.028117046 -0.04660481 0.062204085 0.09153958
0.07070172 0.09324029 0.06627041 0.07614801 -0.027882276 -0.037559975 0.0033664734 -0.034768354
0.0445314 0.031048367 0.030289197 0.04689459 0.042095196 -0.021533148 0.06803783 0.11390167
0.0891887 0.09917133 0.01089001 -0.03933024

fc_out.weight f4 [1, 100]
00000000: 9941 ba3d 0838 03be 94f8 ae3d db60 f5bd
00000010: 683d edbd ed04 d4bd 89fe 2abe 8375 a1bd
00000020: 6be2 0abe 7ce3 023d 6dea 40be e597 96bd
00000030: 63d2 10bd 2a5e 443e 3e88 4dbe 8b6f aebd
00000040: 17e1 17be 3fbb 4fbd 442d 85bd 66d7 0bbe
00000050: 61c8 063e 29cd 01bb 3d46 c73d a00d a33d
00000060: 0138 003e 1c63 3cbc f205 2dbe d69c d1bd
00000070: 9391 f63d 9ded 88bd 1169 23be 8d46 05bd
00000080: 5dae 5dbc 059c 553d e500 dbbd dec0 ebbd
00000090: 93c6 8dbd fa7d 25be 407d 00be 8f36 adbd
000000a0: 5eff 703d e940 09be 1367 333d 8bac 39be
000000b0: ef27 573d 886c 52be 5b6d 7d3d 8717 82be
000000c0: e173 0b3e 8cc6 b93c 934c d3bd 03f5 a8bc
000000d0: 5ec2 06be 43e0 4a3e b1c7 fb3c e288 3c3e
000000e0: c4f7 cbbd f451 aabd 9e26 23be 8b79 3cbd
000000f0: b653 0a3e 999d 60be 2d6a 19be 8209 023e
00000100: 7a85 e33b cb5d 123e 0532 a73d 7d9c 4a3d
00000110: 962f 34be f591 043e 03ac 003e 4a37 1f3e
00000120: 9f47 2dbd 0b65 00be 511a 623a 073e 83bd
00000130: 1679 26be 9f5b 093d 3187 f13d 7a5a cbbd
00000140: 0bac d43d bf50 07be 2d44 ca3d 5b38 69bd
00000150: 58ca fb3c c2b2 013e 58fc 283e 59c6 1f3e
00000160: 3ae5 91bd 8e92 103e b56a a03d 91b0 6d3d
00000170: 253f 29bd 948b c8bc e44e 803d 4204 fcbd
00000180: 149c acbd 5524 0c3d e2e0 9536 dbc2 a3bd
0.09094543 -0.12814343 0.08543506 -0.11981364 -0.11583978 -0.10352502 -0.1669866 -0.07883742
-0.13562934 0.031955227 -0.18839426 -0.0735319 -0.03535689 0.19176546 -0.20071504 -0.08517369
-0.14831959 -0.05071568 -0.06502774 -0.13656387 0.13162376 -0.0019806123 0.09730194 0.07961583
0.12521364 -0.011498239 -0.16896799 -0.10234992 0.12039485 -0.06685946 -0.15958048 -0.032537986
-0.013530341 0.052150745 -0.1069353 -0.11511396 -0.06922641 -0.16161337 -0.12547779 -0.08457672
0.058837287 -0.13403668 0.04379947 -0.18132226 0.052528318 -0.20549214 0.061871868 -0.25408575
0.13618423 0.022677682 -0.1031734 -0.020624643 -0.13160083 0.19812112 0.030734869 0.18411592
-0.09959367 -0.083164126 -0.159327 -0.04601435 0.13508496 -0.21935119 -0.14981909 0.1269894
0.006943402 0.14293592 0.08163837 0.049465645 -0.17596278 0.12946303 0.12565617 0.15548435
-0.04230463 -0.12538545 0.0008625137 -0.06408315 -0.16257128 0.033534642 0.11793364 -0.099293664
0.10384377 -0.13214396 0.09876285 -0.05693851 0.030736133 0.12665847 0.16502512 0.15603007
-0.071237996 0.14118406 0.07832853 0.058029715 -0.041319985 -0.024480619 0.06265047 -0.123054996
-0.08428207 0.034214336 4.466726e-06 -0.0799615
