Copula by Ratio Estimation/2d_exp/model_parameters_NNet_ratio_25_runs_4copulas_2Dexperiment_ok1/NNet_ratio_run_16_cop_u_1_ok.pt (torch, 45099 bytes, 5 tensors)

fc_in.weight f4 [100, 2]
000000 d3 64 7c be 46 65 b9 3d 58 47 ce 3d ae bf 60 be
       -0.24647836 0.090525195 0.100722015 -0.2194812
000010 89 f4 99 be a5 c6 c3 be 26 7f 04 3f e6 17 b7 be
       -0.30069378 -0.3823749 0.51756513 -0.3576042
000020 e0 2e 08 bf da 5e be be 73 66 0e bf bc 87 6e 3e
       -0.53196526 -0.3718174 -0.55625075 0.23293966
000030 9e ab 85 3e 8e ce cf 3e 94 55 26 3f dd 88 2f 3e
       0.26107496 0.40587276 0.6497433 0.17142053
000040 0a 16 64 3d 07 0a f2 bd bc 8d 2b bf 67 db 09 3f
       0.05568508 -0.11818319 -0.67013144 0.53850406
000050 96 28 64 be 26 d3 ec bb b2 29 f2 bd 37 28 30 3f
       -0.22281107 -0.0072273193 -0.11824359 0.68811363
000060 f5 f0 32 3f c9 ed 33 bf 23 f9 37 bf 90 d3 ba 3d
       0.6989892 -0.70284706 -0.7186453 0.091223836
000070 75 09 f4 be b3 89 f5 bd 39 87 19 bf 1b cb ae 3e
       -0.47663465 -0.11989155 -0.5997196 0.34139332
000080 54 43 15 bf 8f 35 13 be 51 47 a5 be db 76 f8 be
       -0.5830586 -0.143759 -0.32280973 -0.4852818
000090 ad 53 f6 3d 7a ec 41 bf 95 9a 3a bf c4 97 ed 3d
       0.12027679 -0.7575146 -0.72892123 0.116012126
0000a0 d5 65 3b bf 9c 98 df be 7a f8 09 3f 3a b1 2d 3e
       -0.7320226 -0.4367112 0.5389477 0.16962138
0000b0 3a 76 8d be 9a 7f 5f 3e 61 89 83 3e 92 ed 00 bf
       -0.27629262 0.2182602 0.2569075 -0.50362504
0000c0 e8 c7 ae be 39 f4 23 3e 11 60 28 bf da 87 c7 be
       -0.3413689 0.16011132 -0.65771586 -0.38970834
0000d0 53 f3 bd 3c d1 8f 39 3f d4 7f 3e bf 0c 9e a5 3e
       0.023187315 0.7248507 -0.744138 0.32347143
0000e0 9c bb 9c 3e e4 fd 21 bf 90 a4 b0 be 4b 51 6e 3e
       0.30611885 -0.6327803 -0.3450055 0.23273198
0000f0 5b b1 0c bf 68 fd 3c bf 4b d2 41 bf 26 1d 6f bd
       -0.5495812 -0.7382417 -0.75711507 -0.058377407
000100 f4 18 d7 be d3 c0 43 3e 9e 5b 0a bf f9 08 cf 3e
       -0.42011225 0.19116525 -0.54046047 0.40436533
000110 e2 01 10 bf c5 3f 7d 3e df af 1e 3f 59 bf c1 3e
       -0.5625287 0.24731357 0.6198711 0.378413
000120 71 b8 65 3e f4 3c ad 3e 49 e7 11 3f 09 b1 8d be
       0.2243364 0.33835566 0.5699354 -0.2767413
000130 80 6f 2d 3f 15 f6 01 bf a0 2e c9 be b0 01 9d bd
       0.6774826 -0.50766116 -0.39293385 -0.076663375
000140 88 14 34 3c 4e 42 ae bd b8 b3 a1 3d 43 73 d7 3e
       0.010991223 -0.0850874 0.07895607 0.42080125
000150 13 62 0e 3f a2 9f 94 bd a1 25 a5 be f2 8e d1 3e
       0.556184 -0.0725701 -0.3225527 0.4092937
000160 3b c2 01 bf 46 5d db 3e 26 10 40 3e 2f 36 45 3e
       -0.50687 0.428446 0.1875616 0.1925895
000170 08 1d 07 3e 1b 16 6d 3e 2d a2 08 3f bc 35 df 3e
       0.13194668 0.23152964 0.5337246 0.43595684
000180 04 84 c2 be 17 ab 33 bf ca 43 57 3e bd 71 f5 bd
       -0.37991345 -0.7018294 0.21021953 -0.119845845
000190 9a b9 37 bf e0 db 96 be d9 bb 8f be bb b4 2e 3f
       -0.7176758 -0.29464626 -0.28073004 0.6824452
0001a0 29 86 ae bd 48 3f 46 be 6e 3e a7 3e 30 79 28 bf
       -0.08521683 -0.19360077 0.32664818 -0.6580992
0001b0 0a c5 f8 3e 2e e7 52 3d 7f 5d af be 6c 6f f2 bd
       0.4858783 0.05149 -0.3425102 -0.11837658
0001c0 1c 96 3e bf 2c 6b 24 3e 0e f5 4c bf 56 29 f1 3e
       -0.744478 0.16056508 -0.80061424 0.4710185
0001d0 4a d0 18 3f 4f 8b c1 be c6 ec 83 3e 00 4e 6a 3e
       0.59692824 -0.37801597 0.2576658 0.22881317
0001e0 41 c1 8c be 1c ba a3 be 50 42 4e bd 32 a8 cb 3e
       -0.2749119 -0.31977928 -0.05035621 0.3977676
0001f0 b0 96 5b be 5a 70 0e 3f 44 dc a7 be 28 af 39 bf
       -0.21444201 0.55640185 -0.32785237 -0.7253289
000200 5c 2f 27 bf fc 4c 49 be 4c e6 26 bf 9a 3d 0d 3f
       -0.6530664 -0.19658273 -0.65195155 0.5517212
000210 72 a0 e1 be 3f 37 10 3f 85 7e 07 3e f2 b2 16 bf
       -0.44067723 0.563343 0.13231857 -0.588668
000220 30 f5 a2 3e 9a 62 35 be c7 cc 52 bf 98 81 2e 3f
       0.31827688 -0.17713395 -0.82343715 0.68166494
000230 c4 d4 3d bf 07 5a 91 3e f0 68 12 3f a4 28 2d 3f
       -0.7415278 0.28388998 0.5719137 0.6764014
000240 79 84 f4 3e 1b ac 84 3e de 4f 7c b9 f4 a0 0b be
       0.4775732 0.25912556 -0.00024062346 -0.13635617
000250 5d 50 36 3f 8b f9 15 3e bd 8f 8c 3e 9f ec df 3e
       0.71216375 0.14645974 0.27453414 0.43735215
000260 ee 4f 1f bf fc e9 0f bf 99 0a 8a 3d eb 62 d7 be
       -0.6223134 -0.56216407 0.067403026 -0.42067656
000270 ed a6 07 3e da 53 bf 3e aa 22 13 bf f5 73 df bd
       0.13247271 0.3736866 -0.5747477 -0.10910789
000280 b8 4e c4 3d 31 6d 39 bf 61 dd d1 be 65 c8 f3 3e
       0.09585327 -0.7243224 -0.4098921 0.47613826
000290 55 e1 32 be 13 b3 18 3f e1 8c a4 3e 1e 31 11 bf
       -0.1746877 0.59648246 0.32138732 -0.5671557
0002a0 dc 24 fd 3e 81 a7 03 bf ce b4 c6 be a0 d8 01 3f
       0.49442184 -0.51427466 -0.38809818 0.5072117
0002b0 fc 70 8a be a2 c7 16 bf 3a 5d 0f bf 68 68 0d be
       -0.27039325 -0.58898365 -0.5600163 -0.13809359
0002c0 ba 9f a7 be 8c 2b f5 3e a0 74 0a 3f 6c 21 1e bf
       -0.3273905 0.47884786 0.54084206 -0.6176975
0002d0 b8 4b 1b bf 93 ce 94 be 3d f1 2f be e3 37 3a bf
       -0.6066241 -0.29063854 -0.17181869 -0.72741526
0002e0 2f 83 a9 be 58 30 16 3f 14 8b 7d be b7 bc e6 be
       -0.33107898 0.58667517 -0.24760085 -0.45065853
0002f0 f3 78 1c 3f 9d 96 3d 3f e0 1c 26 be b7 d5 39 be
       0.61122054 0.7405794 -0.16221952 -0.18147932
000300 2e a2 6d 3e 9b e7 e0 be 3f 25 27 3f 3f e4 a3 3d
       0.23206398 -0.439267 0.6529121 0.08002519
000310 a2 c8 c3 3e 13 30 e5 be a7 f3 05 3c aa 81 fb be
       0.38239008 -0.4476324 0.008175767 -0.49122363

fc_in.bias f4 [100]
000000 58 ea 65 3e 17 b0 4c be 31 d6 62 be 6c 2f 09 be
       0.22452676 -0.19989048 -0.2215202 -0.13396996
000010 cc 22 2f be 22 ab 71 be 0c 64 ae 3e 8d 49 0a bf
       -0.17103118 -0.23600438 0.34060705 -0.5401848
000020 1e 73 ca 3d e4 88 8e be a8 7e 07 3f 2c 5a 1f bf
       0.09885238 -0.27838814 0.5292764 -0.62246966
000030 4c 83 f0 be 61 1b 13 3f 02 ac 0c 3f 0d 04 ee be
       -0.46975172 0.5746365 0.54949963 -0.46487466
000040 15 3b 28 bf 7f d6 40 3e e2 69 2c 3f 73 5a 31 3e
       -0.6571515 0.18831824 0.67349064 0.1731966
000050 a7 e1 44 be 03 87 f2 3e c8 d9 db 3d fc a8 87 3d
       -0.19226705 0.4736863 0.10734898 0.06624028
000060 81 d2 dc bd 5c 4c c7 be 26 ed e5 3e 2c b4 eb 3e
       -0.10782338 -0.38925445 0.44907492 0.46035898
000070 b0 1f 75 3e 8c 2d ce be 8d a3 8f be 6a a8 19 be
       0.23937869 -0.40269125 -0.28054467 -0.15005651
000080 05 9f bb be 46 e9 32 3f db 1c 98 bd 05 6f 08 bf
       -0.3664476 0.69887197 -0.07427379 -0.532944
000090 ea 8c 05 be 37 68 29 bd e5 c3 e1 3e 3b df 37 bd
       -0.13042036 -0.041359153 0.44094768 -0.044890624
0000a0 d5 4d 01 bf 05 80 0e bf 67 4a 8f be d0 55 96 be
       -0.5050939 -0.5566409 -0.27986452 -0.29362345
0000b0 e2 ab d4 be 64 7b e8 3e 4a 7b 37 3f 34 b6 4f be
       -0.41537386 0.4540664 0.716725 -0.20284349
0000c0 09 6f 08 3f bc 44 f1 3e bc 48 fc be 07 43 23 bf
       0.53294426 0.47122753 -0.49274242 -0.6377415
0000d0 a0 ea c7 3e 13 6b c5 3e 26 24 6a 3e b9 43 93 bd
       0.39046192 0.38558254 0.22865352 -0.071906514
0000e0 d2 f7 f6 3e 20 a4 0e 3e c4 ab 0a bf f1 ac 37 bc
       0.48235947 0.13929796 -0.54168344 -0.011210666
0000f0 e5 7d 1e bf 49 7e a5 bb f2 da 14 3f 3a 52 0d be
       -0.6191085 -0.0050504548 0.58146584 -0.13800898
000100 21 3b 96 3e 98 99 0b bf 92 3f b7 3e eb 44 88 3e
       0.29341987 -0.5453124 0.35790688 0.2661508
000110 db 56 04 3f 0a 8e 83 bd 33 5a 2a 3f 0d 54 de be
       0.5169503 -0.06423576 0.66543883 -0.434235
000120 e8 84 dc be 9d 04 f9 3d 58 9d 18 bf 5b ef 7e 3e
       -0.4307015 0.12159083 -0.5961509 0.24895994
000130 67 d9 26 bf 15 f6 1d 3f 4d 8d 34 3f 06 42 61 3d
       -0.6517548 0.61703616 0.7052811 0.054994605
000140 a0 d4 fa 3e 93 e9 8d bd 36 d5 9a 3e d0 dd d1 3e
       0.48990345 -0.06929316 0.30240792 0.40989542
000150 b1 2e e2 be 35 50 10 bf 5d 9d 27 3e 66 13 24 3f
       -0.44176248 -0.56372386 0.16368623 0.640921
000160 ec 73 23 3f 40 7b 14 bf 4b 70 e4 3e 1d f9 78 3e
       0.6384876 -0.58000565 0.44616923 0.24313779
000170 cd 2b d9 be c7 db b3 3e b4 31 db 3e 4f 59 fc 3e
       -0.4241623 0.35128614 0.42811358 0.49286887
000180 26 47 27 be cf ce 28 3f 68 aa 89 3d e5 4d 20 3f
       -0.16335735 0.65940565 0.067219555 0.6261886

fc_hidden.weight f4 [100, 100]
000000 b1 9f f9 bc ca ea eb bc e3 36 d9 bd 91 79 19 3c
       -0.030471655 -0.02879848 -0.10606172 0.009367363
000010 75 e1 c2 3d 8a a9 81 3d a6 e3 13 3e 71 eb 0c be
       0.09515659 0.06331165 0.1444231 -0.13761689
000020 3d e1 b3 3d bb 1d 48 bc c8 22 91 3c cd dd 7a bd
       0.08783195 -0.01221412 0.01771678 -0.061246682
000030 68 2e 02 bd 38 cc 4a 3d 0b 65 98 3c 0e 6f 2c 3e
       -0.031782538 0.049511164 0.018602869 0.16839239
000040 d9 6c c5 be c2 95 f6 bd b0 c4 88 3d 39 fd ad bb
       -0.38559607 -0.12040283 0.0667814 -0.0053097275
000050 dc 02 27 3c 1b 4f 1d 3e 3b ce ad bd f2 32 05 bd
       0.010193553 0.15362208 -0.08486601 -0.03251929
000060 54 4c 1b 3d 66 dd 2a be 42 50 b6 3d a4 e4 d1 3a
       0.03791459 -0.1668602 0.08902027 0.0016013575
000070 ca 7d 88 bd 0f 76 3f 3c f1 79 a7 3c 19 c8 37 be
       -0.06664617 0.011685862 0.020443888 -0.17947425
000080 59 c8 1c 3d 5d b7 23 bd ce 93 b3 3c c4 d3 c7 3d
       0.038277004 -0.03996979 0.021921065 0.09757188
000090 0d fe b0 3d be c6 d2 bc 90 11 ae 3d c1 a8 a1 bc
       0.08642206 -0.025729533 0.084994435 -0.019733788
0000a0 aa 9d f7 3d 2e fc 78 3c 8e da ec 3d 99 5e 82 bd
       0.12090619 0.015196843 0.115651235 -0.06365699
0000b0 14 b5 c7 bd 49 71 02 bc 25 37 cf 3d 82 4b 80 3d
       -0.09751335 -0.00796158 0.1011794 0.06264402
0000c0 5d df 68 bd 5d 34 3f 3d 1c 92 d5 bd 78 26 d2 3c
       -0.05685364 0.046680797 -0.10428259 0.025653109
0000d0 a1 5b 59 bd e1 78 13 3e 55 59 98 3d ec 34 03 be
       -0.0530659 0.1440158 0.07438914 -0.12813157
0000e0 7a 33 a1 bd 17 00 d3 bd 18 21 c5 bc 47 a6 b6 3c
       -0.078711465 -0.103027515 -0.024063632 0.022296084
0000f0 02 78 4f 3e ac bc 2f bd 73 15 c6 3d ce bc 70 bd
       0.20260623 -0.04290454 0.0967206 -0.05877381
000100 af 8a ce bd bb 36 43 bd 1e e4 cb 3d ea e4 82 3c
       -0.100850455 -0.047659617 0.09955619 0.015978295
000110 94 87 02 bd 48 9d 56 3e e8 b9 97 bc 29 0a cf 3d
       -0.03186758 0.20958436 -0.018521264 0.1010936
000120 8f 96 92 bc 32 6a da bd 3b 1c 37 3d d4 14 85 3d
       -0.017894058 -0.106647864 0.044704657 0.06498113
000130 71 7c da 3b 18 02 02 3e 9f 26 68 3d 35 55 01 bd
       0.0066676666 0.12696111 0.056677457 -0.0315754
000140 15 4f bf 3b d8 28 4e bd 46 9a af 3c 8a 45 af 3d
       0.0058382847 -0.05033192 0.021435868 0.085581854
000150 76 0c be bd 9a 89 2d 3e 5e 1b f8 bc 26 74 0e 3e
       -0.092797205 0.16947022 -0.030286487 0.13911495
000160 1c 90 d4 bd 03 a9 dd 3c 13 23 38 bd ca c3 3b bd
       -0.10379049 0.02705813 -0.044955324 -0.045841016
000170 ac bd 46 3e 94 c4 23 3d 09 9d ae bd 60 f9 a0 3d
       0.19408292 0.039982393 -0.08526046 0.078600645
000180 bc 3e 50 3c 3e 75 e6 bb 7d 8d aa 3d c0 2b 8f bd
       0.01271027 -0.0070330193 0.08327768 -0.069907665
000190 90 77 d9 3d 4e 41 ba bd d9 86 42 bc 1f 1a 21 3d
       0.10618508 -0.09094487 -0.0118729705 0.03933155
0001a0 b7 cb d0 3d 7d 8d e1 3d 7e 76 28 bd d8 90 21 3e
       0.101951055 0.11013315 -0.041128628 0.1577791
0001b0 09 27 58 bd 04 30 29 3d 01 b1 ab 3d b8 d0 7d 3d
       -0.0527716 0.041305557 0.0838337 0.061966628
0001c0 e6 84 97 be 59 ac 73 bd b0 99 4c bd 82 66 df 3c
       -0.2959358 -0.059490535 -0.049951255 0.02727056
0001d0 ff 28 c8 3c 06 71 93 3d 5a 04 e3 3d dd 8e 89 bd
       0.024433611 0.07199292 0.11084814 -0.06716702
0001e0 67 cc 0e bd 83 3c 55 bd bf 14 44 3d 07 72 2c 3c
       -0.034862902 -0.05205966 0.047871348 0.010525233
0001f0 82 da b4 3d 30 e7 58 bd 59 03 67 3d 50 28 ad 3d
       0.088307396 -0.052954853 0.056399677 0.084549546
000200 ce 98 d5 bd a5 4c cb 3d 7a 97 a4 3c a9 83 99 3d
       -0.10429536 0.09926728 0.02009176 0.07495815
000210 59 bf ce 3d 4f 59 a1 bd d9 92 83 3d 63 45 86 3c
       0.100950904 -0.078783624 0.06424493 0.016390508
000220 f5 36 f2 3d 58 bb 36 3d 0a 5e 12 bc 02 57 11 3d
       0.118268885 0.04461226 -0.0089335535 0.035483368
000230 e4 d9 09 3d 6b 7a 11 3e af b9 0f 3d ae ca 0a 3e
       0.033655062 0.14206855 0.03508919 0.13553879
000240 a7 45 ee 3c 12 37 6c bd 4e 42 d5 3d f2 82 2a bd
       0.029085947 -0.057669707 0.10413037 -0.041628785
000250 5f 88 6e bd 74 3d 1d bd ab 65 9d 3d 0c 8b d3 3c
       -0.058235522 -0.038388684 0.07685407 0.025823139
000260 5f eb 85 3c 76 38 9e 3c 6b e7 e8 3c 8a c7 f1 3c
       0.016347585 0.019314032 0.028430661 0.029514093
000270 96 8c 04 3d af 6d 49 3d 33 19 21 be 20 ed 31 3d
       0.032360636 0.049176868 -0.15732269 0.04343903
000280 22 72 a9 bd 0e 0c de 3d 63 13 db 3d de 6d be bd
       -0.08273722 0.10842143 0.10697057 -0.09298299
000290 43 d0 6c 3d fc ed 1f 3d 69 97 a9 3d 5a b5 bf bd
       0.0578158 0.03904532 0.08280832 -0.09360762
0002a0 54 11 0f bd ad 6c 86 3d 97 44 73 3d 92 59 85 bd
       -0.034928635 0.06563697 0.059391584 -0.06511225
0002b0 44 85 b6 bc a2 83 97 bd 35 77 6c 3c 79 e4 95 3d
       -0.022280343 -0.07398154 0.014432718 0.07318968
0002c0 ab 04 93 bd 09 b4 99 bd 79 4c 88 3c b6 1d e2 bc
       -0.07178625 -0.07505042 0.016638028 -0.027602058
0002d0 18 dd 51 bd dd 3b bc bc c0 f1 b5 3d 49 68 90 bd
       -0.051236242 -0.022977764 0.08884001 -0.07051141
0002e0 70 00 22 3e d8 78 b5 bc 64 10 5d bc 8a f5 27 3d
       0.1582048 -0.02215235 -0.013492677 0.04100565
0002f0 61 31 42 3c b0 2a 1e be fa d0 b2 bc d1 ed 35 bc
       0.011852593 -0.15445971 -0.021828163 -0.011104063
000300 2c b1 a3 3c f0 d0 00 3d f1 1f 4f bd 49 c4 f9 3c
       0.019981943 0.03144926 -0.05056757 0.030489104
000310 dc 1e 42 bd 91 fc 32 bc e0 9e 88 bd 0b 22 fd bc
       -0.04739271 -0.010924474 -0.06670928 -0.030900022
000320 18 0a 58 bb 18 c8 31 3d 58 ac 2d 3d 1f 55 f5 3d
       -0.0032965 0.043403715 0.042400688 0.11979126
000330 c9 5e 6f bd ae 03 d7 3d 44 61 a5 bd 76 24 0f 3e
       -0.058440004 0.10498749 -0.080751926 0.13978752
000340 5e b2 19 bd 75 34 e3 3d e8 f6 6e 3d 67 12 f8 3c
       -0.03752362 0.1109399 0.058340937 0.030282212
000350 b1 e8 65 bc a0 ea 44 bd 04 0a 98 bd d4 49 e2 bc
       -0.014032529 -0.04807532 -0.07423785 -0.027623095
000360 e0 68 5b 3e 15 53 e9 3d e5 52 03 3e 93 f1 7f bd
       0.21426725 0.113928 0.1282459 -0.062486243
000370 bd 91 4a bd 24 a7 88 3c 8e e7 9c 3d f7 0f 71 3d
       -0.049455393 0.016681261 0.07661353 0.058853116
000380 b5 43 a8 3c 2d ec f0 3c b3 39 9e bd 6d 7f 63 bd
       0.020540098 0.029409492 -0.07725849 -0.055541445
000390 be 6f 9d 3d 86 e2 26 3e bf 48 5a bd 12 e4 4f 3d
       0.07687329 0.1629735 -0.053292032 0.050754614
0003a0 45 90 fe 3d 54 29 4a 3b ce a1 c2 bd 7d 61 dd 3a
       0.12429861 0.0030847387 -0.09503518 0.0016890016
0003b0 2b 00 21 3a 31 2b a6 3d 51 95 3a 3d 7b d4 80 3b
       0.00061416876 0.08113707 0.045552555 0.0039315796
0003c0 95 47 c4 3d e6 0f bf 3d 28 bb fe 3c 40 45 d5 3d
       0.09583966 0.09329204 0.031095102 0.10413599
0003d0 3a f2 c8 3d c2 ff 09 be 66 17 1d 3c b8 3d 38 bd
       0.09811826 -0.1347647 0.009588098 -0.044980735
0003e0 f0 d7 d9 bc 20 4b bd 3b 6c a1 d5 3c 85 bd 8a bd
       -0.026592225 0.005776778 0.026077949 -0.06774429
0003f0 f3 2a 6e bc cb a5 58 3d 2e 6f 4a 3c 17 2c e4 bc
       -0.014536607 0.052892487 0.012355609 -0.027853055

fc_hidden.bias f4 [100]
000000 1d 30 65 3d c2 62 9d 3d f0 2e 39 3d dc 88 f8 bc
       0.055954088 0.07684852 0.04521078 -0.030338697
000010 7d 68 e8 3d 47 80 e6 bc 77 6e fa 3d d4 e1 24 3d
       0.113480546 -0.02813734 0.12228101 0.04025443
000020 96 2b 96 bd 28 2e fa bb 35 c6 d5 3d a7 e8 c2 bc
       -0.07332532 -0.007634897 0.104381956 -0.023792578
000030 4c 18 99 3d 24 8f 9b 3d 26 d0 2e bd 03 da fb bc
       0.074753374 0.07595661 -0.042678975 -0.030743605
000040 1b 30 44 be 3d a1 a3 bd d7 e8 3f 3d 75 f3 ae bc
       -0.19158976 -0.07989738 0.046852913 -0.021356324
000050 42 74 8d 3d a6 05 49 bd 3c fa 91 3d b4 ca df ba
       0.0690694 -0.049077652 0.071278065 -0.001707396
000060 3f 14 58 3d 24 1a 29 bd ab 0e 03 bc 22 cf 4c 3d
       0.052753683 -0.041284695 -0.007999103 0.050002225
000070 51 c5 dd bd 3b 71 2b 3c d7 c6 a0 3d 5b af 88 bd
       -0.10828651 0.010464008 0.07850426 -0.066740714
000080 c5 2e 98 3d c7 56 b7 3d fd d9 76 bd 6a d5 ed bc
       0.074307956 0.08952098 -0.060266484 -0.029032428
000090 bf 4b 64 3d 0b 74 cf ba dd fb 62 bd 91 15 7c bd
       0.0557363 -0.001582743 -0.055415977 -0.061544005
0000a0 0d 80 b2 3c 2a 24 ca bc 9b 27 6c 3d 06 db e4 bb
       0.021789575 -0.024675447 0.05765496 -0.0069841174
0000b0 15 c6 2d be 8f cf 16 3d 86 85 d0 3d 39 6a d9 3c
       -0.16970094 0.036819037 0.101817176 0.026539909
0000c0 6b 11 99 3d 7c ba ad 3d c6 a2 97 3b e8 42 af bd
       0.07474025 0.08482835 0.0046275584 -0.08557683
0000d0 b0 16 05 bd c5 4c 72 bd 3a c8 76 3d ab b6 26 be
       -0.03249234 -0.059155244 0.060249545 -0.1628062
0000e0 24 cb 9e bd a2 02 b4 3d 4a 49 25 3d a0 c8 5c 3d
       -0.0775359 0.08789565 0.040353097 0.05390227
0000f0 b2 82 d8 3d 2f b6 b1 bd d2 36 94 bd 9d c9 65 bd
       0.10571803 -0.08677327 -0.07237019 -0.056100477
000100 e8 db 14 3d c6 4d 50 3d 38 0b a6 bd cc 3c dc 3c
       0.03634253 0.05085542 -0.081076086 0.026884459
000110 f7 1e 8d bd 7a af 5e 3a 20 71 96 bd 85 a9 28 3c
       -0.06890672 0.0008494776 -0.07345796 0.010294323
000120 87 4d 35 ba 3c 55 d4 3c 8f 2f 44 3d cd 94 84 bd
       -0.00069161545 0.02591955 0.047896918 -0.06473694
000130 0f ae 35 3c ee 51 a9 bd 53 9b 63 3c f5 92 6e 3d
       0.011088862 -0.0826758 0.013892013 0.058245618
000140 06 a9 85 3d e8 21 97 3d d5 1b 28 bd dc 0d 34 bc
       0.06526379 0.07379514 -0.041042168 -0.010989632
000150 d8 8b 1b 3d c7 1b 4c 3d 20 25 53 3d d9 34 18 bc
       0.037975162 0.049831178 0.051549077 -0.009289944
000160 d5 1d 09 be df 09 a0 bd 44 93 a1 3d c3 76 32 bd
       -0.13390286 -0.07814383 0.07889417 -0.04357029
000170 77 30 93 3c a2 c8 68 bc c0 6e 71 bd 9e cc e6 3d
       0.017967446 -0.014207991 -0.05894351 0.112694964
000180 21 8e 92 3d 97 46 6a bd 2d 7e 7d bd 1f 25 81 bd
       0.07156015 -0.057196226 -0.06188791 -0.063059084

fc_out.weight f4 [1, 100]
000000 01 45 fe 3d e2 31 05 be 08 73 c6 bd 4b b0 44 bd
       0.12415505 -0.1300731 -0.09689909 -0.04801969
000010 78 94 87 3d 64 a3 d8 bd d0 73 dd bc 49 e7 58 be
       0.06620115 -0.10578039 -0.027032763 -0.21181978
000020 28 1a 90 3d f7 d3 28 3d 68 8e b4 3c 1a d0 1e be
       0.07036239 0.04121777 0.02204056 -0.15509072
000030 d5 2d 33 bc a2 d8 e5 bd 34 cd ca bd 43 0f dd bc
       -0.01093622 -0.1122296 -0.09902421 -0.026984816
000040 d7 ed 3c be c2 33 34 be f2 b4 30 bd 4f 80 66 3d
       -0.18450104 -0.17597869 -0.043141313 0.05627471
000050 97 7f 34 bd 8f bc cb 3d 54 13 15 be a3 ec 39 be
       -0.04406699 0.09948074 -0.14558154 -0.18156676
000060 e0 d8 4f be cd c9 ca 3d c2 6f 30 3e 15 7a c7 bd
       -0.20297575 0.09901772 0.17230132 -0.09740082
000070 2d 9b f8 bd fb b1 f9 3c 96 cc c4 3d f0 08 d5 bd
       -0.121389724 0.030480376 0.09609334 -0.10402095
000080 f1 5e d3 3c e3 3d 9c 3d 7e 31 dd bd ca 17 55 3e
       0.025802108 0.076289915 -0.108004555 0.20809856
000090 a4 ae 12 be 9d de 91 bd e9 bc 09 be eb 29 3b 3d
       -0.14324433 -0.07122538 -0.1345097 0.045694273
0000a0 2f 0c 29 3d f9 fc 9d bd a0 df 14 be a1 41 c4 bd
       0.041271385 -0.07714266 -0.14538431 -0.0958283
0000b0 a4 37 7a bd 55 86 fa 3d 58 f3 72 bd e8 68 aa 3d
       -0.06108822 0.12232653 -0.059314102 0.083207905
0000c0 ad 64 59 3d df 6d 05 3e dd 3f e7 3d 18 a3 cf 3d
       0.053074528 0.13030194 0.11291478 0.101385295
0000d0 57 4e fe bd ab a7 b3 bd 3a 32 2b 3e ce 9f 31 be
       -0.12417286 -0.087722145 0.16718379 -0.17346117
0000e0 4a 3d 3e 3d 79 67 8a 3d ca 26 8d bd 86 da 9f bd
       0.04644517 0.06758017 -0.06892164 -0.07805352
0000f0 54 3d 3a 3e 3b 1c 32 be 22 43 e1 3d 25 16 b6 3d
       0.18187457 -0.17393582 0.10999133 0.088909425
000100 59 a4 cc 3d 52 83 ba bd b1 3a bf 3d 79 c4 89 bd
       0.09992284 -0.091070786 0.09337366 -0.06726927
000110 78 1e 9a 3d 39 6f 86 3d 04 b9 e3 bd 58 a6 63 3d
       0.07525343 0.06564183 -0.11119273 0.05557856
000120 d0 0b 0c be 8a 56 07 be cf 5b 01 be 64 f9 db bd
       -0.13676381 -0.13216606 -0.12632678 -0.10740927
000130 21 1f 17 bd 60 52 b8 3d 5d 5b ca bd 0c a8 03 3e
       -0.03689492 0.09000087 -0.098807074 0.12857074
000140 c2 6c fb bd b6 c9 97 3c 6b 65 15 be c4 7d a3 3d
       -0.12276603 0.0185288 -0.14589469 0.07982972
000150 55 fe 43 be 06 93 f6 3d dd b0 82 3d b9 b4 a3 3d
       -0.19139989 0.12039761 0.0638139 0.079934545
000160 0f e5 95 bd b7 27 c1 bd 1d 78 9b 3d cd cc d2 3d
       -0.0731908 -0.09431403 0.07591269 0.10292969
000170 41 39 12 3d 0e 8a a5 bd cf 01 d9 3c 2d 57 03 3e
       0.035699133 -0.080829725 0.02649012 0.12826224
000180 0d 6c 8a bd bb 89 17 bd ca 3a cc bd 79 6b f9 bd
       -0.0675889 -0.036996584 -0.099721506 -0.12178702
