Copula by Ratio Estimation/2d_exp/model_parameters_NNet_ratio_25_runs_4copulas_2Dexperiment_ok1/NNet_ratio_run_8_cop_u_0_ok.pt (torch, 45088 bytes, 5 tensors)

fc_in.weight f4 [100, 2]
00000000: 7182 413f a83d 9fbc 2c05 81be 877d d0be
00000010: 0fc3 fd3e 056c 0ebf 1779 31bf f1d7 003f
00000020: 816c 5d3e 0ee7 7a3e 04b5 e0be 7a4a 2cbf
00000030: 8527 d9bd 8856 f73a 4a14 20bf 8181 503e
00000040: 623e 4bbb 2645 b53e f6e1 9bbe 0e44 84be
00000050: 1f65 533e f73b fdbd 6021 b6bc fa8e dc3d
00000060: 5a08 bebe 9ce5 ba3e c25a 033e f8bc b43e
00000070: 32f0 7cbe b4db 2e3f 1306 053f a462 bc3d
00000080: 951b e13e a6a0 a1bd 892e 263f dfa4 16bf
00000090: f733 033e 9d74 123e 5156 01be 6262 8cbd
000000a0: aedd 09bf 0413 13bf 0088 40bd 0b54 11bf
000000b0: 03cf 1a3f 06eb c13e cd96 08bf 0cc0 d8be
000000c0: 2268 fe3e 1713 17bf 17f4 12be f5b4 0a3d
000000d0: 2007 953d 3a3a d23e 909e d1be f4b5 ed3e
000000e0: 65f5 4b3e e8c7 ca3e 90b2 bb3d 31fa 423f
000000f0: 1e6d b43e dbc9 363e a6d8 c3bd b01e 12bf
00000100: a17a 583e 4c64 e83e cc3c e03e 4522 1ebf
00000110: 6e2c cc3e 6f3d 813e f1b5 a5be 7780 903e
00000120: 7f25 673e 459f 19bf a6b2 18be bad4 c6be
00000130: fdc0 17bf 9f1b 9a3e fdac 1a3e aff9 1fbf
00000140: d590 4abf 5fa2 23bf 306f d9be c266 8d3e
00000150: 30b2 2f3d 651d 083f f640 ea3e c557 72be
00000160: baff 2abf cf99 583e ad19 1d3f 0f45 8cbe
00000170: 3599 b73e d6ac e7be 40ed f5be 3494 6e3e
00000180: 2005 993e f59a f4bc dcb9 e4bd d124 a7be
00000190: 6a75 3ebd 5cc1 ffbc 7a8a 163f aede b53e
000001a0: 3e7e 0bbf bfd7 f43e 97bf eabe 91de d73e
000001b0: b971 1c3f c6bb 1f3f b6d3 3b3e 1642 d53e
000001c0: dfcb 0a3f c352 3dbc 8cbc 4cbe 7900 613e
000001d0: 7970 e93e 2fbb 4c3e 6103 00bd 5169 c2be
000001e0: 95d7 523d e5c4 09be d882 343f 09b8 c9be
000001f0: 9697 06bf 65a5 c1be 0a5a 70bd 0c5a a5be
00000200: d27f 253e c777 b8be b614 01bf 18c8 593d
00000210: 3ee3 1a3e e873 973d f61e 723e ec2f 97be
00000220: cf81 7b3e 7dd0 a33d 868a e23e 6ea1 113f
00000230: c281 323e 0001 9a3e fb0f 0ebf a5c7 1e3f
00000240: db60 c63e ddd0 1abd 2389 df3d 9449 81be
00000250: e1ff 1a3f d23e c3be 652b 953e dda3 b73e
00000260: ed65 af3e 0e0a 193f f862 1a3f bd97 4a3f
00000270: 934e 483f e60b 613e d870 4cbe b5b2 f23e
00000280: a3a7 38bf 7334 b53e 59a7 48bf bfb0 90be
00000290: 7499 d2be 6423 fb3e 8ae1 173f 3247 1d3e
000002a0: a757 73bd dbd1 263f cf6d 89be 6716 6b3e
000002b0: 7161 14bf bd73 f3bd 7b42 10bf a2f0 4cbe
000002c0: 34b2 de3e a67b febe 5e0f a93d 4b4b 0abe
000002d0: 13b4 683e 1994 89be ed45 5e3e 3c3b 31bf
000002e0: aec2 f8be 339b d93e 78d7 f33e a21e 5ebe
000002f0: 9228 07bf 7d28 1cbf db71 79be 729f 89be
00000300: 31b0 a2be f5e7 27bf 8455 c8be a270 1c3e
00000310: 135f 1c3f 5f00 28bf 94e3 033f 8c68 3fbc
0.7558966 -0.01943858 -0.25199258 -0.4072077 0.4956288 -0.55633575 -0.69325393 0.503295
0.21623422 0.24502203 -0.43888104 -0.6730114 -0.10603241 0.0018870393 -0.6253096 0.20361902
-0.0031012525 0.3540432 -0.30445832 -0.25833172 0.20644043 -0.12364953 -0.022232711 0.10769458
-0.37115747 0.36503303 0.1282759 0.35300422 -0.24701002 0.6830399 0.51962394 0.09198502
0.43966356 -0.078919694 0.64914757 -0.58845323 0.12812792 0.14302297 -0.12630583 -0.068547025
-0.5385388 -0.5745089 -0.0470047 -0.56768864 0.60472125 0.3787462 -0.53355104 -0.4233402
0.49688822 -0.59013504 -0.14350925 0.03386398 0.072767496 0.41060048 -0.40941286 0.46427882
0.1991783 0.3960564 0.091649175 0.7616301 0.352395 0.17850439 -0.09562807 -0.57078075
0.21140529 0.4538902 0.43796384 -0.6177104 0.39877647 0.25242183 -0.32365373 0.2822301
0.22572897 -0.6000865 -0.14911899 -0.38834172 -0.5927885 0.30099198 0.15105052 -0.6249036
-0.79127246 -0.63919634 -0.42467642 0.2761746 0.042894542 0.5316985 0.45752686 -0.23666294
-0.6679646 0.21152423 0.61367303 -0.27396438 0.35859075 -0.4524905 -0.4803257 0.23298723
0.29886723 -0.029859046 -0.11168262 -0.32645276 -0.046498694 -0.03122013 0.5880505 0.35521454
-0.54489505 0.4782085 -0.45849296 0.42161992 0.61111027 0.62395895 0.1834248 0.41651982
0.5421733 -0.011555376 -0.199938 0.21972837 0.45593622 0.1999328 -0.031253222 -0.37970975
0.051475126 -0.13454016 0.7051215 -0.3939822 -0.5257505 -0.378215 -0.058679618 -0.32295263
0.16162041 -0.36028883 -0.5042223 0.05316934 0.15125749 0.07395154 0.23644623 -0.2952875
0.24561237 0.0799875 0.4424631 0.5688695 0.17432311 0.30078888 -0.55493134 0.62023383
0.3874577 -0.037796844 0.10914829 -0.25251448 0.6054669 -0.38133866 0.2913467 0.35867205
0.3425745 0.5978097 0.60307264 0.79137784 0.78244895 0.21977195 -0.19964921 0.47401968
-0.72130793 0.35391578 -0.7838035 -0.28259847 -0.411327 0.49050438 0.5932852 0.1535919
-0.059409764 0.65163964 -0.2684159 0.22957765 -0.57961184 -0.1188731 -0.5635144 -0.20013669
0.43495333 -0.4970371 0.08254884 -0.13505284 0.22724943 -0.26870802 0.21706362 -0.6923101
-0.4858603 0.4250122 0.47625327 -0.21691373 -0.5279628 -0.6099928 -0.24359839 -0.2687946
-0.31775048 -0.65588313 -0.39127743 0.15277341 0.6108257 -0.65625566 0.5151913 -0.011682641

fc_in.bias f4 [100]
00000000: 84ca a63e 6cca bd3e 6e3a 383e db1c 053f
00000010: eab3 48bf 5527 d9bc b7b9 563e a5f6 f03d
00000020: cde3 fd3e 3d8d 98bc 33ae fe3e 606b 1d3f
00000030: 038f 88bf 4d75 c2be 5bef b6be 8a87 21bf
00000040: 5ba9 283f 262a 003f cf58 9ebe 3e1a 70be
00000050: 7e6a 22bf 714a 3b3f 362e 5dbe 3bbc 07bd
00000060: 9f16 a8be 2a0b 21bf 1712 123f 63b4 37bf
00000070: fc2c 103f e589 1bbd 9bd0 d3be 0b93 25bf
00000080: e313 bb3d 9e4a d53e a5d7 003f d490 f23e
00000090: aaac bbbe c115 d43b d695 15bf 0615 233f
000000a0: abf4 363f e006 133f e482 32bf ae66 023f
000000b0: 67c9 e1be cd8c dcbe adca 90be 7f7c 9e3e
000000c0: af9b f73e 7354 19bf 5161 1b3f 2fd9 eabe
000000d0: c3c5 393e b049 bfbd e6d3 a4be 3714 1abe
000000e0: 5c07 123f e378 0a3e 36eb 82bd f5a1 153f
000000f0: 7db4 23bf 45c9 15bf 72ba 19be 1b5a bcbe
00000100: a027 33bf f0b6 0bbf e7d4 163f 9d25 3bbe
00000110: 7b63 dcbe aed4 8f3d 2608 07bf 45d1 443f
00000120: f0a8 98be 80db df3e 22ae 80be 2eff 28be
00000130: 234c 0fbf c1ed 933e 2bae 203d 3eb3 173f
00000140: 1f27 e83e 23f1 53be 020f 0abf e908 fbbe
00000150: 90f4 8d3e fba1 4a3e cbb2 ea3e 5a0b 49bf
00000160: 09aa 3b3f 159e 95be c197 18be a967 763e
00000170: 4018 383f d9f3 2abf dc6a 3dbf 8d7f 53be
00000180: c321 1fbf 29a7 973e 2f25 99be a59b 0a3f
0.32576382 0.37068498 0.17991039 0.51997155 -0.7839953 -0.026508013 0.20969282 0.11765794
0.4958786 -0.018622035 0.49742278 0.61491966 -1.0668644 -0.37980118 -0.3572949 -0.6309744
0.65883416 0.50064313 -0.3092713 -0.2344751 -0.63443744 0.73160464 -0.2159966 -0.033138495
-0.3282976 -0.6290766 0.5705885 -0.71759623 0.5631864 -0.037973303 -0.4137009 -0.64677495
0.091346525 0.4165849 0.5032905 0.4737612 -0.3665517 0.00647232 -0.58431756 0.63703954
0.71467084 0.57432365 -0.69730973 0.50937927 -0.4409897 -0.43076172 -0.2827963 0.30954358
0.48360965 -0.59894484 0.6069537 -0.45868823 0.18141846 -0.09340227 -0.32192916 -0.15046774
0.5704248 0.13522677 -0.06392519 0.5845025 -0.6394728 -0.5851024 -0.1501253 -0.36787495
-0.6998234 -0.54576015 0.58918613 -0.18276067 -0.43044648 0.07022987 -0.5274681 0.7688182
-0.2981639 0.43722153 -0.25132853 -0.16503593 -0.5597555 0.2889233 0.0392286 0.59257877
0.45342347 -0.20697455 -0.5392915 -0.49030235 0.2772565 0.19788353 0.45839533 -0.78532946
0.7330633 -0.2922217 -0.1490164 0.2406298 0.71912 -0.6677833 -0.7399118 -0.20654126
-0.6216089 0.2961972 -0.2991118 0.54143745

fc_hidden.weight f4 [100, 100]
00000000: e7b2 003d ca97 bb3b 8345 87bc e6e3 95bc
00000010: 39ab 133d 189b a43d 9b90 043e 8459 89bd
00000020: 32f8 003d 4b0e 613d 8b60 bdbd ec72 893d
00000030: 34e6 763d 839b 36bc 4242 103c d107 b83d
00000040: 283b b4bd 4d77 9f3d 20ed a8bd e195 c3bc
00000050: 5a04 043e 232e 1abd aa4c 32bd 6f6a 263d
00000060: 9dcc b83d b788 17bd ddd1 a53d d724 ecbd
00000070: f0b2 a83c 6016 9d3d 36a7 11bc 742f 323e
00000080: 9bbf f1bc 76ce 383d a21e 9c3d a448 02be
00000090: 1238 023d c34f cd3d a8c3 0d3e cd73 253d
000000a0: e3b3 dbbc 12fe a4bc 2722 0fbb 28d8 a83c
000000b0: 6e60 47be dfbd 4f3d d8b0 2fbd ad56 e23c
000000c0: 1b48 0b3c 8fe3 43bd 7b05 3d3d 428f e13c
000000d0: 6fd1 83bd 9ad1 16be 01e5 5abd 1182 713c
000000e0: f0a1 cb3c 34e3 9f3d 767d 143d 5c36 403d
000000f0: 7a78 f7bd e712 f3bc 9690 f73b fc6a 883d
00000100: efce 093e 8e3c 37bd 9719 033d 137d a43d
00000110: 8666 34be b975 8cbd f166 1dbe e7be 2fbc
00000120: 4495 253e 3228 c73d e57f f6bb e003 cbbb
00000130: 59bf 0abd ea88 5b3d c45c dcbc 32d2 e53c
00000140: 6803 f2bb b98b 8bbd 1ace 9fbb 60be 8a3d
00000150: 7f9e 013d 5c3e 8fbd 9627 8cbd 8d48 29bc
00000160: e733 763d bb95 333d 5f1f 3bbd ea6a f53d
00000170: 3b17 60bd 1e0b e03d 14bc abbd 4048 a9bd
00000180: e3a8 b23c e364 813d 12e9 b33d 894b fdbd
00000190: b0c8 8dbd f325 3d3c 130f 3ebd 1d67 d4ba
000001a0: e96b ad3d 120e 023d 185c dd3a 6535 e9bb
000001b0: 8a4c 99bd 10e6 c73c c563 2c3c 4fea b4bc
000001c0: c05d 17bc 3fd7 f93d 6176 21be 6465 3ebd
000001d0: fa8f 1f3d 9068 383d 4aa1 e5bc 3eef a8be
000001e0: 8f8d 473c 5844 59bc 4d94 013e fd07 60bc
000001f0: 0727 6cbc 0cb0 5bbd 85fc 3bbd 4e27 53be
00000200: 89c2 fe3c 51d6 0a3d 8196 70bc 53e6 aebd
00000210: fa02 c3bd 5afd e3ba bf31 d23d fc05 fe3c
00000220: 8809 1a3d ea7a ae3d a582 0f3e a60d 37bc
00000230: 98ae 27bd 8388 333d 7f95 89bd 4109 da3d
00000240: 7a74 a7be e174 0bbe f41c 923d ba74 66bd
00000250: f498 d53d 2785 c9bd e86e 223d 8b7e fdbd
00000260: 0e84 1abe c79b 5ebe 0b2b 0ebd fbf5 e8bc
00000270: 454a 453d a2a7 d8bd 631c 3a3d 8b33 32bd
00000280: ce66 dabc 8790 733d b3f3 9b3d 26c6 05ba
00000290: a093 da3c 8c85 bfbd b45a 143d 4b76 aabd
000002a0: 8b87 11be f52b dd3c a338 e33d d218 dcbd
000002b0: f2ee 413e ef5d d63d d918 adbd 3f16 c5bc
000002c0: 796c dfbd e0f7 bc3c b561 823b a5be 94bd
000002d0: 0a5e 933d 7884 95bd 1813 e93d 893a 323d
000002e0: 0f4f 3f3d c603 50bd 6327 95bd 38a6 acbd
000002f0: 4304 163d 4eb3 b8bc 0c96 8cbb b9a4 4c3d
00000300: 1878 03be 86a3 373d 3da9 d63b 1b94 62bd
00000310: 4a9c 903d 127a 7a3d 999e 0f3c 0621 ccbd
00000320: cc6a 943b cabc b7bd f406 8a3b c55b 6fbd
00000330: 2ee7 bf3b 48dd 6cbd 1c59 d1bd dd12 ffbd
00000340: a22f 333d 1e8f a03d a30c 98bd 9792 1dbd
00000350: f9a9 743d 21f2 0b3d f3a3 69bd 518c 54bd
00000360: 6fd6 a93d a7da bbbd b727 db3d 9eb5 8e3d
00000370: f854 6dbc 4904 52bd 6714 8e3d 7013 ce3b
00000380: 10bf 283d de22 5b3c 5429 07bd 14b0 a7bd
00000390: 2a70 8ebd 1b51 ba3d 2a3d 12bd dd5a 25bc
000003a0: 7cf5 88bd d2f0 a33d 2039 8b3d e023 8e3d
000003b0: 5f77 89bd 6683 263d 2e92 093b 4fc8 b7bd
000003c0: ff8c 24be 4653 3c3c 63c6 373e 3412 8a3d
000003d0: 87af f33d 9c7c c53c 3259 8ebb 9ca7 20bb
000003e0: 64ca 0dbd 199e 693c cb29 ca3c c617 c7bc
000003f0: 1473 b83c 5db6 0f3b 41bc 0c3d 64a1 3bbd
0.031420615 0.005724882 -0.016512638 -0.018297147 0.036051963 0.08037394 0.12945788 -0.06706527
0.031486697 0.05494527 -0.0924693 0.06711373 0.060278133 -0.011145475 0.00880486 0.08985866
-0.08800346 0.07786427 -0.08248353 -0.023875179 0.12892285 -0.037641656 -0.043530144 0.040628847
0.09023402 -0.036995616 0.08096669 -0.11530464 0.020593137 0.07670283 -0.008889964 0.17400914
-0.02951031 0.04511877 0.0762303 -0.12723023 0.031791754 0.10024979 0.13844168 0.04039364
-0.026819175 -0.020140681 -0.0021840425 0.020610884 -0.19470379 0.050718185 -0.04289326 0.02762922
0.008501078 -0.04782444 0.046147805 0.027534131 -0.06436431 -0.14728394 -0.05344105 0.014740483
0.024857491 0.078070074 0.03625246 0.04692684 -0.12083526 -0.0296721 0.007555078 0.06661031
0.13457845 -0.044735484 0.032006826 0.080316685 -0.17617235 -0.06858391 -0.153713 -0.010726667
0.16170222 0.097244635 -0.0075225704 -0.0061955303 -0.03387389 0.05359737 -0.026899703 0.02805433
-0.00738566 -0.06813759 -0.004876864 0.067745924 0.031645294 -0.06994316 -0.06843488 -0.010332239
0.06010809 0.043843966 -0.045684215 0.11983283 -0.054709654 0.109396204 -0.083854824 -0.08265734
0.021809047 0.06318071 0.08784689 -0.12367923 -0.06923044 0.011544692 -0.046401095 -0.0016205047
0.08467848 0.0317517 0.0016888408 -0.007116961 -0.07485302 0.024401695 0.010521834 -0.022084383
-0.00923866 0.12199258 -0.15767814 -0.046483412 0.038955666 0.045021594 -0.02803101 -0.32995027
0.012179746 -0.013260923 0.12654229 -0.01367378 -0.014413602 -0.05363469 -0.04589512 -0.20620462
0.031098621 0.033895794 -0.01468432 -0.085400246 -0.09522052 -0.001739423 0.102633946 0.031008713
0.037606746 0.08519538 0.1401468 -0.011172688 -0.04093799 0.04383136 -0.06717967 0.10646296
-0.32706052 -0.13618805 0.071344286 -0.056263663 0.10429564 -0.0983985 0.03965655 -0.12377652
-0.15089437 -0.21739112 -0.034709018 -0.028437605 0.048166532 -0.105788484 0.045437228 -0.043506186
-0.02666035 0.059464004 0.07614841 -0.0005103074 0.026681721 -0.09351644 0.036219314 -0.08323344
-0.14211862 0.0269985 0.11094787 -0.107469216 0.18938807 0.10467135 -0.08452005 -0.02405846
-0.109093614 0.023067415 0.0039789327 -0.07262925 0.07195671 -0.07300657 0.11380595 0.043512855
0.046706256 -0.05078485 -0.07282903 -0.08430141 0.036625158 -0.022546437 -0.004290348 0.04996178
-0.12838781 0.044833682 0.0065509365 -0.055317026 0.0706106 0.06115157 0.00876584 -0.09967236
0.0045293327 -0.089715555 0.0042122547 -0.058437128 0.005856416 -0.057828218 -0.102220744 -0.1245477
0.043746598 0.078397974 -0.07424285 -0.038469877 0.05973241 0.03416646 -0.05704112 -0.05189163
0.08292853 -0.09172564 0.107009344 0.069682345 -0.01448559 -0.051273618 0.06937485 0.006288938
0.041197836 0.013375012 -0.032998398 -0.08187881 -0.06954987 0.09097501 -0.03570286 -0.010092464
-0.066874474 0.08004917 0.06798005 0.06940436 -0.06712221 0.040652655 0.002099167 -0.08973753
-0.1606941 0.011494463 0.17946772 0.06741753 0.118987136 0.02410727 -0.004344129 -0.0024513965
-0.034616843 0.014258885 0.024678132 -0.024303328 0.022515811 0.0021928765 0.03435922 -0.04580821

fc_hidden.bias f4 [100]
00000000: 790f 80bd f18b 3b3d 9d72 3abc 3d64 e03b
00000010: 637f c23b a2f2 2ebc b73a 34bd 3f5b e5bd
00000020: 7fce 55bd 4628 943d 7f08 26bb 7630 9e3d
00000030: 58ba 1e3d 3fbf e93d 0a2f 03bd 4fc6 84bc
00000040: 21be c0bd 1415 5a3d 5601 c9bd 258f 9cbd
00000050: d19d 3bbd a6b5 123d 9937 eebc 66e1 31bc
00000060: 03c3 84bd 495b 563d 396a 9dbc 6712 a1ba
00000070: d22d c63c 5d23 21bd d6ce 90bc b2dd 103c
00000080: 2bb7 a83c 230f 9bbd a3b5 04bd 2ab8 c13c
00000090: b406 4dbd 723e 453b 63e9 82bd ac1d 083e
000000a0: 587b ccbd bcc6 ae3d ef48 973d 3aeb 07bd
000000b0: 2985 93bb 208f 7d3d b55a e13c 59e3 b2bd
000000c0: c80d 3bbd e056 383d a2d6 873d f2b4 a43c
000000d0: cbe9 4f3d 3b68 a0bc 123a 903d 7648 3dbd
000000e0: 97d5 f13c 3043 1bbc 496f 9cbd 3618 5bbd
000000f0: 37b4 dcbd 2710 c23d 5978 0a3e 25e7 743d
00000100: 65d7 8ebb f814 d3bd cd06 723d b366 a4bb
00000110: b1eb bbbb 3bb8 55bd 123f 1dbc 64f9 a1bd
00000120: 3b9a 043d 34f5 9bbd ea16 113e 4ee1 41bd
00000130: 4f5b 853d 6c07 43bb 3773 2abd f458 55bd
00000140: 09c2 eb3d 1b8f a73d dcf0 703c 2b13 153d
00000150: d909 21bc 6031 913c 4651 953d a88f fabb
00000160: 126e 83bb 6cd4 75bd 73f1 23bd 5bca db3d
00000170: 981e 293d c606 ca3d 538d 65bc 8ad2 173d
00000180: fea1 cebc ea8b 0bbd 1ae9 fcbc df32 fa3b
-0.06252951 0.045787755 -0.011379865 0.006847887 0.005935596 -0.010677965 -0.044001307 -0.111990444
-0.052198883 0.07234244 -0.0025334654 0.07724087 0.03875193 0.114134304 -0.03202728 -0.016207842
-0.09411264 0.053242758 -0.09814708 -0.0764449 -0.045804802 0.035817765 -0.029079245 -0.010856962
-0.06482508 0.05233315 -0.01921569 -0.001228881 0.02419177 -0.039340366 -0.017676752 0.008841919
0.020595154 -0.075712465 -0.032399785 0.023647387 -0.05005522 0.0030097035 -0.06392171 0.13292569
-0.099844635 0.08533999 0.07386958 -0.033183314 -0.004501958 0.061904073 0.027509073 -0.087347694
-0.04566744 0.045004725 0.06632735 0.020105813 0.05076007 -0.019580951 0.07042326 -0.046211682
0.029520793 -0.009476468 -0.076384135 -0.053489886 -0.10776561 0.09475737 0.13522471 0.05979075
-0.004359173 -0.10306734 0.059088517 -0.0050171255 -0.0057348837 -0.05217765 -0.009597557 -0.079088956
0.032373648 -0.07615128 0.14168897 -0.047334008 0.06511556 -0.0029759062 -0.041613784 -0.052086785
0.11511619 0.08181592 0.014705863 0.036395233 -0.009829008 0.01772374 0.07290892 -0.0076465197
-0.004010924 -0.060017034 -0.040025186 0.107319556 0.041288942 0.09864573 -0.014010745 0.03706602
-0.025223728 -0.03406898 -0.03087287 0.007635459

fc_out.weight f4 [1, 100]
00000000: db8a a0bd d039 ddbd dc58 013d 7a3b 473d
00000010: ec07 82bd f0ed f6bd a4f6 febd ac75 0bbd
00000020: 1470 693d 6bf2 b83d bbb6 8c3d 27da 94bd
00000030: 4fc2 073e 51b6 15be 8fff c03c a44b eebd
00000040: 45f8 3ebc 21e4 c0bd 7a24 8e3d 4390 dabc
00000050: 1045 00be 17ee af3d 88b0 0fbe 8b8e bdbc
00000060: 3625 27bd 4e9b b43d f873 393d 4bd8 693e
00000070: 7fb2 5cbd 9c77 333e b98d a8bc 2841 ebbd
00000080: 654b 1ebd 396e 693c d066 4f3d 39aa ee3d
00000090: 5ba3 62bd 5658 df3c c9ba abbd 1b81 06bd
000000a0: d37b 7e3d b8ba 563d e0cf a63c 350d 853d
000000b0: 78ec 0dbd 5eff 68bd 296a 91bd f9c4 62be
000000c0: f0e3 0cbd 39b1 c83d a6ee 0bbe 988d 023e
000000d0: 61af 9e3d fe5d 983c 573f a0bd fca6 99bd
000000e0: 1fc6 e03d f60e a3bd 4b1e bebd 9f31 e83d
000000f0: a89c 44be 6d5d b3bd 70ad 3fbd 3848 c7bd
00000100: 4a03 18be 07f1 b23d d1a5 cfbd f0a1 dfbd
00000110: e2b7 4c3e 7c33 a83d 50fe 9f3d 182b f1bd
00000120: 8f11 1f3d 561b 5f3d 3cd7 083d 7359 67bd
00000130: f5eb 983d 3564 763d 3012 b3bd 39a7 f73d
00000140: c9aa a1bd 743e e73d 4f7b 60bd 6d74 f83d
00000150: db7a fbbd fc7c 233c 0142 173e 4179 eebd
00000160: 0045 bb3d 2fa1 a2bd dace eebd 8782 003e
00000170: 1d4a 753d e142 99bd 1054 ff3d a009 073e
00000180: e7ec 523d dc51 89bd b062 debd 83d4 363e
-0.078389846 -0.108020425 0.031578884 0.048640706 -0.06349167 -0.12057102 -0.12449387 -0.034047768
0.05699165 0.090306126 0.068707906 -0.07268172 0.13257717 -0.1462033 0.02355936 -0.11635521
-0.011655872 -0.09418512 0.06940551 -0.026680117 -0.12526345 0.08590334 -0.14032185 -0.023139259
-0.04080697 0.088186845 0.045276612 0.22836415 -0.053881165 0.17526096 -0.020575391 -0.11487037
-0.03864612 0.014247471 0.05063516 0.11653561 -0.05533157 0.027263802 -0.08385236 -0.03283797
0.062129807 0.052424163 0.020362794 0.0649666 -0.034649342 -0.056884162 -0.071003266 -0.22145452
-0.034397066 0.097994275 -0.13665256 0.12749326 0.077482946 0.018599506 -0.07824581 -0.07502553
0.109752886 -0.07961838 -0.09283122 0.113375895 -0.19200385 -0.08758054 -0.046796262 -0.097305715
-0.14845005 0.087373786 -0.10139049 -0.10919559 0.1999202 0.08212945 0.07812178 -0.117757976
0.038835105 0.05446943 0.03340839 -0.05648179 0.0746688 0.06015416 -0.08743703 0.12092442
-0.07893903 0.11291209 -0.054805096 0.121315815 -0.12279292 0.009978529 0.14771272 -0.11644221
0.0914402 -0.079408996 -0.116605476 0.12549792 0.059885133 -0.07483459 0.124672055 0.13187265
0.05149546 -0.067050666 -0.10858667 0.17854504
