Copula by Ratio Estimation/2d_exp/model_parameters_NNet_ratio_25_runs_4copulas_2Dexperiment_ok1/NNet_ratio_run_8_cop_u_3_ok.pt (torch, 45088 bytes, 5 tensors)

fc_in.weight f4 [100, 2]
000000 4e 73 35 3e 6f 2c a2 bd c7 f0 3e be 23 49 0d 3f
       0.17719766 -0.07918631 -0.18646537 0.5518972
000010 de a5 0c bf ed 8f 4b be f0 79 62 3d e7 52 1e bf
       -0.54940593 -0.19879122 0.05529207 -0.6184525
000020 2c 6a 8d 3e 85 bc fc 3d b8 59 21 3f 29 7c 1b 3f
       0.27620065 0.12340645 0.63027525 0.6073633
000030 3d 79 e6 bd 86 aa 2c bf 4f ca 11 bf 71 61 97 be
       -0.11253593 -0.674477 -0.56949323 -0.2956653
000040 5e 21 1f bf b7 7d 4c 3f 71 55 1e 3f d0 1d d3 bd
       -0.6216029 0.79879326 0.61849123 -0.10308421
000050 74 07 ba be 54 a8 00 3f 51 f1 72 3e d1 03 07 3f
       -0.3633381 0.5025685 0.23724867 0.527402
000060 0a 61 84 3e 63 26 f1 bd af ad 10 bf 1b f2 62 3d
       0.25855285 -0.117749 -0.5651502 0.05540667
000070 2c 6e 19 be 18 82 db 3e ea c8 17 3f 31 26 7c bc
       -0.14983433 0.4287269 0.59290946 -0.015389965
000080 b8 24 05 3e 81 46 2a bf 4e ec 0b 3f 52 83 e1 3d
       0.13002288 -0.6651383 0.5465745 0.110113755
000090 c3 08 34 3f 58 20 b3 be 2b 83 bf 3e 3e 0e c0 3d
       0.7032587 -0.34985614 0.3740476 0.093777165
0000a0 46 e2 81 be 75 21 b2 be b1 cf 19 3f a3 c0 e7 3e
       -0.25367945 -0.3479115 0.60082537 0.45264158
0000b0 d1 dd 3a be 24 f1 ef 3e 16 60 8b 3e 47 82 07 3e
       -0.18248679 0.46863663 0.27221745 0.1323329
0000c0 14 9a 3d be 34 14 0b bf 7d bd c2 3d b5 e1 8b bd
       -0.18515807 -0.543277 0.09508798 -0.068301596
0000d0 c8 c5 e4 bd c7 63 93 3e d9 9f 0f 3f 9c d1 36 3f
       -0.11170536 0.28787062 0.56103283 0.7141359
0000e0 d2 d7 21 bf 01 1f 6c bd ee e6 de 3e f8 66 e9 3e
       -0.6321994 -0.057646755 0.4353556 0.4558637
0000f0 10 d2 33 3f d1 5a 1f bf 1a f0 c9 be 13 3e 42 3f
       0.70242405 -0.6224795 -0.39440995 0.7587597
000100 1e b0 35 be 7d 39 b3 be 05 60 d0 3e 9b 6e 71 bd
       -0.17742965 -0.35004798 0.40698257 -0.058943372
000110 f5 f4 52 be 60 46 e5 3e 7e 18 39 3f 74 0d 6e 3d
       -0.20601256 0.44780254 0.72303 0.0581183
000120 fe 99 11 bf 68 77 a1 3e e4 33 e7 3e 23 91 35 3e
       -0.568756 0.31536412 0.45156777 0.17731147
000130 4f 71 f0 bc 21 b2 a7 3e fc 06 c9 3d 08 0d 2b 3f
       -0.029350905 0.3275309 0.09815785 0.6681676
000140 40 82 4f 3f bb 9c f7 3e ff d7 37 be 36 39 b9 3d
       0.8105812 0.48361763 -0.1795349 0.09044115
000150 62 ad 02 3f b2 1a c2 3e d9 19 3c be 57 29 71 3e
       0.5104581 0.37910992 -0.18369235 0.23550926
000160 91 cd 82 be 31 2f 09 3f fd ac 26 be fd 1e 28 3f
       -0.2554746 0.53587633 -0.16276927 0.65672284
000170 36 16 25 3f 87 47 1a bf 1a 84 1c bf 9a 6a 18 3e
       0.64487016 -0.6026539 -0.6113907 0.14884415
000180 9e 88 0e 3f 77 f4 57 3c 2f 82 c0 3e 44 ec 9a be
       0.5567721 0.013180844 0.37599322 -0.3025838
000190 eb 00 3e bf 28 0d 51 3e 60 c8 0f be c8 55 41 3f
       -0.7422015 0.20415175 -0.14041281 0.75521517
0001a0 1b 83 11 be d9 84 a8 bd f1 00 e3 be d3 3f 7c 3e
       -0.14210169 -0.08228464 -0.44336656 0.24633722
0001b0 4c d9 33 be bd c9 47 3f 19 ea ee be 33 4e a4 be
       -0.17563361 0.78042203 -0.46662977 -0.3209091
0001c0 65 d9 f8 be 05 e8 12 bf d3 c4 a6 be 00 75 8e bd
       -0.4860336 -0.57385284 -0.3257204 -0.0695591
0001d0 ab 7b cd 3e 44 36 1b 3c 37 35 34 bf bd 10 dd 3e
       0.40133414 0.009473387 -0.703937 0.43176833
0001e0 96 06 56 bf ab 5d 1c bf 4f 08 f8 3e 03 14 21 bf
       -0.836038 -0.61080426 0.4844384 -0.6292116
0001f0 44 d1 a1 be d0 19 ed be e3 4a c4 bd 9a 17 22 3f
       -0.3160497 -0.46308756 -0.09584596 0.63317263
000200 fd ad cf bd 03 c4 9e bd 78 68 c6 bc 23 f2 f4 bd
       -0.101406075 -0.0775223 -0.024219736 -0.119602464
000210 68 14 c1 3e 25 61 3f 3e 36 a3 70 3e 62 80 51 be
       0.3771088 0.18689401 0.2349976 -0.2045913
000220 42 52 17 3f cc 45 a7 be 9c a6 67 3d 92 83 38 be
       0.5910989 -0.32670438 0.056555375 -0.1801894
000230 1f af d0 be 30 0c 2e 3f d3 00 0b bf 85 32 18 bf
       -0.40758607 0.67987347 -0.5429813 -0.59452087
000240 00 4e dc 3e 42 6e dc be cc cb ef 3e 4a d4 24 bf
       0.4302826 -0.4305287 0.46835172 -0.6438643
000250 40 1c a6 bd cd e8 fd 3e 7d 77 a1 be 98 0b 1e bf
       -0.08110857 0.49591675 -0.31536475 -0.6173644
000260 0c 83 f6 3d ec c2 ef be 86 71 6c be 47 dd 9d be
       0.12036714 -0.468284 -0.23090181 -0.30832884
000270 54 06 c2 bc 99 96 84 be ea 91 96 3e a2 b1 e8 3e
       -0.023684658 -0.25896147 0.294082 0.45448023
000280 50 c3 f2 3e b0 38 9d be 79 40 b8 3c e8 f7 2c bf
       0.47414637 -0.30707312 0.02249168 -0.67565775
000290 a0 37 6c 3d 13 b7 89 3e 8e 89 9c 3e b3 d3 10 bf
       0.057670236 0.26897487 0.30573696 -0.5657303
0002a0 2b b9 6a 3c e6 c3 e6 be 6d fb 97 be ad 18 43 be
       0.014326374 -0.45071334 -0.2968401 -0.19052382
0002b0 3d 76 31 bf 95 3b 15 3f 0d cc 02 be da a8 19 bf
       -0.6932104 0.5829404 -0.12773152 -0.6002327
0002c0 2a 40 f8 bd b0 11 ab 3e 80 52 d7 3e 10 32 cc be
       -0.12121613 0.33411932 0.4205513 -0.39881945
0002d0 de 37 17 bd da 24 4b 3f 59 25 a3 3d 9e bb 3f 3f
       -0.036918513 0.79353106 0.07966108 0.74895656
0002e0 2c 6a a9 be f3 19 39 3e 44 68 17 3e 62 6b aa be
       -0.33088815 0.18076305 0.14785868 -0.33285052
0002f0 44 d1 35 3f 66 39 35 bf 24 83 28 3f fd 7b d7 3e
       0.7102244 -0.7079071 0.65825105 0.42086783
000300 b7 f0 a2 be 13 c9 88 be 64 88 f2 be a6 42 e1 be
       -0.31824276 -0.26715907 -0.47369683 -0.4399616
000310 fb 4d 7a 3d 9f cd 29 3f 51 cf e5 be 51 90 cc bd
       0.061109524 0.6632938 -0.44884732 -0.09988464

fc_in.bias f4 [100]
000000 83 a5 bb be 7d d9 41 bf 13 e9 2f bf 1e 35 90 3e
       -0.36649713 -0.75722486 -0.6871502 0.28165525
000010 ad f4 51 3e dd 28 b8 be 79 38 c2 3e a4 7e 64 3e
       0.20503493 -0.35968676 0.3793371 0.22313935
000020 de f8 24 3e c9 47 6b 3e 74 aa 8b bd de eb 0b bd
       0.1611056 0.22976603 -0.06819621 -0.034160487
000030 b5 c6 09 bf 10 95 29 3e 1f 0e ce be fb 95 cd bd
       -0.5381883 0.16560769 -0.4024515 -0.10038372
000040 f4 4e 31 3e 7b 8a 6d 3e 1e 79 1e be 4d a7 b2 be
       0.17315274 0.23197357 -0.1547589 -0.34893265
000050 89 61 44 bf 2d ff f9 3e 45 cc 97 bd 0c 93 ad 3d
       -0.76711327 0.48827496 -0.07412008 0.084753126
000060 ed 29 15 bf 63 53 07 bf a1 86 3a bd 90 70 0d bf
       -0.582671 -0.52861613 -0.04553855 -0.5524988
000070 08 ce 35 bf 74 89 f8 be 32 2c 5e bd 8c f8 11 be
       -0.71017504 -0.48542368 -0.054241367 -0.1425497
000080 fa e7 20 3f d4 95 f6 3d 6e ce 85 3e a9 ff 15 bf
       0.6285397 0.12040296 0.26134056 -0.5859323
000090 ea 68 82 3d 99 98 14 3f c7 75 18 be b2 36 23 3f
       0.06367667 0.58045346 -0.14888678 0.63755333
0000a0 c2 6e 02 3f a3 67 5a be 11 a0 a2 3d f8 3a d8 be
       0.50950253 -0.21328597 0.079406865 -0.4223249
0000b0 07 a8 eb 3e b9 bf 48 3e cd ea f6 3e 2a 25 00 3f
       0.46026632 0.19604386 0.48226014 0.5005671
0000c0 1b 08 6d bd 61 9a 25 bf aa 63 0b bf 52 e9 35 3e
       -0.057869058 -0.6468869 -0.5444895 0.17764786
0000d0 8a 06 fc 3e 17 12 c6 be 0a dc 06 3f 64 69 28 bf
       0.4922374 -0.38685676 0.526795 -0.65785813
0000e0 48 42 49 3f 56 e8 23 3f fc e3 2a bd b6 64 ed be
       0.7861676 0.6402639 -0.04172133 -0.463659
0000f0 20 6d 4f be 87 29 97 3e 7a 98 2e 3f 75 c0 04 3e
       -0.20256472 0.2952387 0.6820141 0.12964042
000100 48 13 0e bf b8 20 1a 3f 1c 8d 0d bf b2 d5 c2 3e
       -0.5549817 0.60206175 -0.5529344 0.38053662
000110 27 0a 91 bd fe 39 08 3f e5 9a bb 3e 96 38 1c bf
       -0.070820145 0.5321349 0.36641613 -0.61023843
000120 3f f9 d1 bc 0a cf b7 be 88 96 88 3e 68 9c 0c bf
       -0.025631545 -0.35900146 0.26677346 -0.54926157
000130 03 44 22 bf ef f8 2e bd 1d 05 cf bb d9 53 41 3e
       -0.6338503 -0.04271787 -0.006317748 0.18879642
000140 10 93 41 3e 7a 22 ae 3d 00 7d 6a 3e d8 42 18 bf
       0.18903756 0.0850267 0.22899246 -0.59476995
000150 b8 90 60 3d 5b 1f 9b 3e 5c cb 2e be 8a 05 f6 3d
       0.054825515 0.3029736 -0.17069763 0.12012775
000160 09 9b 11 be 49 5f 62 3e e2 da 0b 3f b3 c9 12 3a
       -0.14219297 0.22106661 0.54630864 0.00055995135
000170 9e a4 60 3e 3f a2 d9 3e 37 0a a7 3c d3 13 d2 3e
       0.21937796 0.42506596 0.020390613 0.4103075
000180 59 fa 30 3f f4 9e 0d 3f 52 27 86 3c 57 45 21 bf
       0.69132 0.5532067 0.016376171 -0.6299643

fc_hidden.weight f4 [100, 100]
000000 1a 20 3d 3c 93 dd 9e 3c ec 44 96 bd 9e 4a 29 bd
       0.011543298 0.019392764 -0.073373646 -0.041330926
000010 69 59 ad 3d 81 3f 8d bd 93 cf b0 bd d8 50 6c 3d
       0.08464319 -0.06896878 -0.08633342 0.057694286
000020 ee 43 9a bd f3 37 4a bd 8a 20 7c bd f4 42 79 bd
       -0.07532488 -0.049369764 -0.06155447 -0.060854867
000030 5d 89 4e bc 1b fc 74 bd e8 6d a2 3d 79 5b 97 3c
       -0.012605992 -0.05981074 0.07931119 0.018476235
000040 4a 56 e6 bc d3 23 88 3c 9c a2 8d b9 5d 87 98 bd
       -0.028117318 0.016618645 -0.0002701477 -0.074476935
000050 c4 01 e7 3b bb 7c 80 bd bc 14 c9 bd 67 de 8f b9
       0.007049771 -0.062737904 -0.09818408 -0.00027440788
000060 ed b7 62 bd a8 7d 4b 3d c4 41 b5 3d da ac 2e 3d
       -0.055351187 0.049680382 0.088504344 0.042645313
000070 a6 83 b3 3d de 84 2f bd c5 ec b4 bd ea 04 c8 bd
       0.08765344 -0.04285132 -0.08834223 -0.09766562
000080 8a 43 59 bd 10 c3 02 3d 18 e5 44 b9 f3 db 06 3d
       -0.053042926 0.031924307 -0.0001877736 0.032924604
000090 88 83 7e 3b fa 00 00 bd b8 da 26 3d 1e b9 1a bd
       0.0038835723 -0.03125093 0.04073593 -0.037774198
0000a0 f6 12 a6 3d 59 4e 3f bc 21 ec cc bd ea 76 7b 3d
       0.08109085 -0.011676394 -0.100059755 0.061392702
0000b0 ac 05 a7 bd 00 de 46 bd 2f d0 89 b9 d9 ff 5f bd
       -0.08155379 -0.04855156 -0.00026285785 -0.054687355
0000c0 f2 17 c4 bd 67 5f a2 bb 66 e4 91 bd f5 b9 4b bd
       -0.0957488 -0.0049552205 -0.07123642 -0.04973789
0000d0 6f 4d 78 3c 7c f1 b4 bd ae c7 b3 3c ea 23 86 3d
       0.01515518 -0.08835122 0.0219458 0.06549819
0000e0 8e ef ee bc 34 9b a9 3d 1a 0d 6b bd 03 77 46 bd
       -0.029166963 0.08281556 -0.05738554 -0.048453342
0000f0 17 ba ae 3d c2 97 c8 bd 28 1c 62 3d 00 f5 7c 3d
       0.085315876 -0.097945705 0.055202633 0.061757088
000100 bb a5 d1 bc a8 e7 14 bd 3d 42 28 3d 73 d1 2c 3b
       -0.025591722 -0.036353737 0.041078795 0.0026369959
000110 51 d4 65 bd 1a f7 ad bc 7e d5 aa 35 4f 62 c3 bd
       -0.056110684 -0.021235991 1.2728121e-06 -0.09540235
000120 c5 68 df 3a b8 c2 b1 bd d0 37 1c 3d 1e cc 62 bc
       0.0017044774 -0.08679718 0.038139164 -0.013842611
000130 95 97 dd 3b 2d 0e 03 bc a8 21 9c 3d ae 54 7f 3c
       0.0067624548 -0.007998985 0.07623607 0.015584154
000140 f2 40 81 3d 37 bc 35 3d 80 62 e1 bb 15 1b b5 3a
       0.063112155 0.04436895 -0.006878197 0.0013817275
000150 3a eb f6 bb 17 06 de bc 57 da 0d 3d 2a 90 8d bd
       -0.0075353654 -0.027102513 0.034632053 -0.06912263
000160 af fe a0 3d 1c 87 b6 bc 16 e2 71 3b 52 96 86 3d
       0.07861077 -0.022281222 0.003690844 0.0657164
000170 7e a9 a6 3d f8 4b bb bb 0a d5 8c 3c 8f a7 c3 bd
       0.08137797 -0.0057158433 0.017191429 -0.09553444
000180 8b 94 6d 3d bd 4f bc bd cd 27 18 3c 3e 52 77 3d
       0.05800299 -0.09194896 0.009286833 0.060381167
000190 9d 2a bf 3d 82 e6 d5 3d 5e 6a a8 bd 1b 6f 47 3d
       0.093343 0.104443565 -0.08223413 0.048689943
0001a0 18 6a 59 3d b3 95 4c bc 34 16 d1 3d 26 8e c7 3d
       0.053079695 -0.012486863 0.10209313 0.097439095
0001b0 ac d0 b3 bd fc 4b a1 3d 4b 30 ba bd a0 19 91 bd
       -0.087800354 0.07875821 -0.090912424 -0.07084966
0001c0 b5 67 24 3e 38 55 eb bd 8b 29 e5 bd 53 cb de bc
       0.16055186 -0.114908636 -0.11189564 -0.027196562
0001d0 57 ec 26 bc 9c 9b 8f 3d 36 c4 a0 3d 68 00 dc bd
       -0.010188184 0.07012102 0.07849924 -0.10742265
0001e0 e6 45 e5 bd 41 6b 14 3d 48 5e 28 3e 50 fb 12 bc
       -0.11194973 0.036235098 0.16442215 -0.00897105
0001f0 ed 93 c9 bd be d5 a9 bb 5c 2e c2 bb 41 b0 cd bd
       -0.09842668 -0.0051829508 -0.0059259366 -0.100433834
000200 10 6e ab 3b c5 46 ce bd 33 61 2f 3d f6 89 a2 3d
       0.0052316263 -0.10072092 0.042817306 0.0793647
000210 4b ca 7f 3d 11 cd 51 3b 50 c6 58 39 ba a5 24 3e
       0.06244878 0.0032013098 0.00020673242 0.16078845
000220 59 b5 67 bd 4a 47 49 3d 3d bc a4 3d 37 19 03 3c
       -0.05656943 0.049140252 0.08043716 0.008001617
000230 e0 aa 40 bc 68 94 0b 3c 81 3f 13 be de 02 9e bd
       -0.01175949 0.0085192695 -0.14379694 -0.077153906
000240 07 1c 06 bd 3b 91 85 bd cd 73 eb 3d 42 d2 b3 bd
       -0.032741573 -0.06521841 0.114966966 -0.08780338
000250 e0 c4 9d bd ce 93 6f bc 11 69 99 bc 0c 26 30 be
       -0.077035666 -0.014622642 -0.018726857 -0.17202014
000260 c2 90 06 3d e9 d0 28 bd ae 6b e3 bd c5 e0 33 be
       0.032852896 -0.041214857 -0.11104523 -0.17566212
000270 6e 5a e5 bc 64 e5 77 3d e2 7c ce bd ca 16 b6 3d
       -0.027997222 0.0605215 -0.10082413 0.088910654
000280 84 00 e6 bd af 98 ff 3d 64 cc a7 3c dd e1 80 be
       -0.11230567 0.12480294 0.020483203 -0.2517232
000290 7d 2a 84 bd b9 65 a6 bc 2b bf b8 bd ed 03 cc 3c
       -0.064534165 -0.020312177 -0.090208374 0.024904216
0002a0 8b 02 14 3e 11 36 08 3e fd cb be bc 22 dd 49 bc
       0.14454095 0.13301875 -0.023290629 -0.012320789
0002b0 3c 72 82 3d 83 09 f3 3d 2e 91 2a be ca 27 91 bd
       0.06369445 0.118670486 -0.16656944 -0.07087667
0002c0 3b 77 c2 3d ba 42 14 3e 70 9c 60 bc e3 66 c2 bb
       0.09495398 0.14478579 -0.013709173 -0.005932675
0002d0 eb 0f 09 3e e3 4f f4 3d 42 fc 7e bd a1 26 6b bd
       0.13384978 0.119293 -0.06225229 -0.057409886
0002e0 18 dc ce bc 86 68 97 bd bd 48 0e 3c 70 2a 3c bc
       -0.025251433 -0.07392983 0.008684334 -0.011484727
0002f0 f5 f9 83 3d d6 6c 07 3e 3a e7 97 bc 92 b7 58 bd
       0.0644416 0.13225111 -0.018542875 -0.05290944
000300 3b f6 89 3b 35 f0 13 bd 76 ec ab 3d ff 3a b0 3b
       0.004210261 -0.03611775 0.08394711 0.0053781266
000310 d8 6d c5 3d 42 cc 4f 3d ea 7f 2e be 28 91 cf bd
       0.09640092 0.050731905 -0.17040983 -0.10135108
000320 76 2f 48 be 2c 85 4e 3d 95 b9 f1 3b 46 d9 31 3d
       -0.19549355 0.05041997 0.0073768594 0.0434201
000330 94 30 49 bd b5 b1 a1 3d 07 c8 c9 bd 30 e8 00 3d
       -0.049118593 0.07895223 -0.09852605 0.03147143
000340 ae f6 b0 3d 62 30 10 3e c3 3e 6d bd 2b da af 3d
       0.086408004 0.14080957 -0.057921182 0.08586534
000350 a5 5b dd bd d7 de a3 3c fb 79 45 3e f0 5a b1 3d
       -0.108084954 0.02000372 0.19284813 0.08659923
000360 c5 b8 65 3d 4f 38 96 3d 49 d7 26 bd 7c 81 6a bd
       0.056084413 0.07334959 -0.040732656 -0.057252392
000370 1c 37 77 3d bb b7 ef 3d 11 49 72 bd 8b 6b fb 3d
       0.06035529 0.11704966 -0.059151713 0.122763716
000380 78 7c 5c bd cd 51 f0 bd 8f 26 dc bc 4d f1 dc 3d
       -0.05382964 -0.11734352 -0.026873855 0.10788212
000390 2d 1f 9b 3d 23 28 7e bd a2 d7 67 3d 10 17 14 bd
       0.07574306 -0.062049996 0.056602128 -0.036154807
0003a0 7a 4b 9d bd f9 7f ea bc 67 9e 4e 3d 59 43 1a be
       -0.07680412 -0.028625475 0.050444033 -0.15064754
0003b0 cb d9 30 3d 9b 6e f3 3d 0f 80 91 bc c0 62 90 3b
       0.043176454 0.11886331 -0.017761258 0.004406303
0003c0 44 02 a4 3d ab 6a 7c 3d 04 ce 32 bd 83 eb 5b 3e
       0.08008245 0.061625164 -0.043653503 0.2147656
0003d0 21 42 d9 3c f4 9b 82 3d 0a d2 c1 3a 14 84 7e bd
       0.02652079 0.06377402 0.0014787328 -0.06213768
0003e0 a4 69 f1 3d ef a8 05 3d 3c 8f 77 3c 99 2f 8d 3d
       0.117877275 0.03263181 0.015109833 0.06893844
0003f0 86 10 9a 3c a4 01 67 3d e6 93 7b 3d 49 93 e3 bd
       0.018806707 0.05639805 0.061420344 -0.11112077

fc_hidden.bias f4 [100]
000000 85 63 26 bd f0 e1 54 3c ac e2 85 bd 3e c5 8a 3d
       -0.040622253 0.012993321 -0.06537375 0.06775902
000010 a3 98 82 3d 62 3d be bd 7b 18 ad 3d ce 33 50 3d
       0.063767694 -0.092890516 0.08451935 0.050830655
000020 8a 12 c6 bc 70 3a 37 3c 83 0f c0 3c 6a cc 3d bd
       -0.024178762 0.011183366 0.023444897 -0.046337523
000030 91 6f 94 3d 4a 5f df bd 5b b9 86 3d d4 19 d0 3a
       0.07247842 -0.10906847 0.065783225 0.0015876838
000040 41 f0 b1 bd 0b 75 5f bd fa 8c bc 3c 47 7f d2 3b
       -0.08688403 -0.05455498 0.023016442 0.006423864
000050 cc 15 b2 3d 37 75 1c 3d 76 fa 42 bd 2b 43 c0 3d
       0.08695564 0.038197722 -0.04760214 0.09387811
000060 77 b1 02 3d 7b ed fe 3c 1b cf 8f 3d cf a1 89 3d
       0.031907525 0.031119099 0.07021924 0.06720316
000070 ea 68 c6 bd 4d 46 1f 3d 39 d5 0a 3b b8 36 38 3d
       -0.096879795 0.038885403 0.002118422 0.04497406
000080 63 44 80 bd 93 b5 4d 3d e4 4c d5 bc 4a 25 3b 3d
       -0.06263044 0.05022199 -0.02603764 0.04568986
000090 8a 54 a8 3c 6b 5b a1 bd 31 3c 67 bd a8 0e ac 3c
       0.020548124 -0.07878765 -0.056453887 0.021003082
0000a0 d2 91 bd 3c 11 4a 3e 3c 44 24 87 3d 5c 12 87 bc
       0.023140822 0.0116143385 0.06598714 -0.016488247
0000b0 50 a2 bd 3d f9 c6 3a bb 45 3d 01 bc a0 3d 69 3d
       0.09259474 -0.0028499945 -0.007888143 0.056943536
0000c0 b0 23 eb 3d bf 64 8d bd 6e b0 e0 bc 8a 7d a1 bd
       0.11481416 -0.069039814 -0.027427878 -0.07885273
0000d0 66 1f ad 3d d5 46 85 bd d7 cf 37 bd f6 15 ad bd
       0.084532544 -0.06507651 -0.044875946 -0.08451454
0000e0 f3 aa 97 bd dd aa 24 3c c7 be 85 3d 22 17 b8 bd
       -0.07405653 0.010050503 0.065305285 -0.08988787
0000f0 2b 89 95 bb d1 5b ad 3d 25 77 e5 3d a7 de e3 3c
       -0.004563471 0.08464778 0.11204366 0.02781613
000100 60 4e 87 3d fa 37 52 3d 38 cc fd 3d d5 81 a0 3d
       0.06606746 0.051322915 0.12392467 0.078372635
000110 de 87 94 bc 13 5f ea bd 5b 9b 4e 3d ff 9e 49 bd
       -0.018131193 -0.11443915 0.050441127 -0.049223896
000120 dd fc a5 3d d8 95 80 bd ac 67 a8 3d c1 0c 1f bc
       0.081048705 -0.062785804 0.08222899 -0.009707631
000130 37 80 0d bb be 97 99 bd 79 cf b5 3d 71 a0 bd bb
       -0.0021591315 -0.07499646 0.08877463 -0.0057869484
000140 bd 54 21 3d 14 7e b1 3d 9b d0 43 bd 9a e3 d0 3c
       0.039387453 0.086666256 -0.047806364 0.025499154
000150 a7 ec 44 bd 75 18 1b bd c4 47 65 bc 69 9b eb 3d
       -0.04807725 -0.03786512 -0.013994161 0.115042515
000160 bd bc b5 bd aa d3 95 3b 79 79 a5 3c 95 ed c9 3d
       -0.088738896 0.0045723515 0.020199524 0.09859768
000170 16 4b a5 3d 80 0a 0e bd 8a c0 8f 3d 46 a5 c2 3c
       0.08070962 -0.034677982 0.07019146 0.02376045
000180 5d 76 5c 3d 6a f1 0b bc f3 9c 34 bd 72 b9 02 3c
       0.053823818 -0.008541444 -0.04409499 0.007978784

fc_out.weight f4 [1, 100]
000000 6d f2 ec 3d 4d 88 09 3e b2 f7 0a be 31 ee e7 bd
       0.115696765 0.13430901 -0.13571051 -0.11324728
000010 db 20 af bd a0 53 67 3d 32 d7 15 3d cd 29 2a 3c
       -0.085511886 0.056476235 0.03658218 0.010385943
000020 92 68 1c be 56 ae d5 bd 90 3a d6 3d f8 81 f1 bd
       -0.15274265 -0.104336426 0.10460389 -0.11792368
000030 18 aa 1c 3e 3f c9 97 ba f8 8e 0d be 0f 75 d0 bd
       0.1529926 -0.0011580362 -0.1382407 -0.10178577
000040 ba 7f cd 3d 57 eb ca bd a9 4b b0 3d 57 6c 0b be
       0.100341275 -0.09908169 0.08608181 -0.13615547
000050 ab 42 5f be fb eb ca 3d 66 81 0b 3e 7f f0 a1 3d
       -0.21802776 0.09908291 0.1362358 0.07907199
000060 18 bf 77 3d f0 71 17 be 93 b3 59 bd 73 84 92 3c
       0.060484976 -0.14789557 -0.05314977 0.017885422
000070 a6 c2 d2 bc 43 77 8c bd 11 7f be 3d 9c f8 01 3e
       -0.025727581 -0.06858685 0.0930158 0.12692493
000080 d7 df d1 3d 7b 01 de 3d 3c 02 8d 3d 09 1b 0d 3e
       0.10247772 0.10840126 0.06885192 0.13779844
000090 ea 9b 19 3e f0 ae 3c 3d 72 8f 05 be 30 b0 50 3d
       0.15000883 0.04606527 -0.13043001 0.050949275
0000a0 17 b0 28 bd 9a 7f 28 be ce 19 c8 bd 86 db 48 be
       -0.041183557 -0.16454926 -0.09770547 -0.19614992
0000b0 fc 40 ac 3d 57 e6 73 bc f0 6f 8c bd a3 d4 11 be
       0.08410832 -0.01488646 -0.06857288 -0.1424127
0000c0 5c 87 f3 bd 8e 54 22 be 61 86 ce bd a6 0b a9 3d
       -0.11891052 -0.15852568 -0.100842245 0.08254175
0000d0 e9 78 bd 3d 4a 8c 2e be d8 be 89 bd fc 88 90 3d
       0.092515774 -0.17045704 -0.06725854 0.07057378
0000e0 ff 48 ee ba 07 ad ef 3d 1c 0b 90 3c 35 ae c4 3d
       -0.0018179714 0.11702924 0.017583422 0.0960354
0000f0 54 ab 3a 3d ff 4c 97 bd 54 9e 11 bd 13 6d f7 bb
       0.045573547 -0.07387733 -0.035551384 -0.0075508445
000100 ed 67 2a 3e bf a6 97 3d b7 ca 31 be 2d e9 e5 3c
       0.16641207 0.07404851 -0.17362486 0.028065288
000110 ed e8 0c 3e b1 4d 7c 3d bc 27 e6 3d 16 c2 30 be
       0.13760729 0.06159753 0.112380475 -0.17261538
000120 01 97 ee 3d 18 52 dd 3c 65 47 01 be 86 91 8c 3d
       0.116498955 0.027016684 -0.12624891 0.06863694
000130 3c 51 ca 3d df 7d 45 3e 3d 71 a6 3c e6 1d ec bd
       0.098787755 0.19286297 0.020317668 -0.1152914
000140 f4 72 a0 3c 14 b9 b2 3c 7c 16 c1 3d d6 25 f7 bd
       0.019586064 0.021816768 0.09428117 -0.120677635
000150 17 de 2b 3c 5b a9 ee bd 83 47 b5 3d 7e 32 9c 3d
       0.010489962 -0.11653396 0.088515304 0.07626818
000160 e3 7e 1c be dd 94 89 bd 49 5a 9e bd cd ce 25 be
       -0.15282778 -0.067178465 -0.07732064 -0.1619217
000170 27 7f d8 bc b6 4f ac bd 62 4c 43 3d ac 29 76 bd
       -0.026427818 -0.08413641 0.047680266 -0.060098335
000180 50 1e 64 bd dc 38 bf bd 02 83 7b 3d da 3d 55 3e
       -0.05569297 -0.09337017 0.061404236 0.20824376
