Copula by Ratio Estimation/2d_exp/model_parameters_NNet_ratio_25_runs_4copulas_2Dexperiment_ok1/NNet_ratio_run_21_cop_u_1_ok.pt (torch, 45099 bytes, 5 tensors)

fc_in.weight f4 [100, 2]
-0.106676325 -0.48562828 -0.4381188 0.26820785 0.70210683 0.1411924 0.16520272 0.042138144
0.28239173 0.10766531 0.21949482 -0.21511944 -0.0021048235 -0.43953192 -0.4205673 0.56712085
0.23050785 -0.66547734 0.11384187 0.16720887 0.11557423 -0.19975471 0.009655904 0.53594935
0.36170107 -0.24799788 -0.3518624 0.40534148 0.66182625 -0.3061214 -0.38164032 0.15041676
-0.7403613 0.5407587 0.45753387 0.010135329 0.47687247 0.36902377 0.50360245 0.5244372
0.581115 -0.316198 -0.4369054 0.40806094 0.45535362 0.21684001 0.43825325 -0.4877569
0.6826075 0.0725144 0.19881046 0.37152982 -0.038334716 0.6363065 -0.3172119 -0.57506925
-0.66274244 0.3483739 0.030334283 0.60629314 -0.005664049 -0.1941845 -0.68485 -0.54534346
0.42619956 0.14515755 -0.1726212 -0.6512291 0.31695887 0.15088579 -0.5380448 0.5293701
-0.46753553 -0.1754428 0.34527045 0.3504179 -0.19098358 0.6281884 0.16816702 -0.028407224
0.2528625 0.69380087 0.5009836 0.07958693 0.29997504 0.7183144 -0.34316814 0.6995632
-0.24346918 0.30436707 0.40407673 0.35170925 -0.15182096 0.58499587 0.54176265 0.58116597
-0.25322485 -0.5091826 -0.42735294 0.4062636 -0.65379506 0.3935379 -0.10735008 -0.40348136
-0.5743253 -0.19022162 -0.68929476 0.7515733 0.40554783 0.41583428 0.454411 -0.108407006
0.05457057 -0.598902 -0.6508892 -0.053901218 0.24475409 -0.1332958 0.46690688 0.106467016
-0.5362275 -0.42959285 -0.4850487 0.6396395 -0.48185253 0.25353837 0.2998539 0.148002
-0.14398031 -0.71296954 0.41156727 0.4778071 -0.031029075 -0.51814085 -0.4312797 0.16113903
0.11066884 -0.3995831 -0.44940317 0.008329102 -0.7435114 0.5139116 -0.28735366 0.04458782
0.18588972 0.65635663 -0.4699475 0.24338457 -0.07014914 -0.167481 -0.14939962 0.36909506
-0.7038458 -0.22255982 -0.5475136 0.40554816 0.21831863 -0.7256343 0.61314654 0.21229786
-0.28056237 -0.122583 0.32535404 0.094759606 0.29955944 -0.25800446 -0.22190624 0.73798096
0.448572 -0.062128887 0.12200938 0.03307775 0.64146376 0.280924 0.005481854 -0.027359378
-0.61778396 0.19856523 -0.27661 0.25884855 0.21848308 0.21296181 0.52584904 0.5121035
-0.31827116 -0.23189539 0.48168784 -0.17147894 0.6648417 -0.6350699 0.04177991 0.3194411
0.28197074 0.23816445 0.07379731 0.51304144 -0.7102407 -0.28077328 0.5652027 0.35422954
00000000: 1e79 dabd 45a4 f8be 1b51 e0be 8a52 893e
00000010: 46bd 333f be94 103e e72a 293e 0c99 2c3d
00000020: a695 903e a17f dc3d 40c3 603e 4548 5cbe
00000030: 14f1 09bb 540a e1be 9954 d7be d52e 113f
00000040: 400a 6c3e b95c 2abf ed25 e93d cd38 2b3e
00000050: 2fb2 ec3d 808c 4cbe cc33 1e3c fa33 093f
00000060: e230 b93e 28f3 7dbe 4f27 b4be eb88 cf3e
00000070: 726d 293f f2bb 9cbe 5c66 c3be da06 1a3e
00000080: 5188 3dbf 2a6f 0a3f e141 ea3e a70e 263c
00000090: a128 f43e aff0 bc3e 17ec 003f 8441 063f
000000a0: f4c3 143f b4e4 a1be 11b2 dfbe 5ded d03e
000000b0: 1c24 e93e 4f0b 5e3e bb62 e03e 46bb f9be
000000c0: 5dbf 2e3f 6e82 943d f894 4b3e 2839 be3e
000000d0: dd04 1dbd fce4 223f 9969 a2be bd37 13bf
000000e0: 7da9 29bf 105e b23e 9a7f f83c 0736 1b3f
000000f0: 7d99 b9bb 4dd8 46be 5452 2fbf a19b 0bbf
00000100: d436 da3e 2ea4 143e 9dc3 30be f3b6 26bf
00000110: 6f48 a23e ce81 1a3e 4ebd 09bf cd84 073f
00000120: d160 efbe 47a7 33be 4ac7 b03e fa69 b33e
00000130: 3391 43be f4d0 203f fa33 2c3e 44b6 e8bc
00000140: 3277 813e ef9c 313f 7640 003f 79fe a23d
00000150: 5496 993e 74e3 373f bcb3 afbe 9316 333f
00000160: fc4f 79be 00d6 9b3e 25e3 ce3e 3c13 b43e
00000170: f476 1bbe 4ac2 153f f5b0 0a3f 4bc7 143f
00000180: b0a6 81be ca59 02bf 01ce dabe c801 d03e
00000190: 1d5f 27bf cd7d c93e 5cda dbbd 1c95 cebe
000001a0: fc06 13bf 75c9 42be 9f75 30bf 1c67 403f
000001b0: f7a3 cf3e 3be8 d43e 8fa8 e83e 7e04 debd
000001c0: 6485 5f3d a451 19bf ada0 26bf 86c7 5cbd
000001d0: d1a0 7a3e b27e 08be 6b0e ef3e 610b da3d
000001e0: 3546 09bf 98f3 dbbe 4e58 f8be 6abf 233f
000001f0: 60b5 f6be c8cf 813e 7386 993e d68d 173e
00000200: 936f 13be 2c85 36bf f2b8 d23e 22a3 f43e
00000210: b030 febc e1a4 04bf b1d0 dcbe a101 253e
00000220: 58a6 e23d 2896 ccbe 2c18 e6be c976 083c
00000230: c356 3ebf b68f 033f 0520 93be b8a1 363d
00000240: e059 3e3e fd06 283f f59c f0be ce39 793e
00000250: 5aaa 8fbd 2480 2bbe 37fc 18be 07fa bc3e
00000260: 3d2f 34bf b9e6 63be da29 0cbf 02a4 cf3e
00000270: eb8e 5f3e 2bc3 39bf 2cf7 1c3f 9c64 593e
00000280: dfa5 8fbe cc0c fbbd ce94 a63e 5311 c23d
00000290: db5f 993e 2919 84be 643b 63be 52ec 3c3f
000002a0: 3bab e53e dc7a 7ebd 0ee0 f93d 897c 073d
000002b0: f836 243f 45d5 8f3e 20a1 b33b c620 e0bc
000002c0: 1727 1ebf af54 4b3e d39f 8dbe cc87 843e
000002d0: 07ba 5f3e a912 5a3e 0b9e 063f 3719 033f
000002e0: 70f4 a2be fc75 6dbe ca9f f63e 2d98 2fbe
000002f0: 1133 2a3f f193 22bf 6921 2b3d c98d a33e
00000300: 785e 903e 62e1 733e 0b23 973d af56 033f
00000310: 56d2 35bf 84c1 8fbe 20b1 103f 935d b53e

fc_in.bias f4 [100]
0.4087934 -0.59438115 -0.7525335 0.42073056 -0.40482396 -0.4832677 -0.20160997 0.30744785
-0.27062687 0.66228545 0.46780032 0.06345493 0.26596043 0.101119384 -0.7008864 -0.59076834
0.48613048 0.6691925 0.7770343 -0.25678688 -0.38297573 -0.62755907 -0.12862529 0.5263569
0.116658196 -0.57093984 -0.7734762 -0.24505706 0.5917869 0.15871389 0.66766614 0.027829826
0.15823165 -0.5888999 0.3650347 -0.5087292 -0.22819744 0.36709285 -0.42226484 0.03427049
0.64738125 -0.25002667 -0.3387414 -0.3504071 0.12246993 -0.70299727 0.11914401 0.29179096
0.24344277 0.081149615 -0.39682758 -0.3653931 0.52376646 0.11636818 0.61080587 0.48343223
0.37450117 -0.5197861 -0.1615878 -0.41651314 -0.11100996 -0.4424551 0.6755709 -0.8592547
0.24665397 0.1058024 -0.18945837 0.16666804 -0.17873159 0.63547534 -0.5404335 -0.7398094
0.5976626 0.2802107 -0.47449818 0.45640567 -0.11416201 0.3581368 0.09501153 -0.5980252
-0.68254316 -0.68796587 -0.39914814 -0.09633725 -0.74625236 0.26379168 -0.60854304 0.11973367
-0.60114145 -0.1339651 0.50062126 -0.2335146 -0.4336962 0.038270958 -0.25712758 0.044350766
0.40988418 0.3559956 0.13280557 -0.3250284
00000000: 5e4d d13e 5d29 18bf 09a6 40bf ff69 d73e
00000010: 1645 cfbe dd6e f7be d872 4ebe ce69 9d3e
00000020: 9b8f 8abe 8a8b 293f 8683 ef3e a9f4 813d
00000030: f72b 883e ae17 cf3d 4b6d 33bf 983c 17bf
00000040: 18e6 f83e 3350 2b3f b8eb 463f 9279 83be
00000050: 6515 c4be b6a7 20bf 59b6 03be 53bf 063f
00000060: 7eea ee3d 1d29 12bf 8902 46bf 3df0 7abe
00000070: 597f 173f e585 223e 2bec 2a3f 60fb e33c
00000080: 7a07 223e 25c2 16bf d4e5 ba3e 143c 02bf
00000090: 97ac 69be 98f3 bb3e 1933 d8be 375f 0c3d
000000a0: c7ba 253f 7f03 80be 836f adbe 8f68 b3be
000000b0: 84d1 fa3d a1f7 33bf c601 f43d a065 953e
000000c0: 1049 793e c531 a63d fc2c cbbe ce14 bbbe
000000d0: 8f15 063f 7152 ee3d c65d 1c3f 6e84 f73e
000000e0: 9ebe bf3e b410 05bf 4677 25be 3641 d5be
000000f0: 3159 e3bd 7a89 e2be 37f2 2c3f 1ef8 5bbf
00000100: dc92 7c3e eeae d83d 6001 42be 07ab 2a3e
00000110: 6a05 37be 83ae 223f da59 0abf 2664 3dbf
00000120: 6b00 193f c777 8f3e 6df1 f2be 01ae e93e
00000130: c6cd e9bd b55d b73e 6895 c23d 2e18 19bf
00000140: 26bb 2ebf 881e 30bf 255d ccbe 774c c5bd
00000150: 650a 3fbf b40f 873e 7ac9 1bbf ed36 f53d
00000160: 68e4 19bf 262e 09be b728 003f 741e 6fbe
00000170: 6e0d debe 02c2 1c3d 3aa6 83be 26a9 353d
00000180: 57dc d13e 0e45 b63e 2ffe 073e 1f6a a6be

fc_hidden.weight f4 [100, 100]
0.09654072 -0.01004119 0.13092874 0.08548434 0.1561611 0.17560114 -0.04360063 0.0081533175
0.030806845 0.06539452 0.020964226 -0.014057827 -0.043585826 0.074225806 0.06670821 -0.011147174
-0.024445439 0.022354478 0.075079374 -0.07214882 0.10241833 -0.012716731 0.05597503 -0.01678943
-0.009414986 -0.054441143 0.13083713 0.02628963 0.04860771 -0.037457854 0.030733272 -0.0019325523
0.11039071 0.072292805 -0.0954026 -0.14215437 -0.011050558 -0.022248225 -0.0032293801 0.057850808
-0.089996554 0.11571613 0.08576254 0.033584103 -0.017549932 -0.13845316 -0.0630814 0.08071234
-0.028303048 -0.008579758 -0.036550887 0.12134393 0.003382511 -0.015520384 -0.09211672 0.01352177
0.033575572 0.103176095 0.04983363 -0.089852504 0.08458382 0.12306088 -0.021651797 -0.006121426
0.08175038 0.07982565 -0.07057637 0.0028582881 0.032256946 -0.030518895 0.073102236 0.14074093
0.09249359 0.07078035 0.1694468 0.12943614 -0.030275509 0.04338004 0.044155642 -0.032349348
-0.1762579 -0.213497 -0.067845345 0.19140537 0.045340266 -0.0028763819 -0.06860022 -0.03583866
0.12656435 0.036070105 -0.041554876 -0.088769265 -0.12123124 0.114170104 0.046543706 -0.10745649
-0.08900616 -0.03620871 -0.0026992154 0.06126463 -0.015048809 0.11499972 0.083011836 0.07005938
0.08860647 0.07531342 -0.13009882 -0.053762164 -0.154147 -0.09010482 0.055949654 -0.0032551333
-0.052165642 -0.051241044 -0.058073036 0.15966283 0.03597021 -0.008242255 -0.10240047 -0.077967
-0.0035281575 0.010343178 0.0025649262 -0.12062907 0.008998827 -0.18235053 0.14343613 0.0019713324
0.111700095 0.03962015 0.012418689 0.0039827395 -0.04537823 0.04307006 0.028474439 0.021839311
0.06933465 0.002374825 -0.006560146 0.0020903402 0.0073543554 0.025951276 0.06892192 0.07840301
-0.058383018 -0.08385539 0.069679 -0.037281305 -0.10695581 0.005753738 0.036886234 0.039973337
0.007244118 0.04150027 -0.100435816 0.11788055 -0.046730492 0.1012746 0.052335747 0.09126414
0.108695395 -0.00030657236 -0.023317805 -0.063386254 0.0075350413 -0.07637695 -0.12541853 0.075012825
-0.091809876 0.003152247 0.08948259 0.11148034 0.07266046 0.09841029 -0.044219058 -0.026563648
0.07598225 -0.0054808576 -0.06300384 0.036172107 -0.469202 -0.04013518 0.014661066 0.055924814
0.10784467 -0.011068786 -0.056293085 0.03210025 -0.008490286 0.11782377 0.0146040935 -0.1218657
-0.008155843 -0.0550367 -0.009590094 -0.08341869 -0.11332294 -0.04359535 -0.07126743 -0.06261428
0.1114388 0.043338165 0.08140368 0.0015132129 0.30866596 0.26054075 -0.004237318 -0.037408426
-0.028803397 0.0133608775 0.010421741 0.10671271 -0.063537665 0.0062729847 0.025977364 0.11810429
0.13453113 -0.06804721 0.069295004 -0.08873181 -0.07337691 0.050669163 0.0017186902 0.028105035
-0.052492764 -0.009685907 0.16750371 0.014169684 -0.017746458 -0.0066007846 -0.023441348 0.03127847
0.115638785 0.101276934 -0.061978944 -0.11179846 -0.013349581 -0.11694039 -0.1388547 0.10384094
0.0693396 0.14080213 0.07886642 -0.13352281 0.084931195 -0.030799633 -0.03922575 0.044193145
-0.0151675185 0.0938785 0.068952195 0.064925395 -0.0052933 0.07898808 -0.009070294 -0.023439532
00000000: 24b7 c53d ce83 24bc 2f12 063e 6a12 af3d
00000010: b2e8 1f3e c9d0 333e 9396 32bd 7e95 053c
00000020: a35e fc3c 90ed 853d 2bbd ab3c cd52 66bc
00000030: 0d87 32bd b303 983d 509e 883d a3a2 36bc
00000040: cd41 c8bc bd20 b73c 37c3 993d c3c2 93bd
00000050: b4c0 d13d d659 50bc 1346 653d fd89 89bc
00000060: 5041 1abc adfd 5ebd 2bfa 053e 5a5d d73c
00000070: e118 473d 686d 19bd 58c4 fb3c b24d fdba
00000080: 8614 e23d 400e 943d 7062 c3bd ea90 11be
00000090: 660d 35bc e941 b6bc 02a4 53bb f8f4 6c3d
000000a0: 1d50 b8bd 94fc ec3d 45a4 af3d 7c8f 093d
000000b0: e0c4 8fbc aac6 0dbe d230 81bd 834c a53d
000000c0: cbdb e7bc 1d92 0cbc 62b6 15bd 2b83 f83d
000000d0: 1ead 5d3b 3549 7ebc b1a7 bcbd 6a8a 5d3c
000000e0: 8a86 093d fd4d d33d 591e 4c3d 9704 b8bd
000000f0: 483a ad3d 5807 fc3d 1c5f b1bc 3e96 c8bb
00000100: be6c a73d a17b a33d 588a 90bd 1e52 3b3b
00000110: dc1f 043d c302 fabc a0b6 953d 641e 103e
00000120: 486d bd3d 4af5 903d 7683 2d3e e88a 043e
00000130: 5804 f8bc 45af 313d 8cdc 343d c080 04bd
00000140: f37c 34be f59e 5abe 80f2 8abd c5ff 433e
00000150: b7b6 393d ae81 3cbb 467e 8cbd 8fcb 12bd
00000160: 169a 013e 3fbe 133d 7235 2abd a9cc b5bd
00000170: 1648 f8bd 04d2 e93d 9da4 3e3d 2612 dcbd
00000180: dd48 b6bd 964f 14bd 52e5 30bb 9ff0 7a3d
00000190: 488f 76bc f984 eb3d 1c02 aa3d 4b7b 8f3d
000001a0: 4f77 b53d ec3d 9a3d a038 05be b735 5cbd
000001b0: b6d8 1dbe e088 b8bd 772b 653d 1354 55bb
000001c0: a4ab 55bd 21e2 51bd fedd 6dbd a77e 233e
000001d0: 8055 133d 860a 07bc 56b7 d1bd 2aad 9fbd
000001e0: a938 67bb 6f76 293c 5218 283b 600c f7bd
000001f0: d16f 133c 19ba 3abe ece0 123e 7831 013b
00000200: 05c3 e43d bd48 223d c277 4b3c a481 823b
00000210: 86de 39bd 3b6a 303d 3a43 e93c 5be8 b23c
00000220: 53ff 8d3d f4a2 1b3b 7ef6 d6bb 17fe 083b
00000230: cefc f03b c597 d43c f026 8d3d c291 a03d
00000240: 0823 6fbd 60bc abbd ddb3 8e3d 48b4 18bd
00000250: a60b dbbd da89 bc3b 0516 173d 15bb 233d
00000260: 1160 ed3b 30fc 293d 4bb1 cdbd 5c6b f13d
00000270: 7968 3fbd 0f69 cf3d 025e 563d b2e8 ba3d
00000280: b19b de3d 72bb a0b9 fb04 bfbc a7d0 81bd
00000290: 82e8 f63b 856b 9cbd b76d 00be 53a0 993d
000002a0: d106 bcbd ee95 4e3b a642 b73d ce4f e43d
000002b0: 02cf 943d 568b c93d 0b1f 35bd 029c d9bc
000002c0: 959c 9b3d c498 b3bb 2808 81bd 3429 143d
000002d0: 3f3b f0be c964 24bd f834 703c 6b11 653d
000002e0: abdd dc3d da59 35bc 9493 66bd 8d7b 033d
000002f0: d71a 0bbc 974d f13d 0246 6f3c b994 f9bd
00000300: 16a0 05bc 2a6e 61bd c51f 1dbc 6bd7 aabd
00000310: dc15 e8bd 0a91 32bd a9f4 91bd ea3b 80bd
00000320: 073a e43d 5c83 313d f9b6 a63d 0057 c63a
00000330: 7709 9e3e 9965 853e 33d9 8abb 9439 19bd
00000340: 1af5 ebbc 95e7 5a3c f3bf 2a3c 318c da3d
00000350: 0920 82bd 9c8d cd3b 7bce d43c a9e0 f13d
00000360: 87c2 093e 565c 8bbd 8aea 8d3d 06b9 b5bd
00000370: a246 96bd 788a 4f3d ac45 e13a 883c e63c
00000380: a702 57bd a3b1 1ebc 1886 2b3e f627 683c
00000390: 0561 91bc 654b d8bb 1208 c0bc da1d 003d
000003a0: 07d4 ec3d 486a cf3d a2dd 7dbd 97f6 e4bd
000003b0: 33b8 5abc 717e efbd ed2f 0ebe 8faa d43d
000003c0: ec01 8e3d 6f2e 103e b884 a13d 34ba 08be
000003d0: 68f0 ad3d 834f fcbc 2eab 20bd df03 353d
000003e0: 2f81 78bc 5f43 c03d cf36 8d3d 9bf7 843d
000003f0: 6b73 adbb 81c4 a13d 929b 14bc 4304 c0bc

fc_hidden.bias f4 [100]
0.030989587 0.06449522 0.044299096 0.003933397 -0.067844294 -0.022808159 0.10981224 -0.02207247
-0.07398643 -0.001055856 -0.015459901 0.07541048 -0.12502292 -0.038046505 -0.00020356178 0.0145374425
-0.025367826 0.065409385 0.011937931 -0.07803825 0.010401325 0.0019949821 -0.034098744 -0.21459615
-0.05806889 0.054000698 -0.07634255 0.03752755 0.040877186 0.06509873 0.10770995 -0.033460665
0.084612094 0.02337735 -0.0013870758 -0.001048143 -0.024775952 0.07496751 -0.11660957 0.014941753
-0.06988529 0.09613226 0.056438066 -0.03476128 -0.087800086 0.042179536 -0.00051733805 -0.049791317
0.019757837 0.0050704097 0.06232494 -0.032678403 0.06469643 -0.016751394 -0.031765327 0.03805982
-0.02131145 0.060269725 0.023282973 0.06612077 -0.062361035 0.06909976 -0.035118453 0.109667875
0.08373009 0.10770928 -0.012551798 -0.0009801951 0.024319315 -0.06514759 -0.061170865 0.016218444
-0.030327603 -0.07455913 0.11517296 -0.049161106 -0.07952363 -0.0071426393 -0.08117357 -0.05951592
-0.09434129 0.0857298 -0.022004358 -0.030170307 -0.014371162 0.115026295 -0.08925849 -0.07466155
-0.08444427 -0.031968467 -0.074844085 0.085958 0.01273027 0.018559342 -0.088319466 0.11634796
-0.033866316 -0.077988155 0.12826538 0.052708484
00000000: e0dd fd3c 1216 843d f872 353d bae3 803b
00000010: f3f1 8abd 2dd8 babc 3de5 e03d 53d1 b4bc
00000020: 3386 97bd a664 8aba 864b 7dbc cf70 9a3d
00000030: 0206 00be a7d6 1bbd 3373 55b9 742e 6e3c
00000040: 30d0 cfbc 5bf5 853d 5097 433c 85d2 9fbd
00000050: 526a 2a3c 3fbe 023b 20ab 0bbd 18bf 5bbe
00000060: a5d9 6dbd d62f 5d3d 7c59 9cbd 7db6 193d
00000070: d66e 273d 7c52 853d 0997 dc3d 0d0e 09bd
00000080: 1b49 ad3d db81 bf3c 8ace b5ba d861 89ba
00000090: f0f6 cabc 9188 993d 00d1 eebd 41ce 743c
000000a0: 0520 8fbd fee0 c43d 9a2b 673d d861 0ebd
000000b0: 88d0 b3bd 73c4 2c3d f89d 07ba fbf1 4bbd
000000c0: 30db a13c ae25 a63b 7048 7f3d cad9 05bd
000000d0: 907f 843d 383a 89bc 5c1c 02bd 9de4 1b3d
000000e0: 5a95 aebc 63dd 763d efbb be3c 546a 873d
000000f0: 496e 7fbd 2d84 8d3d 5ed8 0fbd 8d99 e03d
00000100: ae7a ab3d af96 dc3d 0ea6 4dbc e479 80ba
00000110: 4d39 c73c 1a6c 85bd 4d8e 7abd 8bdc 843c
00000120: 9871 f8bc 75b2 98bd cddf eb3d 285d 49bd
00000130: 49dd a2bd cd0c eabb 543e a6bd f7c6 73bd
00000140: 0236 c1bd 1b93 af3d 7c42 b4bc b827 f7bc
00000150: 0675 6bbc e892 eb3d 28cd b6bd 28e8 98bd
00000160: 1ef1 acbd 5ef1 02bd db47 99bd bf0a b03d
00000170: 9f92 503c c309 983c d6e0 b4bd d747 ee3d
00000180: 68b7 0abd 41b8 9fbd 0058 033e dae4 573d

fc_out.weight f4 [1, 100]
-0.13803187 -0.0924671 -0.13721749 -0.075515024 -0.104335666 -0.092494614 0.15332754 0.024772815
0.10398745 0.024045603 0.0679317 -0.11926534 -0.021777058 0.076985456 0.07208684 -0.12206655
-0.106208466 0.13889533 -0.08291156 -0.012515696 0.05014142 -0.09769169 -0.11192212 -0.107396245
0.08714743 0.062369663 -0.093314014 0.032101907 0.07322221 0.084110916 -0.06795448 0.03086548
-0.18477117 0.026712244 0.09184478 0.105630875 -0.07802956 0.098970145 0.16797513 -0.111202225
-0.08536658 -0.12040558 -0.10648887 0.13429035 -0.1605755 0.11995499 0.08419387 0.11656241
0.11635361 -0.014054354 0.05991946 -0.03155779 0.06348027 -0.120202996 0.12484211 -0.07550705
-0.1500757 -0.027041715 0.103210725 0.12532897 -0.14107811 -0.09663475 -0.1291234 0.17342746
0.121076025 -0.070475206 0.18804818 -0.13031024 -0.06603728 -0.09910759 -0.08042537 -0.08333239
0.03594271 0.041901227 -0.1374561 -0.07918028 0.13656728 0.060343888 -0.07938788 0.1309923
-0.042317294 0.15478416 0.07090756 -0.1648901 -0.18302526 0.15229641 0.10283374 0.04971736
-0.105685554 -0.10348197 -0.06953183 0.054223284 0.12522374 -0.114413604 -0.08198396 0.16752073
0.11043436 -0.10368861 0.010902813 0.100874275
00000000: 3a58 0dbe 645f bdbd be82 0cbe 9fa7 9abd
00000010: f0ad d5bd d16d bdbd e501 1d3e 5cf0 ca3c
00000020: 5ff7 d43d 49fb c43c c61f 8b3d 6341 f4bd
00000030: cd65 b2bc 8daa 9d3d 44a2 933d 07fe f9bd
00000040: d383 d9bd 943a 0e3e 89cd a9bd a20e 4dbc
00000050: 1761 4d3d 9512 c8bd 6d37 e5bd 90f2 dbbd
00000060: 5a7a b23d 5577 7f3d 6b1b bfbd 4a7d 033d
00000070: 87f5 953d 5842 ac3d b82b 8bbd 9ad9 fc3c
00000080: a734 3dbe a3d3 da3c 1e19 bc3d 0055 d83d
00000090: f6cd 9fbd dcb0 ca3d ac01 2c3e febd e3bd
000000a0: acd4 aebd 3397 f6bd d616 dabd 6983 093e
000000b0: e76d 24be f6aa f53d d66d ac3d 46b8 ee3d
000000c0: cd4a ee3d 3c44 66bc 1c6e 753d be42 01bd
000000d0: f201 823d fd2c f6bd 38ad ff3d 71a3 9abd
000000e0: 72ad 19be 9686 ddbc 2560 d33d 3d56 003e
000000f0: c876 10be 71e8 c5bd ed38 04be f896 313e
00000100: b5f6 f73d 4e55 90bd b48f 403e 0c70 05be
00000110: 8e3e 87bd ecf8 cabd 0eb6 a4bd 2caa aabd
00000120: aa38 133d 9fa0 2b3d 4bc1 0cbe 4529 a2bd
00000130: 4bd8 0b3e 272b 773d 1d96 a2bd d822 063e
00000140: e654 2dbd bd7f 1e3e fc37 913d f3d8 28be
00000150: f96a 3bbe 97f3 1b3e 7f9a d23d 6ea4 4b3d
00000160: ab71 d8bd 5bee d3bd b466 8ebd 3c19 5e3d
00000170: a73a 003e ae51 eabd 35e7 a7bd 8e8a 2b3e
00000180: 692b e23d b25a d4bd b6a1 323c 2c97 ce3d
