2D copulas/model_parameters_NNet_ratio_25_runs_4copulas_2Dexperiment/NNet_ratio_run_7_cop_u_2_ok.pt (torch, 45088 bytes, 5 tensors)

fc_in.weight f4 [100, 2]
00000000: 7226 cc3e 4e26 053f dfaa ba3e 66d8 eb3e
00000010: 5e14 34be fa36 10bf e088 c3be 9a5c 39be
00000020: 2878 cc3e 78d3 32bf 42dd e8be 24f6 0a3f
00000030: e53c 2ebf 819a 37be a664 8cbe 115c 32bf
00000040: 0139 7cbe 864f ce3e f9d1 313e fd5a 933d
00000050: 3de7 f9be 936c c8be c0c4 b13e 88f5 21bd
00000060: 70d5 26bf 3bb7 d7be a6c3 723e 8407 90be
00000070: bf4e 1dbe 24d2 1e3f 96aa 13bf 3392 183e
00000080: 2b26 efbe 1768 b73d d33b 163f 3f34 103f
00000090: e870 2cbf 387e 313f 67b1 6a3d af98 3bbf
000000a0: 25e4 e4be 73eb a8be f897 323f a771 113f
000000b0: 588d 1bbf 26b5 a53e 6093 febd ef3d 22bf
000000c0: 262f 12bf b70f ddbd deb2 83be c375 97bd
000000d0: 8ff1 a6be adea 0bbf 2f3c 55be efce 3cbf
000000e0: d5ec 04bf 7bc6 103f 8d58 2cbf 2758 33bf
000000f0: f764 803e a8e1 a6be 0eec 013e 6424 b8be
00000100: c8d8 26bf aded d7bd 1c4b b43d 285e dfbe
00000110: 40da 35be 5bac 483f 63b5 41bf a577 76be
00000120: cdf0 97be e2eb 10bf 7224 633e 70b5 05bf
00000130: a783 2d3f a7b1 90be abc0 06bf ec1d 573e
00000140: 4332 31bf d05f 113f 9a54 173e 09a0 f3bd
00000150: b18c 1e3f efa0 3c3f 738f fb3e 9501 503e
00000160: 29ad 0cbf 5e12 49bf 7350 953e cb77 3f3f
00000170: abfe ee3e 22a7 1b3f e238 adbe fbd3 4abe
00000180: a904 48be 50c7 f73e 002f c63e 680b 883e
00000190: 31e9 be3e e1e0 26be 7400 33be 8f60 3f3f
000001a0: ebc7 323f 16ec 46bd 5323 dd3e 2ca3 b5be
000001b0: 9efd 29bf 0b74 c4be 5979 1a3f 9be2 a0be
000001c0: 27b4 a1bc 6b3c 863d 98fe 9f3e 7356 11bf
000001d0: 9164 02bf e4de 9bbe f353 633c 553d 80bd
000001e0: 0bba fe3e 60f2 163f 663f 043f de2e 11bf
000001f0: 522c 4bbf 4f43 8e3e a246 2f3e 8c7a 153e
00000200: 194e b03e 0961 cfbe 7e94 a73e ae38 283e
00000210: 2c9a 9dbe 231d 203f 6832 01bf e4d7 953e
00000220: 6747 26bf 812d 04bf e7a0 c2be bf24 833e
00000230: 1962 873e 7242 083d 8379 b1be e169 c6be
00000240: 83b5 cfbd 02f2 47be d9c8 d4be a009 423d
00000250: dd1c c7be 86ce 98be 95c1 06bf f442 3c3f
00000260: 90e6 05bf c3c8 e73d 5d95 3c3f c8f5 983e
00000270: 6813 143f 6d3c 003f edd8 0f3f fda3 873e
00000280: 1039 653c 9464 073f f3b5 eb3e 5830 b4be
00000290: 9221 05bf 1ea5 ea3e 9d55 11bd f04b cb3e
000002a0: 860f e5be 1080 723e 92ef 293f bd73 03bf
000002b0: 5613 0bbf 3a33 e0be 40bd fcbd fcd4 b4be
000002c0: 73a3 3cbf 5d23 b63e 3115 5b3e aa28 5d3e
000002d0: 8453 ff3e 01ac bc3d 8964 ba3e 14d8 143f
000002e0: 4563 76be ed00 9ebe d24f 13bf 7c26 453d
000002f0: b7bd ff3e 59e5 613e 21cb 99be da59 033f
00000300: 5997 04bf 96d4 debe b8ea 1fbf d80c 103f
00000310: a4d6 093f 4754 8f3e bc71 963c 7da3 973e
0.3987308 0.52011573 0.3645849 0.46063536 -0.17585894 -0.5633389 -0.38190365 -0.18101731
0.39935422 -0.69853926 -0.45481306 0.5428183 -0.6806167 -0.17930032 -0.2742054 -0.6967173
-0.2463112 0.40295047 0.17365254 0.07195089 -0.48809233 -0.39145336 0.3472042 -0.039540797
-0.6516943 -0.4213198 0.23707446 -0.28130734 -0.1536207 0.620394 -0.5768217 0.1489952
-0.46708807 0.089554004 0.58685035 0.5632972 -0.6735978 0.6933322 0.05729809 -0.7327985
-0.4470531 -0.32992133 0.69763136 0.56814045 -0.6076255 0.32364768 -0.12430453 -0.63375753
-0.5710319 -0.10794013 -0.25722402 -0.07395508 -0.3260617 -0.5465496 -0.2082374 -0.73753256
-0.51923877 0.5655286 -0.6732262 -0.70056385 0.2507703 -0.32594037 0.12687704 -0.35965264
-0.6517453 -0.1054338 0.088033885 -0.43626523 -0.17759037 0.78387994 -0.756674 -0.24069078
-0.29675904 -0.5660993 0.22181872 -0.52229977 0.6777901 -0.28260538 -0.5263774 0.21007508
-0.6921732 0.56786823 0.14778367 -0.11895759 0.6193343 0.73683065 0.4913288 0.20313103
-0.5495172 -0.7854365 0.2916294 0.74792165 0.4667867 0.608019 -0.3383246 -0.19807427
-0.19533028 0.4839425 0.38707733 0.26571202 0.37287286 -0.16296722 -0.17480642 0.7475671
0.698363 -0.048564993 0.43191013 -0.35476053 -0.66402614 -0.38369784 0.6034141 -0.31422886
-0.019739224 0.065544926 0.31248927 -0.56772536 -0.509347 -0.3044349 0.0138749955 -0.06261698
0.49751315 0.58963585 0.5165924 -0.5671214 -0.793645 0.27785727 0.17116788 0.14597529
0.34434584 -0.4050372 0.32730478 0.16427872 -0.30781686 0.6254446 -0.5046754 0.29266274
-0.649527 -0.51631933 -0.38013384 0.25613973 0.2644203 0.033266492 -0.3466302 -0.38752654
-0.101420425 -0.19525912 -0.41559485 0.04737246 -0.38889208 -0.29845065 -0.5263913 0.7353966
-0.52304935 0.11317589 0.7366541 0.29875016 0.5784211 0.500922 0.5619038 0.264923
0.013990656 0.52887845 0.46037254 -0.35193133 -0.5200435 0.458291 -0.035482038 0.39706373
-0.44738406 0.23681664 0.6638118 -0.5134848 -0.5432638 -0.43789083 -0.12340784 -0.35318744
-0.73686904 0.35573855 0.21394803 0.21597543 0.49868405 0.09212495 0.36404827 0.5814221
-0.24061306 -0.3086008 -0.5754367 0.048132405 0.49949428 0.22060145 -0.30037788 0.5130898
-0.5179344 -0.43521565 -0.6246753 0.562696 0.5384314 0.27993986 0.01836478 0.2961692

fc_in.bias f4 [100]
00000000: 47d8 6d3d 41b9 21bf 22b4 03be b2ef 93be
00000010: b8e0 24be 0068 ae3e a366 0abf 2593 a4be
00000020: 9a23 e2be 2ff8 2f3f 9cf1 013f 5791 da3e
00000030: 7d40 aabd 87d1 df3d 8672 49bf d2cd b3be
00000040: a16b 173e 8406 133f 0eb1 d1bd 13fc d03d
00000050: 5955 123e c17a 893e ca9f 0f3f 90fd 073f
00000060: 1f71 833e 27ce 203f 5186 2d3f 74ac 28be
00000070: 7901 27bf d7b0 24be 4034 0a3e 7dd3 49bf
00000080: 3f93 d3be d207 073e 419d 0d3f 243a 843e
00000090: 40cf a73c f700 f83e 975b f33d f8c0 4fbd
000000a0: baeb 853e 67d9 973c 72fc 23be 774f 0d3f
000000b0: 3871 24be 4dad 99be 2f43 f2bc 1ce6 313e
000000c0: 7fab 37bf 3d00 d83d 90bb afbe 23e4 043f
000000d0: 5443 c3be be63 31bf 2f06 aabe 359a 153f
000000e0: eca3 8ebe 359b 9f3e 1804 3a3e ca9e ecbe
000000f0: c0b0 3e3f fd02 c73d 8fed 2bbf b206 47be
00000100: 1ade 2a3f d9f8 343f 5886 863e 8083 a33e
00000110: b9dd 2d3f 88a0 40bf e798 89be 8416 3cbe
00000120: 2871 6e3e 4f01 203e 2add 5fbf 99c2 013f
00000130: f667 a13d 06f6 afbe 2247 c93d cfd0 fcbe
00000140: 224c 393f 7b12 1a3f 11cf 0c3f d653 03bf
00000150: 5b65 a93e 244f 043f dc5c 08bf 0fc2 0fbe
00000160: 9c94 47be 0efd 37bf 4fdb d4be b328 cfbe
00000170: 20e2 65be 6d74 87be 7818 d13e e221 073e
00000180: 8620 83ba 0be1 863d 92c8 a43e 1a26 183f
0.058067586 -0.631733 -0.12861684 -0.2889381 -0.16101348 0.3406372 -0.5406286 -0.32143512
-0.44167787 0.68738073 0.5075929 0.4268901 -0.083130814 0.10928636 -0.78690374 -0.35117966
0.14787151 0.5743182 -0.102388486 0.10204329 0.1429037 0.26851466 0.56103194 0.5312128
0.25672242 0.62814564 0.67783076 -0.16472036 -0.6523662 -0.16083084 0.13496494 -0.7883833
-0.41323277 0.13186577 0.55318075 0.25825608 0.020484567 0.48438236 0.11882704 -0.05072114
0.26156408 0.018536283 -0.16014269 0.5519938 -0.16058815 -0.3001503 -0.029573051 0.17372936
-0.7174606 0.105469204 -0.34322786 0.5191061 -0.38137305 -0.6929282 -0.33207843 0.58438426
-0.27859437 0.311731 0.18165624 -0.46214896 0.7448845 0.09717367 -0.6715936 -0.19436148
0.6674515 0.7069221 0.2627437 0.31936264 0.67916447 -0.7524495 -0.26874468 -0.18367964
0.23285353 0.15625499 -0.87446845 0.5068756 0.07881157 -0.34367388 0.09828021 -0.49378058
0.72381794 0.6018445 0.5500346 -0.512998 0.3308514 0.5168326 -0.5326669 -0.14038871
-0.19490284 -0.71870506 -0.4157357 -0.4046074 -0.22449541 -0.26456013 0.4083898 0.13196519
-0.00100042 0.06585892 0.32184273 0.5943314

fc_hidden.weight f4 [100, 100]
00000000: ee5f a0bb 0f7c bb3d 8861 483d c457 42bd
00000010: d625 2b3d cfb8 a3bc c151 3cbd 21ab 053e
00000020: 6232 e03d 042b 50bd 7ea8 fb3c e17c cfbd
00000030: 0fe4 a53c e933 c5bd e0ad c03d 6642 243e
00000040: f4f3 acbd 9ca9 f03c f9fe e1bc 4125 acbd
00000050: 0c93 993d e024 d8bd de7d 2b3d b22c 7b3d
00000060: d995 c0bc dd3d c6bd 86a0 983d 7322 403d
00000070: 72bc 7e3e 6c22 75bc 734c 0cbd 0a2a ebbe
00000080: 1e54 93bd 4eb9 0ebd dd5b bd3d 6a87 0b3e
00000090: 018e 213d 037b 8bbd 7956 32bd ffab 6bbd
000000a0: 725d 863a f080 92bd 7e73 34be e3e6 ce3d
000000b0: 1497 cd3d 00ae 97bd 5dbc 12bd a835 4239
000000c0: 2068 3a3f 4fc3 0dbe 76a2 013f 58c5 9e3c
000000d0: 6d95 3c3e fdd0 ed3e db45 22bd 1aa5 d23d
000000e0: 44e1 b3bd c873 b8b8 a034 c03d aad9 9ebd
000000f0: 5fbb 103e fc30 cf3d 6514 4dbe d10a 9dbe
00000100: 4782 92bd d7b0 28be 394f b9bd f576 2b3d
00000110: 7ac9 853d d1fe 23be 23c4 c53d ec31 2d3d
00000120: 31f7 323c 3b22 01be 81f0 83be 6dd6 03bd
00000130: cefd f93d de6c 81bd aa96 4cbd 7bab 103e
00000140: 8619 95bc 0ceb c93c 45e6 5d3d 2129 943c
00000150: c8a9 853d 49e6 86ba 026b dd3d 253d a03d
00000160: e095 22be 11e3 8cbc c774 d83e 85df 4e3d
00000170: e8e7 903d f96c 083c 0b43 b4bb eb54 a4bc
00000180: 77ac cebd b60f 053e f087 8fbd 4123 423d
00000190: 0eb7 92bd c15a febb e21a 983d 80d4 10bd
000001a0: 7bd2 163c e30a 283d b0ef c7bd 70c1 ab3d
000001b0: aa26 e13d 7fb3 153c 753c 03bd 392d 2e3d
000001c0: 40cc 1b3a 4045 2f3d 2f2c d33c 4b52 023e
000001d0: f60f 193d 06d8 403d 7578 5dbd afbf 193d
000001e0: 2e5a 803d 6dd9 b33d fc44 58bd 8c02 613d
000001f0: d54e 043d 24f9 d03c 4372 3d3d 0be8 05bd
00000200: 333f 88bc 7a71 b8bd 5f62 e63d 1f70 b2bd
00000210: 3d62 cbbb 339f d73d 75b7 143d 68be e5bb
00000220: ddb1 edbc 68a0 6dbd bbfc de3d 7e80 70bc
00000230: 301e b8bc f856 523d d489 9d3d 1f12 edbc
00000240: 3817 003d 4521 2cbd 7652 a03c 76bc babd
00000250: 3fc2 943d a925 633d 7fa0 e23d 3704 d53d
00000260: 271c 743d a07d 033d 6557 e0bc fa15 2d3d
00000270: 9ed3 a33d c0d7 dfbb 45dc 30bd c0f5 b53d
00000280: 239e f3bc accb 393c 2c66 953c 648e 1cbc
00000290: b573 36bd 9050 3dbd 20ab aa3d 82f5 c23d
000002a0: dbb2 a13c 49db 20be 4f2b ebbd 8271 e6bc
000002b0: fc2d 923c 6761 0f3d 4a66 0dbd 65dd 053d
000002c0: c785 14bd ca13 a9bd 7a99 96bd 2259 15bc
000002d0: 9ae5 a33a 4b06 99bd b258 96bd 3104 f03d
000002e0: 9de3 e33d 525b 963d 42aa eebd 3dc5 f13d
000002f0: ffef af3c 70f3 5ebc 6c90 1abd 5991 943d
00000300: 923e adbc 81e3 50bd d077 5a3d b4b1 5dbd
00000310: e52b bd3c b46d d33d f7cd 953d d0fe 403c
00000320: cd78 80bc a911 ab3d 4565 02bd 5fbe 4c3d
00000330: 4bd0 b0bd 16fa 29bd f689 07be cde6 423d
00000340: f85d ccbd 47d9 a13d 8e04 ca3b dafa a03c
00000350: ce55 083d 5eff d23c 82ae 30bd 21fb bebd
00000360: c4a3 c7bc c053 09bb 3639 ffbb fda2 1abd
00000370: 4bc6 fcbd 83e0 b63d fc62 dcbc c9b5 3fbd
00000380: 36af ddbc a045 6a3d a202 85bc 9619 b9bc
00000390: 90cb b93c bce2 e63c 27dd f4bd 8980 85bd
000003a0: 3035 7b3d 39ec ddbc d2a1 64bd 3e0f 373d
000003b0: 00cd 9dbd 5651 873d 9f7e 6abd bea8 fbbd
000003c0: e573 a6bd 342e b8bd a240 1d3d 0943 c63d
000003d0: 1cae cabd ac3a 0c3e 832b 7f3d 6078 55bd
000003e0: e1d9 93be e6a1 a63d 7d79 d9bd 686d 813b
000003f0: 0e1f b1bd 1944 86bd 97d9 aebd 4483 b4bc
-0.004894248 0.09154522 0.048921138 -0.04744698 0.04178413 -0.019985585 -0.045976404 0.13053562
0.1094711 -0.050822273 0.030719992 -0.10131241 0.020250348 -0.09629042 0.09408164 0.16040954
-0.08444968 0.029377751 -0.0275874 -0.08405543 0.0749875 -0.10553908 0.041868083 0.06132192
-0.023508953 -0.09679768 0.074524924 0.046907853 0.24876574 -0.01496182 -0.034252595 -0.4593051
-0.071937785 -0.03484469 0.09246037 0.13625875 0.039442066 -0.06810572 -0.043539498 -0.057537075
0.0010251238 -0.07153499 -0.17622182 0.10102632 0.100385815 -0.07406235 -0.03582417 0.0001852127
0.7281513 -0.13844036 0.5063852 0.01938121 0.18416376 0.46448508 -0.0396174 0.10285397
-0.087832004 -8.79537e-05 0.093850374 -0.0775636 0.14133976 0.10116765 -0.20027311 -0.30672315
-0.07153755 -0.16473709 -0.09048314 0.041861493 0.06532569 -0.16015173 0.09656551 0.042283937
0.010923193 -0.12610714 -0.25769427 -0.032186914 0.122066125 -0.06319593 -0.049948372 0.14127915
-0.018200647 0.024648212 0.05417468 0.018086018 0.06526524 -0.0010292019 0.10811426 0.078241624
-0.15877485 -0.017198117 0.42276594 0.050506134 0.070754826 0.008326762 -0.005501156 -0.020060023
-0.10091489 0.12994274 -0.0700835 0.047396902 -0.07163821 -0.0077622836 0.074270025 -0.035358906
0.009205456 0.041026007 -0.09762514 0.08386505 0.10993703 0.0091370335 -0.03204008 0.042523596
0.00059432164 0.04279065 0.025777904 0.12726705 0.037368737 0.047081016 -0.054069955 0.03753632
0.062672004 0.08781705 -0.052800164 0.05493407 0.032301743 0.025509425 0.046251547 -0.032691997
-0.016631698 -0.09006019 0.112492315 -0.08712792 -0.0062067793 0.10528412 0.03630777 -0.0070112236
-0.029015476 -0.058014303 0.10888048 -0.014679072 -0.022475332 0.05135247 0.07692304 -0.028939305
0.031272143 -0.042023916 0.01957057 -0.09117977 0.07263612 0.055455837 0.110657685 0.104011945
0.05959716 0.032102227 -0.027385423 0.042257287 0.07999347 -0.0068311393 -0.043178815 0.08884764
-0.029738491 0.011340063 0.018237196 -0.009555433 -0.04454394 -0.04621941 0.08333421 0.09519483
0.019738605 -0.1570865 -0.1148287 -0.028130297 0.017844193 0.035005 -0.03452138 0.03268184
-0.036260393 -0.082557276 -0.07353492 -0.009115489 0.001250434 -0.074719034 -0.07341136 0.117195494
0.11127398 0.07341637 -0.11653568 0.11805198 0.021476744 -0.013607845 -0.037735388 0.07254285
-0.021148 -0.050998215 0.05333692 -0.05412455 0.02309222 0.103236586 0.07314675 0.011779502
-0.015682602 0.08352978 -0.03183486 0.04998624 -0.08633479 -0.041498266 -0.13236222 0.04758339
-0.099788606 0.079027705 0.0061650937 0.019650865 0.033284955 0.025756534 -0.043135174 -0.09325243
-0.024370082 -0.002095446 -0.0077888025 -0.037753094 -0.12342509 0.08929541 -0.026902668 -0.046804223
-0.027061086 0.057195306 -0.016236607 -0.022595208 0.022680074 0.028184287 -0.11956244 -0.06518657
0.06133002 -0.027090179 -0.055818386 0.04469227 -0.07705116 0.066073105 -0.05724966 -0.122880444
-0.08127574 -0.089931875 0.038391717 0.09680755 -0.0989649 0.13694257 0.062297355 -0.05211675
-0.28877166 0.081363484 -0.10618875 0.00394981 -0.08648501 -0.06555957 -0.08537596 -0.022035249

fc_hidden.bias f4 [100]
00000000: 0216 aabc 3477 7dbd e967 2a3d 0991 de3c
00000010: 4fad 77bd 418d 54bd 6361 bf3d 6f57 a43b
00000020: 7ec9 82bb c0e6 8cbd 57a6 303d 0799 b6bc
00000030: 068f 93bb 7aa9 2b3d cf25 643d d925 593d
00000040: feb7 74bd e23c 9c3c 8a07 68bd 59b3 8b3d
00000050: 1d6b afbd 4e6d f4bc c4da 3d3d 4e99 dd3c
00000060: b722 b0bd a6a0 9dbd 3a21 76bd 8497 aebd
00000070: 9657 edbb 4e73 fd3c b07e a5bd c7a9 703d
00000080: 8ed4 19bd a9f8 e63c 4ca9 8fbd d244 9a3c
00000090: 598b 6f3d 0179 3f3c 8caf 623b bbea 033c
000000a0: 18ca 243d 41f3 ad3d dd95 ec3c bc71 84bd
000000b0: d936 8b3c 034d bc3d 8dd9 7abc 5434 86bd
000000c0: 940e 5b3d 0fed 9bbd 98f7 ab3d b1c1 a73d
000000d0: fc68 663d 4e44 90bd 58ed 733d 102f 14bd
000000e0: c2a7 c7bd e14e 653d 4815 e03d 67e7 883d
000000f0: 1960 7b3c 05f0 7fba 7330 bdbd 2a0b 81be
00000100: 0be1 76bd 764a 18bc 8a75 1bbd dba1 41bd
00000110: f8c5 96bc e95a 083d c463 ad3d 584d a9bd
00000120: c0bf b7bd c325 d63d d799 653d 4638 263d
00000130: c847 7dbd abd6 b23d f62b e43c 3c48 80bd
00000140: 6c94 503d 043f 883d 445b d3bd 0396 9a3d
00000150: 80f8 14bd 30b0 943d 847e aebc 0b7c ccbc
00000160: 65c8 bfbc 2ebf a1bd 7c5f b4bb ab52 a43d
00000170: 796f 2abd 8760 373d 71d3 a03d 020c 0d3c
00000180: 885c b53c d6a4 86bd b2f8 2d3d 5d72 b0bd
-0.020762447 -0.06188126 0.041603003 0.027168768 -0.060468014 -0.051892523 0.09344747 0.0050153057
-0.003991305 -0.068799496 0.043127384 -0.022289766 -0.0045031337 0.041909672 0.05570012 0.05301461
-0.05974578 0.019072 -0.056647815 0.06821317 -0.08565352 -0.029837277 0.04635121 0.02705064
-0.08600371 -0.07696657 -0.06009028 -0.08524993 -0.007243107 0.03093877 -0.08080804 0.058755662
-0.037556224 0.028194742 -0.07014713 0.018831644 0.0584825 0.011686564 0.0034589497 0.00805157
0.040231794 0.084936626 0.028880054 -0.064670056 0.016993927 0.09194376 -0.015310657 -0.065529495
0.0534807 -0.07613575 0.08396834 0.081912406 0.056252465 -0.07044278 0.05955252 -0.036177695
-0.09748794 0.055983428 0.10941559 0.066847615 0.015342736 -0.0009763244 -0.092377566 -0.2520383
-0.06027321 -0.009295097 -0.03795389 -0.047273498 -0.018404946 0.033289824 0.084662944 -0.08266705
-0.0897212 0.10456421 0.056054916 0.04058101 -0.061836034 0.08732351 0.027852993 -0.062637776
0.050922796 0.06652644 -0.10320142 0.07548144 -0.0363698 0.072601676 -0.021300562 -0.024961492
-0.023410985 -0.07897793 -0.0055045467 0.0802358 -0.041610215 0.04476979 0.07852829 0.00860882
0.022138849 -0.06574409 0.042473502 -0.08615563

fc_out.weight f4 [1, 100]
00000000: e7c9 08be 0031 8cbd d378 cc3d 43b6 023e
00000010: 2549 b4bd 4013 a13d f478 dbbc 1bc2 1cbe
00000020: 9416 f5bd 5ded a1bd f447 b13d 8153 ccbd
00000030: f0a9 a7bd 3938 a4bd 7a03 e9bd cc03 b2bd
00000040: df66 49bd 99ca ce3d 9a9a d9bd f314 1f3d
00000050: ef67 cebd 1387 45bc 95aa 053d d3ab 0cbe
00000060: 4f7e cb3d 665b c33d 6bc1 20bd a6cd b43d
00000070: 4043 f4bc f9e4 453d e963 6bbd 0acc 2e3d
00000080: e07b 8a3d 7ba2 ab3d 0528 8f3d 0273 e1bd
00000090: 96e2 e0bd 4b73 a53d fc04 18bd 4b7a 8e3d
000000a0: 08a2 9abd 2065 b53d bd2f cf3d d74f b7bd
000000b0: 385d d3bd 38b3 8c3d f546 843d 7b8b cd3d
000000c0: 9452 6fbe c366 203e 13f0 61bd c93f 2cbc
000000d0: 2719 20be dc6f 90bd e5fb 9cbd b0b7 86bd
000000e0: 3ec3 b63d 4ba0 fcbd 4f40 d0bd 98ec d03d
000000f0: be22 babd 4b13 36bd b3d4 c63d 773d 7f3e
00000100: 2462 243d 9cf8 8a3d 9cfa 5ebd dc0b d9bd
00000110: 3512 dd3d 5815 683d 33d1 d63d b3ae afbd
00000120: d229 a03d 201a ee3d e4e1 ac3d 2998 05bd
00000130: 1fb8 05be e5e0 9d3d 7e54 cfbb b6b8 bcbc
00000140: 6bfc 453d 84e0 1ebc ef1f c53d a0b4 98bd
00000150: ebec 90bd cd76 ee3d 4965 143e b1c6 d33c
00000160: ca1b 8a3d 83be 023e 20e3 ebbd 0288 523d
00000170: 6e07 113e d8a2 49bd 5710 ca3d 66cb e2bd
00000180: c1f3 b73d 0aa0 22be caa7 773d dffa 9cbd
-0.1335827 -0.068452835 0.09983983 0.1276484 -0.08803014 0.07865 -0.026791073 -0.1530842
-0.11967197 -0.079066016 0.08656302 -0.099768646 -0.0818671 -0.08018536 -0.11377616 -0.086921304
-0.04917037 0.10097236 -0.10625191 0.038838338 -0.100784175 -0.01205613 0.032633383 -0.1373742
0.09936201 0.09538917 -0.039246958 0.08828287 -0.029817224 0.04831407 -0.05746833 0.042675056
0.067619085 0.083806 0.06990055 -0.11008264 -0.10980718 0.08078631 -0.03711413 0.06956919
-0.07550436 0.08857179 0.10116527 -0.08950775 -0.103205144 0.06870121 0.064588465 0.100363694
-0.23371345 0.156642 -0.055160593 -0.010513254 -0.15634595 -0.070525855 -0.076652326 -0.06578004
0.08923958 -0.12335261 -0.10168516 0.10201377 -0.09088658 -0.044451993 0.09708538 0.2492579
0.040132657 0.067857 -0.05443822 -0.10597965 0.10794488 0.05666098 0.1048912 -0.08578243
0.078204766 0.11626077 0.08441523 -0.032615814 -0.13058518 0.07708911 -0.006327211 -0.023037296
0.048336428 -0.009697083 0.096252315 -0.074563265 -0.070764385 0.11643753 0.14491762 0.02585158
0.067435816 0.12767987 -0.1151793 0.05139924 0.1416299 -0.049227566 0.09866398 -0.110739514
0.08982039 -0.15881363 0.06046275 -0.07665037
