2D copulas/model_parameters_NNet_ratio_25_runs_4copulas_2Dexperiment/NNet_ratio_run_24_cop_u_3_ok.pt (torch, 45099 bytes, 5 tensors)

fc_in.weight f4 [100, 2]
00000000: a29c 213f fc50 c83c 6e44 353f 0af5 4b3f
00000010: 07bf 193e f194 8d3e e812 adbe 7140 33bf
00000020: 64d4 713e bcfd a03d 62d0 54bf 8224 29bf
00000030: 4b94 693e 70dc a3be 823b c4be 087a c0be
00000040: f4d7 0bbf ef80 2a3f 9cf9 c8be fc25 be3e
00000050: 68f9 ad3d 55c6 f4bc a351 c43e 169f df3e
00000060: 9f41 063f 4464 013d 6b27 4ebe db89 cc3d
00000070: 0541 273f c5cd 0c3d 24a9 11be 2a52 cabe
00000080: a624 273f 762d 83be 2005 133f 4e35 453e
00000090: 5479 1abf b93c e33d 1b53 383e ceb0 133f
000000a0: 61e1 523f 4b67 24bf 18bd 11be 1486 23be
000000b0: b8cc c53d a18f b4be 8647 f33d 2aca 10bf
000000c0: 1d2a 5dbe 2943 ecbe 37d5 153f b6ee 463f
000000d0: ac53 423e 18aa 2e3f dc7d 88be 8abc cd3e
000000e0: 4702 c13e 5905 28bf befb 45bd ca35 2c3f
000000f0: 7be6 fdbc 473c 043f 37e7 143f 394f 08be
00000100: 91c1 27bd 172c 11bf 04d0 5f3e 3fcb 193e
00000110: 3a62 06be bb24 38bf 4210 d3be 0342 743e
00000120: 75b6 273e a19b ebbe ad5b 383f bda4 433f
00000130: ed82 283f 4706 9dbe 2bfc 043f c6e3 43bf
00000140: bc31 e43d 755a 28bf 16e1 293f 6e62 70be
00000150: 2f6e 10bd cb27 063f 743b 153f 7990 1fbf
00000160: 0bb4 e6be 8f37 f1bd 4e26 0f3f f9c2 4cbd
00000170: 0fe0 fd3e 9a36 00bf 5805 643e e78c abbe
00000180: 8e68 313f 9811 eebe 544b 25bf f92c b93c
00000190: 00c2 7abe 6e72 dfbe a2a4 88be 4007 1a3f
000001a0: 1c3a c1be e5f6 1f3f 46a6 293f ff45 00bf
000001b0: 089a 7bbe 02de 21bf e700 123e 4166 31bf
000001c0: d3f9 ea3e 0dfe 863d a49b 03be 49fe 373f
000001d0: c6ed bd3b 7620 30be 9053 13bf ce90 55bf
000001e0: 87a7 4bbd cfa9 3abf 367c 0cbf 18a7 15bf
000001f0: d815 0b3f 3c1a 1e3f 16db 98be fbcd d1be
00000200: 0388 683e 3185 47bf 6f98 01bf 4604 30bf
00000210: e513 01bf 863f b9be 2dca 083f 8ddb 40be
00000220: d9ee bc3e b8bf c03e 8020 35be ecd6 223f
00000230: da03 d6bd 3c52 ee3d 5aeb f9be 7bf8 60be
00000240: 14e5 673e b11a 1b3e 3d23 9c3d 5eb9 2a3f
00000250: 7e93 8d3e 9706 27bf 8d68 08bf 3626 ea3e
00000260: d83c a23e acaf a6bd c867 63bb 372c 79be
00000270: 5812 443d f95e e5be 56b8 2cbf b3de 563e
00000280: 4fb7 d73e e992 ee3e 0e72 5e3f bbd4 033e
00000290: b122 34bd c799 cfbe d360 f23c b3b4 e1be
000002a0: 6ce5 303f 46ab 2f3f 9150 313f 2ea3 e6bd
000002b0: 6559 283f 5257 373f 077a 03bf 467d 2abf
000002c0: 94e4 073f b7a3 a4be 1f23 2b3f a092 5ebd
000002d0: b0da 38bf 94c5 ec3e bef1 9dbe c598 0d3f
000002e0: 7b43 403e d99f 013f 2631 243f faca d2be
000002f0: f481 a5be 92f7 37bf 6c74 4f3e 9f1f 343f
00000300: 3c72 0b3f 5897 223f d0b2 1c3f b6fd d7be
00000310: c634 333f e0c3 193f 91b4 abbe 3a39 2a3f
0.6312963 0.024452679 0.7080754 0.79670775 0.15014277 0.27652696 -0.33803487 -0.70020205
0.23616177 0.07860896 -0.83130467 -0.6607133 0.22810476 -0.32004118 -0.3832665 -0.37593102
-0.54626393 0.6660299 -0.39252937 0.37138355 0.08494836 -0.029879728 0.38343534 0.4367606
0.5244388 0.03158976 -0.20132224 0.09987231 0.65333587 0.034375925 -0.14224678 -0.3951581
0.65290296 -0.2562062 0.57429695 0.19258615 -0.6034138 0.11095566 0.18000452 0.5769166
0.8237515 -0.6422011 -0.1423229 -0.15969115 0.09658188 -0.3526583 0.118788764 -0.5655848
-0.21598096 -0.4614499 0.58528465 0.77707994 0.18977231 0.6822829 -0.26658523 0.40182906
0.3769705 -0.6563316 -0.048335783 0.67269576 -0.03099369 0.51654476 0.58165306 -0.13311471
-0.040956084 -0.567079 0.21856695 0.15018938 -0.13123408 -0.71931046 -0.4122334 0.23853306
0.16378196 -0.46017173 0.72014886 0.76423246 0.65824777 -0.30668852 0.5194728 -0.7651943
0.111422986 -0.65763026 0.6635908 -0.23475048 -0.03526133 0.5240447 0.58293843 -0.6232982
-0.45059237 -0.11778175 0.55917823 -0.049990628 0.49585006 -0.50083315 0.22267663 -0.33505937
0.6930016 -0.46497798 -0.64568067 0.022604452 -0.24488068 -0.4364199 -0.26688105 0.6016731
-0.37739646 0.62486106 0.6626934 -0.50106806 -0.24570477 -0.6322938 0.14258157 -0.6929665
0.45893726 0.06591425 -0.12852341 0.71872383 0.005796167 -0.17199883 -0.5754938 -0.8342408
-0.049720313 -0.7291536 -0.5487703 -0.5845809 0.54330206 0.6175878 -0.2985465 -0.40977463
0.22708134 -0.7793761 -0.5062322 -0.6875652 -0.5042098 -0.36181277 0.53433496 -0.18833752
0.36900976 0.3764627 -0.17688179 0.63609195 -0.104499534 0.11636779 -0.48812371 -0.21969788
0.2264598 0.151469 0.07623909 0.666891 0.2765159 -0.6524443 -0.5328453 0.45732278
0.31687045 -0.081389755 -0.003469931 -0.24333273 0.047869056 -0.4479902 -0.67468774 0.2098339
0.4213204 0.4659646 0.86892784 0.12874119 -0.043978397 -0.4054701 0.029587185 -0.44083175
0.6910007 0.6862072 0.6926356 -0.11261593 0.65761405 0.71617615 -0.51358074 -0.665974
0.5308316 -0.32156155 0.66850466 -0.05433905 -0.7220869 0.4624449 -0.30848497 0.5531123
0.18775742 0.50634533 0.64137495 -0.41170484 -0.3232571 -0.7186214 0.20259255 0.7036075
0.5447118 0.6351218 0.61210346 -0.42185754 0.700024 0.60064507 -0.335362 0.6649357

fc_in.bias f4 [100]
00000000: 7e89 063f c1ed 64bc fe8f 28be bfc6 26be
00000010: 540e 10bf 13d4 993e 7673 02bf 28ad d9bb
00000020: 3f7d 1e3e e7f3 ad3d 7d7a 1a3f 44a0 123f
00000030: adad dcbe ccf2 b7be 3ad6 b53e bb40 8bbe
00000040: 6d8c bebe f37e cd3d 6293 573b 4bcf 1c3f
00000050: 733e 333e c7da 2c3f c7af 913e 373f 223f
00000060: 9a04 9f3e f2c7 083d b2ac 0f3f c014 6ebd
00000070: 9263 42be 30e9 f1b6 101e 5b3b d921 803c
00000080: 211a 803d e923 ccbe a57a fb3d edf4 1b3a
00000090: c232 94be 4704 0c3e 8e19 a7be c026 87be
000000a0: 08e1 563e a1eb 253e 0062 973a 1e5d 493c
000000b0: 72ab 813e 1a29 d53e 81a7 2a3d f03c 443d
000000c0: e3c2 113f 232a 04bf 11c9 e03e 3253 0c3e
000000d0: 4ec7 5e3c 1a86 fa3d 5aa4 efbd 32f4 87bc
000000e0: 6e83 203f 97bc b63d 97cc 323f 62f2 edbe
000000f0: 7311 ca3e d27a d13d 4e49 31bf c716 1ebf
00000100: 95b4 b73b 3d8d cf3e 8836 3f3a dad1 013e
00000110: f206 85bb 781e 493a 80df cc3e afc7 27bf
00000120: 8a00 1cbf bbf2 14bf 8fe2 b03b 90ac d73e
00000130: f3c6 133f af0b 143f d259 2ebe d978 aa3e
00000140: 0290 32bf 981a 103e 14d5 113f 0393 283c
00000150: 355d c93e 13d2 e8bb 05ed ddbd 234e ae3d
00000160: 960d 923e 8f61 493d 65b0 cabe e53d 253d
00000170: 1281 87bc 7ff2 03bf f0d6 bdbe 28b7 153f
00000180: 6b2c 01bc 4cca 443d 14c5 003e 1ab4 11bf
0.52553546 -0.013972701 -0.16461179 -0.16286753 -0.56271863 0.30044612 -0.5095743 -0.0066429563
0.15477465 0.08493786 0.6034315 0.57275796 -0.43101254 -0.35927427 0.35515004 -0.27197823
-0.3721651 0.10033979 0.0032894243 0.61253804 0.17504291 0.6752133 0.2845442 0.6337771
0.31058198 0.033393808 0.5612289 -0.058125257 -0.18983296 -7.2095063e-06 0.0033434667 0.01564114
0.06254984 -0.39871147 0.12279252 0.00059492775 -0.28944975 0.13673507 -0.32636684 -0.2639675
0.2098428 0.16203167 0.0011549592 0.012290267 0.25326115 0.4163292 0.04166365 0.047909677
0.56938 -0.51626796 0.43903401 0.13703611 0.013597323 0.12232609 -0.117012694 -0.016595934
0.62700546 0.089226894 0.6984343 -0.46473986 0.39466438 0.10228504 -0.6925248 -0.61753505
0.005606244 0.40537444 0.00072941976 0.12677708 -0.004059666 0.00076720817 0.40014267 -0.6553907
-0.6093832 -0.5818288 0.0053981016 0.42123842 0.5772545 0.5783033 -0.17026451 0.33295324
-0.6975099 0.14072645 0.56965756 0.010288957 0.39328924 -0.007105121 -0.108362235 0.08510997
0.2852599 0.049165305 -0.39587703 0.04034223 -0.016541038 -0.51541895 -0.37078047 0.584826
-0.007884125 0.048044488 0.1257518 -0.5691544

fc_hidden.weight f4 [100, 100]
00000000: 3d80 83bd 4fb2 743c e1d4 203d f48f 46bd
00000010: 1fb5 e3bd 0507 ba3d 70db c53d 437e 3d3d
00000020: 3a16 f8bd ee86 afbb af2b 973d 5431 983c
00000030: ab20 593c fbe0 6dbe 124d 66bc b1c0 eabc
00000040: 5db1 963c abe9 36bd 3cd8 02bd 3243 8ebd
00000050: 9395 6d3d b53d 823d 6298 8fbd f3c5 433c
00000060: 5b33 ba3c c548 39bd 3c1f 153c b996 013d
00000070: b8cb cc3c 3983 f8bd 52df fabd 84dd aebd
00000080: 9940 abbd d0e1 f3bc 0ef5 633d 2a10 083d
00000090: 1956 bf3b 3c60 c33c 7273 93bd 6ae6 9a3d
000000a0: 5aa7 29bd b98f 8abc 1006 24bd e35e 5c3d
000000b0: 9b32 5dbc 1312 773d bd04 47bd d5df e33c
000000c0: 21ad 003d 03f3 96bc 71a6 953d af53 4b3d
000000d0: a7c3 72bd 97ca 693d 7bb1 f83a 7507 fcbb
000000e0: 27c9 acbb 06f0 f0bc 9a5c ea3c 7ef1 5ebd
000000f0: 1b76 b13c 0cf9 a73d 113b 30bc 25b3 cd3c
00000100: 731c 8b3d b958 37bc d89f cb3d dfd9 4a3d
00000110: f1f3 0e3c 9fd2 c6bd 2a37 c63d 5fb5 e9bd
00000120: 4e5a 09be 350e 91bd 6967 72bd 9176 d33c
00000130: a2d9 993d a37f 9bbd d221 70bd d7bb b03d
00000140: d87a d63d 6955 c5bc 8f7d 6cbd 1bd7 02bd
00000150: 6fda c4ba 39f8 6bbc c456 673c e166 d13d
00000160: 6b62 da3c 2174 fa3b 9fb0 05be 2ac1 ed3c
00000170: aa51 8dbd 5cdb e43b 323a 14bd 9f18 bcbc
00000180: b718 f43d 56e9 c3bc e9a2 fb3d 3061 6a3c
00000190: eb0d 223c 2965 623d df84 a4bd a8dc 73bd
000001a0: 76eb 4a3d 2b76 b8bd 5e1f 35bd 2715 813d
000001b0: 45d1 1e3d 6f2a 153e ff65 e3bc f11d 603d
000001c0: c537 58be 1850 d33e 12ab a23c 7f04 b13d
000001d0: 0672 aebc 753a 3b3d f077 923d 25af 23bd
000001e0: 8de7 213d 01c2 313b 7512 303d d93e 5b3d
000001f0: 280f 1c3e 1865 0bbe dd74 0bbd 15b1 9e3d
00000200: 459b 073d b9c8 053e 8ff4 8a3d 210e 313e
00000210: 3f9f d5bc 5793 c6bd d18f 563d c2fe a93d
00000220: e97b a4bd 7543 27bd d1b0 2bbd d265 9cbd
00000230: 7552 5bbc 672b 4d3c 3f43 e039 a0ac e7bc
00000240: ec0d 2ebd 35d1 45bd 3473 a63d 3219 ea3c
00000250: 6de8 da3d b58b 24be e4a5 263b b6cb 613d
00000260: 8a8c f43d 174b 0abd 66bd b93c 67b1 1c3e
00000270: 2cc6 713b f45e 933d 185a 2bbc 1953 e93d
00000280: 70c4 bfbb ae9e d9bd ade6 07be a6dc 54bd
00000290: 5069 59bd 950a c2bd ea9b 3ebc 8de5 393d
000002a0: 7182 62bd e790 893d d9b3 0abe 6a7d b13d
000002b0: 7d75 2a3d 67e4 b2be 2bfb 4abd 4288 a23c
000002c0: f93e 0d3e a07a f4bc d8aa 193d 52d0 9c3d
000002d0: df1d 89bd 9f0c 9ebd 2c5e cd3c 5bd7 8bbd
000002e0: e2ee bb3c 048a 183d e122 85bc b6f9 07be
000002f0: fca6 6c3d 862e ce3d 8d7f 223d 22ee 0d3e
00000300: 01c0 ab3d 0436 02bd f401 723d 7ee9 6abd
00000310: 411e 83bc 0581 983d a791 00be 2358 28bd
00000320: cdfa 763d 1986 a7bc 09fb fb3d e882 f9bc
00000330: 1736 44bb 83d7 3bbe b9ab ce3d 3342 583d
00000340: 3acf b8bd bf9d b73d 1c9b 943d aedf 9f3d
00000350: cc4f 8cbd 1f93 e1be d682 cd3d e0f4 8dbd
00000360: a2f3 443d a42a 463d cb0f 0d3d 85bd e23d
00000370: b715 bfbd f0e7 89bd 91dd 99bd af63 d63c
00000380: 90f6 19be e8db f93d e1d5 8a3d 863e ea3d
00000390: 1ef3 6f3d 2263 33bd 2ad8 eabd 3fc4 a8bc
000003a0: efed 99bd 6f5a 94bc 6515 c0bd 6792 493d
000003b0: 4e64 16bd e577 59bb 2a17 bdbb e8ff c7bd
000003c0: 9ea1 65bd 6133 46bd c7da 14b8 38e5 e13c
000003d0: 0b99 6bbe 3057 993d 1715 143d a024 c5bb
000003e0: 3249 9f3d d3d9 4cbd fc7a edbd 5b86 4fbd
000003f0: 4fe3 90bd f3f1 5b3b 3d58 5e3c e7bd 443d
-0.06420944 0.01493509 0.039265517 -0.04847713 -0.111185305 0.0908337 0.09660995 0.04626299
-0.121136144 -0.005356661 0.07381379 0.018578209 0.013252418 -0.23230354 -0.014056461 -0.028656336
0.01839512 -0.044656437 -0.0319445 -0.0694641 0.058003973 0.06359426 -0.070114866 0.01194905
0.022729566 -0.045235414 0.009101685 0.03163788 0.024999484 -0.12134404 -0.12249626 -0.085383445
-0.083619304 -0.029770762 0.055653624 0.03321854 0.005839121 0.023849599 -0.07199754 0.07563479
-0.041419365 -0.016914235 -0.040044844 0.05380143 -0.013500835 0.06031997 -0.048588503 0.027816692
0.03141511 -0.018426424 0.07307137 0.049640354 -0.05926862 0.05707797 0.0018973792 -0.0076913186
-0.0052730027 -0.029411327 0.028608609 -0.054429524 0.021662762 0.08201799 -0.01075627 0.025109837
0.06792536 -0.011190587 0.09942597 0.049524184 0.008725152 -0.097081415 0.096784905 -0.11411547
-0.13413355 -0.07082788 -0.05918065 0.025813373 0.07512213 -0.07592704 -0.058626004 0.086295776
0.10472649 -0.024088578 -0.05773693 -0.03194342 -0.0015018712 -0.014402443 0.014119808 0.10224701
0.026658257 0.007643238 -0.13055657 0.029022772 -0.06900342 0.0069841575 -0.036188312 -0.022960959
0.119187765 -0.023914974 0.12286932 0.014305398 0.009891014 0.055272255 -0.08033156 -0.059536606
0.04954096 -0.09006914 -0.044219367 0.063028626 0.038773794 0.14566968 -0.027758596 0.054716054
-0.21115024 0.41272044 0.019856963 0.08643436 -0.021294605 0.045710046 0.071517825 -0.039961953
0.039527465 0.0027123692 0.042986352 0.053526733 0.15240157 -0.13612783 -0.034046996 0.077486195
0.03310706 0.13064851 0.06784927 0.17290546 -0.026076911 -0.096960716 0.052383248 0.08300544
-0.080314465 -0.040835816 -0.041916672 -0.07636608 -0.0133863585 0.012522555 0.00042774712 -0.028280556
-0.042493746 -0.04829522 0.08127442 0.028576467 0.10688863 -0.16068919 0.0025428468 0.055125915
0.11940868 -0.033763018 0.02267332 0.15302049 0.0036891801 0.07195845 -0.010458492 0.11392803
-0.0058522746 -0.10625969 -0.1327159 -0.05196824 -0.05307895 -0.094746746 -0.0116338525 0.045384932
-0.05530018 0.06717091 -0.13545169 0.08666499 0.04161595 -0.34939882 -0.04955594 0.019840363
0.13793553 -0.029843628 0.037516445 0.076569214 -0.066951506 -0.07717251 0.025069319 -0.06828185
0.022941057 0.037240997 -0.016251983 -0.13278851 0.057776436 0.100674674 0.039672423 0.13860372
0.08386231 -0.031789795 0.059083894 -0.05735158 -0.016005637 0.074464835 -0.12555562 -0.04109968
0.060297776 -0.020449685 0.123037405 -0.030457929 -0.0029939467 -0.1834393 0.10091347 0.052797507
-0.090239 0.089656346 0.07256147 0.078063354 -0.068511575 -0.44057557 0.100347206 -0.06931472
0.04808391 0.04838051 0.03443889 0.11071304 -0.09330314 -0.06733692 -0.075129636 0.02617058
-0.15035462 0.12200147 0.067790754 0.11437707 0.058581464 -0.043795712 -0.11467011 -0.02060139
-0.07516085 -0.018109528 -0.09379081 0.049211886 -0.03671675 -0.0033183035 -0.0057705836 -0.09765607
-0.056062333 -0.048388842 -3.5489702e-05 0.02757512 -0.230076 0.07487333 0.036152925 -0.006016329
0.07777633 -0.05001242 -0.11595723 -0.05066524 -0.07074606 0.003356096 0.013570842 0.048032667

fc_hidden.bias f4 [100]
00000000: 677a b33d 03d2 fa3c 93f2 ba3d c556 4bbc
00000010: 9a1c d9bb e9ad a63c f15e 183d fc70 373d
00000020: 3423 143d 20ab 8abd 042b d23d 594e 83bd
00000030: 905b a8bd 6919 4b3c b376 46bb b036 603d
00000040: bb3a 80bd 63b2 0e3d 7283 37bc 1bbb 4fbd
00000050: d04d 3cbd d752 46bc cfc3 5cbd 1846 83bd
00000060: db88 803d ec25 b83d d49b 83bd 5c9c 1f3e
00000070: 0405 d33c be32 d63d f98f a5bc b68c 683d
00000080: 5d3c 463d 4511 d9bc 1fe8 a5b9 f042 bf3b
00000090: c66b ef3d 6881 92bd edba 87bc ae0f 563d
000000a0: b03c 66bc 2e09 72bd 9ec2 71bd 2010 8935
000000b0: 0376 8abd cdf1 11bc e7b4 a13d 5061 073d
000000c0: 662c d73d 3daf d33d bb6e 14bd 978d 70bd
000000d0: 2676 963d 4737 3e3d 9d04 823c c538 513d
000000e0: 8e63 b03d 2098 26bd 4f17 e43d a0cb adbd
000000f0: 0c45 a63d fdc7 87bd f2a8 54bd e3c2 3e3d
00000100: 0a7f d9b9 5e67 643b c18b 3bbd 401c 0b3e
00000110: c3f9 40bd 08e9 c0bc 20eb c23d 5e5e a9bd
00000120: 8fd2 a2bd 69c6 e3bb 9030 94bd f85f 21bd
00000130: 9da2 f8bc 0883 4bbd ce53 6e3d ee71 2c3d
00000140: 5b18 753c bcc0 92bd 6bfb a93c caa4 973d
00000150: d4fe 81bd c215 ae3d 073d a33d e748 073d
00000160: 0e42 5c3d 2ddf 62bc 4984 313c 9d03 d73d
00000170: 9d6b 50bd 9683 0fbd 9a93 73bd f87e 5a3c
00000180: 571e b6bd 128f 36be 93c8 e33d 5e7f e93c
0.08763581 0.03061772 0.091282986 -0.012410824 -0.006625724 0.020346599 0.03719992 0.044785485
0.036166385 -0.06770921 0.10262111 -0.06411428 -0.08220589 0.012396195 -0.0030283153 0.054739654
-0.06261202 0.03483809 -0.011200773 -0.050715547 -0.045972645 -0.0121047115 -0.053897675 -0.06409854
0.06276103 0.08991608 -0.06426206 0.1558699 0.025759228 0.10458897 -0.020210253 0.056774817
0.04839741 -0.026497493 -0.00031644196 0.005836837 0.11690478 -0.071535885 -0.016568625 0.052261047
-0.014052555 -0.059090786 -0.059023492 1.0211988e-06 -0.0676079 -0.008907747 0.078958325 0.03305179
0.10506515 0.103361584 -0.036238413 -0.05872878 0.07346754 0.046439435 0.01587134 0.05107953
0.086127385 -0.04067242 0.11137258 -0.08486104 0.081186384 -0.066299416 -0.05191893 0.046572577
-0.00041484117 0.003485165 -0.045787577 0.13584995 -0.04711319 -0.023548618 0.09517503 -0.08269952
-0.07950317 -0.0069511426 -0.07235825 -0.039398164 -0.030350978 -0.049685508 0.05818539 0.04210084
0.01495942 -0.071656674 0.020749768 0.07404478 -0.06347433 0.08500244 0.079706244 0.03302851
0.053773932 -0.013847155 0.010834762 0.10498736 -0.050883878 -0.0350376 -0.059466936 0.013335936
-0.088925056 -0.17828014 0.11122241 0.028503116

fc_out.weight f4 [1, 100]
00000000: e7f2 ca3d 792e a8bd 7a65 0b3e 525d f5bd
00000010: 13d8 d2bd 5c78 2b3d 46a0 fcbd 5071 dc3d
00000020: e45e 0ebe ac5f 22be a2a2 9dbd b347 58bd
00000030: cf17 aa3d 2cbb 9abe ed43 c5bd e022 e7bd
00000040: a548 4ebe 99ef 07be ba7f e63c 2665 d43d
00000050: fbb0 19be fda1 9a3d 2135 1dbe 30da d73c
00000060: 4a92 53be e957 883d 1e39 0e3e 0475 643e
00000070: a634 a83d 4d5c 08be 93f2 febd d91f 16be
00000080: b5ae cb3d 08ab e23d a321 46be b379 e4bd
00000090: 5bdd 433d 0d9e 883c af40 05be 826e b83d
000000a0: 5fda 43bd 5680 d93d 81a8 fdbc 3889 77bd
000000b0: ffba c6bb b340 10be 9457 fe3c 896e 75bd
000000c0: bb6e 37bd 8893 8b3d 60ac 22be fdbe 55bd
000000d0: 7b62 1dbe 5d91 c73d 0122 b7bd e1d7 12be
000000e0: 7b64 f43d 1313 01be 0687 443b 4005 a4bd
000000f0: e94c 803d 3cd8 c33d 22f3 9d3b cfa2 d63d
00000100: b787 583d fe8c 1e3e df37 aa3d 8561 043e
00000110: 491e 093e 7379 00be 1049 1c3e f85b 3abe
00000120: b502 d8bd 6ad6 3cbe d4d8 f1bd be43 2dbd
00000130: f9bc c7bd 13f9 efbd 7356 4bbd 1817 0e3e
00000140: e871 3b3e decf ec3d d888 77bc 09a6 97bc
00000150: 4e03 883c a52d d3bd facc c13d 13fb 973d
00000160: 2013 4b3c c96b 153c 9945 d0bd 8fe3 9fbd
00000170: 47f1 2bbe fe89 4ebe 26ce 67bd 111f bb3d
00000180: 22d0 39bc 5423 75bd 7af1 db3d 1582 19be
0.09909611 -0.08211989 0.13612929 -0.1198069 -0.10295119 0.04186283 -0.12335257 0.107638
-0.13903385 -0.15856808 -0.07697035 -0.052802753 0.083053224 -0.30220926 -0.096320964 -0.11285949
-0.20144899 -0.13274993 0.028137077 0.10370855 -0.15008919 0.07550428 -0.15352298 0.026349157
-0.20661274 0.066573925 0.13888976 0.22310263 0.08213167 -0.1331646 -0.12448611 -0.14660586
0.09945432 0.11067778 -0.19348769 -0.11156025 0.047818523 0.016676927 -0.13012956 0.09005453
-0.047815677 0.10620181 -0.030964138 -0.060433596 -0.006064772 -0.14087181 0.03104762 -0.059919868
-0.044783335 0.06815249 -0.15886068 -0.052184094 -0.15369599 0.09744523 -0.089420326 -0.14340164
0.11933228 -0.12604932 0.0029987707 -0.08008814 0.062646694 0.09562728 0.0048202435 0.10480272
0.052863803 0.15483472 0.08311438 0.12927826 0.13390459 -0.12546329 0.15262246 -0.18199146
-0.10547391 -0.18441167 -0.11808935 -0.042300932 -0.097528405 -0.11717429 -0.04964299 0.13875997
0.1830517 0.11563085 -0.01510831 -0.018511789 0.016603138 -0.103114404 0.09462924 0.074209355
0.0123946965 0.009119936 -0.10169525 -0.07807075 -0.16791259 -0.20169827 -0.056593083 0.09136785
-0.011341127 -0.059848145 0.107394174 -0.14991029
