Copula by Ratio Estimation/2d_exp/model_parameters_NNet_ratio_25_runs_4copulas_2Dexperiment/NNet_ratio_run_9_cop_u_1.pt (torch, 44588 bytes, 5 tensors)

fc_in.weight f4 [100, 2]
000000 ac c5 27 3f 21 2a 15 bf 6c e6 ed 3d c0 5a fa 3e
       0.65536 -0.5826741 0.11616215 0.48897362
000010 dc 2a 32 bf 3a bf 82 be 81 86 01 3f 52 79 08 bf
       -0.6959665 -0.2553652 0.5059586 -0.5331012
000020 26 cb 4f be 39 e3 9c be 36 bd 18 bf e3 f1 dc bc
       -0.20292339 -0.30642107 -0.5966371 -0.02697081
000030 ca 3a d2 be 07 59 d1 be ac 35 8f 3d dd 3c 0a 3f
       -0.41060477 -0.40888235 0.06992659 0.5399912
000040 f8 e0 ac 3e b7 b6 6c 3c c3 18 7a be d3 33 37 bf
       0.33765388 0.0144478595 -0.24423508 -0.7156345
000050 54 39 09 bf 8b ae 6a be 5c 4d 91 be 61 2d 9a bd
       -0.536031 -0.22918145 -0.28379333 -0.075281866
000060 81 61 ea be ab d4 c7 be ea 7f 4c 3d 74 e2 44 3f
       -0.45777515 -0.3902944 0.049926676 0.7690804
000070 74 3b 22 3e 9e 49 12 bf 39 b1 d5 3e 92 4b 02 bf
       0.15842992 -0.5714358 0.41736773 -0.5089656
000080 92 0f 17 3e 1c 3d 43 bf 12 16 0e 3f 20 06 cd 3e
       0.14752033 -0.7626512 0.55502427 0.40043736
000090 51 eb 0d bf 4a ee 9b 3e ce 13 00 bf 44 e3 b1 3e
       -0.5543719 0.30455238 -0.5003022 0.34743702
0000a0 9a 2e 2a be c8 a9 3b 3f f1 3e 9a be 48 fb aa be
       -0.1661934 0.7330594 -0.30126145 -0.33394837
0000b0 30 33 fd 3d 34 14 14 bf 75 a5 16 bf c9 6b a9 be
       0.12363279 -0.5784333 -0.5884622 -0.33090046
0000c0 d0 4b ae be ba 5d 21 be 3f 42 d0 3e ca 9f 25 bf
       -0.34042215 -0.1575841 0.40675542 -0.64696944
0000d0 f3 56 48 bf f7 40 83 3e ae 75 01 bf ed db 01 3f
       -0.78257674 0.25635502 -0.5057019 0.50726205
0000e0 d5 80 ac 3d bf d2 3c 3e 5c 52 4f 3f b5 08 12 3f
       0.0842301 0.18439768 0.80985045 0.57044536
0000f0 5d 8b 92 3d f6 89 00 3f 06 ec b6 bd fb 72 24 3f
       0.07155488 0.5021051 -0.08931737 0.64237946
000100 86 d5 11 bf 9c b1 c0 3e fc 46 15 3d e0 21 42 3d
       -0.56966436 0.37635505 0.03644465 0.047395587
000110 93 db 6c be 3f 39 c5 3e e3 4f 89 3e 55 c3 da be
       -0.23130636 0.38520238 0.2681876 -0.42727152
000120 59 78 d2 bd 52 11 97 3d 1e 49 83 3e 59 0d 20 3f
       -0.10276861 0.073763505 0.2564172 0.62520367
000130 c6 f6 a0 3b 2a 6f 2d bf ec 91 c9 3e 09 8f 68 3e
       0.00491223 -0.6774775 0.39369142 0.22710814
000140 26 13 67 be 11 59 32 3f 12 93 09 bf b2 42 39 bf
       -0.22565898 0.69667155 -0.53740036 -0.72367394
000150 4c 53 02 3f 96 ca 2c bd d2 24 29 be 5b dc 24 bf
       0.5090835 -0.04218539 -0.16517952 -0.64398736
000160 89 f6 1b 3e 16 bc b8 3e ed 24 1f bf 91 5a 4c 3e
       0.15230764 0.36080998 -0.6216572 0.19956423
000170 27 e1 fd bd 1d eb 95 be 2f 19 1e bf 88 8a 61 be
       -0.1239646 -0.2928094 -0.6175718 -0.22025502
000180 12 0e 3d bf e0 69 e0 bc 8e 9d ab 3d 0e 3f 1b bf
       -0.73849595 -0.027394235 0.083796605 -0.6064309
000190 59 cc c5 3e 7c e2 2a bf 03 f0 ce 3d d0 a0 ec 3e
       0.38632467 -0.6675184 0.10104372 0.4621644
0001a0 48 17 2e bf 22 bc 42 be 80 a5 1c 3f fe b5 af 3e
       -0.68004274 -0.1901708 0.6119003 0.34318537
0001b0 20 64 d4 3e 8b c2 cd be 70 ff ba 3d b5 39 c2 3e
       0.4148264 -0.40187487 0.09130752 0.37934652
0001c0 95 6e 2d 3f 84 13 d3 3e 8b 10 1b bf 67 c4 12 3f
       0.6774686 0.41225827 -0.6057212 0.57330936
0001d0 77 e4 9a bd 10 86 b9 3e 0e 56 0c bf 0e 07 5d bd
       -0.075631075 0.36235094 -0.5481881 -0.053961806
0001e0 08 04 5d 3e 57 98 92 3e fe 75 01 3f a7 4c 16 bd
       0.21583569 0.2863185 0.50570667 -0.036694195
0001f0 93 32 22 3f 2a a7 86 3d a8 fd fa 3d f4 55 e7 be
       0.6335842 0.06574853 0.12255412 -0.45182765
000200 34 ad 19 bf 62 ca b1 be ca fa 42 be de f3 26 bf
       -0.6002991 -0.34724718 -0.19040981 -0.6521586
000210 fe 21 92 3e 35 59 35 3e 02 16 1e bd cc 3c bd 3e
       0.2854156 0.17709811 -0.038595207 0.36960447
000220 0a 1d 01 3e ab a8 1a 3f d0 c7 fd bd 00 ae a6 3c
       0.12608734 0.60413617 -0.12391627 0.020346642
000230 fa 48 fc 3e 7d 9b b1 be ce b4 98 3e 8a c9 9e be
       0.49274427 -0.3468894 0.29825443 -0.31013137
000240 d0 ee 9b 3e bc f0 44 3f e3 02 2c 3f d0 7f de 3c
       0.30455637 0.7692983 0.67191905 0.027160555
000250 cd 12 10 3f 27 50 fc be 5c 47 10 bf 94 7a 0d 3e
       0.5627869 -0.492799 -0.56358886 0.13816291
000260 ae 61 95 be 04 d7 52 3e 81 1b 22 bf 54 b0 17 3f
       -0.29176086 0.20589834 -0.6332322 0.5925343
000270 97 d8 d9 be 1a 4d 37 3f d7 d0 17 bf 1b 4a b6 bd
       -0.42548057 0.7160202 -0.5930304 -0.08900853
000280 72 fb 18 bf 5c 4c e9 3e 25 e9 04 be a1 b8 fc be
       -0.59758675 0.4556607 -0.12979563 -0.4935961
000290 f6 37 bf be fc 8c 07 bf a0 66 92 3e 42 c2 f3 bd
       -0.37347382 -0.529495 0.28593922 -0.11902286
0002a0 65 bd ee 3e d0 ad 2a 3c 07 40 5e be 92 de b8 3e
       0.46628872 0.010417417 -0.21704112 0.36107308
0002b0 49 26 42 3e 93 88 04 3e 3a 57 11 be 9d a2 65 3e
       0.18959917 0.12942724 -0.1419343 0.22425313
0002c0 43 f0 f6 be a1 2d 25 bf 16 d3 11 bf 2c 25 cd 3e
       -0.4823018 -0.6452275 -0.56962717 0.40067422
0002d0 33 e7 ed 3d a2 81 21 bf 10 10 07 3f e3 92 2c bf
       0.116163634 -0.6308843 0.52758884 -0.6741163
0002e0 4b 5e 90 3e fd 33 08 bf f2 1a e4 bd cf ff ca be
       0.2819694 -0.5320433 -0.11137952 -0.3964829
0002f0 2e c7 60 3e e3 c5 22 3f dd ee 09 be 0a 91 a9 be
       0.21950981 0.635832 -0.13470025 -0.3311847
000300 9e 21 0c bf 69 c9 96 be 62 0a ec 3e ae 85 50 3e
       -0.54738796 -0.2945054 0.4610167 0.20363495
000310 35 9d a3 be 54 6e 85 be d8 8e 1d bf e4 c8 ee 3d
       -0.31955877 -0.26060736 -0.6154609 0.116594106

fc_in.bias f4 [100]
000000 71 cd 59 3e d4 1f cd be 72 cf 00 3f 24 2b 9c bd
       0.21269776 -0.40063345 0.50316536 -0.07625416
000010 d0 71 87 be 33 0d b3 be 84 2f e4 3e 59 c4 24 3f
       -0.2645402 -0.34971008 0.44567502 0.643621
000020 f5 5e 49 be e2 39 0c bf 7c 28 45 3e 07 24 dc 3d
       -0.1966513 -0.5477582 0.19253725 0.10749059
000030 11 6b a6 be 19 4f d4 be 82 56 20 be 12 d8 29 3f
       -0.3250356 -0.41466597 -0.15658 0.6634532
000040 87 ed 57 3d dd 4b 18 3f 07 65 10 3f bb 23 b4 be
       0.052716758 0.5949076 0.56404155 -0.3518351
000050 fe 54 2f bf 77 0a ac bd 1d c3 34 3d 64 d9 ec be
       -0.6848906 -0.084004335 0.044131387 -0.46259606
000060 90 59 18 bf 97 f2 0d bf d1 79 d9 3d 3b d6 f0 be
       -0.5951166 -0.5544829 0.10618938 -0.47038445
000070 a0 5d 33 3f de 04 9c 3d b6 61 30 3f cc f0 d5 be
       0.70064735 0.07618116 0.68899095 -0.41785276
000080 d6 0b 72 be 4f 46 60 be 85 d4 2c bf a6 1d bc be
       -0.23637328 -0.2190182 -0.6751178 -0.3674137
000090 a5 27 af 3e 58 77 fb be a1 2b f1 be b3 d6 40 3f
       0.34209934 -0.4911449 -0.471036 0.75327605
0000a0 0b c5 e5 3e 2d b5 96 3e 9f 61 25 3f 45 a1 52 bd
       0.44876894 0.294351 0.6460208 -0.05142333
0000b0 3a 18 2d 3f e6 b4 0f 3d a1 02 47 bf 7e c2 8f 3e
       0.6761509 0.035084628 -0.77738386 0.28078073
0000c0 c5 3f 17 3e d2 1a ca 3e 24 9c 92 3d d2 4c be be
       0.1477042 0.39473587 0.07158688 -0.37167984
0000d0 db 8f 21 be 60 52 2f bf 72 08 09 3e 0f ed 23 bf
       -0.15777533 -0.6848507 0.13382128 -0.640336
0000e0 42 aa d6 be b9 8b 39 3f 7a 34 06 3f 81 47 2c 3f
       -0.4192677 0.72478825 0.5242382 0.67296606
0000f0 e8 ba 71 be 00 b5 ad be a8 22 10 bd 2e d6 b6 3e
       -0.23606455 -0.33927155 -0.0351893 0.3571028
000100 0d fa 1d 3e 43 6d 16 3f a3 f8 0d 3f fc 0d de be
       0.15427418 0.5876047 0.55457515 -0.43370044
000110 db 39 17 be 53 ec 17 bf 4f f4 ea be c8 10 21 bf
       -0.14768164 -0.5934498 -0.45889518 -0.6291623
000120 a1 f5 1b bd b5 6b 01 be 83 7b 92 3e 4e b7 05 3f
       -0.038076047 -0.12638743 0.28609857 0.52232826
000130 04 34 8b 3e ae 9e a7 3e e6 b8 a9 bd 8b 02 01 bf
       0.27188122 0.3273825 -0.0828722 -0.50394505
000140 55 7f ef be 43 ac 01 bf 6e 8c d9 3d 89 e2 1c bf
       -0.46776834 -0.50653476 0.10622488 -0.61283165
000150 83 08 3b 3f e6 de 21 bf e9 a2 c4 3e 59 fb c2 be
       0.7305986 -0.6323074 0.3840554 -0.38082388
000160 98 44 48 be 3f 4b 08 3f 74 62 26 3f 7d 28 b0 be
       -0.19557416 0.53239816 0.6499398 -0.3440589
000170 0e a6 a6 be a3 17 1a bf 95 47 b6 be df cd a0 3d
       -0.32548565 -0.60192317 -0.35601488 0.07851767
000180 36 d5 d0 be 2f e1 48 3f 4d ce f8 bc fb 94 10 3e
       -0.40787667 0.784686 -0.03037181 0.14119332

fc_hidden.weight f4 [100, 100]
000000 01 49 4d 3d e4 96 2a 3d d2 6a 06 3e c4 7c 9b bd
       0.05011845 0.041647807 0.13126686 -0.075921565
000010 30 0d e8 be 10 76 ee bd 53 c6 a0 bd 91 b3 16 bb
       -0.4532256 -0.116436124 -0.07850327 -0.0022995214
000020 49 4d d9 3b 5d 4f 89 bd dc 75 e6 3c e5 f6 24 3e
       0.0066315276 -0.067045905 0.028132372 0.16109808
000030 50 5c ad bc e0 9e bd 3d 3d 5d 28 bd d8 db bf b9
       -0.021162182 0.092588186 -0.041104544 -0.00036594155
000040 36 67 f6 3c 73 5f 99 3c 93 67 ee bc 5f 7e 84 bd
       0.030078512 0.018722272 -0.029102122 -0.06469416
000050 c6 cc 50 bd 9c 61 09 bc 03 ca 9b 3c 1d 31 ac be
       -0.050976537 -0.008385088 0.019017225 -0.3363122
000060 e5 24 f6 3d 3d 8a 7a 3d e9 96 4d bd 39 d0 0e be
       0.12018756 0.06116699 -0.050192747 -0.13946618
000070 81 66 e9 3d 08 2f c1 3c ee 17 d4 3b df 3c ae bd
       0.11396504 0.023581997 0.006472579 -0.08507704
000080 b2 d3 38 be 04 81 ce bd b2 e8 ef 3d 38 f9 90 3d
       -0.18049505 -0.100832015 0.11714305 0.07078785
000090 ba cf b7 bc 0d 87 61 bd eb 20 9a bd 9d d4 05 bc
       -0.022437919 -0.055060435 -0.0752581 -0.008168367
0000a0 98 f7 74 bd 05 cb 8b 3d 5a ab e4 3d 34 09 38 bd
       -0.059806436 0.06825832 0.11165495 -0.04493065
0000b0 89 bc a6 bc 0b 4a b6 bd 3c 55 1f bd 7c ac c3 3d
       -0.020353572 -0.08900841 -0.038899645 0.09554383
0000c0 b8 c7 a9 3d a1 d5 cf bd f8 f0 82 bc cc e5 2c bd
       0.082900465 -0.10148168 -0.015984043 -0.04221134
0000d0 d9 3a 25 be 1e 3c 9e 3d ea b0 8b 3d 15 35 00 bc
       -0.1613573 0.0772631 0.06820853 -0.007825156
0000e0 ba e2 da ba 18 ad 97 3d 4d d6 da 3d 13 6a b3 3c
       -0.001669965 0.07406062 0.10685406 0.021901166
0000f0 5b 1d 98 3c c3 fd 2b bd c4 8e a5 3d dc 32 55 bd
       0.018568685 -0.041990053 0.08083871 -0.052050456
000100 29 a8 81 bd 8c c2 32 bd d4 96 71 3d 01 82 96 3d
       -0.06330902 -0.043642566 0.05898173 0.07349015
000110 1c b0 ee 3d 6c af a9 bd 43 41 2d 3c 7c e9 97 3d
       0.11654684 -0.08285412 0.010574642 0.074175805
000120 c9 3c 0a 3e 12 82 5d bc b9 8e e8 b9 e6 40 ab 3c
       0.1349975 -0.013519781 -0.00044356825 0.02090497
000130 42 21 74 3d b7 1a 64 bd 3a ae 0b 3d b2 c6 15 be
       0.05960203 -0.05568954 0.034101702 -0.14626577
000140 73 73 04 be 5f 18 ba bd 12 80 90 bd e7 e9 00 be
       -0.12934665 -0.0908668 -0.070556775 -0.12589227
000150 ba d0 02 3d a3 f4 fb 3d 2a d5 bd 3d f3 1c 0f 3d
       0.03193734 0.1230252 0.092691734 0.034939718
000160 33 6f b9 3c 42 11 93 3d 4f 5d 35 3d 55 9b e1 bd
       0.022636032 0.07181026 0.04427844 -0.11015955
000170 d0 0b 5d 3d aa 2b 0f 3c 9f 82 05 3d 12 0e f1 3c
       0.053966343 0.008738438 0.032595273 0.029425655
000180 61 29 9a be 9f 2d 97 3d 4a 5a bc bd 5b 9e a5 bd
       -0.30109695 0.073817484 -0.09196909 -0.080868445
000190 33 9f 22 bd 35 c4 18 3d 0a f5 fa bc ee 0d f4 bd
       -0.039702605 0.037296493 -0.030634422 -0.119167194
0001a0 57 36 85 3d 61 59 6e 3c c4 63 d1 3d 6a e1 84 3d
       0.06504505 0.014547677 0.10224107 0.06488307
0001b0 31 0e 3f 3e 9a 7d e2 3d 15 04 4a 3c 4d 48 8d 3d
       0.18657757 0.11059113 0.012330075 0.06898556
0001c0 b6 96 5f 3c 6b 65 db bd 01 72 f4 bd 34 ec 9a bd
       0.013646772 -0.10712703 -0.11935807 -0.075645834
0001d0 43 9f aa 3d 77 10 3f bc 49 d4 8a bd 6d 0a 0c be
       0.08331158 -0.01166164 -0.067787714 -0.13675852
0001e0 5f 7a cb bd 2d e3 3c 3c f3 c0 cc 3d 0c 25 6f bd
       -0.0993545 0.011528772 0.0999774 -0.05838494
0001f0 dc e7 61 3e 38 4d e0 3c 29 13 3b bd a3 b1 4f 3d
       0.22061104 0.02738057 -0.04567257 0.050706517
000200 f8 22 92 bd c7 3c 3b 3d e3 c2 51 bd 96 b7 19 bd
       -0.07135576 0.04571226 -0.05121125 -0.037528597
000210 74 ab 3e bd 13 a7 12 bd bb 8e 0f bb 53 5d ea bd
       -0.04655023 -0.035803866 -0.0021905142 -0.114435814
000220 02 8f 7d bd 62 48 35 3c 26 30 74 3d 12 a5 ce 3d
       -0.06190396 0.011064621 0.05961623 0.100900784
000230 cd 42 84 bc 25 b6 9b 3d 4c 1e b6 3d 99 6f 33 bd
       -0.016145134 0.07603101 0.088924974 -0.0438076
000240 3a 10 ac 3d 1e a7 9f 3c 19 b5 35 be df ea 93 bd
       0.084015325 0.019488867 -0.17744865 -0.072225325
000250 79 cc 57 bc f9 d7 87 3d 6b 9a 03 be 85 59 66 be
       -0.013171309 0.066329904 -0.12851875 -0.22495086
000260 10 3e 94 3c 96 b8 61 3c 83 ec 7d bc d6 34 9f 3d
       0.018096 0.013776919 -0.015498283 0.077737495
000270 6d 5a aa bc ba 68 3d 3d 04 24 75 3c b7 82 84 bd
       -0.020795071 0.046242453 0.0149622 -0.064702444
000280 eb fd fa bd 33 40 bd bd a0 a1 00 be d5 23 7b bc
       -0.12255462 -0.09240761 -0.12561655 -0.015328367
000290 93 76 51 3d 18 02 8c 3d af 45 3a 3d 9b db 05 be
       0.05113847 0.06836337 0.04547661 -0.13072054
0002a0 f9 79 4a be 2b 4b aa bd 2e 90 bc 3d dc 0a 3b be
       -0.19773091 -0.083151184 0.092071876 -0.18265861
0002b0 1c 70 aa bb f6 ed 22 be 42 37 f8 bd 2e b8 ae 3c
       -0.0052013528 -0.15911087 -0.121199146 0.021328058
0002c0 3a c8 ca 3d 82 30 06 bd 26 c1 1f be ef 54 79 bd
       0.099014714 -0.032761104 -0.15601024 -0.060872015
0002d0 6d 1d 27 be ca 71 94 3d c1 1a dc 3d a7 0b 6e 3d
       -0.16319819 0.07248266 0.107472904 0.05811658
0002e0 39 f8 4d bd 8f 61 f8 bc cc 22 d1 3b db 92 1a 3d
       -0.05028555 -0.030319957 0.006382322 0.03773771
0002f0 80 9f 7f bd b6 61 5f 3d b6 35 49 3d 8a 23 0e bc
       -0.06240797 0.054536544 0.04912349 -0.008675465
000300 e4 b7 b2 3d 3e 70 0e be 52 7e 90 bd 57 bc 79 bd
       0.087264806 -0.13910004 -0.07055344 -0.06097063
000310 4e 4b b5 bd 7d c8 d2 3a 59 ec 66 3d 6d 7a 8d bc
       -0.08852254 0.0016081479 0.056377742 -0.017270291
000320 13 30 c6 bd 9b 8b 74 bd d8 20 bc 3d c5 89 eb 3c
       -0.09677138 -0.05970345 0.09185952 0.028752217
000330 13 f5 de 3d 3a 09 2a bd 1f 1b 8a 3d 14 5c 3c 3d
       0.10886588 -0.041512705 0.06743454 0.04598625
000340 64 c1 61 3d 60 91 87 3d af cb d6 3d 2a 2d a4 3c
       0.055116072 0.06619525 0.10488068 0.020041067
000350 94 7c 50 bd ec 79 85 3d d8 33 9b bd a9 8f b3 ba
       -0.050900057 0.065173954 -0.07578248 -0.001369943
000360 73 fd 62 3d 81 cf 3d bd bd 3f d6 3c 27 43 93 3b
       0.05541749 -0.04634047 0.02615344 0.004494089
000370 03 76 f3 bd 6e c4 a0 bd a7 7d c8 3d 72 94 a0 3c
       -0.11887743 -0.07849966 0.09789591 0.019602034
000380 a3 48 2b 3e 8e 9f 2b 3d a2 3b d5 3c 2b 40 98 3d
       0.16726927 0.04190021 0.026029412 0.07434114
000390 62 42 87 bd a3 47 7c 3b b7 b4 5f 3d 28 5b 53 3d
       -0.066044584 0.0038494847 0.054615702 0.051600605
0003a0 97 5d b0 bc 84 fb fe bd f7 cc e4 bd 7e 9a 15 be
       -0.021529002 -0.124503165 -0.111719064 -0.14609715
0003b0 af 84 0c bd fb bf 8b bd a4 94 7f 3d 4f e1 c4 3d
       -0.034306224 -0.06823727 0.062397614 0.09613287
0003c0 55 2f 94 bd 68 47 2b bb 78 da 9b 3d bf 52 39 3d
       -0.0723559 -0.002613509 0.07610029 0.04524493
0003d0 3f 28 cd bc 60 19 80 bd ff 01 e8 bc f9 34 ba 3d
       -0.025043605 -0.0625484 -0.028321264 0.09092135
0003e0 fc 58 b3 3d e5 e0 29 bd bc 61 a3 bd 37 b6 e1 bd
       0.08757207 -0.04147424 -0.07977626 -0.11021083
0003f0 c3 8c eb bc 5d ef 9e 3d e9 82 20 3d c2 c1 a7 bd
       -0.028753644 0.07760499 0.039187346 -0.08191253

fc_hidden.bias f4 [100]
000000 5b ef 47 3d d4 6b 8c 3d af 43 1b 3c 0c 49 90 3d
       0.04881225 0.06856504 0.009476586 0.070451826
000010 8e b3 17 bd ce 43 b3 3d 92 06 c4 bd 40 8b 11 3b
       -0.03703647 0.08753167 -0.09571566 0.0022208244
000020 cc b7 72 3d e7 22 67 bd 98 36 90 bd b0 0e b4 bd
       0.059257314 -0.05642977 -0.07041663 -0.08791864
000030 57 4c b5 bc f4 c8 ac 3d 74 55 00 bd 71 23 bc bd
       -0.022131128 0.08436766 -0.031331494 -0.091864474
000040 fb 9f 2f 3d 63 6e b7 3d 33 e9 ec bc c5 8e db bd
       0.04287718 0.089566015 -0.028919792 -0.107205905
000050 95 e2 02 bd 60 80 a6 3d ab 58 38 bd 3a 70 18 3d
       -0.031954367 0.08129954 -0.045006435 0.037216403
000060 99 0e 11 bd 97 18 aa 3d e6 66 8a bd fc 86 11 bd
       -0.035414312 0.083054714 -0.067579076 -0.03552912
000070 50 1d e1 3c 9a 09 2b bd 09 c9 51 3d 71 5b 10 3d
       0.027479798 -0.041757204 0.051217113 0.035243455
000080 48 9c b0 3d 2b bf ab 3d 29 a5 11 bc 19 4c 76 3d
       0.08623558 0.08386072 -0.008889475 0.060131166
000090 f6 a2 80 bd 38 df d0 bd 7b b3 db 3c 39 79 5a bd
       -0.06281082 -0.101988256 0.026818981 -0.053338263
0000a0 ef f0 48 3d 44 98 4c 3c 04 1d 47 bb 8c 39 89 bd
       0.049057897 0.012487475 -0.0030382285 -0.06700429
0000b0 78 90 f2 bc 64 9d fd bc dd 50 d9 bc 97 20 28 be
       -0.029609904 -0.030958839 -0.026527816 -0.16418682
0000c0 e8 19 da bc b8 69 2f 3d 39 f0 38 3c 90 e6 da bc
       -0.026623681 0.04282543 0.011287742 -0.026721269
0000d0 f2 a3 c2 3d 51 6b 3b 3d 78 52 32 3d ca 12 17 3e
       0.09503926 0.04575664 0.04353568 0.14753261
0000e0 6b 61 36 3b 54 0c 0a bb 2e 61 26 3d 69 19 98 3d
       0.0027829062 -0.0021064477 0.04062002 0.074267216
0000f0 30 61 41 3d 6d 0a b7 3d 7f 56 fc 3d 74 49 56 bd
       0.047211826 0.089375354 0.12321185 -0.052316144
000100 d0 ec 71 bd 54 30 3e bd a4 91 64 bd 64 fa b2 bd
       -0.059063733 -0.046432808 -0.055802956 -0.087391645
000110 5a 6f 8b bd 59 34 89 bd bd 2d a6 bd 21 33 39 bd
       -0.06808348 -0.06699438 -0.08114193 -0.045214776
000120 a2 31 fc bc 4e a2 38 bd fd 8a ad 3d dd eb 24 3b
       -0.030785386 -0.04507666 0.084737755 0.0025165
000130 a5 d3 b9 bd c5 89 1a bd 7a a3 77 3d f4 84 ab 3d
       -0.09073571 -0.037729044 0.060458638 0.08374968
000140 b3 6b 72 3d 75 90 42 3d 40 d7 c6 3d 61 22 89 3d
       0.05918474 0.047501046 0.097090244 0.066960104
000150 a2 1f 9e bd 2c 0d f4 bc 8b f9 de bd 59 d8 65 bd
       -0.07720877 -0.029791437 -0.1088744 -0.05611453
000160 39 50 61 bd cf 25 5d 3d 39 ac be 3c 44 3a 6e bd
       -0.055008147 0.053991135 0.023275482 -0.058161035
000170 3c 67 9c 3d 18 45 bb 3c fd e8 c0 3d b8 d9 ac bc
       0.07636878 0.022860095 0.09419439 -0.02109991
000180 11 67 6d 3b 12 08 93 3d 47 ab 6a bd e2 7c 8a bc
       0.0036224762 0.07179274 -0.05729225 -0.016905252

fc_out.weight f4 [1, 100]
000000 ba ad 45 bc ec 45 1f 3e c3 49 80 3d 4c 68 ca bd
       -0.012065345 0.15554017 0.06264069 -0.09883174
000010 b5 df 17 3e 51 5d 4b 3d 0f 96 97 3d 82 53 52 3d
       0.14831431 0.04964954 0.07401668 0.05134917
000020 8b ac e4 3d 33 5a d0 3d be 7f 3b 3c e0 ac ab 3d
       0.111657225 0.10173454 0.01144403 0.08382583
000030 b2 2d b5 3c 65 9f 9c bd a2 c3 f1 bd 6c d5 91 3d
       0.022116516 -0.076475896 -0.11804892 0.07120785
000040 37 18 02 3e e2 f8 bf bd 9d de 31 3d f8 97 9b bd
       0.1270455 -0.093736425 0.04342519 -0.07597345
000050 3c ea 5c bc ac 88 49 bd 63 e8 0c bd 6f 5e bb 3d
       -0.01348358 -0.049202606 -0.03440131 0.09148871
000060 e2 93 f6 3d ed 5b 85 3d af 90 02 3d dc 0c 61 bd
       0.12039925 0.06511674 0.031876262 -0.054943904
000070 b9 40 a4 3d 5c 08 02 3e 6a d0 e6 bd 27 a3 c1 3d
       0.08020157 0.12698501 -0.112702206 0.09454947
000080 89 96 88 bd d5 e9 56 be 57 97 37 be f0 a3 5a 3d
       -0.06669337 -0.20987637 -0.17928825 0.053379
000090 85 84 98 3d 08 40 7d 3d 56 d3 c2 bd 18 72 85 3d
       0.07447151 0.061828643 -0.095129654 0.06515902
0000a0 ca 1e 05 be f2 6c e3 3c e2 7e 9f bd a0 d4 98 3d
       -0.13000026 0.02776191 -0.07787873 0.0746243
0000b0 bc 64 bc 3d 07 ac d5 bd a8 4d db bd 93 64 53 bd
       0.09198901 -0.10433202 -0.10708171 -0.051609587
0000c0 63 46 fe bc 13 d2 c2 3d e9 d8 88 bd cc 97 df bc
       -0.031039422 0.09512725 -0.06681997 -0.027294062
0000d0 04 c8 8b bd 72 10 3a 3d 85 fb 83 bc 66 0d 06 bd
       -0.06825259 0.04542584 -0.016111145 -0.03272762
0000e0 50 13 9b 3d a1 5d 21 3d aa 06 c4 3d 15 18 ad bd
       0.07572043 0.039395932 0.095715836 -0.08451859
0000f0 e4 31 97 3d 00 2e d2 3c 6a d3 e6 bd c3 dd b3 bd
       0.07382563 0.0256567 -0.11270793 -0.08782532
000100 35 b4 f7 bc 83 37 81 3d 6b 09 01 3e fe d8 46 be
       -0.030237297 0.06309416 0.12601249 -0.19418713
000110 0e e6 51 3e 99 88 23 be 7e b5 82 3e 56 c3 27 be
       0.20497915 -0.15970077 0.25529093 -0.16383108
000120 27 04 ff bd 00 34 08 be 06 08 d8 bd d6 5c f7 bd
       -0.12451964 -0.13301086 -0.10548405 -0.12078254
000130 9a 00 b6 bc e8 8c aa 3d 62 79 45 3d c5 ff bf bd
       -0.022217084 0.08327657 0.048211463 -0.09374956
000140 2e 90 8e bd ba 3d b3 bd 2e cb fc bc 90 e3 63 3d
       -0.06961094 -0.08752008 -0.030858602 0.055636942
000150 dc 0c 70 bd a3 f2 b5 bd ef 67 e5 3d 6c 98 8d 3d
       -0.058606014 -0.0888417 0.112014644 0.06913838
000160 f1 83 e9 3d e1 f3 30 bd 21 5f 82 bd 61 62 4e bd
       0.11402119 -0.04320133 -0.06365801 -0.05038679
000170 97 21 5a 3d c4 34 fe bd 4d ed 18 3c 9a 15 bf 3d
       0.05325469 -0.12412408 0.009333921 0.09330292
000180 5d e9 2b 3d b9 ca d4 3c aa 87 ba 3d 0f 98 a8 bd
       0.0419706 0.025975572 0.09107907 -0.08232128
