Copula by Ratio Estimation/2d_exp/model_parameters_NNet_ratio_25_runs_4copulas_2Dexperiment/NNet_ratio_run_21_cop_u_3.pt (torch, 44597 bytes, 5 tensors)

fc_in.weight f4 [100, 2]
-0.12842692 0.28512794 0.6994591 -0.37289983 0.25221398 -0.73507607 0.37671053 0.5331561
0.54525757 -0.52855444 0.55160874 -0.7185636 0.37631622 -0.55205566 0.18072982 -0.09433345
0.33119088 0.7243971 0.61214316 -0.3073524 0.52645665 0.10439765 0.5740728 -0.2680614
-0.3555387 0.33164996 0.5878441 0.4418528 -0.69530404 -0.37574342 -0.7783368 0.28975895
-0.6104056 -0.39063585 0.45726177 0.4896989 -0.16491629 -0.052744225 0.2102563 0.31072277
-0.31488606 0.11729305 0.07420329 0.48958397 0.6261149 0.56206197 0.6428342 -0.328738
0.5509017 0.6302149 0.12039563 -0.36439 -0.239741 0.7097193 -0.019824687 0.48007557
0.07793085 0.35465392 0.12743396 0.16562723 0.08901074 -0.2528295 0.19142868 0.55427396
-0.25062507 -0.17845355 0.09532483 0.23176785 0.18723223 -0.23987603 -0.031920694 0.27363938
0.75664085 0.54953146 -0.7164381 0.41607112 -0.64338875 0.36022285 0.6569265 0.11933898
-0.7282381 0.37506354 -0.724491 -0.07695804 -0.28699517 0.57251066 -0.69652945 0.4459205
-0.17191766 0.47902864 -0.46277845 0.34948975 0.27587453 0.48878524 0.26974878 -0.40341264
0.12365019 -0.024816938 0.63556963 0.70154256 -0.1966168 -0.336022 -0.43145442 -0.07062783
0.18350337 -0.44738224 0.20124622 -0.30859274 -0.41958416 0.77600056 0.2857518 -0.5350164
-0.19539773 0.5472332 0.7116471 -0.08665464 0.42429364 0.35232773 -0.87845594 -0.23964317
0.44115058 0.64044446 0.42133775 -0.2359115 0.4465363 0.4477081 0.6845579 -0.10935532
0.38854367 0.53244954 0.32394826 0.4482467 0.4115329 -0.53501755 0.06259289 -0.55402505
0.18335783 0.6928547 -0.3117771 -0.44084015 0.50343645 -0.06468709 0.5225567 0.20508105
0.78039026 -0.32224435 0.45267496 0.1011978 -0.7419501 0.34784004 0.20491154 0.12450585
-0.16698167 0.37973487 0.6569768 -0.5181469 0.55885935 -0.32712123 -0.051966242 0.7277157
-0.39324757 -0.3241579 -0.2964703 -0.6736477 -0.11781168 0.4421668 0.45352677 0.49082598
-0.10417993 0.30500033 0.282206 -0.4205496 -0.68668324 0.0631923 -0.06454995 -0.30386248
-0.19126195 0.5386701 -0.35951668 0.68707734 0.64435077 -0.1888673 0.6708059 0.4390305
0.32132262 -0.21934535 -0.1390893 0.5244547 -0.49617025 0.025984908 0.5350841 -0.33213082
-0.5187682 -0.3088765 -0.6970772 -0.28498057 -0.6751223 -0.15351091 -0.52084285 0.60743916
00000000: 5982 03be 4afc 913e c00f 333f baec bebe
00000010: 3122 813e f22d 3cbf 34e0 c03e eb7c 083f
00000020: 0096 0b3f 584f 07bf 3b36 0d3f c9f3 37bf
00000030: 85ac c03e 8553 0dbf 3d11 393e e531 c1bd
00000040: da91 a93e 1772 393f 6ab5 1c3f 4b5d 9dbe
00000050: ddc5 063f 6fce d53d 6ff6 123f 583f 89be
00000060: 2b09 b6be 06ce a93e f37c 163f 883a e23e
00000070: 72ff 31bf 7161 c0be 1541 47bf 495b 943e
00000080: 8b43 1cbf 6c01 c8be 371e ea3e d0b9 fa3e
00000090: d1df 28be 540a 58bd 6d4d 573e 0e17 9f3e
000000a0: bf38 a1be 5737 f03d e5f7 973d c0aa fa3e
000000b0: 1149 203f 4be3 0f3f c890 243f 5950 a8be
000000c0: e507 0d3f c455 213f fc91 f63d 5391 babe
000000d0: aa7e 75be 2ab0 353f 6267 a2bc 77cc f53e
000000e0: 369a 9f3d 3395 b53e 0c7e 023e 2f9a 293e
000000f0: 434b b63d de72 81be e105 443e e6e4 0d3f
00000100: ee51 80be 87bc 36be aa39 c33d 8d54 6d3e
00000110: ceb9 3f3e 10a2 75be 46bf 02bd 761a 8c3e
00000120: 37b3 413f 18ae 0c3f 7d68 37bf 4607 d53e
00000130: 20b5 24bf 216f b83e 562c 283f ff67 f43d
00000140: d06d 3abf 5408 c03e 3e78 39bf 2d9c 9dbd
00000150: 08f1 92be 0f90 123f c14f 32bf b14f e43e
00000160: 2f0b 30be 3e43 f53e 4cf1 ecbe 52f0 b23e
00000170: 6d3f 8d3e 0f42 fa3e 831c 8a3e 1a8c cebe
00000180: 503c fd3d e44c cbbc b1b4 223f 4b98 333f
00000190: ea55 49be 130b acbe 98e7 dcbe 53a5 90bd
000001a0: 4fe8 3b3e 490f e5be 7d13 4e3e deff 9dbe
000001b0: bcd3 d6be f9a7 463f 0f4e 923e d6f6 08bf
000001c0: 5816 48be 7a17 0c3f 812e 363f fd77 b1bd
000001d0: 043d d93e 4d64 b43e 7de2 60bf 0565 75be
000001e0: 7dde e13e 2bf4 233f 95b9 d73e c992 71be
000001f0: 68a0 e43e ff39 e53e 303f 2f3f aff5 dfbd
00000200: 32ef c63e 9d4e 083f 8cdc a53e 9780 e53e
00000210: 71b4 d23e e9f6 08bf b330 803d 96d4 0dbf
00000220: 28c2 3b3e ed5e 313f 40a1 9fbe cdb5 e1be
00000230: 36e1 003f aa7a 84bd 47c6 053f c400 523e
00000240: a8c7 473f 36fd a4be 03c5 e73e cb40 cf3d
00000250: 71f0 3dbf 1718 b23e 55d4 513e ecfc fe3d
00000260: 3efd 2abe 9c6c c23e a22f 283f 46a5 04bf
00000270: 6811 0f3f 6f7c a7be 8eda 54bd 934b 3a3f
00000280: bf57 c9be 06f8 a5be f5ca 97be 2d74 2cbf
00000290: 4047 f1bd b063 e23e a934 e83e 8b4d fb3e
000002a0: 4a5c d5bd 0129 9c3e 4e7d 903e 4752 d7be
000002b0: 79ca 2fbf f76a 813d c432 84bd dd93 9bbe
000002c0: 2cda 43be 49e6 093f 9212 b8be 4de4 2f3f
000002d0: 2cf4 243f 6e66 41be efb9 2b3f 9bc8 e03e
000002e0: 6684 a43e 119c 60be 6d6d 0ebe aa42 063f
000002f0: 070a febe 4dde d43c 46fb 083f 0d0d aabe
00000300: fecd 04bf 1025 9ebe a773 32bf f9e8 91be
00000310: d1d4 2cbf f731 1dbe f555 05bf 2281 1b3f

fc_in.bias f4 [100]
-0.37034547 -0.050005294 0.25954562 0.45204368 0.10544687 0.3130093 -0.2587579 0.44984472
-0.056114454 -0.35411566 -0.33778363 -0.7136946 0.66153896 0.23225696 -0.08472644 0.6217274
0.39613074 0.5462579 0.09317581 0.5187765 0.65279806 -0.75617385 -0.49017248 -0.027849026
0.3772925 -0.6238199 -0.23973577 0.51197165 0.13521442 -0.44209617 0.4371264 0.5343407
-0.49136367 0.5049369 0.39592785 0.67759687 -0.3123952 -0.5451821 -0.47865456 -0.549779
-0.035882965 0.4914194 0.7449013 0.76894283 -0.608556 -0.36696258 -0.18540913 0.6940056
0.35016996 -0.49467582 0.0011227924 0.3694079 -0.25402564 0.15599407 -0.27408287 -0.39565578
-0.6940029 -0.5306744 0.2711905 0.096987076 -0.22931811 0.32676807 -0.017049095 0.17274605
-0.54337704 0.3971004 -0.22698113 0.302552 0.22460833 -0.37341776 -0.38081282 0.30737793
0.32568207 0.3175943 -0.47996852 0.46628594 0.29049155 0.22039847 0.42370895 0.23246014
0.58922833 0.29984382 0.43815774 0.15131956 -0.38598123 -0.40573433 0.662905 0.48350343
-0.681678 0.4981706 -0.4968859 0.6282358 -0.46188334 0.518681 0.08818761 -0.586249
0.1956387 0.634558 0.6930499 -0.5382073
00000000: ec9d bdbe 5ad2 4cbd 2ae3 843e 4572 e73e
00000010: 87f4 d73d c142 a03e ea7b 84be 0c52 e63e
00000020: 45d8 65bd a64e b5be faf1 acbe b0b4 36bf
00000030: 9e5a 293f c5d4 6d3e 0e85 adbd 8729 1f3f
00000040: a6d1 ca3e 8fd7 0b3f f6d2 be3d 89ce 043f
00000050: c61d 273f 9c94 41bf e3f7 fabe a423 e4bc
00000060: 7c2c c13e a9b2 1fbf 4b7d 75be 9310 033f
00000070: a675 0a3e 6e5a e2be 08cf df3e 8dca 083f
00000080: 0594 fbbe 8b43 013f 0eb7 ca3e fd76 2d3f
00000090: 43f2 9fbe 0e91 0bbf 3612 f5be 51be 0cbf
000000a0: 04fa 12bd 539b fb3e dab1 3e3f 70d9 443f
000000b0: 53ca 1bbf 85e2 bbbe e4db 3dbe 5aaa 313f
000000c0: 7a49 b33e 2646 fdbe a92a 933a 0823 bd3e
000000d0: a60f 82be e9bc 1f3e 9754 8cbe 6593 cabe
000000e0: 2daa 31bf 47da 07bf 7bd9 8a3e 29a1 c63d
000000f0: 5ed2 6abe 254e a73e 8baa 8bbc 57e4 303e
00000100: c21a 0bbf be50 cb3e be6d 68be 19e8 9a3e
00000110: baff 653e 9d30 bfbe e6f9 c2be a460 9d3e
00000120: cdbf a63e b89b a23e 6fbe f5be 08bd ee3e
00000130: 4fbb 943e 23b0 613e 61f0 d83e 080a 6e3e
00000140: abd7 163f 2185 993e 3656 e03e 84f3 1a3e
00000150: 559f c5be 69bc cfbe 24b4 293f c38d f73e
00000160: 7382 2ebf 3810 ff3e d467 febe 10d4 203f
00000170: f97b ecbe 47c8 043f b59b b43d 6a14 16bf
00000180: 8355 483e 6572 223f b86b 313f f4c7 09bf

fc_hidden.weight f4 [100, 100]
0.19645116 -0.50639063 -0.15764311 -0.13574162 0.27714026 0.061220914 -0.090976626 -0.19007441
-0.1758868 -0.4372564 -0.06806302 -0.17687929 0.07466093 0.019292897 0.07480557 -0.037608266
0.01709317 -0.07994127 -0.0790374 -0.06315707 0.046545338 -0.15966207 -0.1565232 -0.12276367
-0.03650675 -0.2647876 -0.06135115 -0.02559473 0.10055043 0.0029268868 -0.110958084 0.08728292
0.1497818 0.029927867 -0.06864575 0.056463085 0.03830591 -0.12078727 -0.18272953 0.18136922
0.14316535 0.15685692 -0.05921761 0.12600613 0.14361475 0.03246299 0.10777291 -0.19355933
0.07915685 -0.028897325 0.05219187 -0.040135063 0.24718474 0.029463511 0.124457866 0.06467682
0.10827717 0.0049075657 0.15818036 0.031290196 -0.052402537 -0.21863486 0.06502571 -0.34231704
-0.29301697 -0.03717875 0.00047731725 0.06910461 0.077746175 0.11570954 0.021803439 -0.123005964
0.14607234 0.009846099 -0.09604064 -0.09700197 0.11934905 -0.08314141 -0.13051824 0.09588361
-0.0541055 0.10393094 -0.03341891 -0.13021098 0.2566416 -0.22535785 0.13286899 0.015095882
0.20062801 -0.051098578 -0.057496388 0.025011146 -0.018228594 0.092696756 0.102345295 0.17581971
0.15551034 0.12081215 0.10839366 0.13863951 -0.38199002 0.12365921 -0.15917031 0.11828433
-0.100507334 0.0043447195 0.027554015 0.11860235 0.13491337 -0.11067485 0.14865805 0.10489727
-0.11251097 0.018616723 0.24048834 -0.26950526 -0.009506684 -0.042201005 -0.6130899 0.13513345
-0.018694483 -0.2172847 -0.06732518 0.0014110273 0.08491334 0.10309682 -0.10975084 -0.0771773
0.11190429 0.01781105 -0.098304644 0.005974078 0.007981323 0.0029650142 0.063984744 -0.07844696
0.11581037 -0.41400516 -0.19954282 0.0020376574 -0.1319366 -0.067643315 0.05992129 0.04029088
-0.21572137 -0.30824405 0.10042177 -0.08161858 -0.020387605 0.04213748 -0.027981697 -0.11314461
-0.29414397 0.006300759 -0.13685136 -0.10427911 -0.023047425 0.08495095 0.0026871706 0.09669255
0.059206195 0.07058195 -0.010209712 0.0016379777 0.063314565 0.0504038 0.021185445 0.09006152
0.08287653 -0.23261553 -0.0342529 -0.018560553 0.041740287 0.1136592 -0.30131078 0.07899948
-0.032745708 -0.09572909 0.048316278 0.00614424 0.019216226 -0.3708616 0.04861554 0.11223584
0.15760343 -0.04504248 -0.10599602 -0.10146313 -0.0004758379 -0.069073886 -0.2598652 0.0111880945
-0.25637752 0.09751176 -0.6622039 -0.16036786 0.06633362 -0.45518273 -0.15332188 -0.20984711
-0.0902879 0.06815481 0.06419684 -0.07522281 0.010560421 0.07395784 -0.031215098 -0.039605808
0.057895347 0.06302324 -0.11012553 -0.008208956 0.09098084 -0.049424354 -0.07977352 0.052046526
0.018207533 -0.010498518 0.10616196 -0.06731771 -0.08100834 0.05644645 -0.031822987 -0.046845343
-0.04007377 -0.02795152 0.024022983 0.055952936 -0.10380066 -0.037613824 0.016410768 -0.030560883
0.009164621 0.041650865 -0.021366362 -0.04202854 0.046200156 -0.07784678 -0.04005541 0.07334489
0.023052847 -0.013489455 -0.012380109 -0.014834409 -0.13822079 -0.05235898 -0.009460999 -0.015840841
-0.03366428 -0.09347499 -0.039557524 -0.06403678 0.053434834 0.026721174 0.038778316 0.05072753
00000000: 7e2a 493e d1a2 01bf 326d 21be daff 0abe
00000010: 54e5 8d3e c8c2 7a3d f451 babd dea2 42be
00000020: ab1b 34be 12e0 dfbe a064 8bbd d81f 35be
00000030: d4e7 983d 230c 9e3c aa33 993d 200b 1abd
00000040: fa06 8c3c 40b8 a3bd 5cde a1bd 7e58 81bd
00000050: 53a6 3e3d 747e 23be 9e47 20be 856b fbbd
00000060: 1a88 15bd 3e92 87be 584b 7bbd 0aac d1bc
00000070: 62ed cd3d 03d1 3f3b fe3d e3bd 63c1 b23d
00000080: 6660 193e 492b f53c 2596 8cbd d645 673d
00000090: a8e6 1c3d 515f f7bd 731d 3bbe dab8 393e
000000a0: f099 123e 1a9f 203e 2a8e 72bd c007 013e
000000b0: bf0f 133e eaf7 043d 0bb8 dc3d 6b34 46be
000000c0: fd1c a23d 15ba ecbc 24c7 553d aa64 24bd
000000d0: ff1d 7d3e 765d f13c c4e3 fe3d 4875 843d
000000e0: 6cc0 dd3d a5cf a03b 08fa 213e 262a 003d
000000f0: 0ba4 56bd d1e1 5fbe 332c 853d 2e44 afbe
00000100: 5206 96be bf48 18bd 7040 fa39 b886 8d3d
00000110: 6339 9f3d 20f9 ec3d 209d b23c 8dea fbbd
00000120: fd93 153e 8851 213c f4b0 c4bd f8a8 c6bd
00000130: 466d f43d 0b46 aabd 93a6 05be a05e c43d
00000140: bb9d 5dbd bfd9 d43d 44e2 08bd 0756 05be
00000150: 8766 833e 35c4 66be cf0e 083e b854 773c
00000160: 6e71 4d3e be4c 51bd 5581 6bbd 2de4 cc3c
00000170: 2254 95bc ccd7 bd3d 699a d13d 150a 343e
00000180: 1a3e 1f3e 5c6c f73d 7ffd dd3d 84f7 0d3e
00000190: 3294 c3be 0a41 fd3d 8bfd 22be 0e3f f23d
000001a0: cad6 cdbd 265e 8e3b f5b8 e13c cae5 f23d
000001b0: bb26 0a3e 7fa9 e2bd d139 183e 61d4 d63d
000001c0: 276c e6bd 1982 983c 9342 763e 98fc 89be
000001d0: ecc1 1bbc f6da 2cbd 76f3 1cbf 6c60 0a3e
000001e0: 2c25 99bc e17f 5ebe c9e1 89bd 38f2 b83a
000001f0: 0ce7 ad3d 6d24 d33d 0cc5 e0bd 220f 9ebd
00000200: 142e e53d 7be8 913c f253 c9bd 33c2 c33b
00000210: 18c4 023c af50 423b 6f0a 833d cda8 a0bd
00000220: fd2d ed3d 7cf8 d3be f454 4cbe 388a 053b
00000230: 631a 07be 9488 8abd 0770 753d 0d08 253d
00000240: 10e6 5cbe 2ad2 9dbe eea9 cd3d a427 a7bd
00000250: e803 a7bc 5a98 2c3d df39 e5bc 5cb8 e7bd
00000260: 0a9a 96be 9976 ce3b c322 0cbe 4990 d5bd
00000270: f4cd bcbc c4fa ad3d 3e1b 303b be06 c63d
00000280: 3282 723d 458d 903d a346 27bc 69b1 d63a
00000290: 11ab 813d 3774 4e3d 198d ad3c 2d72 b83d
000002a0: 2cbb a93d c432 6ebe c54c 0cbd 4d0c 98bc
000002b0: ddf7 2a3d 28c6 e83d 6845 9abe 7bca a13d
000002c0: 5d20 06bd 9d0d c4bd 4ae7 453d 9f55 c93b
000002d0: 596b 9d3c 92e1 bdbe 1721 473d e7db e53d
000002e0: cb62 213e 777e 38bd 7114 d9bd e7cb cfbd
000002f0: e279 f9b9 9c76 8dbd 0d0d 85be 454e 373c
00000300: ea43 83be 3fb4 c73d 3286 29bf 7937 24be
00000310: ecd9 873d b60d e9be 6900 1dbe 29e2 56be
00000320: dde8 b8bd c094 8b3d a279 833d 6b0e 9abd
00000330: 9e05 2d3c 3577 973d ceb6 ffbc b339 22bd
00000340: ac23 6d3d 5412 813d 7e89 e1bd db7e 06bc
00000350: 2a54 ba3d 3171 4abd 4d60 a3bd bd2e 553d
00000360: f727 953c fa01 2cbc 716b d93d dedd 89bd
00000370: b3e7 a5bd 6534 673d d258 02bd e7e0 3fbd
00000380: 6524 24bd 96fa e4bc d9cb c43c e82e 653d
00000390: 7195 d4bd f410 1abd e06f 863c d15a fabc
000003a0: 3527 163c 199a 2a3d 8208 afbc 1e26 2cbd
000003b0: 603c 3d3d 226e 9fbd 2411 24bd d835 963d
000003c0: 53d9 bc3c e002 5dbc f1d5 4abc 050c 73bc
000003d0: c089 0dbe 5f76 56bd 4e02 1bbc a7c4 81bc
000003e0: 8ee3 09bd d16f bfbd 1207 22bd b725 83bd
000003f0: 7cde 5a3d 5de6 da3c 03d6 1e3d acc7 4f3d

fc_hidden.bias f4 [100]
-0.09743106 -0.08067612 0.06318702 0.083778694 -0.07729872 -0.037818357 0.03794704 0.07838548
0.0017189607 0.049103 0.058278453 -0.06968822 0.033646483 0.061184313 -0.005561612 -0.059630573
0.05568798 -0.024386378 -0.049979147 -0.07606341 -0.026354473 0.106136195 -0.09512168 -0.042081434
-0.027189918 -0.08667215 0.05385151 -0.040202484 0.05209259 -0.006469057 0.03822788 -0.029789276
0.08699614 -0.003000848 -0.057353266 -0.021601524 -0.08437444 -0.07613466 -0.018157523 -0.030404022
-0.071154125 -0.09850126 0.08216987 0.001422487 0.037761323 -0.04455369 -0.051443018 -0.08050991
0.092334256 -0.070997305 0.12531067 0.030811211 0.01561901 -0.107740484 -0.085631825 -0.009809913
0.045564715 0.022638686 -0.00087486784 0.0589716 0.05791091 -0.01179799 0.075048916 -0.07483841
0.1236353 0.0028377688 -0.04217205 0.0067701614 -0.04294472 -0.050470978 0.030403726 0.076492436
-0.0556018 -0.052290265 0.012999259 0.032093022 -0.050661378 -0.039864987 -0.10779092 0.012860066
-0.07736461 -0.025984354 -0.07339353 -0.08896615 -0.043009926 0.0773154 0.055247482 0.038843177
-0.070323415 -0.08744112 -0.08244217 -0.01799136 -0.041132897 0.09521728 -0.062638626 -0.020975865
0.0053128665 -0.052791078 -0.005613274 0.03544829
00000000: f089 c7bd 8639 a5bd 3268 813d 2a94 ab3d
00000010: cb4e 9ebd 6ce7 1abd 5b6e 1b3d 9188 a03d
00000020: c04e e13a 3a20 493d 63b5 6e3d b3b8 8ebd
00000030: e5d0 093d 679c 7a3d 2f3e b6bb 303f 74bd
00000040: 1419 643d f1c5 c7bc efb6 4cbd 22c7 9bbd
00000050: 56e5 d7bc ef5d d93d 28cf c2bd 955d 2cbd
00000060: 64bd debc 2b81 b1bd 6793 5c3d 5cab 24bd
00000070: 0a5f 553d 62fa d3bb d694 1c3d a408 f4bc
00000080: 082b b23d e0a9 44bb 42eb 6abd aef5 b0bc
00000090: 82cc acbd 7dec 9bbd 16bf 94bc db11 f9bc
000000a0: 41b9 91bd 07bb c9bd ad48 a83d be72 ba3a
000000b0: 9eab 1a3d ee7d 36bd eab5 52bd 61e2 a4bd
000000c0: be19 bd3d 0967 91bd 7151 003e cb67 fc3c
000000d0: e0e6 7f3c 0ba7 dcbd bd5f afbd c2b9 20bc
000000e0: 11a2 3a3d c474 b93c 6357 65ba 348c 713d
000000f0: fe33 6d3d 5b4c 41bc 3fb3 993d e144 99bd
00000100: 8134 fd3d dcf9 393b 99bc 2cbd 3bd8 dd3b
00000110: cde6 2fbd a8ba 4ebd 3c11 f93c 11a8 9c3d
00000120: b7be 63bd 512e 56bd d8fa 543c f973 033d
00000130: 4e82 4fbd 7849 23bd 7cc1 dcbd 07b3 523c
00000140: 5671 9ebd 24dd d4bc 594f 96bd e333 b6bd
00000150: 2d2b 30bd 8957 9e3d 2f4b 623d 061a 1f3d
00000160: b905 90bd 5414 b3bd 71d7 a8bd 9e62 93bc
00000170: f87a 28bd 4701 c33d ae48 80bd 94d5 abbc
00000180: 8e17 ae3b 753b 58bd 8eef b7bb 3a32 113d

fc_out.weight f4 [1, 100]
0.21478231 0.12399792 -0.085029125 -0.0774536 0.13090128 0.02611978 -0.14231241 -0.07699079
-0.101811744 -0.036825035 0.12429344 -0.13021497 -0.046909258 -0.0840041 0.14310376 -0.030089395
0.09732392 -0.1400244 -0.10765471 0.07494258 0.07781719 -0.11881827 -0.18304114 0.13383533
-0.10390723 0.059813872 -0.20800276 -0.085908055 0.103709 -0.06095141 0.02269941 -0.11739168
-0.07309522 -0.08886717 0.05936978 -0.07398552 -0.10133884 -0.11742453 -0.16759878 0.13377135
-0.070902236 0.062540874 0.08976107 -0.04336928 -0.031921145 -0.19203433 0.011986175 0.032809537
-0.054047327 0.05946613 -0.10743296 -0.025691984 0.12720025 0.0010986975 -0.06284509 0.12910888
0.16302946 -0.06623001 0.15213636 0.09832527 0.05156464 -0.10233932 0.12737523 -0.13269958
-0.21658435 -0.10614497 0.10261475 0.023552371 0.019772828 -0.00087962806 0.01804685 -0.15368341
-0.01828977 -0.010664414 -0.028193954 0.013214426 0.04261737 -0.06890648 0.073623545 -0.055131916
0.03407405 -0.1481191 0.09890178 -0.08054004 0.16289882 -0.079894975 0.050563376 0.07975808
-0.025032876 0.042793192 -0.095652565 0.036774985 -0.29880664 0.10067686 0.024806026 0.16946842
-0.11928716 0.09898467 0.058845058 -0.061519723
00000000: e5ef 5b3e 9ff2 fd3d c023 aebd fe9f 9ebd
00000010: fc0a 063e 26f9 d53c 58ba 11be 59ad 9dbd
00000020: ad82 d0bd d9d5 16bd 8f8d fe3d 1357 05be
00000030: ec23 40bd 570a acbd cb89 123e 097e f6bc
00000040: c351 c73d 8e62 0fbe 137a dcbd 7f7b 993d
00000050: 9e5e 9f3d fe56 f3bd 236f 3bbe 210c 093e
00000060: 50cd d4bd 64ff 743d adfe 54be 90f0 afbd
00000070: 6265 d43d 30a8 79bd 1df4 b93c 0d6b f0bd
00000080: f2b2 95bd feff b5bd ba2d 733d b885 97bd
00000090: bd8a cfbd 467c f0bd 049f 2bbe 5bfb 083e
000000a0: 3135 91bd 6e15 803d a7d4 b73d fca3 31bd
000000b0: bfbf 02bd a6a4 44be a961 443c 4b63 063d
000000c0: bb60 5dbd c292 733d d005 dcbd ff77 d2bc
000000d0: c840 023e 2c02 903a edb4 80bd 1e35 043e
000000e0: 32f1 263e 99a3 87bd a2c9 1b3e c25e c93d
000000f0: 7235 533d 4797 d1bd a76e 023e 66e2 07be
00000100: 4ac8 5dbe 8962 d9bd af27 d23d e7f0 c03c
00000110: a0fa a13c d796 66ba fdd6 933c 2f5f 1dbe
00000120: 6ed4 95bc cbb9 2ebc 02f7 e6bc 5281 583c
00000130: 8d8f 2e3d d71e 8dbd f1c7 963d 01d2 61bd
00000140: 3b91 0b3d 89ac 17be 048d ca3d 2df2 a4bd
00000150: f3ce 263e fa9f a3bd 8b1b 4f3d 3458 a33d
00000160: bf11 cdbc ea47 2f3d 7ee5 c3bd 5ea1 163d
00000170: 2ffd 98be ab2f ce3d 0236 cb3c 2189 2d3e
00000180: d44c f4bd 7ab8 ca3d 8407 713d 1bfc 7bbd
