Copula by Ratio Estimation/MNIST_exp/GGCNN_10epoch_mnist_seed_0.pth (torch, 957491 bytes, 7 tensors)

model.0.weight f4 [64, 1, 3, 3]
-0.12783916 -0.13245864 -0.18246727 -0.26557675 -0.45689756 -0.36818022 -0.23119043 -0.39902842
-0.23752739 0.00031951215 0.14729866 0.033063143 0.20053999 -0.97730786 0.16106427 0.053439524
0.16304083 -0.020651901 0.36322767 0.61069965 0.26501387 -0.0836738 -0.078877054 -0.14329028
-0.35176787 -0.3069594 -0.24048987 -0.019137738 -0.0059372764 -0.01833626 0.094791315 -0.0013961345
0.057158493 0.3093101 -0.5282133 0.33415675 -0.0011305397 0.016368872 0.0072345333 0.07427054
0.03222764 -0.0043156496 -0.1432911 0.066556595 -0.058456838 -0.18941996 0.019320121 -0.08364193
0.48828325 0.44860503 -0.005962496 0.440124 0.61295617 -0.18592542 0.24481265 0.052689873
-0.05879449 -0.84456897 0.06502827 -0.009914959 0.38311926 -0.057440802 -0.016464988 0.056772437
0.107611485 -0.0124092465 -0.13624097 -0.26171505 -0.08087263 -0.27834466 -0.30538452 -0.124647565
-0.048778724 0.17937772 0.13362439 -0.005255865 0.41748998 -0.080139324 0.04604002 0.00026427433
-0.16745144 -0.20985839 -0.20356448 0.11329575 0.19809414 0.34558532 0.3527586 0.25887614
0.12261049 -0.19265275 0.16687357 0.39139253 0.46853116 -0.033864714 0.08725196 0.02421249
-0.31448638 -0.315901 -0.30901498 -0.021672487 -0.0049462486 -0.04635159 0.05097816 0.06151088
-0.05554073 -0.055779163 0.028617628 -0.01251183 -0.008439183 -0.004526114 -0.0056998087 -0.007068514
-0.010559823 -0.026521042 -0.015427393 -0.016917367 0.003283201 -0.11258179 0.09651229 0.029831188
-0.23007819 0.39735994 -0.13378988 -0.010474814 0.09180065 -0.07893792 -0.03042396 -0.058016583
0.55169326 -0.033247735 0.04133111 -0.707565 -0.004510171 0.02397883 0.22481957 0.04780029
0.059652478 0.044913903 0.18690464 -0.122632794 -0.01809849 -0.26552397 0.17893717 -0.026243342
-0.026875852 -0.007089139 -0.028800154 -0.029402923 0.037982572 0.124956176 -0.074984826 0.22013858
-0.5163658 -0.023718046 -0.18650007 -0.10909806 -0.17555322 -0.35046124 -0.09702721 -0.055584814
-0.20356786 -0.009519582 0.11022356 0.27311927 0.14158323 0.008873224 0.040128984 0.16453145
-0.22691774 -0.21548241 -0.14721674 -0.32969317 -0.3814981 0.1441504 -0.60545415 -0.6979226
0.12993543 -0.21680614 0.08522113 0.19801983 -0.33038932 -0.18104528 0.47949818 -0.45167315
0.09862576 0.62365043 -0.4243571 0.030753642 0.4614967 -0.06312296 -0.053510714 -0.09656264
0.05215571 0.41864184 0.27365306 -0.08209522 0.20264764 0.22511785 -0.047668036 0.031461213
0.017398078 -0.024895018 0.036566265 -0.072969384 0.01799552 0.017726667 0.014425635 0.4911357
0.009449632 -0.43790987 0.6518426 -0.030409573 -0.43382868 0.36433023 -0.24241352 -0.325657
-0.06125033 0.2688185 0.001584314 -0.056674298 0.45927382 0.19905357 -0.109463714 0.37581182
0.19916947 0.4035219 0.449093 0.0625354 0.42686304 0.7236534 -0.14043288 0.046070818
-0.16692239 -0.13179344 -0.15144038 -0.24255562 -0.20495622 -0.074969694 0.004416302 0.10046768
0.04891729 0.09915101 0.05969637 -0.025526386 -0.081338465 -0.040402763 -0.07766448 -0.119831786
-0.068131484 -0.09976333 0.70312494 -0.14183493 -0.21247733 -0.47198683 -0.51570046 0.048938673
00000000: 45e8 02be 3da3 07be b3d8 3abe adf9 87be
00000010: 7aee e9be 1e82 bcbe 2fbd 6cbe 744d ccbe
00000020: 613a 73be 3284 a739 76d5 163e 386d 073d
00000030: 5b5a 4d3e d930 7abf 08ee 243e 67e3 5a3d
00000040: 2df4 263e 2d2e a9bc faf8 b93e d056 1c3f
00000050: e6af 873e 2b5d abbd 4b8a a1bd b0ba 12be
00000060: eb1a b4be c829 9dbe fa42 76be bfc6 9cbc
00000070: 7c8d c2bb ed35 96bc f321 c23d 80fe b6ba
00000080: 061f 6a3d e55d 9e3e fd38 07bf 9816 ab3e
00000090: 9e2e 94ba 0318 863c aa0f ed3b 271b 983d
000000a0: 2101 043d 4b6a 8dbb e7ba 12be d34e 883d
000000b0: 7070 6fbd 4ef7 41be 3b45 9e3c 764c abbd
000000c0: 4300 fa3e 8faf e53e 0b61 c3bb ef57 e13e
000000d0: b2ea 1c3f 3c63 3ebe 2bb0 7a3e 56d1 573d
000000e0: 7ed2 70bd ac35 58bf 8b2d 853d 5a72 22bc
000000f0: 3528 c43e 0c47 6bbd 95e1 86bc 378a 683d
00000100: 6963 dc3d 2750 4bbc c182 0bbe 84ff 85be
00000110: 8da0 a5bd 3183 8ebe 5c5b 9cbe 3947 ffbd
00000120: 33cc 47bd cbae 373e d5d4 083e 6439 acbb
00000130: 3fc1 d53e 1620 a4bd 7694 3c3d 4d8e 8a39
00000140: 6478 2bbe 1ee5 56be 3573 50be 9a07 e83d
00000150: 31d9 4a3e 8ff0 b03e c69c b43e 6a8b 843e
00000160: 351b fb3d c346 45be e8e0 2a3e 9a64 c83e
00000170: 51e3 ef3e bab5 0abd 28b1 b23d 4659 c63c
00000180: 5c04 a1be c7bd a1be 3637 9ebe 808a b1bc
00000190: 2414 a2bb 2adb 3dbd 7ace 503d d5f2 7b3d
000001a0: ad7e 63bd b178 64bd 846f ea3c 6bfe 4cbc
000001b0: 8044 0abc cc4f 94bb 76c5 babb fe9e e7bb
000001c0: 1c03 2dbc a842 d9bc 2dc3 7cbc 4a96 8abc
000001d0: f92a 573b 4891 e6bd 3ca8 c53d 8960 f43c
000001e0: 9e99 6bbe c372 cb3e 3700 09be 8e9e 2bbc
000001f0: fb01 bc3d 34aa a1bd ab3b f9bc cca2 6dbd
00000200: c53b 0d3f c72e 08bd cf4a 293d fb22 35bf
00000210: 0eca 93bb 406f c43c 1a37 663e 3dca 433d
00000220: 2856 743d a4f7 373d ee63 3f3e e726 fbbd
00000230: 4943 94bc c2f2 87be 4e3b 373e 47fc d6bc
00000240: bf2a dcbc 024c e8bb 4dee ebbc 66de f0bc
00000250: 9d93 1b3d 06e9 ff3d a591 99bd 026c 613e
00000260: 8d30 04bf 594c c2bc e0f9 3ebe ce6e dfbd
00000270: 39c4 33be a86f b3be 34b6 c6bd e7ac 63bd
00000280: 1874 50be 05f8 1bbc e4bc e13d 4ad6 8b3e
00000290: 32fb 103e 0061 113c 4a5e 243d ef7a 283e
000002a0: 205d 68be 6ca7 5cbe fcbf 16be 8bcd a8be
000002b0: b853 c3be 2a9c 133e 0bff 1abf 0eab 32bf
000002c0: cb0d 053e 6e02 5ebe 6a88 ae3d b6c5 4a3e
000002d0: ca28 a9be ef63 39be c980 f53e b441 e7be
000002e0: 4dfc c93d 8ea7 1f3f 5545 d9be 10ef fb3c
000002f0: 4c49 ec3e 9c46 81bd 0d2e 5bbd a2c2 c5bd
00000300: 3aa1 553d 3958 d63e 411c 8c3e 8a21 a8bd
00000310: dd82 4f3e 4b85 663e 8f3f 43bd 79dd 003d
00000320: 6a86 8e3c a3f0 cbbc 82c6 153d f970 95bd
00000330: 576b 933c 8437 913c 8059 6c3c 2376 fb3e
00000340: a1d2 1a3c b935 e0be 28df 263f 7f1d f9bc
00000350: cb1e debe 7e89 ba3e 403b 78be 84bc a6be
00000360: a0e1 7abd 94a2 893e c2a8 cf3a 4f23 68bd
00000370: f025 eb3e b3d4 4b3e 832e e0bd 686a c03e
00000380: 15f3 4b3e 6c9a ce3e 85ef e53e 8f12 803d
00000390: cb8d da3e 5941 393f a3cd 0fbe c1b4 3c3d
000003a0: b4ed 2abe dcf4 06be 3013 1bbe 8060 78be
000003b0: 0be0 51be b689 99bd a0b6 903b 00c2 cd3d
000003c0: 7f5d 483d af0f cb3d 2e84 743d b61c d1bc
000003d0: c894 a6bd 5e7d 25bd 8e0e 9fbd 5e6a f5bd
000003e0: 8588 8bbd b750 ccbd ffff 333f 2d3d 11be
000003f0: a893 59be 42a8 f1be f204 04bf eb73 483d

model.0.bias f4 [64]
-0.60638726 -0.64321464 -0.52660465 -0.13733634 -0.18112221 -0.35170752 0.027708456 0.24025138
-0.41289333 -0.57998276 -0.39740792 -0.089543246 -0.10787565 -0.14138864 -0.11257539 -0.17851737
-0.39407885 -0.94321066 -0.2833389 0.16257074 -0.5542288 -0.6485627 -0.10791246 -0.5741003
-0.9439787 -0.31410426 -0.3301228 -0.35881606 -0.79654884 0.20864223 -0.39121687 -0.120780416
-0.6648118 -0.19886582 -0.55764884 -0.42974088 -0.1135918 -0.093904845 -0.46688837 -0.9235817
-0.12390936 -0.20133011 -0.30378172 -0.79504937 -1.0688016 -0.14839615 -0.15931544 0.06835084
-0.7530303 -0.101000495 -0.30085635 -0.101867296 -0.12207787 -0.5473443 -0.24686953 -0.07697803
-0.47369918 -0.45859477 -0.50355566 -0.10682909 -0.6117067 -0.18397897 -0.40950403 -0.2380785
00000000: 323c 1bbf b7a9 24bf 90cf 06bf e6a1 0cbe
00000010: 1a78 39be 0213 b4be d8fc e23c 7504 763e
00000020: c166 d3be c079 14bf 0d79 cbbe 7362 b7bd
00000030: e9ed dcbd 2fc8 10be ed8d e6bd 42cd 36be
00000040: b4c4 c9be 4176 71bf cc11 91be f278 263e
00000050: f0e1 0dbf 3508 26bf 3501 ddbd 3df8 12bf
00000060: 97a8 71bf 46d2 a0be db05 a9be bdb6 b7be
00000070: a0ea 4bbf 4fa6 553e 944d c8be b95b f7bd
00000080: 1b31 2abf 7ba3 4bbe 13c2 0ebf ff06 dcbe
00000090: d1a2 e8bd 2f51 c0bd fe0b efbe da6f 6cbf
000000a0: 31c4 fdbd 7b29 4ebe 4789 9bbe 5b88 4bbf
000000b0: 7ece 88bf 29f5 17be 9623 23be 86fb 8b3d
000000c0: 98c6 40bf 59d9 cebd d809 9abe cd9f d0bd
000000d0: f603 fabd c21e 0cbf 5ecb 7cbe a8a6 9dbd
000000e0: b388 f2be efcc eabe 06e9 00bf 36c9 dabd
000000f0: cf98 1cbf fc64 3cbe 83aa d1be daca 73be

model.2.weight f4 [64, 64, 3, 3]
-0.1920711 -0.24300615 -0.11342557 -0.11611992 -0.51053125 -0.02118687 -0.22016858 -0.37307438
-0.07995199 0.5467931 0.22803219 0.21859978 0.58033097 -0.08044426 0.39863953 0.15753973
0.30553252 0.5653533 0.041211944 -1.0163853 -0.51435864 -0.3776374 -1.1551219 -0.272034
-0.46528977 -0.35578644 -0.25447562 -0.05629014 -0.13674356 0.19341612 0.42247313 -0.2562412
-0.03731544 0.17462175 -0.39041552 -0.17713796 0.116003335 -0.30863294 -0.4045181 0.0018426332
-0.27797532 -0.2866594 -0.19168106 0.09258413 0.05155673 -0.18073194 0.08413804 0.0024426423
-0.21128401 0.14154077 -0.00509924 0.16969667 -0.057518963 -0.022328738 -0.035371587 -0.45484182
-0.55859154 -0.17623664 -0.9493581 -1.0167961 -0.48745823 -1.3087674 -0.48479205 -0.09327204
-0.39245847 -0.18813859 -0.037474878 -0.81810844 -0.015242065 -0.28791866 -0.057897877 0.11891934
-0.22435088 0.101936534 0.02399634 -0.24965806 -0.16395581 -0.16919576 0.27787438 -0.03477345
0.03769777 -0.4018475 -0.51875544 0.10234398 -0.33491865 -0.24420063 -0.1517375 -0.0011294633
-0.43080154 -0.12307733 -0.083347715 -1.09676 -0.48266065 -0.51719725 -1.4581548 -0.38288724
-0.6513464 -0.34819853 -0.26138407 -0.040728204 -0.26167995 0.13733405 0.20836057 -0.1183854
-0.098619245 -0.37613338 -0.12486926 -0.07792655 -0.01168169 -0.491762 -0.20497079 -0.04248541
-0.5239192 -0.080743976 -0.22880775 -0.2378942 -0.049708128 0.0043075997 0.23628834 0.27342096
-0.079210006 0.53846896 -0.15029527 0.40947288 0.4855609 0.00042998572 -0.22284506 -0.39392465
-0.040553663 -1.1593244 -0.6145406 0.27180737 -1.0479347 -0.3901742 0.2449284 0.4481965
0.17012228 -0.35544044 0.44587588 -0.24571705 -0.35461092 -0.2041629 -0.18104716 0.15149115
0.067595236 -0.54871696 -0.22461848 -0.31991348 -0.35240078 0.29196835 -0.25060123 0.12658569
0.37809578 -0.27310374 -0.27424413 -0.20866832 -0.068354495 -0.39762795 -0.24177426 -0.08198986
-0.2840375 -0.3325169 0.1120292 -0.5562397 -0.7864485 0.07246731 -1.322617 -0.3916501
-0.7531436 -0.023460265 -0.1163567 -0.095434025 0.33148852 -0.044368017 0.22268802 -0.052023564
-0.07893369 0.32816052 -0.05410998 0.010062477 0.26152134 0.7641877 0.2368559 0.48596278
0.80166054 -0.3823736 0.6041533 0.36858866 -0.16324629 -0.1379735 -0.5102632 -0.18688637
-0.45174712 -0.34078118 -0.37513795 -0.329005 -0.20215721 -0.23391576 0.06034635 0.09495937
-0.018425943 -0.0770403 -0.09823682 0.027064113 0.08514619 0.049876913 -0.0824999 -0.08448627
0.787331 0.5939314 -0.067812316 0.91299677 0.26462218 0.05569833 0.6595288 -0.0063696485
0.04095402 -0.25101292 -0.23433527 -0.43148577 -0.11203627 -0.26996896 -0.5160982 0.15957952
0.018311618 -0.123461805 0.19699426 0.22204459 -0.28919023 0.08556657 0.030728975 0.24562511
0.20296393 -0.057097904 -0.46771494 -0.08380449 0.15392901 -0.13202897 -0.37827045 -0.19885315
0.19558437 -0.5670753 -0.15384455 -0.2251686 -0.24334195 -0.08855963 -0.05228008 0.20453928
-0.4166904 -0.09949371 -0.39997065 -0.1600675 -0.44704828 -0.7742697 -0.6894999 -1.0585173
00000000: 49ae 44be 9bd6 78be aa4b e8bd 48d0 edbd
00000010: 2db2 02bf 1690 adbc df73 61be 9b03 bfbe
00000020: debd a3bd a2fa 0b3f 4581 693e 9fd8 5f3e
00000030: 9290 143f f6bf a4bd 7b1a cc3e 1852 213e
00000040: c26e 9c3e feba 103f dbcd 283d ea18 82bf
00000050: 02ad 03bf b059 c1be 09db 93bf 0a48 8bbe
00000060: 763a eebe a429 b6be a14a 82be 7d90 66bd
00000070: 8106 0cbe e00e 463e 664e d83e 0c32 83be
00000080: 13d8 18bd 0bd0 323e 8be4 c7be a763 35be
00000090: 2893 ed3d 2305 9ebe ff1c cfbe 8384 f13a
000000a0: c852 8ebe 05c5 92be 0a48 44be c09c bd3d
000000b0: 262d 533d cb11 39be 9150 ac3d bd14 203b
000000c0: d65a 58be 10f0 103e 8717 a7bb f7c4 2d3e
000000d0: 0199 6bbd c2ea b6bc cce1 10bd 07e1 e8be
000000e0: dbff 0ebf 6177 34be 2209 73bf 6026 82bf
000000f0: 2094 f9be b185 a7bf aa36 f8be 6905 bfbd
00000100: 51f0 c8be 67a7 40be 427f 19bd 8e6f 51bf
00000110: dbb9 79bc 136a 93be 5326 6dbd fc8b f33d
00000120: 3dbc 65be 1ac4 d03d f993 c43c 5da6 7fbe
00000130: 08e4 27be a741 2dbe 8d45 8e3e 9b6e 0ebd
00000140: fa68 1a3d f5be cdbe 28cd 04bf b899 d13d
00000150: 757a abbe bb0f 7abe 1361 1bbe 800a 94ba
00000160: 0592 dcbe f80f fcbd 35b2 aabd a262 8cbf
00000170: 4c1f f7be 0a67 04bf d1a4 babf cc09 c4be
00000180: a3be 26bf 1447 b2be 22d4 85be 9ed2 26bd
00000190: eafa 85be 4ca1 0c3e 795c 553e 0b74 f2bd
000001a0: e3f8 c9bd 8e94 c0be 74bb ffbd f497 9fbd
000001b0: 8f64 3fbc 3bc8 fbbe dde3 51be 2e05 2ebd
000001c0: 921f 06bf 195d a5bd 944c 6abe 8a9a 73be
000001d0: c09a 4bbd c426 8d3b 92f5 713e d5fd 8b3e
000001e0: db38 a2bd 1ad9 093f 01e7 19be 6ea6 d13e
000001f0: 709b f83e b56f e139 7f31 64be 7eb0 c9be
00000200: 991b 26bd be64 94bf 8852 1dbf 562a 8b3e
00000210: b922 86bf eac4 c7be 83ce 7a3e 037a e53e
00000220: 8934 2e3e 4afc b5be d849 e43e 409d 7bbe
00000230: 908f b5be 1410 51be 6d64 39be 7f20 1b3e
00000240: 5f6f 8a3d b778 0cbf 6302 66be b3cb a3be
00000250: e06d b4be e07c 953e ce4e 80be ae9f 013e
00000260: c595 c13e 41d4 8bbe ba69 8cbe 26ad 55be
00000270: 71fd 8bbd e495 cbbe ac93 77be 4dea a7bd
00000280: 5d6d 91be a83f aabe 916f e53d ba65 0ebf
00000290: b054 49bf be69 943d 844b a9bf 5d86 c8be
000002a0: 05ce 40bf be2f c0bc 6c4c eebd ea72 c3bd
000002b0: ddb8 a93e 3dbb 35bd 5408 643e a916 55bd
000002c0: fda7 a1bd a804 a83e 6da2 5dbd 16dd 243c
000002d0: 20e6 853e cea1 433f 5a8a 723e 1dd0 f83e
000002e0: a039 4d3f 79c6 c3be caa9 1a3f a7b7 bc3e
000002f0: 092a 27be ed48 0dbe 9ca0 02bf 245f 3fbe
00000300: 664b e7be df7a aebe 1512 c0be 5873 a8be
00000310: 4d02 4fbe 9d87 6fbe bc2d 773d 0f7a c23d
00000320: 01f2 96bc 4ec7 9dbd 6330 c9bd 8fb5 dd3c
00000330: 2061 ae3d bc4b 4c3d b5f5 a8bd 2307 adbd
00000340: 868e 493f e30b 183f 2fe1 8abd 28ba 693f
00000350: 8f7c 873e ef23 643d e1d6 283f 7cb8 d0bb
00000360: 67bf 273d c484 80be 96f5 6fbe b4eb dcbe
00000370: 4673 e5bd 5f39 8abe 031f 04bf d068 233e
00000380: 3f02 963c 8bd9 fcbd ddb8 493e a85f 633e
00000390: be10 94be 873d af3d 55bb fb3c 2685 7b3e
000003a0: c7d5 4f3e 7edf 69bd 5578 efbe b0a1 abbd
000003b0: 919f 1d3e 9a32 07be aaac c1be 29a0 4bbe
000003c0: 4547 483e d92b 11bf 6d89 1dbe 9992 66be
000003d0: a22e 79be c05e b5bd a323 56bd bf72 513e
000003e0: 7258 d5be 5cc3 cbbd f4c8 ccbe bce8 23be
000003f0: 83e3 e4be 8a36 46bf 1183 30bf 7f7d 87bf

model.2.bias f4 [64]
0.14632238 -0.20297398 -0.110975556 -0.3872157 -0.33484408 -0.0052059167 -0.40313357 -0.34897035
-0.20558514 -0.42036083 -0.34199446 -0.3277035 -0.084073186 -0.17421974 -0.33128822 -0.28555232
-0.17866062 -0.39654717 0.13228247 -0.32492986 -0.39837864 0.1745385 -0.09248314 -0.42979616
-0.2625136 -0.37884012 -0.17953591 -0.116080225 -0.41380715 -0.34277302 -0.40530333 -0.64823985
-0.30348793 -0.51141024 -0.19744755 0.11490966 -0.18814705 -0.4350502 -0.0045238985 -0.45369062
-0.37946025 -0.20412482 -0.090898365 -0.15914871 -0.2572106 -0.39846835 -0.3989206 -0.059905175
-0.15262596 -0.33175376 -0.32511595 -0.26581424 -0.43796277 -0.34991392 0.11428545 -0.18859804
-0.40468538 -0.49991822 -0.2750097 -0.12209833 -0.27125642 -0.14330065 -0.35579702 0.13124235
00000000: 89d5 153e 69d8 4fbe 2747 e3bd 2341 c6be
00000010: af70 abbe 6596 aabb 8667 cebe 3eac b2be
00000020: e984 52be 8939 d7be e619 afbe c1c8 a7be
00000030: 902e acbd a966 32be 9c9e a9be ea33 92be
00000040: cff2 36be 3b08 cbbe 0e75 073e 355d a6be
00000050: 49f8 cbbe 38ba 323e cd67 bdbd 3e0e dcbe
00000060: 2f68 86be 55f7 c1be 43d8 37be 78bb edbd
00000070: 88de d3be f27f afbe eb83 cfbe 0cf3 25bf
00000080: c562 9bbe c8eb 02bf b12f 4abe c155 eb3d
00000090: 9fa9 40be e6be debe 363d 94bb 234a e8be
000000a0: 9d48 c2be 1906 51be ec28 babd e1f7 22be
000000b0: 1cb1 83be 0b04 ccbe 523f ccbe 215f 75bd
000000c0: fb49 1cbe a1db a9be 9975 a6be ce18 88be
000000d0: a83c e0be eb27 b3be 7d0e ea3d d81f 41be
000000e0: ec32 cfbe 48f5 ffbe 12ce 8cbe b00e fabd
000000f0: 1fe2 8abe 68bd 12be 072b b6be 6564 063e

model.5.weight f4 [64, 3136]
0.2521739 -0.050573926 -0.22178455 0.22556432 0.050593495 -0.15356149 0.10062572 0.25503355
0.0840968 0.189562 0.22548653 0.044970583 0.05117563 0.023950368 0.26173252 0.5430183
-0.19891517 -0.19436024 -0.42549175 -0.3408863 0.29886138 0.16962431 0.18515642 0.03593623
-0.33687767 -0.5498062 0.03830687 0.15146574 0.38263634 -0.12616366 -0.24313614 -0.3627178
-0.29467154 -0.09240296 0.43367586 0.11325554 0.25904876 -0.1721921 -0.3326206 -0.7307207
-0.10438789 0.29905003 0.3140732 0.2607155 0.14625445 0.08252427 0.09030601 0.28553292
0.100102834 -0.07574639 0.08175812 0.025358498 0.028673712 -0.392623 0.043225847 0.1873412
0.06991306 -0.06900027 0.18377121 0.5659092 -0.13773684 -0.16666062 0.14855734 -0.2297501
0.048254557 -0.058851644 0.25446403 0.46777228 -0.4251625 0.32836032 0.2647745 -0.009998777
0.00797628 0.47934502 0.27665138 -0.11078945 -0.016712116 -0.18055238 -0.36841092 0.2722034
0.18466018 -0.18613714 -0.12648016 -0.21271737 0.2726191 -0.24679229 0.3348068 -0.01682345
0.72115874 -0.05955887 -0.20791955 0.07169332 0.007942723 -0.29761988 0.18491974 0.23701045
0.09442973 -0.27480197 0.250828 0.044864 0.3763007 0.041760866 0.2259158 0.07525796
0.13527842 0.029994793 -0.11283866 0.31446666 0.06012542 -0.018689008 -0.57307523 -0.019077154
0.20050283 -0.028314896 -0.28510454 0.57984114 -0.22574309 0.2237847 -0.20299895 -0.047653712
-0.048643198 0.20072219 0.12474247 0.53333247 0.011257926 0.22614625 0.00878999 -0.25602707
-0.25660482 0.16733046 -0.022407556 -0.14404607 -0.63619924 0.09671064 -0.3755039 -0.14266473
0.949868 0.12858178 0.50215614 0.22337563 0.02165971 0.22495654 -0.29275253 0.43451503
0.041435935 -0.1620157 0.1281361 0.15848084 0.030580932 0.15547979 0.0690424 0.14127894
0.003313471 0.04106261 0.065707535 0.2590154 -0.1641661 -0.34844077 -0.3376864 -0.13339122
0.15002127 0.38561097 0.06160544 -0.062526226 0.15567322 -0.07100078 -0.0030795587 -0.33742332
-0.037141945 0.17907247 0.18503039 0.35876858 0.23000546 -0.19817865 -0.43564162 0.024004834
-0.14757407 -0.20649065 0.20183164 0.3362029 0.18558064 0.059660695 0.28349015 0.11197415
0.036641788 -0.03162281 0.24536735 -0.24091876 0.046048507 0.52606034 0.04489787 0.007671104
-0.018355997 -0.07316684 -0.030315114 0.5129766 0.38992426 0.58416235 0.31386873 0.10814342
0.20897996 0.106595874 0.26787266 0.14664383 -0.09080093 -0.287814 -0.22148147 -0.56447166
-0.23813644 0.23520643 0.29615065 -0.49594846 0.24698596 -0.04715153 0.12743156 -0.48424158
0.28915948 0.26210985 -0.35078526 0.38832572 0.3041189 0.3372125 -0.79708284 0.09005367
0.00021796607 -0.70063376 0.021296673 0.4371673 -0.06458604 -0.48795286 0.16133238 0.10447997
-0.40795466 -0.098821856 0.09407811 0.4433779 -0.43627265 0.24959 0.00026954737 0.095563576
-0.25274155 -0.116592795 -0.2577393 -0.036337953 0.3263249 0.45508647 0.4719878 0.32508543
0.05511566 0.2577298 0.2223297 0.075703986 0.12679964 0.014804882 0.036578394 0.31929916
00000000: f01c 813e 9b26 4fbd 7d1b 63be 55fa 663e
00000010: 203b 4f3d 393f 1dbe dc14 ce3d c293 823e
00000020: f13a ac3d 8a1c 423e f1e5 663e 1333 383d
00000030: 8a9d 513d 9033 c43c ce01 863e 3f03 0b3f
00000040: 6bb0 4bbe 5f06 47be 0eda d9be a688 aebe
00000050: 5c04 993e ffb1 2d3e a599 3d3e de31 133d
00000060: 3b7b acbe 19c0 0cbf aae7 1c3d d619 1b3e
00000070: e9e8 c33e 0c31 01be aef8 78be 26b6 b9be
00000080: 30df 96be c33d bdbd c30a de3e 85f2 e73d
00000090: 0aa2 843e 2053 30be 3f4d aabe 8310 3bbf
000000a0: 51c9 d5bd 161d 993e 34ce a03e 817c 853e
000000b0: bac3 153e 7c02 a93d 5bf2 b83d 5f31 923e
000000c0: b702 cd3d ec20 9bbd cd70 a73d a0bc cf3c
000000d0: 22e5 ea3c e205 c9be 960d 313d 5fd6 3f3e
000000e0: 942e 8f3d 0350 8dbd 852e 3c3e 6ddf 103f
000000f0: e30a 0dbe 15a9 2abe 6a1f 183e 9c43 6bbe
00000100: 92a6 453d 6c0e 71bd 1c49 823e d97f ef3e
00000110: e6ae d9be d81e a83e 8690 873e e9d1 23bc
00000120: f1ae 023c b66c f53e 40a5 8d3e 94e5 e2bd
00000130: d9e7 88bc b9e2 38be 5ba0 bcbe 3e5e 8b3e
00000140: 8f17 3d3e bc9a 3ebe 0484 01be 95d2 59be
00000150: bb94 8b3e 1eb7 7cbe cc6b ab3e 55d1 89bc
00000160: dc9d 383f 00f4 73bd dde8 54be f3d3 923d
00000170: 3222 023c a261 98be 9a5b 3d3e deb2 723e
00000180: 6064 c13d d8b2 8cbe 876c 803e 50c3 373d
00000190: 7caa c03e 710d 2b3d 7956 673e d820 9a3d
000001a0: 6d86 0a3e a4b7 f53c f517 e7bd c601 a13e
000001b0: 1346 763d b119 99bc 0fb5 12bf b147 9cbc
000001c0: 9d50 4d3e a4f4 e7bc 39f9 91be 7870 143f
000001d0: 3229 67be d127 653e f5de 4fbe 8a30 43bd
000001e0: 173e 47bd 1e8a 4d3e fb78 ff3d 7a88 083f
000001f0: 2a73 383c e292 673e e403 103c fb15 83be
00000200: b561 83be ad58 2b3e 0d90 b7bc d080 13be
00000210: f4dd 22bf 3a10 c63d 0c42 c0be b416 12be
00000220: 8d2a 733f f1aa 033e 4e8d 003f 95bc 643e
00000230: b46f b13c 025b 663e a9e3 95be c178 de3e
00000240: bab8 293d 72e7 25be 1c36 033e cd48 223e
00000250: dd84 fa3c 1836 1f3e 1a66 8d3d 6dab 103e
00000260: d226 593b 4431 283d ac91 863d ab9d 843e
00000270: 281b 28be d466 b2be 3be5 acbe b597 08be
00000280: 2d9f 193e cd6e c53e fc55 7c3d c00d 80bd
00000290: cd68 1f3e db68 91bd 6cd2 49bb c0c2 acbe
000002a0: 2722 18bd c65e 373e 9b78 3d3e 84b0 b73e
000002b0: 8d86 6b3e 58ef 4abe 6b0c dfbe c9a5 c43c
000002c0: a81d 17be 4972 53be f4ac 4e3e c922 ac3e
000002d0: da08 3e3e c65e 743d 9f25 913e b452 e53d
000002e0: b315 163d eb86 01bd 9441 7b3e 68b3 76be
000002f0: 5c9d 3c3d e4ab 063f d4e6 373d e25d fb3b
00000300: 515f 96bc 7fd8 95bd 6757 f8bc 6f52 033f
00000310: 27a4 c73e aa8b 153f 67b3 a03e 4c7a dd3d
00000320: d8fe 553e f04e da3d 9b26 893e cd29 163e
00000330: d7f5 b9bd 5b5c 93be 0acc 62be 3781 10bf
00000340: 0ada 73be f4d9 703e 0fa1 973e f5ec fdbe
00000350: e3e9 7c3e f621 41bd 6b7d 023e 83ee f7be
00000360: b60c 943e 4333 863e 209a b3be a1d2 c63e
00000370: 79b5 9b3e 1ea7 ac3e 9f0d 4cbf 0f6e b83d
00000380: d28d 6439 bc5c 33bf 5c76 ae3c 64d4 df3e
00000390: b045 84bd f5d4 f9be 5134 253e 98f9 d53d
000003a0: 6fdf d0be 1d63 cabd 06ac c03d 6e02 e33e
000003b0: 215f dfbe 8594 7f3e 0952 8d39 d6b6 c33d
000003c0: 5767 81be 34c8 eebd 68f6 83be 1bd7 14bd
000003d0: 0f14 a73e 1801 e93e 63a8 f13e 9971 a63e
000003e0: f5c0 613d 29f5 833e 66aa 633e b10a 9b3d
000003f0: c4d7 013e 2d90 723c 3ad3 153d 2e7b a33e

model.5.bias f4 [64]
0.017447036 -0.14446211 0.0653086 -0.21871327 0.06726762 0.12835726 -0.1677195 0.07379238
0.07863183 0.116819635 0.17875652 0.10248602 -0.16782036 0.08013859 0.08094711 -0.18833022
0.07498203 -0.18789877 0.11329017 -0.1885948 0.11146739 -0.22012964 0.033957478 -0.20394345
0.09008392 -0.1640046 -0.19514021 0.06337469 0.16559047 -0.22776595 0.13598649 0.032921903
0.06422332 -0.16664714 -0.24882029 -0.15042995 -0.1811774 -0.30893818 -0.17542598 -0.17759164
-0.17722808 -0.17798328 0.21173605 0.07680997 -0.32509938 -0.22256297 -0.17602773 -0.3899282
-0.16863763 0.08623831 0.12871356 -0.22435641 -0.20315303 0.17448156 0.09209495 -0.15445635
-0.38355902 0.07639885 0.0934308 -0.1541365 0.09711388 -0.20793249 0.048097007 -0.1988699
00000000: 16ed 8e3c e0ed 13be 84c0 853d 5ff6 5fbe
00000010: 9bc3 893d 1670 033e a9be 2bbe 7620 973d
00000020: ba09 a13d 223f ef3d f30b 373e 31e4 d13d
00000030: 1ad9 2bbe b31f a43d 99c7 a53d a3d9 40be
00000040: 2e90 993d 8968 40be ad04 e83d ff1e 41be
00000050: 0449 e43d aa69 61be ff16 0b3d 8dd6 50be
00000060: eb7d b83d d2f0 27be d6d2 47be 97ca 813d
00000070: 8c90 293e 7a3b 69be 0b40 0b3e 1ed9 063d
00000080: 8487 833d 8ca5 2abe bfca 7ebe 4f0a 1abe
00000090: 9186 39be 252d 9ebe dea2 33be 95da 35be
000000a0: 477b 35be 4041 36be 56d1 583e 8c4e 9d3d
000000b0: 6d73 a6be 8ce7 63be 9d40 34be aba4 c7be
000000c0: 58af 2cbe b69d b03d 7dcd 033e b0bd 65be
000000d0: 5907 50be 4bab 323e 479c bc3d ce29 1ebe
000000e0: d961 c4be 0077 9c3d a658 bf3d f5d5 1dbe
000000f0: a4e3 c63d 41ec 54be 5e01 453d 8da4 4bbe

model.7.weight f4 [1, 64]
-0.071238816 0.024270758 -0.02924409 0.009926937 -0.047754195 -0.04928896 0.0098126605 -0.012407088
-0.022410402 -0.020507274 -0.0813377 -0.060379013 0.011278053 -0.031685602 -0.019164352 0.001023815
-0.0410908 0.02848733 0.0010869061 -0.008034563 -0.01197017 0.0075734993 0.0071446197 0.06693412
-0.039241657 0.019625012 0.075898975 -0.026341973 -0.034791045 0.08302505 -0.07224658 -0.016744718
-0.02646517 0.012952775 0.0023667905 0.035765298 -0.0036837016 0.040662367 -0.0024661624 0.06395671
-0.0011204816 0.11751411 -0.06863602 -0.0371552 0.002040619 -0.016459087 0.002332171 0.052967504
0.009665889 -0.033452403 -0.037857607 0.020062946 0.013176382 -0.018730806 -0.020516466 -0.0059168856
0.07586275 -0.039997928 -0.057396244 -0.009880775 -0.009662929 0.008997109 0.004997488 0.032927748
00000000: a8e5 91bd 78d3 c63c 4d91 efbc 97a4 223c
00000010: e799 43bd 38e3 49bd 48c5 203c 1947 4bbc
00000020: 0596 b7bc dffe a7bc 6194 a6bd fc4f 77bd
00000030: 95c7 383c c3c8 01bd 8ffe 9cbc 8831 863a
00000040: d44e 28bd 435e e93c 8476 8e3a 66a3 03bc
00000050: 881e 44bc 1e2b f83b 6a1d ea3b c214 893d
00000060: dcbb 20bd a2c4 a03c ec70 9b3d 1fcb d7bc
00000070: 0e81 0ebd 0a09 aa3d 04f6 93bd 382c 89bc
00000080: 7ccd d8bc e037 543c 281c 1b3b a27e 123d
00000090: 426a 71bb 958d 263d 579f 21bb bcfb 823d
000000a0: 20dd 92ba 3dab f03d 0b91 8cbd 0d30 18bd
000000b0: e8bb 053b 35d5 86bc 56d7 183b 74f4 583d
000000c0: ad5d 1e3c 6305 09bd 9410 1bbd 0c5b a43c
000000d0: c0e1 573c 5971 99bc 2612 a8bc 6fe2 c1bb
000000e0: ee5d 9b3d ded4 23bd 5318 6bbd f9e2 21bc
000000f0: 4351 1ebc 9c68 133c f8c1 a33b 3fdf 063d
